saved_models/mlp/MLP_analcatdata_cyyoung8092.pth (torch, 11968 bytes, 7 tensors)

net.0.weight f4 [128, 10]
0.071714945 0.18844447 -0.3475641 -0.07967605 0.23969641 0.16010186 -0.0071559036 -0.10814685
0.06353241 0.28670797 -0.23833585 0.22173312 0.047769397 -0.30480275 0.18316948 0.014000833
0.30510285 -0.1316226 0.045235455 0.29155484 0.12628137 -0.030775603 0.06690518 0.045945954
-0.060602635 -0.042967927 0.099338576 -0.19279595 -0.0563274 0.3013948 -0.17749745 -0.27861923
0.23924747 -0.03717017 -0.24761343 -0.25671688 0.08949077 0.22258285 0.1864616 0.06978488
-0.084321484 -0.08620815 -0.11049196 -0.18396631 0.22419277 -0.20282617 0.23080984 0.14476061
-0.13080567 0.13378447 0.103155494 -0.06292233 -0.29922134 -0.061659187 0.00079791277 0.0052360734
0.15602651 -0.23714639 0.1792131 0.26978666 -0.008842915 -0.03297445 -0.1551799 -0.07914297
-0.24746585 0.21117035 -0.23767737 0.0492388 -0.07503761 -0.01891911 -0.07347344 -0.24673143
0.021407843 -0.054396957 0.20440075 0.10639027 0.11232877 -0.23226893 0.14627132 0.021483153
0.28313887 0.21893638 0.13817592 0.24205394 -0.008379331 -0.17094767 0.13105643 -0.14642143
-0.030444479 -0.24402313 0.25062135 0.2326331 -0.42220655 0.15717158 -0.13772286 0.020646598
0.21366842 -0.28631207 -0.046783984 -0.2726535 -0.004958413 0.14491247 -0.33811015 0.1438173
0.15556301 -0.032151308 0.062122487 -0.07777488 0.026444245 -0.047717083 0.17455994 0.1119631
0.4104084 -0.14830682 -0.32856712 0.18881516 0.022786494 -0.06765316 0.054013096 0.0015932408
0.2407622 0.011302879 0.13295157 -0.20563543 0.28986827 -0.116031505 -0.0037325535 -0.35326844
0.31852633 -0.058967605 0.10112574 0.0681793 0.12277922 0.2864875 -0.017299103 0.09777941
-0.22746883 0.07369898 -0.18045187 0.30863437 0.23273087 -0.19034472 -0.3597719 0.10382711
0.036974758 -0.048397377 -0.07859842 -0.31073567 -0.10272707 0.059391007 0.1106383 -0.062084526
-0.2209873 0.24969132 0.2452627 0.2501547 0.07806342 -0.20203725 0.24666522 0.124593206
-0.2872506 -0.19981414 0.07258698 -0.15252866 -0.17644 0.107963175 -0.23454773 -0.21653925
0.16728798 0.012665272 0.15630902 -0.2509213 0.31920263 -0.14893197 0.11597794 -0.22902852
0.09231653 0.045612387 -0.2872251 0.09354954 0.15152682 -0.02426418 -0.109789684 0.15097433
-0.1327489 -0.22624081 0.27392802 0.17530376 -0.14167747 -0.100269705 -0.29509908 0.2626402
-0.23944755 0.06631097 -0.28431538 -0.091945454 -0.10822168 -0.051804364 -0.1942249 0.16465497
0.14790113 -0.12159505 0.12078457 -0.14205839 0.18083954 -0.19156864 0.0167994 0.111430965
-0.23231536 -0.041695964 -0.2960312 0.10393959 -0.13334556 0.28936097 0.09300023 0.16904786
0.09279972 -0.18266141 0.2726499 -0.28683278 0.077834934 0.14893964 -0.061233893 -0.26076552
0.37978366 -0.05135068 0.2865048 -0.17302407 0.1372374 -0.13066895 -0.16250256 -0.19033206
-0.043999672 0.31330326 -0.13332494 0.10174525 0.1083135 -0.15340425 -0.21316624 -0.17360412
-0.27261114 0.07049811 -0.00076043606 -0.1710341 0.24623671 0.28052834 0.10604724 0.17019266
0.06011653 0.070319414 0.2962665 0.091087066 0.17011937 -0.12529165 0.103566386 0.20374124
00000000: 49df 923d 96f7 403e ecf3 b1be 322d a3bd
00000010: fa72 753e bef1 233e 127c eabb 187c ddbd
00000020: 481d 823d 63cb 923e 500e 74be 020e 633e
00000030: d8a9 433d 1b0f 9cbe c890 3b3e c063 653c
00000040: 7136 9c3e 13c8 06be d048 393d ad46 953e
00000050: e74f 013e 1e1d fcbc 9505 893d d331 3c3d
00000060: 783a 78bd 23ff 2fbd 0672 cb3d 4d6c 45be
00000070: 8fb7 66bd 6b50 9a3e e4c1 35be 2ea7 8ebe
00000080: 4afd 743e c03f 18bd 608e 7dbe 6570 83be
00000090: f046 b73d c2ec 633e caef 3e3e 60eb 8e3d
000000a0: beb0 acbd e68d b0bd 9c49 e2bd aa61 3cbe
000000b0: ca92 653e aab1 4fbe 6a59 6c3e 203c 143e
000000c0: ecf1 05be ccfe 083e 3043 d33d 6cdd 80bd
000000d0: 8a33 99be 588e 7cbd 052b 513a 5e93 ab3b
000000e0: 6ac5 1f3e 81d6 72be a483 373e 7a21 8a3e
000000f0: e0e1 10bc 3810 07bd 7be7 1ebe b615 a2bd
00000100: b067 7dbe 0a3d 583e b261 73be a0ae 493d
00000110: 52ad 99bd 40fc 9abc 3e79 96bd 2aa7 7cbe
00000120: 805f af3c 58cf 5ebd 6e4e 513e 24e3 d93d
00000130: a00c e63d e8d7 6dbe 26c8 153e 70fd af3c
00000140: 94f7 903e dc30 603e fd7d 0d3e fddc 773e
00000150: 7649 09bc e80c 2fbe a833 063e 80ef 15be
00000160: b366 f9bc 33e1 79be 7151 803e 5f37 6e3e
00000170: 752b d8be 96f1 203e 3907 0dbe 0e23 a93c
00000180: e5cb 5a3e 7f97 92be 90a0 3fbd 3d99 8bbe
00000190: 2f7a a2bb ef63 143e c61c adbe d844 133e
000001a0: e94b 1f3e 17b1 03bd 2674 7e3d 7048 9fbd
000001b0: 9aa1 d83c fd72 43bd d7bf 323e e94c e53d
000001c0: 0d21 d23e bedd 17be f339 a8be c358 413e
000001d0: beaa ba3c bd8d 8abd d63c 5d3d 4ad4 d03a
000001e0: 5e8a 763e b62f 393c 7524 083e 1892 52be
000001f0: 9d69 943e eda1 edbd db9d 74bb 9adf b4be
00000200: e215 a33e 0488 71bd 031b cf3d 97a1 8b3d
00000210: ac73 fb3d 7dae 923e d9b6 8dbc 9240 c83d
00000220: 97ed 68be 7eef 963d 60c8 38be 5305 9e3e
00000230: 0051 6e3e bae9 42be 0634 b8be 4fa3 d43d
00000240: d872 173d 543c 46bd 35f8 a0bd bf18 9fbe
00000250: 9262 d2bd fc43 733d 5596 e23d 584c 7ebd
00000260: 7f4a 62be 15af 7f3e 2526 7b3e 4714 803e
00000270: b7df 9f3d dae2 4ebe cf95 7c3e b92a ff3d
00000280: 8312 93be 149c 4cbe 7ca8 943d 7930 1cbe
00000290: b0ac 34be cc1b dd3d 482d 70be 77bc 5dbe
000002a0: 8a4d 2b3e 0082 4f3c 790f 203e c278 80be
000002b0: 876e a33e 9f81 18be d885 ed3d 7486 6abe
000002c0: 7310 bd3d 0ed4 3a3d 2b0f 93be e796 bf3d
000002d0: d929 1b3e acc5 c6bc 6ad9 e0bd 0499 1a3e
000002e0: 54ef 07be acab 67be 4b40 8c3e d482 333e
000002f0: e613 11be 345a cdbd 3a17 97be c778 863e
00000300: bd31 75be 0cce 873d c991 91be e64d bcbd
00000310: 54a3 ddbd d030 54bd e4e2 46be 509b 283e
00000320: 6573 173e d306 f9bd e75d f73d c177 11be
00000330: 002e 393e 922a 44be e59e 893c eb35 e43d
00000340: 14e4 6dbe 63c9 2abd 6791 97be 48de d43d
00000350: bd8b 08be 1f27 943e e876 be3d e21a 2d3e
00000360: c80d be3d 980b 3bbe c598 8b3e bfdb 92be
00000370: ec67 9f3d a283 183e 64d0 7abd 0f83 85be
00000380: 0173 c23e 1755 52bd c2b0 923e 392d 31be
00000390: f687 0c3e 15ce 05be 1267 26be 68e6 42be
000003a0: 0039 34bd 4969 a03e 5586 08be d05f d03d
000003b0: 78d3 dd3d 0116 1dbe 4048 5abe 47c5 31be
000003c0: b093 8bbe 5061 903d 0058 47ba 9023 2fbe
000003d0: 7a25 7c3e 69a1 8f3e 4c2f d93d fc46 2e3e
000003e0: c03c 763d a003 903d 3eb0 973e db8b ba3d
000003f0: c633 2e3e 744c 00be 9d1a d43d 8ba1 503e

net.0.bias f4 [128]
-0.2902258 0.19249025 -0.05605057 -0.085886866 -0.2967336 -0.27336544 0.05757332 0.12621948
-0.09805904 0.034303736 -0.32137695 0.095226705 0.3021964 0.21345475 -0.078861944 0.004901126
0.049278468 0.017280962 -0.072846636 -0.031454593 0.19135894 0.1326878 -0.11564103 0.31120786
0.25512645 -0.19591674 0.0056643263 -0.034207046 -0.3132137 0.013669109 -0.05120311 0.04933961
0.26349095 -0.12957554 -0.2900848 -0.12692088 0.22652677 -0.004330337 -0.22878665 -0.13405825
0.056031592 -0.31248152 -0.027234852 -0.13154216 0.12341112 -0.18936385 -0.033206433 -0.30256066
0.10977758 -0.13783668 -0.16437891 0.07779351 0.01293853 0.14711542 -0.2676941 -0.080610305
0.0053527653 0.2118643 -0.29682022 0.022723973 0.102223374 0.08661574 0.27306262 -0.13280302
-0.28908402 -0.31209004 0.07084903 -0.17083268 0.151075 0.29323366 0.06646655 -0.23323493
0.01859501 0.31406018 -0.27931315 -0.23228034 -0.35120764 0.25751898 -0.016140044 0.30453336
0.20815903 0.26736453 -0.054968324 -0.16276336 -0.14848505 -0.03764063 -0.30683544 0.27421394
-0.30961964 0.11542733 0.11678419 -0.07204117 0.019464433 -0.22744903 0.040846646 -0.19944768
-0.24653062 0.015469291 -0.15076503 -0.030449748 -0.14373803 0.29688776 0.1839169 -0.17290029
0.30766577 -0.27346328 0.011715125 -0.23055412 0.036407847 0.11110085 -0.22177058 0.30194876
0.26061308 -0.15112334 -0.16452435 0.0062446794 0.106609784 -0.2936359 0.057042807 -0.17078671
0.0780994 -0.3051187 -0.047619957 -0.0851804 -0.18844037 0.21247211 -0.29901838 0.27536008
00000000: 7a98 94be 2a1c 453e 4895 65bd 74e5 afbd
00000010: 77ed 97be 8ef6 8bbe 00d2 6b3d ae3f 013e
00000020: 2ed3 c8bd 1382 0c3d 858b a4be 3806 c33d
00000030: 7db9 9a3e e293 5a3e 5f82 a1bd a099 a03b
00000040: 38d8 493d ce90 8d3c 9e30 95bd 88d6 00bd
00000050: 99f3 433e 50df 073e 34d5 ecbd a356 9f3e
00000060: ef9f 823e 669e 48be d09b b93b b01c 0cbd
00000070: 8c5d a0be 66f4 5f3c 5aba 51bd 5518 4a3d
00000080: 49e8 863e 73af 04be ff85 94be 8cf7 01be
00000090: a2f6 673e 80e5 8dbb 0c47 6abe 9146 09be
000000a0: 6281 653d 94fd 9fbe a01b dfbc fdb2 06be
000000b0: f8be fc3d 99e8 41be 7803 08bd 3be9 9abe
000000c0: 11d3 e03d 0f25 0dbe f252 28be 3452 9f3d
000000d0: 21fc 533c 6da5 163e 330f 89be 0417 a5bd
000000e0: 4066 af3b f4f2 583e d2f8 97be a027 ba3c
000000f0: 7d5a d13d 9863 b13d ddce 8b3e 84fd 07be
00000100: d202 94be 44ca 9fbe 4c19 913d c3ee 2ebe
00000110: 68b3 1a3e b922 963e 9d1f 883d 23d5 6ebe
00000120: 9054 983c 7fcc a03e 2202 8fbe e6da 6dbe
00000130: 7dd1 b3be 87d9 833e 2038 84bc cceb 9b3e
00000140: a427 553e 01e4 883e 7726 61bd 70ab 26be
00000150: 770c 18be 102d 1abd 8919 9dbe c565 8c3e
00000160: 7786 9ebe 2a65 ec3d 8d2c ef3d 528a 93bd
00000170: e073 9f3c 66e8 68be d04e 273d 033c 4cbe
00000180: 8672 7cbe e972 7d3c 2662 1abe c071 f9bc
00000190: 1030 13be ac01 983e b654 3c3e c60c 31be
000001a0: 5e86 9d3e 6103 8cbe ccf0 3f3c 6116 6cbe
000001b0: 6520 153d d888 e33d d417 63be 0799 9a3e
000001c0: 146f 853e 14c0 1abe 1279 28be 2ba0 cc3b
000001d0: 3b56 da3d 7257 96be b8a5 693d b6e2 2ebe
000001e0: 94f2 9f3d 8538 9cbe 250d 43bd 1073 aebd
000001f0: 83f6 40be 4a92 593e f018 99be fffb 8c3e

net.2.weight f4 [128]
1.0158374 1.0 0.998383 1.0 1.0 0.98231643 1.0 1.0
0.9940025 0.9701519 0.95720905 0.9814681 1.0077856 0.9921018 0.9716109 1.0080291
1.0 1.0111314 1.0091344 1.0 1.0098623 1.0 1.0113771 1.0
1.0 0.96694326 0.9633038 1.0 1.0 1.0057966 0.9662975 0.97945696
1.0 0.9673663 1.0 1.1045699 1.0 1.0 1.0 0.9727255
1.1146652 1.03133 1.0 1.0 1.0 1.0342768 1.0 1.0
0.96936315 1.0013369 1.0 1.0 0.94835 0.98445624 1.0 1.0042602
1.0 0.98547375 1.0 0.9668023 0.98990345 1.0 1.0 1.0
1.0 1.0 1.0 1.0 1.0 1.0 1.005099 1.0072403
1.0 1.0 0.9863145 1.0 0.95639783 1.0 1.0 0.9696377
0.9690746 1.0 0.9643902 0.973708 1.0 1.0 0.9600526 1.0
0.9642205 0.99977267 0.9690433 0.95429 1.0 1.0 1.0 1.0113444
0.95772123 1.0072341 0.9621925 1.0 0.95888644 1.0109056 1.0 1.0189297
0.98211193 1.0 0.976743 1.0 1.0232472 1.0 1.0073801 1.0
0.9696609 0.95934737 1.0 0.9722895 1.0006053 0.9628735 1.0 1.0116413
1.0 1.0 1.0160532 0.9943785 1.0 1.0 1.0 1.0
00000000: f606 823f 0000 803f 0796 7f3f 0000 803f
00000010: 0000 803f 1779 7b3f 0000 803f 0000 803f
00000020: f376 7e3f e05b 783f a70b 753f 7e41 7b3f
00000030: 1eff 803f 62fa 7d3f 7ebb 783f 1907 813f
00000040: 0000 803f c16c 813f 512b 813f 0000 803f
00000050: 2b43 813f 0000 803f ce74 813f 0000 803f
00000060: 0000 803f 9889 773f 149b 763f 0000 803f
00000070: 0000 803f f1bd 803f 465f 773f b1bd 7a3f
00000080: 0000 803f 51a5 773f 0000 803f 8c62 8d3f
00000090: 0000 803f 0000 803f 0000 803f 8a04 793f
000000a0: 59ad 8e3f 9f02 843f 0000 803f 0000 803f
000000b0: 0000 803f 2f63 843f 0000 803f 0000 803f
000000c0: 2f28 783f cf2b 803f 0000 803f 0000 803f
000000d0: 11c7 723f 5305 7c3f 0000 803f 998b 803f
000000e0: 0000 803f 0248 7c3f 0000 803f 5b80 773f
000000f0: 506a 7d3f 0000 803f 0000 803f 0000 803f
00000100: 0000 803f 0000 803f 0000 803f 0000 803f
00000110: 0000 803f 0000 803f 16a7 803f 40ed 803f
00000120: 0000 803f 0000 803f 1b7f 7c3f 0000 803f
00000130: 7dd6 743f 0000 803f 0000 803f 2d3a 783f
00000140: 4615 783f 0000 803f 47e2 763f ed44 793f
00000150: 0000 803f 0000 803f 02c6 753f 0000 803f
00000160: 28d7 763f 1af1 7f3f 3913 783f 594c 743f
00000170: 0000 803f 0000 803f 0000 803f bc73 813f
00000180: 382d 753f 0ced 803f 3f52 763f 0000 803f
00000190: 9579 753f 5b65 813f 0000 803f 4a6c 823f
000001a0: b06b 7b3f 0000 803f d40b 7a3f 0000 803f
000001b0: c4f9 823f 0000 803f d5f1 803f 0000 803f
000001c0: b23b 783f ca97 753f 0000 803f f7e7 783f
000001d0: d613 803f e17e 763f 0000 803f 767d 813f
000001e0: 0000 803f 0000 803f 080e 823f 978f 7e3f
000001f0: 0000 803f 0000 803f 0000 803f 0000 803f

net.2.bias f4 [128]
-0.024743147 -0.020044886 -0.024975993 0.020254022 -0.009956021 -0.02534343 -0.016959125 0.019238744
0.011822189 -0.027272945 0.029917357 0.015734715 -0.02797878 -0.024920328 -0.026613168 -0.03012902
0.019210968 0.02024287 0.02073521 -0.01789574 0.019885767 -0.019625988 -0.029137043 -0.015341971
0.013180505 -0.02644594 0.01857766 -0.01978744 0.019029515 0.019698005 0.009791206 0.0179622
0.01999503 -0.013760722 -0.018535122 0.024710786 0.01878487 -0.013142212 -0.019878818 0.017752314
-0.02504786 -0.024175355 0.016780991 -0.018127287 -0.018715546 -0.024483876 0.020303497 -0.019279052
-0.0036911452 0.017508276 0.018004281 0.0052282647 -0.023655405 -0.02190585 -0.0153122395 0.020715907
-0.0157152 -0.0027972516 -0.019173441 -0.02606844 0.013844804 0.018907495 0.016765472 0.020093488
-0.02028926 -0.019971306 -0.013807469 -0.019486042 -0.018910242 -0.017741067 -0.028893761 0.018604528
0.018170666 0.018721389 -0.013135607 -0.01990045 -0.024246933 -0.014818303 0.005649248 0.016024608
0.01435649 0.020189678 -0.025937198 0.027996505 0.016916132 0.014941424 -0.00871726 -0.020269757
-0.026552565 -0.025060851 0.015302984 0.019303637 -0.019927474 -0.019685986 -0.017356247 0.017133834
0.023073332 -0.029021788 0.0090209935 -0.02020772 -0.030506965 -0.026464317 -0.020234246 0.01907258
-0.010934602 -0.016636861 0.016600305 -0.015253679 0.020073524 0.018871043 0.02011121 -0.019666085
0.017080484 -0.03100828 0.012637908 0.018438824 -0.026897492 0.018199816 -0.019457048 -0.0248553
-0.020275315 0.018672483 0.023756832 -0.024851155 -0.010539973 0.01973584 0.016653065 0.019808942
00000000: 24b2 cabc 2c35 a4bc 749a ccbc c3eb a53c
00000010: 941e 23bc 069d cfbc dded 8abc 929a 9d3c
00000020: dbb1 413c 836b dfbc 3f15 f53c 17e6 803c
00000030: c133 e5bc b725 ccbc dc03 dabc 22d1 f6bc
00000040: 5260 9d3c 60d4 a53c e3dc a93c 169a 92bc
00000050: 7ae7 a23c aec6 a0bc cfb0 eebc e45c 7bbc
00000060: 0bf3 573c 28a5 d8bc 2d30 983c 4519 a2bc
00000070: c9e3 9b3c b65d a13c 4b6b 203c 7725 933c
00000080: 9ecc a33c a774 61bc f8d6 97bc 466e ca3c
00000090: bae2 993c 6f52 57bc e7d8 a2bc 4d6d 913c
000000a0: 2b31 cdbc 650b c6bc 4a78 893c ad7f 94bc
000000b0: 5851 99bc 6992 c8bc 8553 a63c 1aef 9dbc
000000c0: 24e7 71bb 846d 8f3c b77d 933c dd51 ab3b
000000d0: fbc8 c1bc e673 b3bc 30e0 7abc 68b4 a93c
000000e0: 2abd 80bc 1852 37bb 9f11 9dbc 7b8d d5bc
000000f0: 51d5 623c e4e3 9a3c be57 893c 199b a43c
00000100: aa35 a6bc dd9a a3bc b938 62bc 31a1 9fbc
00000110: a7e9 9abc b755 91bc 9cb2 ecbc 8668 983c
00000120: a6da 943c 995d 993c bb36 57bc 4506 a3bc
00000130: 81a1 c6bc 78c8 72bc 541d b93b 0a46 833c
00000140: 7c37 6b3c d364 a53c 3f7a d4bc ed58 e53c
00000150: b393 8a3c e0cc 743c d7d2 0ebc c30c a6bc
00000160: c484 d9bc 6a4c cdbc 5eb9 7a3c a922 9e3c
00000170: f13e a3bc 8144 a1bc b02e 8ebc 415c 8c3c
00000180: 4904 bd3c 1abf edbc cacc 133c a98a a5bc
00000190: bee9 f9bc b2cb d8bc 4ac2 a5bc 193e 9c3c
000001a0: 0b27 33bc 074a 88bc 5dfd 873c 91ea 79bc
000001b0: 3b71 a43c 7297 9a3c 44c0 a43c c51a a1bc
000001c0: 5fec 8b3c 1405 febc 3a0f 4f3c 040d 973c
000001d0: 2158 dcbc c817 953c 6364 9fbc 589d cbbc
000001e0: 6b18 a6bc 09f7 983c b09d c23c a694 cbbc
000001f0: daaf 2cbc 0ead a13c 026c 883c 5d46 a23c

net.2.running_mean f4 [128]
177.00716 0.0 250.4335 0.0 0.0 260.99203 0.0 0.0
459.7061 394.23767 7.007072 301.43738 439.814 194.65363 391.8294 244.67636
0.0 242.166 227.79689 0.0 217.91193 0.0 155.18092 0.0
0.0 469.6028 134.25656 0.0 0.0 303.96344 138.75189 339.1819
0.0 49.238594 0.0 10.108778 0.0 0.0 0.0 360.87564
5.457136 61.05718 0.0 0.0 0.0 0.9199984 0.0 0.0
3.8318064 489.89426 0.0 0.0 240.07489 54.867256 0.0 8.843369
0.0 243.66025 0.0 487.7512 112.142265 0.0 0.0 0.0
0.0 0.0 0.0 0.0 0.0 0.0 350.0316 448.872
0.0 0.0 110.67279 0.0 351.70325 0.0 0.0 270.82343
408.67334 0.0 182.62604 2.7794316 0.0 0.0 502.3584 0.0
148.51224 123.37317 57.01159 20.726175 0.0 0.0 0.0 331.7313
9.054099 305.43945 306.24173 0.0 321.03656 221.26071 0.0 299.38678
155.7818 0.0 458.9633 0.0 74.787766 0.0 46.815674 0.0
163.94197 384.1919 0.0 217.74635 233.71408 36.991222 0.0 262.94595
0.0 0.0 76.88901 184.79758 0.0 0.0 0.0 0.0
00000000: d501 3143 0000 0000 fa6e 7a43 0000 0000
00000010: 0000 0000 fb7e 8243 0000 0000 0000 0000
00000020: 61da e543 6c1e c543 ef39 e040 fcb7 9643
00000030: 31e8 db43 54a7 4243 2aea c343 26ad 7443
00000040: 0000 0000 7f2a 7243 01cc 6343 0000 0000
00000050: 74e9 5943 0000 0000 512e 1b43 0000 0000
00000060: 0000 0000 29cd ea43 ae41 0643 0000 0000
00000070: 0000 0000 52fb 9743 7cc0 0a43 4897 a943
00000080: 0000 0000 52f4 4442 0000 0000 8ebd 2141
00000090: 0000 0000 0000 0000 0000 0000 1570 b443
000000a0: dca0 ae40 8d3a 7442 0000 0000 0000 0000
000000b0: 0000 0000 0485 6b3f 0000 0000 0000 0000
000000c0: 513c 7540 77f2 f443 0000 0000 0000 0000
000000d0: 2c13 7043 1278 5b42 0000 0000 707e 0d41
000000e0: 0000 0000 06a9 7343 0000 0000 27e0 f343
000000f0: d748 e042 0000 0000 0000 0000 0000 0000
00000100: 0000 0000 0000 0000 0000 0000 0000 0000
00000110: 0000 0000 0000 0000 0b04 af43 9e6f e043
00000120: 0000 0000 0000 0000 7858 dd42 0000 0000
00000130: 04da af43 0000 0000 0000 0000 6669 8743
00000140: 3056 cc43 0000 0000 44a0 3643 35e2 3140
00000150: 0000 0000 0000 0000 e02d fb43 0000 0000
00000160: 2283 1443 10bf f642 de0b 6442 35cf a541
00000170: 0000 0000 0000 0000 0000 0000 9bdd a543
00000180: 97dd 1041 40b8 9843 f11e 9943 0000 0000
00000190: ae84 a043 be42 5d43 0000 0000 82b1 9543
000001a0: 24c8 1b43 0000 0000 4d7b e543 0000 0000
000001b0: 5693 9542 0000 0000 4043 3b42 0000 0000
000001c0: 25f1 2343 9018 c043 0000 0000 11bf 5943
000001d0: ceb6 6943 03f7 1342 0000 0000 1579 8343
000001e0: 0000 0000 0000 0000 2cc7 9942 2ecc 3843
000001f0: 0000 0000 0000 0000 0000 0000 0000 0000

net.2.running_var f4 [128]
865.96857 0.16677174 386.71524 0.16677174 0.16677174 957.2689 0.16677174 0.16677174
499.46695 890.3574 6.772658 18.391104 275.80045 427.22485 27.770845 636.61646
0.16677174 129.28352 443.01474 0.16677174 230.46968 0.16677174 59.895905 0.16677174
0.16677174 278.50137 1178.384 0.16677174 0.16677174 70.75751 117.59923 315.67188
0.16677174 512.35547 0.16677174 125.34284 0.16677174 0.16677174 0.16677174 64.26627
61.718945 894.4612 0.16677174 0.16677174 0.16677174 9.337288 0.16677174 0.16677174
45.16512 57.43778 0.16677174 0.16677174 1468.766 78.82734 0.16677174 104.17444
0.16677174 53.697296 0.16677174 54.376656 49.096725 0.16677174 0.16677174 0.16677174
0.16677174 0.16677174 0.16677174 0.16677174 0.16677174 0.16677174 382.71207 117.38293
0.16677174 0.16677174 932.1062 0.16677174 133.42824 0.16677174 0.16677174 1130.0352
441.86975 0.16677174 512.4066 55.539486 0.16677174 0.16677174 343.1214 0.16677174
130.30914 295.2502 149.24486 308.57504 0.16677174 0.16677174 0.16677174 291.3736
44.14133 475.42203 723.6437 0.16677174 223.58417 971.92615 0.16677174 880.76935
350.13916 0.16677174 595.0703 0.16677174 34.39998 0.16677174 103.57828 0.16677174
245.60898 798.94684 0.16677174 25.726269 985.65247 685.4876 0.16677174 421.05212
0.16677174 0.16677174 1490.3798 79.11737 0.16677174 0.16677174 0.16677174 0.16677174
00000000: fd7d 5844 36c6 2a3e 8d5b c143 36c6 2a3e
00000010: 36c6 2a3e 3651 6f44 36c6 2a3e 36c6 2a3e
00000020: c5bb f943 e096 5e44 9db9 d840 fb20 9341
00000030: 75e6 8943 c89c d543 b12a de41 7427 1f44
00000040: 36c6 2a3e 9548 0143 e381 dd43 36c6 2a3e
00000050: 3d78 6643 36c6 2a3e 6895 6f42 36c6 2a3e
00000060: 36c6 2a3e 2d40 8b43 4a4c 9344 36c6 2a3e
00000070: 36c6 2a3e d883 8d42 ce32 eb42 00d6 9d43
00000080: 36c6 2a3e c016 0044 36c6 2a3e 89af fa42
00000090: 36c6 2a3e 36c6 2a3e 36c6 2a3e 5588 8042
000000a0: 33e0 7642 849d 5f44 36c6 2a3e 36c6 2a3e
000000b0: 36c6 2a3e 8865 1541 36c6 2a3e 36c6 2a3e
000000c0: 15a9 3442 49c0 6542 36c6 2a3e 36c6 2a3e
000000d0: 8398 b744 99a7 9d42 36c6 2a3e 5059 d042
000000e0: 36c6 2a3e 08ca 5642 36c6 2a3e b281 5942
000000f0: 0c63 4442 36c6 2a3e 36c6 2a3e 36c6 2a3e
00000100: 36c6 2a3e 36c6 2a3e 36c6 2a3e 36c6 2a3e
00000110: 36c6 2a3e 36c6 2a3e 255b bf43 0fc4 ea42
00000120: 36c6 2a3e 36c6 2a3e cc06 6944 36c6 2a3e
00000130: a16d 0543 36c6 2a3e 36c6 2a3e 2041 8d44
00000140: 54ef dc43 36c6 2a3e 061a 0044 6f28 5e42
00000150: 36c6 2a3e 36c6 2a3e 8a8f ab43 36c6 2a3e
00000160: 244f 0243 07a0 9343 af3e 1543 9b49 9a43
00000170: 36c6 2a3e 36c6 2a3e 36c6 2a3e d2af 9143
00000180: b990 3042 05b6 ed43 32e9 3444 36c6 2a3e
00000190: 8c95 5f43 46fb 7244 36c6 2a3e 3d31 5c44
000001a0: d011 af43 36c6 2a3e 80c4 1444 36c6 2a3e
000001b0: 9499 0942 36c6 2a3e 1428 cf42 36c6 2a3e
000001c0: e69b 7543 99bc 4744 36c6 2a3e 66cf cd41
000001d0: c269 7644 355f 2b44 36c6 2a3e ac86 d243
000001e0: 36c6 2a3e 36c6 2a3e 274c ba44 183c 9e42
000001f0: 36c6 2a3e 36c6 2a3e 36c6 2a3e 36c6 2a3e

net.3.weight f4 [1, 128]
0.095951065 0.0858916 0.07836427 -0.094528064 0.01039167 0.007603408 0.034107972 -0.06296238
-0.009610751 0.02817108 0.010788959 -0.028613647 0.041850682 0.07131531 0.033626646 0.026799401
-0.06237215 -0.08682341 -0.09140465 0.04253905 -0.064476654 0.07237301 0.039168548 0.024663392
-0.017036358 0.03683905 -0.03907431 0.07708968 -0.058747567 -0.07409622 0.008069829 -0.046281055
-0.084044665 -0.0017225421 0.05054956 -0.13490239 -0.0544201 0.016931774 0.08001553 -0.042013887
0.10626756 0.11722307 -0.032812025 0.045172133 0.05329436 0.07938856 -0.09681352 0.063836314
0.010742371 -0.039343506 -0.043740083 -0.0051222267 0.027658328 0.03609285 0.024528533 -0.015824981
0.026453268 -0.0027630606 0.061590027 0.04059119 -0.019896274 -0.056515723 -0.032703098 -0.087763675
0.09614316 0.083192624 0.018872809 0.06869332 0.05656475 0.040921558 0.032743096 -0.04798255
-0.04569652 -0.053387985 0.012399682 0.08073705 0.010002694 0.0224369 -0.005473146 -0.026167039
-0.019446826 -0.0917042 0.0056729056 -0.015840568 -0.033787798 -0.022933388 0.0011558734 0.0952431
0.016625348 0.07375087 -0.0019412662 -0.03984718 0.08165848 0.074061796 0.03731347 -0.03316679
-0.0238296 0.03341561 -0.0025070927 0.09248076 0.0027330236 0.051000398 0.093641885 -0.046767715
-0.011382497 0.03182013 -0.035058077 0.024266072 -0.08242857 -0.05587821 -0.048236694 0.07349435
-0.030951181 0.0023448863 -0.015627492 -0.049010407 0.03855697 -0.026716715 0.0679727 0.09433179
0.095498055 -0.052615754 -0.024274802 0.08388635 0.011337962 -0.075522415 -0.031929273 -0.077759065
00000000: fe81 c43d efe7 af3d 727d a03d ee97 c1bd
00000010: d341 2a3c 0226 f93b cdb4 0b3d 6cf2 80bd
00000020: 6976 1dbc 09c7 e63c 2dc4 303c 2b67 eabc
00000030: 9f6b 2b3d c30d 923d 18bc 093d 6b8a db3c
00000040: f179 7fbd 79d0 b1bd 5c32 bbbd 6d3d 2e3d
00000050: 560c 84bd 4d38 943d 336f 203d e20a ca3c
00000060: d58f 8bbc 8be4 163d 620c 20bd 32e1 9d3d
00000070: 4aa1 70bd c2bf 97bd 5137 043c 3491 3dbd
00000080: 9c1f acbd ecc6 e1ba 0e0d 4f3d da23 0abe
00000090: 9ce7 5ebd 81b4 8a3c 2fdf a33d c116 2cbd
000000a0: cea2 d93d a612 f03d e765 06bd 6a06 393d
000000b0: 304b 5a3d 7896 a23d 2b46 c6bd 9dbc 823d
000000c0: c500 303c a826 21bd cd28 33bd 5ad8 a7bb
000000d0: b893 e23c 19d6 133d 10f0 c83c 64a3 81bc
000000e0: 86b4 d83c 7714 35bb d345 7c3d f342 263d
000000f0: 83fd a2bc 087d 67bd aff3 05bd 71bd b3bd
00000100: b4e6 c43d e560 aa3d 269b 9a3c 15af 8c3d
00000110: 70b0 673d 5d9d 273d a01d 063d 5a89 44bd
00000120: 462c 3bbd 5cad 5abd 0928 4b3c 7759 a53d
00000130: 57e2 233c 97cd b73c 1458 b3bb 425c d6bc
00000140: f34e 9fbc 69cf bbbd c8e3 b93b 14c4 81bc
00000150: 1365 0abd cdde bbbc ad80 973a d00e c33d
00000160: e231 883c b20a 973d 1672 feba cc36 23bd
00000170: 903c a73d b6ad 973d 02d6 183d e6d9 07bd
00000180: 4b36 c3bc cfde 083d 094e 24bb 8d66 bd3d
00000190: 871c 333b cbe5 503d 51c7 bf3d 818f 3fbd
000001a0: a77d 3abc d355 023d 0f99 0fbd a4c9 c63c
000001b0: 4fd0 a8bd 8de0 64bd d793 45bd 3584 963d
000001c0: 558d fdbc aaac 193b 3a05 80bc 23bf 48bd
000001d0: eaed 1d3d 03dd dabc 4535 8b3d 0731 c13d
000001e0: 7c94 c33d 9e83 57bd f3db c6bc 9bcc ab3d
000001f0: dcc2 393c 7fab 9abd 45c8 02bd 2540 9fbd
