saved_models/mlp/MLP_analcatdata_fraud.pth (torch, 12338 bytes, 7 tensors)

net.0.weight f4 [128, 11]
000000 3c a0 c2 bb 8e 8a 1e be 4b 2b 2a 3e 6f 13 5f 3e
       -0.0059395116 -0.15482542 0.16618077 0.21784757
000010 51 45 24 be 87 e2 84 3e 83 24 92 3e 46 c3 72 be
       -0.16042067 0.25954077 0.2854348 -0.23707303
000020 a0 3b 80 be 46 da 8e be 03 39 8d be b6 43 8f 3e
       -0.2504549 -0.27900904 -0.2758256 0.27981347
000030 5f 11 6b be e2 ea 08 3e 3c ec 69 be 78 0e d4 3c
       -0.22955845 0.1337085 -0.22844023 0.025885805
000040 6b 1d 80 3e f5 6b 0c bd 1d 5c 96 3e 2e ea be 3c
       0.25022444 -0.034282643 0.29367152 0.023305025
000050 4b 9e 81 3e 9d e5 0d be 87 15 05 be 60 9f f9 3d
       0.2531608 -0.13857122 -0.12996493 0.121886015
000060 8e 57 8d 3e b9 6a 16 be 8d 24 20 3e 75 ea 0c 3e
       0.2760586 -0.14689149 0.15638943 0.13761313
000070 90 15 cb bd 78 99 5e 3e 77 4b 27 bd 01 96 7e 3e
       -0.09916222 0.21738231 -0.040843453 0.2486191
000080 7a 5f 8a be bf 65 72 3e 67 8c 62 3e f3 49 e5 bd
       -0.27025968 0.23671626 0.22123872 -0.11195745
000090 dc 97 22 be f1 1f 60 3e 7f d4 66 3e cd 7c 52 3e
       -0.15878242 0.21887185 0.22541998 0.2055542
0000a0 a4 57 41 3e 8e 32 53 3e 40 57 3f bd 89 cf cd 3c
       0.18881088 0.20624754 -0.046714067 0.025123375
0000b0 f5 fc cf bd a0 e9 d7 bd 83 b4 86 be 37 73 98 bd
       -0.101556696 -0.10542607 -0.26309595 -0.074438505
0000c0 a3 b5 64 3e 8a e5 70 3e 6c 26 3c bc 91 8b 67 3e
       0.22334914 0.23525062 -0.01148377 0.22611834
0000d0 e1 a4 97 be ab cf 9a bd 20 b7 9f 3d 39 67 38 3e
       -0.2961798 -0.07559141 0.077986 0.18008126
0000e0 8b 96 93 bd 24 33 83 be fc dd 7e be 3b 39 24 3e
       -0.07206448 -0.25624955 -0.24889368 0.16037457
0000f0 ae 29 82 bb 3d b4 42 3d 3f ba 1e 3e 81 fe 4c 3c
       -0.0039722538 0.04753517 0.15500735 0.01251185
000100 af 0f f8 bd d0 d6 7a 3d cf bf f0 3d 80 7b 98 bc
       -0.121123664 0.061240017 0.117553346 -0.018613577
000110 f9 84 5e be 43 ef 02 3d fb 8a f8 bc af 4d 06 3e
       -0.21730413 0.03196646 -0.030339709 0.13115571
000120 48 8d 3d be df 5f 3e be 02 e7 54 bd 3b a3 87 be
       -0.18510926 -0.1859126 -0.05197812 -0.26491722
000130 5a 38 11 be 39 2b 21 3e 05 a2 e0 bd 4d bb 81 be
       -0.14181653 0.15739144 -0.10968403 -0.25338212
000140 d8 c6 66 3e 8f 0b 6d 3d 67 bf b1 bb 69 a3 ad bd
       0.2253679 0.05787235 -0.0054244283 -0.08478434
000150 74 e2 38 3d 64 db c1 3d 9e 92 b9 3d 71 88 90 be
       0.045137838 0.094656736 0.09061168 -0.28229097
000160 dd 41 49 be e0 e9 b7 bc 06 c1 47 3d 63 59 8c be
       -0.19654031 -0.022450387 0.048768066 -0.27411947
000170 4c 3f 80 3e 18 78 23 be 66 14 2b 3e 69 1a 6c bd
       0.25048292 -0.15963781 0.16707 -0.057642374
000180 70 0b 40 3e bc 45 8b bd 0a c3 0a be c0 72 84 bc
       0.18754363 -0.0680041 -0.13550964 -0.016167998
000190 78 66 04 bd f0 62 50 be 5d bf 89 be d8 a3 c1 3d
       -0.032324284 -0.20350242 -0.2690381 0.09455079
0001a0 b0 a2 1f bd 80 82 73 be 5e 05 8e bd dc 90 33 3e
       -0.03897351 -0.2378025 -0.069346175 0.17535728
0001b0 74 b1 27 3e 80 54 1e bc 90 02 24 3d a2 2f 83 3e
       0.16376287 -0.009663701 0.040041506 0.25622278
0001c0 80 e0 34 3b 3c 36 8b be a8 80 b9 3d 5c eb 58 be
       0.0027599633 -0.27189815 0.09057742 -0.21183532
0001d0 a0 b3 1b bd 94 eb b4 3d e8 f5 47 3d d0 2d ff 3d
       -0.0380131 0.088339955 0.0488185 0.1245991
0001e0 1e 8a 26 be d1 43 75 bb 40 4c c3 bd 1e 81 69 be
       -0.16263625 -0.0037424455 -0.09536028 -0.2280316
0001f0 e3 96 97 be 21 21 17 3d bf 16 4a 3e f9 28 92 3e
       -0.29607305 0.03689683 0.1973524 0.28546885
000200 27 1a 0e bc 09 93 22 be aa cc 52 3e 20 ca f8 3d
       -0.008673227 -0.15876402 0.20585886 0.12147927
000210 68 ff 0d be 74 e7 40 be 46 d1 d2 bd d1 cd 5a be
       -0.13866961 -0.18838292 -0.10293822 -0.21367575
000220 e5 02 5f 3d c8 cb 33 3e f6 88 fe 3d 5a e2 5b be
       0.05444612 0.17558205 0.12428467 -0.21473065
000230 63 ec 92 3e 01 d0 76 3d 95 5f 24 be 21 7a 71 be
       0.28695974 0.06025696 -0.16052087 -0.23581745
000240 5f ae 03 be a4 c2 12 be c9 11 50 3e 90 56 97 be
       -0.12859486 -0.14332062 0.20319284 -0.2955823
000250 cd 91 4f 3e 01 03 09 3e 37 31 d4 bd b1 e9 1b 3e
       0.20270462 0.13380052 -0.103609495 0.15225865
000260 33 14 11 3e 89 df 9d bb 6c de 5b 3e 1e fc 00 be
       0.14167862 -0.004817907 0.21471566 -0.12596175
000270 b0 2e 92 3d 28 c7 18 bd 80 12 d0 bb 60 10 1c bd
       0.07137811 -0.037299305 -0.0063498616 -0.038101554
000280 a4 ff ab 3d d6 56 2a 3e 30 83 e4 3d 5a b3 2e 3e
       0.08398369 0.16634688 0.111578345 0.17060605
000290 44 f5 6b be c2 0c b7 bd de 4d 8b be 4a e8 81 3e
       -0.2304278 -0.0893798 -0.27207845 0.25372535
0002a0 d8 6a 64 3d 7c 87 8b be 9a d6 8b be 9e 30 d9 bd
       0.055765957 -0.27251804 -0.27312165 -0.10604976
0002b0 c0 da ca bd 1e 22 21 be 83 fb 24 be 08 12 48 be
       -0.099050045 -0.15735671 -0.16111569 -0.19538128
0002c0 4b e7 9a 3e ca 18 58 3d 13 79 82 be e4 25 93 3e
       0.30254588 0.052758016 -0.25482997 0.28739846
0002d0 27 1d 4a 3e 2e 5f 2a be 28 19 98 be 04 56 64 3e
       0.19737683 -0.1663787 -0.29706693 0.22298437
0002e0 5c 81 0c 3e ab 6c ca 3d 5f 99 7a be 63 ac 37 be
       0.13721222 0.09884008 -0.24472569 -0.17936854
0002f0 8a da 69 be 4c a9 63 be 8d 4c 39 3e cc 99 45 3e
       -0.22837272 -0.2223255 0.18095608 0.1929695
000300 09 9e 62 be 05 05 b5 3d fd a9 f1 3d eb e3 63 3e
       -0.22130598 0.08838848 0.11800001 0.22254913
000310 4c a9 81 3d fe 0d 7c be bc bb 36 be dd 12 37 3e
       0.06331119 -0.24614713 -0.17845052 0.1787829
000320 c3 80 8c be 96 5c 2d bd 8d 93 b5 3d 2b 7c 88 3e
       -0.27441987 -0.042324625 0.08866034 0.26657233
000330 cd aa 97 3d ad c9 ab bc f1 b7 3f be e6 bb 08 3e
       0.074056245 -0.02097019 -0.18722512 0.13352928
000340 71 58 89 be 83 4d 6e 3e 7c 20 82 be 26 73 90 be
       -0.26825288 0.23271756 -0.2541541 -0.2821285
000350 3f 90 20 3e 9c f7 62 3c 14 82 f8 3d 5f 23 35 3d
       0.15680026 0.01385298 0.121341854 0.044223186
000360 c8 04 63 be b5 ee 88 be a8 1b 86 3d 4d ee 98 be
       -0.22169793 -0.2674462 0.06548244 -0.2986931
000370 bf 33 48 be dc 4b 1c 3e a6 79 84 be be 4b 81 3e
       -0.1955099 0.15263313 -0.2587406 0.252531
000380 28 24 36 3e 96 ca 76 be c0 e0 68 bc 36 41 15 3e
       0.1778723 -0.24100718 -0.014213741 0.14575657
000390 c0 d7 62 bc 98 67 6b 3e 48 c0 85 be 43 ae 80 be
       -0.013845384 0.22988737 -0.2612326 -0.2513295
0003a0 bf f0 f9 3d 9c 29 4c 3c a5 9a 96 3e 5c 1c 97 be
       0.12204122 0.012461092 0.2941486 -0.29513824
0003b0 7e 7b 1d 3e 35 b5 8d 3e 7b fb 3c be fa 91 1e 3c
       0.1537914 0.27677312 -0.18455307 0.009678358
0003c0 59 9c 7b 3e 0d 53 a1 3e b3 09 2d be 60 6e 37 be
       0.2457136 0.31508675 -0.16898231 -0.17913198
0003d0 70 a8 45 be 4a a6 86 bd 91 15 9d 3e 1e 49 90 be
       -0.19302535 -0.06574686 0.30680516 -0.28180784
0003e0 a2 9d 05 bd 5f 90 63 3e d0 37 40 3e 44 c0 6d 3e
       -0.032621033 0.22223042 0.18771291 0.23217875
0003f0 7f 12 75 3e eb 42 a5 bc 18 06 22 be 79 44 8f 3e
       0.23932837 -0.02017351 -0.15822637 0.27981928

net.0.bias f4 [128]
000000 c7 ae c7 3c fe e7 bf bc 03 04 99 3c d0 1a 41 bd
       0.024375333 -0.023426052 0.01867867 -0.04714471
000010 f2 5c 28 be 3a 4a 4a 3e 9a cb 3b 3e 64 ab 01 3e
       -0.16441706 0.19754878 0.18339387 0.12663037
000020 e3 b3 d7 3c 83 b2 8c be 02 a1 44 be 51 9c a7 bd
       0.026330894 -0.27479944 -0.19202045 -0.08184112
000030 29 2b 81 bd 92 41 03 be c8 87 cb bd bc 9d 89 be
       -0.0630706 -0.12817982 -0.099380076 -0.26878154
000040 cf 83 03 3e 14 9f 95 3c e2 10 29 3e c7 19 54 3e
       0.1284325 0.01826433 0.16510347 0.20712958
000050 e0 f3 96 be 7f 96 70 3e b7 82 01 3e e7 ee 85 3e
       -0.29482937 0.2349491 0.1264752 0.2615883
000060 d7 47 71 be 66 51 89 3e e6 26 30 3d 4d 24 40 be
       -0.23562561 0.26819915 0.043005846 -0.18763848
000070 ed 00 dd 3d 9d 26 56 3e 62 83 e9 3d bb 17 67 be
       0.10791192 0.20913167 0.114020124 -0.22567646
000080 43 f6 7c be c6 1c 83 3e 2a a4 0c 3e 1c cb 3f 3d
       -0.24703316 0.2560789 0.13734499 0.04682456
000090 74 88 49 be 1c 6c 36 be 4e 04 14 be 5b a3 33 3e
       -0.19680959 -0.17814678 -0.14454767 0.17542784
0000a0 b3 f4 46 3e c0 10 3d be d8 6f 2b 3d 94 12 79 3e
       0.19429283 -0.18463421 0.04185471 0.24323493
0000b0 72 84 d2 bd 1b 46 81 be 47 bd 9d bd e2 75 e4 bc
       -0.10279168 -0.252488 -0.077021174 -0.027888242
0000c0 50 89 a2 bc da 08 1b be 3a 29 83 3e 1b 25 35 bd
       -0.019840866 -0.15140095 0.2561739 -0.04422484
0000d0 0c b1 45 be 7b 5d 47 3e 5c 00 24 3e a4 49 37 bd
       -0.1930582 0.19469254 0.16015762 -0.044747964
0000e0 0e 67 54 be 75 17 f6 bd 0e c0 94 3e c3 b9 31 bd
       -0.20742437 -0.12016193 0.29052776 -0.043390047
0000f0 2a e6 5b be 44 05 0e 3d 30 4a 80 bc 1a e6 11 be
       -0.2147452 0.03467299 -0.015660375 -0.14247933
000100 29 8b 3f 3b 7a fd 93 3e 02 a3 82 bd 80 9a 0e 3e
       0.0029227233 0.28904325 -0.063787475 0.13926125
000110 e3 4f 5f 3d 64 3e c4 bd a4 63 2f 3e f3 44 34 be
       0.054519545 -0.095822126 0.17127854 -0.17604427
000120 01 a9 40 3e e6 4e 1e 3e 26 e5 fe bc 6f e6 38 bb
       0.1881447 0.15459785 -0.031115126 -0.002821352
000130 d1 5f 49 be 45 aa 7f 3e ed 89 54 be 5e b1 40 bd
       -0.19665457 0.24967296 -0.2075574 -0.04704415
000140 e6 1d 23 be a8 ba 43 bd 08 2b 81 be 41 46 8c 3e
       -0.15929374 -0.04778543 -0.25228143 0.2739735
000150 e3 51 c8 bb d6 80 08 be 01 e1 1a 3d aa 86 72 3e
       -0.0061132773 -0.13330397 0.037812237 0.23684183
000160 d5 bc 7b 3e a0 3d 32 be f5 66 92 be 93 5d 9f 3d
       0.24583752 -0.1740632 -0.28594175 0.0778152
000170 fc d9 63 3e 47 22 4c be b1 5f 91 be 14 b2 45 3e
       0.22251123 -0.19934951 -0.2839332 0.19306213
000180 3b 29 4f be f0 1d 78 bc 45 f5 0c 3e 77 e6 a1 bd
       -0.20230572 -0.015143856 0.13765438 -0.07905286
000190 be f1 50 bd ed 25 70 3e 86 b6 93 be 87 bf c7 3d
       -0.051011793 0.23451968 -0.28850192 0.09753328
0001a0 11 6b 6a be 54 34 75 3e 3c 72 78 be 4f 85 2b 3e
       -0.22892405 0.23945743 -0.24262327 0.16750072
0001b0 30 55 3c 3e c0 d6 90 be cb b5 3c bd 26 82 84 3e
       0.18391871 -0.2828884 -0.04607181 0.25880545
0001c0 fd ed 34 be 93 e4 52 3e 34 1f 94 3e d9 6f 9b 3b
       -0.1766891 0.20595007 0.28930056 0.004743558
0001d0 a5 e3 2a 3e 42 3a bc 3b 41 5b 33 3e 79 ac df 3d
       0.16688402 0.0057442496 0.1751528 0.109215684
0001e0 da 55 eb bd b8 64 1a 3e 01 ab 19 be e3 cd ce bd
       -0.11490984 0.15077484 -0.15006639 -0.100978635
0001f0 b4 3b 0d 3d 86 6f 04 be 70 46 22 be d3 d5 a1 3c
       0.034480765 -0.12933168 -0.15847182 0.01975528

net.2.weight f4 [128]
000000 8d 94 7c 3f a8 05 82 3f 23 e7 81 3f da 96 7e 3f
       0.9866417 1.0157976 1.0148662 0.9944893
000010 88 8b 7f 3f 72 94 81 3f 61 2c 7d 3f 8b 43 7e 3f
       0.9982228 1.0123427 0.9889584 0.9932181
000020 99 54 7e 3f 00 00 80 3f 00 00 80 3f 4a ba 81 3f
       0.99347836 1.0 1.0 1.0134976
000030 0c 4a 80 3f 90 ee 80 3f 00 00 80 3f 00 00 80 3f
       1.0022597 1.0072803 1.0 1.0
000040 9a 74 7e 3f a2 cb 7f 3f 60 06 7c 3f d7 03 7c 3f
       0.9939667 0.99920094 0.9844723 0.9844336
000050 00 00 80 3f 5d 70 82 3f b1 f2 7a 3f b4 b2 7c 3f
       1.0 1.019054 0.9802657 0.9871018
000060 c9 fd 7a 3f d9 f8 80 3f 3e 65 80 3f 5c ac 80 3f
       0.98043495 1.0075942 1.0030897 1.00526
000070 fc 8a 81 3f ea 91 80 3f 0e aa 7c 3f d5 fc 81 3f
       1.012054 1.004453 0.9869698 1.0155283
000080 21 e9 7c 3f 07 71 83 3f 86 ad 81 3f d3 dd 82 3f
       0.98793226 1.0268868 1.013108 1.0223945
000090 00 00 80 3f c6 0c 7d 3f 12 b3 7b 3f b9 49 82 3f
       1.0 0.98847616 0.98320115 1.0178748
0000a0 21 ec 82 3f 00 00 80 3f 00 00 80 3f 98 82 7b 3f
       1.0228311 1.0 1.0 0.98246145
0000b0 6a cc 7c 3f f2 0d 81 3f 31 07 80 3f 4e b8 80 3f
       0.9874941 1.0082381 1.0002195 1.0056245
0000c0 5a 7d 81 3f 2a 58 7f 3f d5 b5 7c 3f 90 84 81 3f
       1.0116379 0.997439 0.98714954 1.011858
0000d0 00 00 80 3f 27 d2 82 3f 00 00 80 3f a0 11 82 3f
       1.0 1.0220383 1.0 1.0161629
0000e0 e3 b4 7d 3f f3 e9 81 3f e7 0c 81 3f a0 18 81 3f
       0.99104136 1.0149521 1.0082062 1.008564
0000f0 56 1f 7d 3f b2 e3 82 3f 00 00 80 3f 6a 78 7f 3f
       0.9887594 1.0225737 1.0 0.9979311
000100 c6 8f 7d 3f 71 d3 7c 3f 81 a6 7b 3f c5 f4 81 3f
       0.99047506 0.98760134 0.9830094 1.0152823
000110 ed 4e 83 3f 98 72 81 3f c4 72 7a 3f 1b 0d 81 3f
       1.0258461 1.0113096 0.9783137 1.0082124
000120 33 e3 7e 3f ea d1 7d 3f 3b a6 80 3f 7e bb 80 3f
       0.9956543 0.9914843 1.005073 1.0057218
000130 00 00 80 3f cb 65 7e 3f 46 e4 7d 3f c2 9a 80 3f
       1.0 0.99374074 0.9917644 1.0047228
000140 eb ca 7e 3f 00 00 80 3f dc d0 80 3f d6 75 7c 3f
       0.9952838 1.0 1.0063739 0.98617303
000150 88 c8 82 3f db 21 7d 3f 58 91 82 3f 49 24 83 3f
       1.0217447 0.98879784 1.0200605 1.0245448
000160 8e c0 7e 3f 00 00 80 3f 00 00 80 3f 4a f0 81 3f
       0.99512565 1.0 1.0 1.0151455
000170 f7 4c 82 3f 52 8a 7e 3f ae 66 7d 3f ec 57 7d 3f
       1.0179738 0.9942981 0.989848 0.98962283
000180 dc 78 7d 3f a8 42 7e 3f 3f 47 7d 3f 87 8f 7f 3f
       0.9901254 0.9932046 0.9893684 0.9982838
000190 7b ea 82 3f c6 f5 7d 3f 00 00 80 3f ee 80 7c 3f
       1.0227808 0.99203146 1.0 0.9863423
0001a0 c7 a7 82 3f 9c 73 80 3f 9b c8 81 3f ee 92 7e 3f
       1.0207452 1.0035281 1.0139345 0.99442947
0001b0 17 e0 80 3f 99 d1 7b 3f 5c 3e 81 3f cf 05 7b 3f
       1.0068387 0.98366696 1.0097156 0.9805574
0001c0 8d 2e 80 3f 46 cd 7c 3f f2 df 82 3f 86 66 7e 3f
       1.0014206 0.9875072 1.0224593 0.9937519
0001d0 9b 4c 80 3f 31 bc 82 3f bd e6 80 3f cb 71 7b 3f
       1.0023378 1.0213681 1.0070416 0.9822051
0001e0 00 00 80 3f 34 c1 7d 3f 92 cc 80 3f d0 aa 7c 3f
       1.0 0.9912293 1.006243 0.9869814
0001f0 21 10 80 3f 42 b6 7a 3f ca 37 7e 3f 45 0b 81 3f
       1.0004922 0.97934353 0.9930388 1.0081564

net.2.bias f4 [128]
000000 ac b2 aa 3c 57 f5 b8 bc 94 37 ba bc 59 2d b1 3c
       0.02083715 -0.022577925 -0.02273158 0.021628069
000010 2c dc b2 bc b0 04 c1 3c 83 3a aa 3c 6b 78 ac 3c
       -0.021833502 0.023561805 0.020779854 0.021053514
000020 82 ca af 3c 2a 18 bc bc 56 8c bc 3c c7 de be 3c
       0.021458868 -0.022960741 0.023016136 0.023299588
000030 da ed b5 3c 3d 40 b7 3c 44 37 b9 3c c9 97 bd bc
       0.022208143 0.022369498 0.02260936 -0.023143666
000040 79 ff ae 3c 25 a6 b4 bc 57 9f ae 3c 77 8f ae 3c
       0.021362053 -0.02205188 0.021316214 0.021308644
000050 db a5 bc bc 02 df b9 3c 90 67 a5 bc 1b 02 af bc
       -0.023028305 0.022689346 -0.020190984 -0.021363309
000060 11 f0 ad bc 27 59 b7 bc 6e c7 bb bc 74 5a bb bc
       -0.021232637 -0.022381378 -0.022922244 -0.02287028
000070 aa f5 bd 3c 5f fa b9 bc ce 98 8a bc 8a 97 b8 3c
       0.02318843 -0.022702394 -0.016918566 0.022533197
000080 e2 5c b0 bc 34 13 c4 3c b1 dc ce bc fa 7f bc 3c
       -0.021528665 0.023934938 -0.025251718 0.023010243
000090 82 1c c3 bc 11 f7 a5 bc 18 95 ac bc 09 a6 b8 3c
       -0.023817305 -0.020259412 -0.021067187 0.02254011
0000a0 2c 29 bb 3c 34 7b ba bc 27 d1 bd 3c 53 0d aa bc
       0.02284678 -0.022763826 0.02317102 -0.020758307
0000b0 d1 40 9e bc 9d 05 bc bc 26 ec b4 3c 40 33 b6 3c
       -0.019318016 -0.022951895 0.02208526 0.022241235
0000c0 27 0a be bc ae c8 b3 3c 9d 9b ab 3c 6e c9 be bc
       -0.0231982 0.021946277 0.020948226 -0.023289409
0000d0 72 1d bd 3c 45 c0 bd 3c 75 2c ba bc 07 a2 d0 bc
       0.02308533 0.02316297 -0.022726277 -0.025467886
0000e0 d1 89 af bc 47 01 cd 3c 59 eb bd bc 49 65 ba 3c
       -0.02142802 0.025025023 -0.023183512 0.022753375
0000f0 45 2d b0 3c 76 8b bf 3c c9 08 ba bc 27 2b b3 3c
       0.021505961 0.02338193 -0.022709267 0.021871163
000100 6f cd aa 3c c1 70 af 3c 8f dc 9d bc ea 52 be bc
       0.020849911 0.02141607 -0.01927021 -0.023232896
000110 67 65 cc 3c e7 af b9 3c 44 f5 a5 bc 76 04 b7 3c
       0.024950696 0.022666885 -0.020258553 0.022340994
000120 71 f4 b2 3c 7c 6e 4f 3c 64 50 b7 3c 6a 84 f6 3b
       0.021845074 0.012660619 0.0223772 0.007523109
000130 86 d7 bf bc fb c5 af 3b 35 53 b0 bc c1 f2 b9 bc
       -0.0234182 0.0053641773 -0.021524051 -0.022698762
000140 9e b1 af bc aa 5c b9 bc c2 df b7 3c 47 14 82 bc
       -0.021447 -0.022627193 0.022445563 -0.01587881
000150 f9 29 be 3c 56 2a a1 3c 57 94 c5 3c 5b 53 be 3c
       0.023213373 0.019673508 0.024118586 0.023233106
000160 96 25 ba bb 78 b3 c1 3c 6c c7 bc bc b5 fb ba 3c
       -0.00568075 0.023645148 -0.02304431 0.022825101
000170 12 9c bc 3c b6 d1 ad bc 56 72 af bc 77 26 af bc
       0.023023639 -0.021218162 -0.021416824 -0.021380646
000180 0e c3 af 3c fd df b1 bc ce df af bc 75 81 b3 3c
       0.021455314 -0.021713251 -0.021469023 0.021912316
000190 1a c8 ce bc 30 0a 97 bc 1c 25 b9 bc 8b a3 aa bc
       -0.0252419 -0.018437475 -0.022600703 -0.020829936
0001a0 38 ac d0 3c 4d 98 b8 3c f7 19 ba 3c 97 55 b9 3c
       0.025472745 0.02253356 0.02271746 0.02262382
0001b0 af cd ba bc eb 8d ad bc ab 5f bb bc 37 3b a9 bc
       -0.022803156 -0.021185836 -0.022872766 -0.020658119
0001c0 8a a1 b7 bc ae 90 ab 3c ac 20 ba 3c 02 f8 b0 3c
       -0.022415895 0.020943012 0.022720657 0.021602634
0001d0 9d 70 b6 3c 3f ab ba 3c 82 bc b7 bc 41 c6 98 bc
       0.022270495 0.022786735 -0.022428755 -0.018649222
0001e0 c3 c6 b9 3c 0f 37 ad 3c a5 be b6 bc 8f fb 90 bc
       0.022677785 0.021144418 -0.022307703 -0.017698077
0001f0 b4 3e b5 3c 22 fe ad bc 30 ad b1 bc f3 50 bb bc
       0.022124626 -0.021239344 -0.021689028 -0.022865748

net.2.running_mean f4 [128]
000000 64 3f 2a 3c 79 4e 0b 3d 90 20 1e 3c 44 81 4d 3e
       0.01039109 0.034010384 0.009651318 0.20068842
000010 56 af d8 3d 1a 9f 32 3e b1 33 a2 3c e4 4a 00 3d
       0.10580318 0.17443505 0.019800039 0.03132142
000020 0a 55 4e 3c 00 00 00 00 00 00 00 00 0c b0 18 3e
       0.012593517 0.0 0.0 0.14910907
000030 af 34 8d 3c 17 82 0d 3d 00 00 00 00 00 00 00 00
       0.017237036 0.03454789 0.0 0.0
000040 03 7f 87 3d 0b 3e b7 3c e2 7d bf 3c a0 00 bd 3c
       0.066160224 0.022368452 0.023375455 0.023071587
000050 00 00 00 00 57 0d 18 3f fe 02 e6 3e 7c fe ad 3e
       0.0 0.59395355 0.44924158 0.3398322
000060 38 f7 de 3e 46 da 6d 3e 32 d8 22 3c 98 79 1e 3b
       0.43547988 0.23227796 0.00993924 0.0024181362
000070 24 e0 e9 3d 5c d3 0f 3d 79 90 b0 3e 68 b6 04 3d
       0.114197046 0.035113677 0.34485224 0.03240052
000080 72 51 3b 3e 88 e8 08 3f 37 40 7e 3c ca 6d 01 3f
       0.18292788 0.53479815 0.01551824 0.5055815
000090 00 00 00 00 25 00 99 3e cb 71 36 3e b4 31 0d 3e
       0.0 0.29882923 0.17816846 0.13788491
0000a0 e4 54 cb 3e 00 00 00 00 00 00 00 00 51 95 ed 3c
       0.39713204 0.0 0.0 0.029001864
0000b0 c0 94 78 3e b1 41 93 39 2b 2f 88 3c 21 99 81 3e
       0.24275494 0.0002808697 0.016624054 0.2531214
0000c0 e2 88 d6 3c b2 db d0 3a 10 b8 04 3d 29 4d 6a 3c
       0.026188318 0.0015934615 0.0324021 0.014300623
0000d0 00 00 00 00 97 9c 1b 3f 00 00 00 00 33 59 0f 3e
       0.0 0.6078581 0.0 0.1399887
0000e0 52 06 d8 3d 78 5d 45 3d 23 88 75 3e a6 c6 82 3e
       0.105480805 0.048184842 0.23977713 0.25542182
0000f0 d2 dd 80 3d e6 15 bd 3e 00 00 00 00 7a ed 07 3d
       0.06292309 0.3693077 0.0 0.03318546
000100 f1 fb 68 3c a3 54 dc 3c fc 75 c1 3e 2b c0 95 3d
       0.014220224 0.026895827 0.37785327 0.07312044
000110 f5 95 cf 3e 12 6f 8f 3e 7f a6 a8 3d 77 c1 c3 3a
       0.40544096 0.28014427 0.082348816 0.0014934976
000120 c5 e0 34 3e f4 64 2f 3c c4 17 37 3e e2 02 bb 3e
       0.17663868 0.010705221 0.1788016 0.36525637
000130 00 00 00 00 c8 f6 9f 3d 10 8c 6f 3d f4 e7 29 3d
       0.0 0.07810742 0.058483183 0.041480973
000140 cb 73 ce 3d 00 00 00 00 17 85 9e 3d 42 03 6c 3e
       0.100806795 0.0 0.077402286 0.23048118
000150 d5 64 d0 3e 2c 22 69 3d 96 23 cc 3e f0 58 08 3f
       0.4070193 0.056917354 0.398709 0.5326071
000160 b6 70 45 3d 00 00 00 00 00 00 00 00 4e ed 95 3e
       0.048203193 0.0 0.0 0.29282612
000170 cb c6 a5 3d d1 57 27 3e c4 c9 00 3c 86 b0 1d 3f
       0.080945574 0.16342093 0.007860605 0.6159748
000180 80 77 cc 3b cf e7 f0 3e 86 c2 83 3e 61 8f 00 3e
       0.0062398314 0.47051856 0.25734347 0.12554695
000190 fe 74 83 3c 38 16 61 3e 00 00 00 00 d2 66 a6 3e
       0.016046997 0.21981132 0.0 0.3250032
0001a0 5d 5e 4b 3d 6a 29 ab 3e f6 d4 ba 3d 6d 94 19 38
       0.04965054 0.33430034 0.0912265 3.6616275e-05
0001b0 38 c4 8f 3c 83 1d 8f 3e a4 6c 19 3d e8 70 22 3f
       0.01754962 0.27952203 0.037457123 0.6345353
0001c0 b8 40 2d 3a 8d d5 9f 3c b8 d7 ab 3e 01 d7 0b 3b
       0.000660907 0.019511009 0.33563018 0.002133787
0001d0 5c 27 b5 3d 05 c2 0c 3f 8f f4 ca 3c cf 9a 02 3f
       0.08845398 0.5498355 0.024774818 0.5101747
0001e0 00 00 00 00 34 80 e4 3c 8a 7c a8 3a 94 7f 4e 3e
       0.0 0.027893163 0.0012854498 0.20165855
0001f0 5b b0 5f 3c 74 bc 65 3e 9e 86 45 3b 0d 70 9b 3a
       0.013652886 0.2243517 0.0030140053 0.0011858955

net.2.running_var f4 [128]
000000 0c 91 f5 3e 6b ff f6 3e 80 d7 f5 3e c9 cc 00 3f
       0.47962224 0.48241743 0.48015976 0.5031248
000010 f2 8e 0c 3f 53 cf 01 3f 61 18 f6 3e db 8f f7 3e
       0.5490562 0.50706977 0.48065475 0.4835194
000020 bc 2b f6 3e 52 e3 f4 3e 52 e3 f4 3e 5a 9a 14 3f
       0.48080242 0.47829682 0.47829682 0.5804802
000030 c7 c6 f6 3e 8a e7 f7 3e 52 e3 f4 3e 52 e3 f4 3e
       0.4819853 0.48418838 0.47829682 0.47829682
000040 d6 48 fe 3e dd e8 f7 3e 00 50 f7 3e aa ca f7 3e
       0.49664944 0.48419848 0.48303223 0.48396808
000050 52 e3 f4 3e ca 9d 96 3f 39 f7 6d 3f 56 d2 05 3f
       0.47829682 1.1766903 0.92955357 0.5227407
000060 05 68 84 3f 29 3d 04 3f 0e 84 f5 3e 04 0c f5 3e
       1.0344244 0.51655823 0.47952312 0.4786073
000070 75 2e 00 3f 09 a2 f8 3e 64 9a 83 3f 58 5a 05 3f
       0.5007089 0.48561123 1.0281491 0.5209098
000080 82 4c 60 3f de a7 96 3f 23 ad f6 3e 2b f2 60 3f
       0.8761674 1.1769979 0.48178968 0.8786952
000090 52 e3 f4 3e 05 7a 8a 3f 53 bb 48 3f 9f 8b 02 3f
       0.47829682 1.0818487 0.78410834 0.50994295
0000a0 61 a5 8a 3f 52 e3 f4 3e 52 e3 f4 3e cd d0 f8 3e
       1.083172 0.47829682 0.47829682 0.48596802
0000b0 99 61 35 3f ca e3 f4 3e 3e 98 f6 3e b8 70 08 3f
       0.7085205 0.4783004 0.48163027 0.53296995
0000c0 09 4d f7 3e 1c eb f4 3e 6b 6b f9 3e fa 06 f6 3e
       0.4830096 0.47835624 0.48714766 0.48052198
0000d0 52 e3 f4 3e ad 1c 88 3f 52 e3 f4 3e 89 2e 03 3f
       0.47829682 1.0633751 0.47829682 0.5124288
0000e0 99 07 1c 3f fa 6e 00 3f b3 40 03 3f e1 7c 19 3f
       0.60949093 0.50169337 0.512706 0.59956175
0000f0 8d f9 fc 3e 94 71 28 3f 52 e3 f4 3e a6 b6 ff 3e
       0.49409142 0.65798306 0.47829682 0.49944037
000100 5c 97 f5 3e 4b 69 f7 3e 7b 0a 5f 3f 47 b7 fe 3e
       0.4796704 0.4832252 0.87125367 0.49749205
000110 2d 5b 2d 3f b3 73 43 3f 6b 8a 03 3f 55 f6 f4 3e
       0.6771725 0.7634842 0.51383084 0.47844186
000120 5c f9 00 3f 5c 02 f6 3e dc 5b ff 3e 81 2b 95 3f
       0.5038049 0.48048675 0.4987477 1.1653901
000130 52 e3 f4 3e a5 ce fc 3e 13 eb 05 3f 61 9f fc 3e
       0.47829682 0.49376407 0.5231182 0.49340346
000140 d1 30 09 3f 52 e3 f4 3e cf 6d fd 3e cd 83 20 3f
       0.5359011 0.47829682 0.4949784 0.6270111
000150 1a ba 49 3f 1d 15 fc 3e 36 0c 53 3f bb 5f 51 3f
       0.78799593 0.49234858 0.8244051 0.817867
000160 ab a0 fc 3e 52 e3 f4 3e 52 e3 f4 3e 95 d9 15 3f
       0.4934133 0.47829682 0.47829682 0.5853513
000170 69 3d 04 3f b5 4e 07 3f d5 6f f5 3e 46 07 85 3f
       0.51656204 0.5285447 0.47936884 1.0392845
000180 d7 a9 f5 3e aa 69 23 3f 93 50 36 3f 97 8f 00 3f
       0.4798114 0.63833106 0.71216697 0.502191
000190 4e 77 f7 3e e7 1e 00 3f 52 e3 f4 3e 75 4e 34 3f
       0.4833321 0.50047153 0.47829682 0.70432216
0001a0 c5 a9 ff 3e 04 c7 00 3f 86 0b 0d 3f 55 e3 f4 3e
       0.4993421 0.50303674 0.5509571 0.4782969
0001b0 51 3c f6 3e c7 14 7b 3f db 93 fb 3e a0 69 5b 3f
       0.48092893 0.9807858 0.49136242 0.85708046
0001c0 a1 e7 f4 3e f8 41 f6 3e ff b3 4f 3f b3 07 f5 3e
       0.4783297 0.48097205 0.8113403 0.47857437
0001d0 2a 51 02 3f 44 36 5c 3f fe 0d f7 3e b7 0b 95 3f
       0.50905097 0.860203 0.48252863 1.16442
0001e0 52 e3 f4 3e 42 07 f8 3e 04 ee f4 3e 95 d5 20 3f
       0.47829682 0.48443037 0.47837842 0.628259
0001f0 a7 ab f5 3e 0e 34 4b 3f 1f 1e f5 3e 8e ee f4 3e
       0.47982523 0.79376304 0.47874543 0.47838253

net.3.weight f4 [1, 128]
000000 75 32 fd bc c7 e7 c3 3d ab 09 94 3d 18 4d f8 bc
       -0.030907849 0.095656924 0.072284065 -0.030310199
000010 72 11 21 3d 5a a0 cf bc d8 6f b7 bc b2 1b aa bc
       0.039323278 -0.025345016 -0.022392198 -0.02076516
000020 e1 1d 16 bd 44 6f 90 3d de 7e 89 bd c0 91 1c bd
       -0.03664959 0.07052472 -0.06713651 -0.038224936
000030 28 3a 5c bd 90 be a3 bd 0f 22 dd bd bd 6b 78 3d
       -0.0537664 -0.07995331 -0.10797512 0.060649622
000040 73 67 f2 bc 92 90 93 3c 56 36 74 bd 0f c9 65 bd
       -0.029590344 0.018013272 -0.05962213 -0.056099948
000050 ea 13 88 3d 9d f8 b5 bd 79 f5 a5 3c 1e 1a 41 3d
       0.06644423 -0.0888531 0.020258652 0.047144048
000060 4c 1c 7a 3d df 0e aa 3d 1b ec 66 3c 39 4a e3 3c
       0.061062142 0.08303618 0.014094378 0.027745353
000070 0e 67 04 bd 13 5e bc 3c 62 c2 21 ba c4 67 d3 bd
       -0.032324843 0.022994077 -0.0006170628 -0.10322526
000080 67 a6 80 3d ab e5 46 bd 56 48 52 3c 6d 86 96 bd
       0.06281739 -0.048558872 0.012834629 -0.073498584
000090 c8 83 2b 3d e1 98 45 3c d4 b9 23 3d f8 e5 d5 bd
       0.041873723 0.012060375 0.03997214 -0.10444254
0000a0 ae fc b1 bd e2 f1 b1 3d d0 82 73 bd 74 e3 fe 3c
       -0.08690773 0.086887136 -0.059450924 0.031114317
0000b0 48 07 24 3c 25 f3 0c 3d 62 27 3f bd 4c d3 9e bd
       0.010011502 0.03441157 -0.046668418 -0.077551454
0000c0 45 6f 18 3d 2d 18 96 bd 61 57 04 bd 57 75 05 3d
       0.03721549 -0.0732883 -0.032309894 0.032582607
0000d0 1c e1 81 bd 47 6c 80 bd 60 97 ba 3d de 29 86 3c
       -0.06341764 -0.06270652 0.09110904 0.016377386
0000e0 45 97 2b 3d ec ea 8e bc ad 04 b3 3c 45 de 26 bd
       0.04189231 -0.017446004 0.021852816 -0.040739316
0000f0 45 b3 4b bd 89 3b 61 bd 7e d6 be 3d 20 06 d1 bc
       -0.04973151 -0.054988418 0.09318255 -0.025515616
000100 53 3e cc bc 3b b2 6e bd 24 c9 36 3c f9 e2 2a 3d
       -0.024932062 -0.058275443 0.011156354 0.041720364
000110 04 a8 01 bd 23 90 68 bd 61 29 cc 3c f0 af c6 bd
       -0.031654373 -0.056778084 0.024922075 -0.09701526
000120 de f6 7e bd 9c 6b bc 3a 07 85 17 bd 03 b7 28 bc
       -0.06224715 0.0014375332 -0.0369921 -0.01029754
000130 e2 0a 50 3d df 7f 2f 3b dd 68 0f 3d 2f f5 c9 3c
       0.05079163 0.0026779098 0.035012115 0.024653045
000140 21 f0 e6 3c fb ef d6 3d d4 1b 4b bd 7a 95 55 bb
       0.028190674 0.104949914 -0.049587086 -0.0032590316
000150 4d 34 7f bd 7e 87 fc bb f9 37 0e bd 6f a7 88 bd
       -0.062305737 -0.0077065816 -0.03472135 -0.066725604
000160 33 78 93 3b 43 14 39 bd 19 44 86 3d 8f b7 73 bd
       0.004500413 -0.04518534 0.06555957 -0.059501227
000170 48 8e 54 bd 3d 5c c2 3c 8d 1b 4b 3d f8 bb 21 3d
       -0.051893502 0.023725623 0.04958682 0.0394859
000180 be 4c 30 bd 02 86 60 3d 5f aa 34 3d 9f a6 9c bc
       -0.043041937 0.0548153 0.04410779 -0.01912242
000190 99 70 c7 3c e3 fb ae b8 1e 4a e0 3d 1e 37 e8 3c
       0.024345683 -8.343884e-05 0.10951637 0.028346594
0001a0 1d 82 92 bc 9b 8c 64 bc 8b e6 87 bd 1f 84 84 bd
       -0.017884308 -0.013949539 -0.066357695 -0.064705126
0001b0 94 2e 0c 3d a3 ea 46 3d 94 6f 30 3d 02 ef 02 3d
       0.034224108 0.04856361 0.04307516 0.031966217
0001c0 a7 b8 4c 3d 0d 57 0b bd 20 0c ce bd 71 ea 3a bd
       0.049980786 -0.034018565 -0.100609064 -0.045633737
0001d0 1b d7 47 bc 40 9a bc bd a3 72 b2 3d 29 fa f3 3b
       -0.012197281 -0.09209108 0.087132715 0.007445593
0001e0 0b 52 c7 bd 73 ef cc bc ff 42 aa 3d 1e 26 0b 3b
       -0.09732445 -0.025016522 0.0831356 0.0021232436
0001f0 99 63 18 bd c5 9d 82 3d 0e 12 5e 3d 5f 91 ff 3c
       -0.03720436 0.063777484 0.054216437 0.031197248
