saved_models/mlp/MLP_lupus.pth (torch, 8086 bytes, 7 tensors)

net.0.weight f4 [128, 3]
00000000: c60e bb3e 1713 973e 9fec d4be 5a30 97be
00000010: 00bb 44be bc1e a6be 2883 563e fd94 8d3c
00000020: 00de 2fbe 2692 53be a4f9 ffbe 005f 07bd
00000030: 25ad 4abd 14a0 133e 85d4 4cbe c8bb cbbe
00000040: 60f9 9abd 5620 a93e e042 1cbd d0c7 05bf
00000050: b72e b7be cb51 ecbe ae89 003f f1da 5b3e
00000060: 6d54 853d 3bb5 69be 239f 02bf 9f8e 873e
00000070: 0037 5e3d 228b a8be 854d fe3d 6ebb d3bc
00000080: c559 113f 61ad 703e f7e0 81be f997 6fbe
00000090: 4590 ca3d 5ca1 d9be 5bfb e13d 5aba 30be
000000a0: c9ae 853e fb17 983e 95f3 603e 5f23 783d
000000b0: 8992 7f3c 78a2 d3bd ac6b 47be 2b0b 96be
000000c0: b570 77be f042 133f 5a7a f73e 9d6d c53d
000000d0: 9a48 14bf 5cc9 fb3e 81aa 2e3e e714 7c3e
000000e0: 21aa 133f 0893 de3e ff5b 413e 32a7 a53e
000000f0: 4fa1 72be e6fc c13e 8287 6d3e 3664 f4be
00000100: f07d ccbd e497 de3e 76d8 e23e 49cc e0be
00000110: a698 ac3e 4573 8f3e 6971 ca3e 3b24 c33e
00000120: 6652 2dbe a004 e43c 860d dbbe 2ebd 50be
00000130: 339b 133e d714 79be 8b3b 9f3e 3c70 97bd
00000140: ac00 153d 20f8 efbe cd85 0abf 8cd4 afbe
00000150: 742c cabd 4833 f3bd c27c e0be 313f ae3e
00000160: d6c7 9dbd f76e f2bd dec2 5d3d a4a8 483e
00000170: 34a8 e83e c01a 4abe a9bb 443e 0640 ab3e
00000180: ce03 033f 0aee d3be 0c86 27be d116 693d
00000190: 7d23 a7be 97ef 11bf cfe8 f23e 2ab7 753e
000001a0: d484 bdbc a97c ecbe 8079 b5bb 5892 d33d
000001b0: ed19 37be 776f 803e 4fa4 e83e 3e51 0b3f
000001c0: 42f3 eebd 0bce 52be 06a5 f53e 2355 02bf
000001d0: 3270 5dbe 663d f53e 5209 0cbf c2b0 3bbd
000001e0: 03c0 4abd 0915 be3e cefa 083f 54c9 a7be
000001f0: 78fc 3bbe 10a6 583d 6d6a aebe 205a 463d
00000200: eee5 003f 102c 4f3e 74e1 bcbe 3f03 f73d
00000210: 5c83 06bf 0a71 e23d ad7c 43be 00b3 7cbd
00000220: 387b efbe 50ab 833e b907 b43e 0f7d 0dbe
00000230: 5ccf 83be 1cd3 8ebe 5055 f73e 8481 9dbd
00000240: 1b8f 90be 5428 39be d25d 113f 7c7e f83e
00000250: 741e 023f 10c8 77be 3ea5 9c3e 8d65 a83e
00000260: aa5b 81be d01a 1a3e 6e5f f03e d776 9abe
00000270: 8f5e 4b3d 24c3 d33d 8b25 423d 7415 cc3e
00000280: d46c ec3d 6154 d93d 30b7 a0be c0a0 dfbe
00000290: f832 90bd 282f 09bf 9f48 013f a061 a33e
000002a0: 6f63 2bbe 6946 4f3e b6ec ee3e 961f b9be
000002b0: bc93 b9bd 5eb3 d73e 6657 c1be 400e 88bc
000002c0: 50cf eb3e d6be 0a3f 6ea2 3c3d a1db 01bf
000002d0: 9f3d 2fbe c74f 063f 0aaf aa3e 5f0d 103f
000002e0: 2a71 2dbe a581 a13e 88b1 e0be 18f6 5a3e
000002f0: 5ae3 5e3e cea7 00bf 3307 07bf 60a8 edbe
00000300: b076 07bf 264c 57be 209d 153e 44b4 c3be
00000310: 3988 abbe a0e0 62be d30e 8b3d 3275 e0bd
00000320: a098 803e 0235 d9be 9025 3abd 9642 43be
00000330: 7b33 fcbe ad70 d03d a912 60be 4156 d43e
00000340: 5e2b e83d dd79 0fbf 6e3d 8fbb ca51 bd3e
00000350: db35 11bf 9530 f2bd 1a6e a73e 18c5 ae3e
00000360: 8f4d ab3e 1fc5 393e 2ac2 e53e 63ab c9be
00000370: 3d3e fd3e 7eca 483d b44c a83e 5146 5e3e
00000380: 363f b5be b534 883e 6bdf 03bf 12b9 07bf
00000390: e071 97bc 8048 b6bb 20ad 71bd 0740 13bf
000003a0: 6af6 06bf da90 dabe 6ca3 cabd d2e4 cdbe
000003b0: 5005 573e 9bc9 0d3e 6bf9 903e 76fa e43e
000003c0: 6e73 643e add0 ba3e 10b4 0a3f 8f19 16bd
000003d0: 73c4 113f 65cf 9d3e 3833 cc3e ca7c 0e3f
000003e0: 5ea2 9cbe 9f03 c2be 808e b0bb dc1d 79be
000003f0: 1af5 02bf 6943 673e fa71 023f 324e fc3e
0.3653471 0.29506752 -0.41586778 -0.29529077 -0.1921196 -0.32445323 0.2094847 0.017282957
-0.1717453 -0.2066122 -0.49995148 -0.033049583 -0.04948153 0.14416534 -0.20002945 -0.39791703
-0.07567096 0.33032483 -0.038149714 -0.52258015 -0.35777828 -0.46156153 0.5021008 0.21470238
0.065102436 -0.2282304 -0.51024073 0.26476 0.05425167 -0.3291865 0.124171294 -0.02584621
0.567776 0.23503639 -0.25366947 -0.23397817 0.098907985 -0.4250592 0.110342704 -0.17258587
0.26109913 0.29705796 0.21967919 0.060580608 0.015598902 -0.10333723 -0.19474667 -0.29305395
-0.24164088 0.57524014 0.48335534 0.09640048 -0.5792328 0.49177063 0.1705723 0.24617349
0.5768147 0.4347155 0.1888275 0.32354122 -0.23694347 0.3788826 0.23196223 -0.47732705
-0.09984958 0.43475258 0.44305772 -0.43905857 0.33710212 0.2801763 0.3953965 0.3811358
-0.16925964 0.027834237 -0.42783755 -0.20384666 0.14414673 -0.24324356 0.31100115 -0.07394454
0.036377594 -0.46868992 -0.54110414 -0.34341848 -0.0987176 -0.118750155 -0.43845183 0.34032586
-0.07704131 -0.11837571 0.054140918 0.19595581 0.4544083 -0.19736767 0.19212212 0.33447284
0.5117768 -0.41392547 -0.16359729 0.056906525 -0.32644263 -0.5700621 0.47443244 0.23995653
-0.023134626 -0.46188858 -0.0055381656 0.10330647 -0.17880984 0.2508504 0.45437858 0.5442084
-0.116674915 -0.20586412 0.47977465 -0.5091116 -0.2162483 0.47898406 -0.5470172 -0.045822866
-0.049499523 0.37125424 0.535077 -0.3277079 -0.18358028 0.052892745 -0.3406557 0.048425794
0.50350845 0.20231652 -0.36890757 0.12061166 -0.5254419 0.11056717 -0.19090529 -0.061694145
-0.46773696 0.2571664 0.35162142 -0.13817237 -0.2574414 -0.2789544 0.48307276 -0.07690719
-0.2823418 -0.1808179 0.56783783 0.48534 0.5082772 -0.24197412 0.3059482 0.32889977
-0.25265247 0.1504929 0.46947807 -0.30168793 0.049650725 0.103399545 0.047399085 0.39860117
0.11544195 0.10611797 -0.3138976 -0.4367733 -0.070409715 -0.5358758 0.50501436 0.3191042
-0.1673715 0.20241703 0.4666497 -0.3615691 -0.09061381 0.42129034 -0.37761992 -0.016608357
0.46056604 0.5419744 0.046053343 -0.5072575 -0.1711335 0.5246548 0.3333667 0.562704
-0.169377 0.31544223 -0.43885446 0.2138294 0.21766415 -0.5025605 -0.5274536 -0.46417522
-0.5291548 -0.21025142 0.1461072 -0.3822347 -0.33502367 -0.22156 0.06789937 -0.10959853
0.25116444 -0.42423254 -0.04544598 -0.1906837 -0.49258026 0.10177741 -0.21882118 0.41472057
0.11336397 -0.56045324 -0.0043713367 0.36976463 -0.567228 -0.118256725 0.32701188 0.34134746
0.3345761 0.18141602 0.44874698 -0.3938857 0.49461547 0.049021237 0.3287102 0.21706511
-0.3539979 0.26602712 -0.51512784 -0.5301677 -0.018486917 -0.005562842 -0.059002995 -0.5751957
-0.5271975 -0.42688638 -0.098944515 -0.4021364 0.2099812 0.13846438 0.2831529 0.44722337
0.22309658 0.36487332 0.54181004 -0.03664547 0.5694038 0.30822292 0.39882827 0.55659163
-0.30592626 -0.37893388 -0.005388081 -0.24327797 -0.51155245 0.22584309 0.50955164 0.49278408

net.0.bias f4 [128]
00000000: a97f fbbe fcce d2be 15f5 073f c428 0f3e
00000010: b494 6ebe 1615 003f 78a7 ed3d b5b7 c5bd
00000020: ccb4 07be f22d ea3e e569 903c e8db 78be
00000030: adde 57bd f87d 35bd 9df0 c1be eec1 0cbf
00000040: 406d d0be fd38 23be 8d03 bfbe 34fc 05bf
00000050: 24ef 99be 3c41 5dbe c9d0 a8bc 4633 13bf
00000060: b22c 9fbe 1f62 073f 1c7a d1be b2af d5be
00000070: 4e20 05bf 7a9e c13e c761 143e e321 133e
00000080: 68f8 0f3e 2f89 0a3f a355 8f3d 68f1 eb3d
00000090: 3842 273e abb6 a23d b7b0 d8be 7284 b73e
000000a0: 9863 de3e 9ca6 70be 9736 d63e f409 033f
000000b0: 42a0 91be a87c 81be a698 df3e b4a0 063f
000000c0: d222 b23e 9e5c 543d e5c3 f3be ad90 b83e
000000d0: 56ad 783e ebba 663e 5abe 95be 0cd3 11bf
000000e0: 425e 8e3e eb61 c1be 00c9 723e 542e 27be
000000f0: 7823 a93e acef 91be d4b5 fabe 8d91 07bf
00000100: b168 00bf 10fb cfbe a001 573e a8e2 b33d
00000110: 28a2 d3be 387c e7bd b095 183d 6fc3 02be
00000120: bbd4 2f3d c7d6 bcbe b660 c3bc d1df 3e3d
00000130: d8af e1bd ea22 b3be c8df 943d e5cd 4fbe
00000140: 7616 023f 5823 1ebe 5f8e 143f f8ec 2e3e
00000150: fb24 34be a580 a83c a431 e53e c8a8 a73d
00000160: c2fb 073e b516 5c3e 84fc d0be 8fc6 0dbf
00000170: e164 0e3e 6a6a b6be 38c2 fdbd 3ea2 c6be
00000180: b12e 46be 59cf fabe c1e6 2d3e 7425 e03e
00000190: e61e 5abe c14e 0abe 966c 593e dcbe d93d
000001a0: 14a6 5bbe 88c9 63be 638c db3e f91f 5c3e
000001b0: b330 af3e f47f f03e 3852 7c3e da1c 0a3f
000001c0: fb4f 003f 0b23 a0be c0fb 42bd cda6 b03e
000001d0: 8cc0 cf3e 8d05 fcbb 2a61 fbbe c82d e53e
000001e0: 5509 f53e 77f4 0ebf cc94 62bd ee02 01bf
000001f0: c562 123e ed02 093f 8321 bc3e 0a67 973d
-0.49120834 -0.41173542 0.5310834 0.13980395 -0.23298913 0.50032175 0.11604208 -0.0965418
-0.13252562 0.45738178 0.01762862 -0.24302638 -0.052702595 -0.044309586 -0.37878886 -0.54983413
-0.4070835 -0.15939708 -0.37307397 -0.52337956 -0.30065262 -0.21606916 -0.020607369 -0.5750011
-0.31088787 0.52884096 -0.40913475 -0.41735607 -0.5200242 0.3781622 0.14490424 0.14368396
0.14059603 0.54115576 0.06998756 0.11520654 0.16333854 0.079449974 -0.42322323 0.35843235
0.4343536 -0.23501056 0.41838524 0.5118706 -0.2844258 -0.25290418 0.4367115 0.52588964
0.3479219 0.05184614 -0.47610393 0.3604788 0.24284872 0.22532241 -0.2924679 -0.56962657
0.27806288 -0.37770018 0.23709488 -0.16326267 0.33034873 -0.28503168 -0.4896685 -0.5295647
-0.50159746 -0.40621233 0.20996714 0.087834656 -0.41334653 -0.1130299 0.037252128 -0.12769864
0.042927485 -0.36882612 -0.023849826 0.046600167 -0.11019868 -0.34987575 0.072692454 -0.20293386
0.5081552 -0.1544317 0.5802974 0.17082584 -0.17592232 0.020569155 0.44764435 0.08186489
0.13279632 0.21493037 -0.40817654 -0.553811 0.1390567 -0.35628062 -0.1239056 -0.38795656
-0.19353749 -0.4898632 0.16982557 0.43778574 -0.2130085 -0.13506605 0.21232828 0.10632107
-0.21450073 -0.22244847 0.42880544 0.21496572 0.34216842 0.4697262 0.24640739 0.53950274
0.5012204 -0.31276736 -0.04760337 0.3450226 0.4057659 -0.0076910914 -0.49097568 0.4476149
0.47858682 -0.55841774 -0.055317685 -0.50395095 0.1429549 0.5352009 0.36744317 0.073927

net.2.weight f4 [128]
00000000: 6d45 7a3f 0000 803f be3a 7a3f 0000 803f
00000010: 6b66 813f 0000 803f 0000 803f 4443 7e3f
00000020: 14ed 803f 2ea1 7a3f 1364 7a3f 45f8 823f
00000030: 8482 823f 56f3 803f 1831 833f 0000 803f
00000040: 1a56 813f 0d6c 7b3f 8544 7a3f 4b4b 833f
00000050: daf0 803f 0000 803f b801 833f 8bff 803f
00000060: 0000 803f 06c8 803f 65eb 803f 0000 803f
00000070: 0000 803f 0853 833f 7aa0 813f 2afc 803f
00000080: 2904 833f 64b3 7b3f 3d47 7a3f 0000 803f
00000090: f2f5 803f 1660 7c3f 7873 7a3f ee06 833f
000000a0: e164 7e3f 0000 803f 5ea6 803f 8493 7a3f
000000b0: fc8f 7e3f 0000 803f d54a 7a3f b0ab 7d3f
000000c0: 0000 803f e243 7a3f 25c5 7a3f e88d 7a3f
000000d0: 5bf2 823f 8812 833f 0000 803f c928 7e3f
000000e0: 3fd0 7d3f 0000 803f 0000 803f d7d8 7a3f
000000f0: 0ef2 803f 7328 833f 3abd 7e3f 0000 803f
00000100: 0000 803f 0000 803f 35e5 823f 0000 803f
00000110: fc9c 803f 8444 7a3f c2d0 7d3f 32ee 803f
00000120: 243f 7a3f 782d 7e3f 9b40 7a3f 1dde 7a3f
00000130: 0000 803f 0000 803f 0000 803f 4ffe 823f
00000140: bc18 833f b183 7d3f 3c43 7a3f 0000 803f
00000150: 059e 803f 6c02 833f 0000 803f 0000 803f
00000160: ec1b 833f ac46 813f a442 7e3f c5af 7b3f
00000170: a7b3 7d3f 0000 803f 0000 803f 0000 803f
00000180: baa1 803f 2a4a 7a3f b79e 803f c0b5 7e3f
00000190: 1b5f 7e3f 6fb2 803f 6276 7e3f 74b5 803f
000001a0: fc2a 7e3f 0000 803f 18ec 823f 3520 833f
000001b0: b610 833f 8118 833f 0000 803f 7d85 7d3f
000001c0: d4bb 7e3f 0000 803f 0000 803f 41fa 7a3f
000001d0: aba2 803f 24f9 803f 5c82 7a3f 0000 803f
000001e0: 86c0 803f 0000 803f db01 833f 865d 833f
000001f0: 0291 7a3f 7aa0 7b3f 7b86 7a3f 9ad3 7a3f
0.97762185 1.0 0.97745883 1.0 1.010938 1.0 1.0 0.9932139
1.007235 0.9790219 0.9780895 1.0232016 1.019608 1.007426 1.0249357 1.0
1.0104401 0.9821175 0.977608 1.0257353 1.0073502 1.0 1.02349 1.0077986
1.0 1.0061042 1.0071837 1.0 1.0 1.0259714 1.0127099 1.0076954
1.0235645 0.98320603 0.9776495 1.0 1.0075057 0.98584116 0.9783244 1.023649
0.9937268 1.0 1.0050771 0.9788134 0.9943845 1.0 0.97770435 0.990901
1.0 0.9775983 0.9795707 0.9787278 1.0230211 1.024003 1.0 0.99280983
0.99145883 1.0 1.0 0.9798712 1.0073869 1.0246719 0.99507487 1.0
1.0 1.0 1.0226198 1.0 1.0047908 0.97760797 0.99146664 1.0072691
0.97752595 0.9928813 0.9775483 0.9799517 1.0 1.0 1.0 1.0233859
1.0241923 0.9902907 0.9775884 1.0 1.0048224 1.0235114 1.0 1.0
1.0242896 1.0099692 0.99320436 0.9831508 0.9910225 1.0 1.0 1.0
1.0049355 0.97769415 1.0048436 0.9949608 0.9936387 1.0054454 0.9939939 1.0055375
0.9928434 1.0 1.02283 1.0244204 1.0239475 1.0241853 1.0 0.9903181
0.9950535 1.0 1.0 0.9803811 1.0049642 1.0076032 0.9785516 1.0
1.0058753 1.0 1.0234941 1.0262916 0.97877514 0.9829174 0.9786145 0.9797913

net.2.bias f4 [128]
00000000: c317 2ebc 9a76 08bc 02cb 2dbc 5a7b 27bc
00000010: 71a2 27bc 5876 0b3c 92bb 26bc 3c70 2f3c
00000020: 1f4e 6a39 a327 33bc 8323 31bc 5f24 263c
00000030: f592 203c 76c8 27bc bffb 203c 23da 1d3c
00000040: 0eb2 28bc a706 2fbc b8e7 2dbc 2902 193c
00000050: 04cc 28bc 6fcb 26bc 02fd 253c b888 e1bb
00000060: a634 27bc 8d77 27bc ae49 f5bb 90e0 263c
00000070: b6e8 253c 315a 183c 8aff 1839 d02d 23bc
00000080: 6b2e 263c c0a6 2fbc 6578 2ebc d265 283c
00000090: 3f86 28bc 0eb4 43bc 2437 2ebc 8497 233c
000000a0: 2a75 2d3c 6551 233c ae11 1ebc 18fe 2dbc
000000b0: 7464 283c 2eb8 253c 18a9 2ebc 2e71 2d3c
000000c0: 57b3 21bc aa0f 2ebc 0adc 34bc 06eb 2dbc
000000d0: d6ec 253c ab14 273c 7e8e 27bc e8dd 2b3c
000000e0: c229 333c fa21 273c eab4 263c 52ea 35bc
000000f0: 4b8e 27bc 7cad 233c 548e 273c ce0d 283c
00000100: 9639 223c df4f 28bc 38c5 273c 03fc 273c
00000110: 246b 26bc 921a 2ebc f6ab 2c3c 39e0 29bc
00000120: 4e30 2ebc ec02 2c3c cfca 2dbc d21a 31bc
00000130: 09de 253c fe0b 28bc 1909 1fbc 5131 253c
00000140: f20d 223c dd9e 303c e2a1 2dbc a14e 25bc
00000150: 3edd 1fbc 3e8f 273c 39bb 27bc ed0d 1fbc
00000160: 1a6e 253c 88d0 25bc 3ba6 2f3c 9a14 3cbc
00000170: 3a1c 2e3c a544 28bc 6985 26bc 34e0 25bc
00000180: 85a3 29bc 6595 2ebc 9125 27bc 1f73 273c
00000190: 4da6 4abc 98ef 25bc 481a 283c 21fc 27bc
000001a0: ad76 2b3c 08ad 27bc 82fd 273c 7ab8 243c
000001b0: a764 243c 443b 253c 8106 28bc d01e 2c3c
000001c0: 07a1 283c 3d4e 27bc dbbe 24bc c76b 2dbc
000001d0: 6c21 28bc 6d4a 25bc 2664 32bc b34a 263c
000001e0: 7881 27bc 6ae4 1f3c 3667 273c 89d9 133c
000001f0: 4b90 32bc 0b05 3cbc b46d 2fbc bbd9 32bc
-0.010625782 -0.008329058 -0.010607483 -0.01022228 -0.0102316 0.008512102 -0.010176556 0.010707911
0.00022345081 -0.010934743 -0.010811689 0.0101405075 0.009800662 -0.010240665 0.009825646 0.009634527
-0.010296358 -0.010682738 -0.010614328 0.009338894 -0.010302547 -0.010180338 0.010131123 -0.006882753
-0.010205423 -0.010221374 -0.00748559 0.010185376 0.010126283 0.009298847 0.00014591045 -0.009959653
0.010142903 -0.010720909 -0.0106488215 0.010278182 -0.010285913 -0.011944784 -0.010633264 0.009984855
0.010587016 0.009968136 -0.00964777 -0.010619663 0.010277856 0.010114713 -0.010660432 0.010586066
-0.009869418 -0.010623852 -0.0110387895 -0.010615116 0.010127267 0.010197799 -0.010226844 0.010489918
0.010935249 0.010200972 0.010174969 -0.01110323 -0.010226796 0.009990092 0.010226805 0.010257198
0.009901425 -0.010272949 0.010239892 0.010252955 -0.01015738 -0.010626452 0.010539046 -0.0103684
-0.010631634 0.0104987435 -0.010607435 -0.010809617 0.010123738 -0.010256765 -0.009706759 0.010082559
0.00989102 0.010780063 -0.010597678 -0.010089547 -0.009757338 0.010227023 -0.010237508 -0.00970791
0.010097051 -0.0101205185 0.010720785 -0.011479521 0.010626847 -0.010270272 -0.010163643 -0.010124255
-0.0103539275 -0.010655736 -0.010201828 0.010220318 -0.012368751 -0.010127924 0.010260172 -0.010252983
0.010465306 -0.010234125 0.010253312 0.010053748 0.010033763 0.010084931 -0.010255457 0.010505393
0.010292298 -0.010211525 -0.010055269 -0.010584778 -0.010261875 -0.010088545 -0.010888135 0.010149646
-0.010223739 0.009759048 0.0102174785 0.009024032 -0.01089866 -0.011475812 -0.010707308 -0.010916169

net.2.running_mean f4 [128]
00000000: e96b 2942 0000 0000 db34 bc41 0000 0000
00000010: ac55 aa3e 0000 0000 0000 0000 ac61 813f
00000020: e920 9440 8d2b ef41 c35e 6a41 0200 b041
00000030: d8c1 f640 a053 213f e256 b641 0000 0000
00000040: 2bd2 cd3f dcef 1141 c4cf b041 dd72 3d42
00000050: 9ca7 633f 0000 0000 6b73 2f42 fae8 0342
00000060: 0000 0000 e276 e23d 78b0 ff41 0000 0000
00000070: 0000 0000 e2bc 0f42 204d f840 5b19 c23e
00000080: df17 4c42 6c85 a940 1c1d 5a42 0000 0000
00000090: 4da7 203f 2647 6242 de61 4342 ebcc 3b42
000000a0: 5a64 1140 0000 0000 ff12 6c3d 1a45 a941
000000b0: c0ee b53c 0000 0000 d003 1742 8b68 9c3f
000000c0: 0000 0000 4038 6742 7ec4 1142 6b13 ab41
000000d0: c794 ac40 50a5 2c42 0000 0000 3965 663f
000000e0: d012 173f 0000 0000 0000 0000 5b0e 6b42
000000f0: 0700 e03f 5720 6c42 2a22 193e 0000 0000
00000100: 0000 0000 0000 0000 0375 bb40 0000 0000
00000110: e0b9 1f3b 5d72 3842 b29f 1840 b5cd 7e3f
00000120: 18bb 1d42 6a0f 853f 9a9f 1842 5d6d d241
00000130: 0000 0000 0000 0000 0000 0000 de47 8541
00000140: 1a47 d941 f643 7540 42e9 4442 0000 0000
00000150: 0498 353e 312c 4642 0000 0000 0000 0000
00000160: e2e6 2942 6e1e 823c c961 053f 3bbf 0541
00000170: 48ea a73f 0000 0000 0000 0000 0000 0000
00000180: 852b ca3f 28d3 5241 b801 6a3e 3887 ac3d
00000190: c0ba 4641 e338 f83c 7975 573e 571f d23c
000001a0: a8de 343f 0000 0000 eeb6 2741 6aab 5d42
000001b0: 9ad8 0c42 421d b341 0000 0000 16dc 4b3f
000001c0: b87e 9d3b 0000 0000 0000 0000 b4e9 3941
000001d0: 4710 c33d 0299 143f 963f 9c41 0000 0000
000001e0: ba74 ae3e 0000 0000 6f9e df41 a5ce 0842
000001f0: f839 2142 26b0 3942 a0be 2b42 459e 4341
42.35538 0.0 23.525808 0.0 0.33268487 0.0 0.0 1.0107932
4.6290174 29.896265 14.648135 22.000004 7.7111626 0.63018227 22.792423 0.0
1.6079763 9.121059 22.101448 47.36217 0.88927627 0.0 43.862713 32.977516
0.0 0.11057831 31.961166 0.0 0.0 35.934456 7.7594147 0.3790997
51.02331 5.297537 54.528427 0.0 0.6275528 56.56948 48.845573 46.950115
2.27175 0.0 0.057635304 21.158741 0.022208571 0.0 37.753723 1.2219404
0.0 57.80493 36.441887 21.384481 5.3931613 43.161438 0.0 0.89998204
0.5901308 0.0 0.0 58.76402 1.7500008 59.03158 0.14954439 0.0
0.0 0.0 5.8580337 0.0 0.0024372265 46.111683 2.384747 0.99532634
39.43271 1.0395329 38.15586 26.3034 0.0 0.0 0.0 16.660091
27.159718 3.832273 49.22779 0.0 0.1773377 49.543156 0.0 0.0
42.47547 0.01588365 0.52102333 8.359187 1.3118372 0.0 0.0 0.0
1.5794531 13.176552 0.22852218 0.084242284 12.420593 0.030300563 0.21040906 0.02564971
0.70652246 0.0 10.482161 55.417397 35.211525 22.389286 0.0 0.796327
0.004806366 0.0 0.0 11.619556 0.09524589 0.5804597 19.531048 0.0
0.3407343 0.0 27.95236 34.2018 40.30661 46.42202 42.936157 12.22614

net.2.running_var f4 [128]
00000000: 054d 0744 1ad5 523e f6db 2943 1ad5 523e
00000010: 2dc7 0d40 1ad5 523e 1ad5 523e 4d63 8c41
00000020: 906b 7141 6d11 8943 29ea 7a42 0a68 3843
00000030: 88c6 1342 4d9a df40 5080 2043 1ad5 523e
00000040: 0b42 2d42 a829 4f42 ba8f 0f43 a7ba 2644
00000050: 46ef 5c41 1ad5 523e b9ce 2b44 dc12 a443
00000060: 1ad5 523e acf6 0a3f acb7 a843 1ad5 523e
00000070: 1ad5 523e bf05 cf43 8e2f ca41 d429 2a40
00000080: 3f1c 6744 59b5 9c41 a2d6 5a44 1ad5 523e
00000090: 7808 db40 69b5 8244 4c1d 5b44 41e5 4944
000000a0: 2a3d 1742 1ad5 523e 7f72 ad3e 0f90 2b43
000000b0: e508 673e 1ad5 523e 5047 ec43 d63e cf41
000000c0: 1ad5 523e 8756 7444 d75e c743 218d 2343
000000d0: e894 1d41 4a0b 0a44 1ad5 523e 59d8 6041
000000e0: 3229 b940 1ad5 523e 1ad5 523e f17a 8944
000000f0: 46e0 2b42 abd0 8d44 f4da 8c3f 1ad5 523e
00000100: 1ad5 523e 1ad5 523e 2631 5141 1ad5 523e
00000110: 6313 533e dbd7 2544 b343 1742 b66d 7c41
00000120: 3ecd de43 f347 9541 16f9 d843 8218 9343
00000130: 1ad5 523e 1ad5 523e 1ad5 523e a6c9 b742
00000140: 663d 5843 1821 c142 330b 3144 1ad5 523e
00000150: 075f bb3f 49f0 5644 1ad5 523e 1ad5 523e
00000160: 499d 1344 16ba 543e 53d0 9d40 e229 8e42
00000170: 9117 f241 1ad5 523e 1ad5 523e 1ad5 523e
00000180: c22f dc41 2cd1 7042 c8dd 1240 06c2 fa3e
00000190: e519 4c42 5570 783e ca1d ac3f c3c7 6d3e
000001a0: 5b80 0b41 1ad5 523e 709f 0b42 0457 6744
000001b0: 8ab6 d943 6769 0e43 1ad5 523e e62d 2841
000001c0: 56c7 533e 1ad5 523e 1ad5 523e 767b 8b42
000001d0: 679a 113f 3541 be40 7e10 e842 1ad5 523e
000001e0: c5eb 5440 1ad5 523e 4362 7143 f20a b943
000001f0: e679 0844 6ffa 4344 14d9 2444 3521 6042
541.2034 0.20589104 169.85922 0.20589104 2.2152817 0.20589104 0.20589104 17.548487
15.08876 274.13614 62.728672 184.4064 36.94388 6.9875855 160.50122 0.20589104
43.314495 51.79068 143.56143 666.91644 13.808416 0.20589104 687.23004 328.14734
0.20589104 0.5428264 337.43494 0.20589104 0.20589104 414.0449 25.27322 2.658803
924.44135 19.588549 875.35364 0.20589104 6.844784 1045.6691 876.45776 807.5821
37.80973 0.20589104 0.33876416 171.56273 0.22561987 0.20589104 472.55713 25.905682
0.20589104 977.352 398.74094 163.55128 9.848854 552.1764 0.20589104 14.052819
5.7862787 0.20589104 0.20589104 1099.8419 42.969017 1134.5209 1.1004319 0.20589104
0.20589104 0.20589104 13.074499 0.20589104 0.20612864 663.37274 37.816113 15.776785
445.60345 18.660131 433.94598 294.19147 0.20589104 0.20589104 0.20589104 91.893845
216.23984 96.56464 708.175 0.20589104 1.4638375 859.75446 0.20589104 0.20589104
590.4576 0.20774111 4.93168 71.0818 30.261507 0.20589104 0.20589104 0.20589104
27.52332 60.20427 2.2947865 0.48976153 51.025288 0.24261601 1.3446591 0.23220734
8.718837 0.20589104 34.9057 925.3596 435.4261 142.41173 0.20589104 10.511206
0.2068151 0.20589104 0.20589104 69.741135 0.56876224 5.94546 116.03221 0.20589104
3.3268902 0.20589104 241.38383 370.0855 545.90466 783.913 659.39185 56.03243

net.3.weight f4 [1, 128]
00000000: 4b19 513d 1071 0e3c c13f 6f3d 376a 893d
00000010: 9d62 503d 775a 17bc 38d1 5e3d 1a49 c1bb
00000020: 0503 81bc bda8 2f3c 946f a33c 3525 95bd
00000030: 90eb 0cbd 975a 7a3d d698 34bd ec60 96bc
00000040: 7c6d 8c3d ceba 023d 1f0c 5d3d 3260 02bd
00000050: 18a6 bc3d 7a53 623d da0e 93bd 526a 99bc
00000060: 3be8 7c3d a992 aa3d 8d13 9abc 082e 67bd
00000070: 682f 39bd 600c 01bd 176b 9fbc 31fa e83c
00000080: 20b7 98bd 9c57 cd3c 488c 373d de48 c2bd
00000090: 7083 a53d aae1 16bc eeb6 463d 66ff 55bd
000000a0: e9d8 d8bc eff6 f5bc cf53 d53c ef6f 543d
000000b0: f2c2 96bd 105b 32bd 1439 2f3d c062 fcbc
000000c0: 335c cd3c 5ea9 523d d050 b53b c647 4a3d
000000d0: 0220 8abd 9a06 bbbd 95bb 8c3d b521 24bd
000000e0: bf9a c7bb 56b7 77bd 3362 5dbd 1408 6c3b
000000f0: 4c59 bd3c 54e6 61bd d0e2 58bd 37f5 a7bd
00000100: d1ca d8bc 49f2 ba3d 90cd d8bd e781 a3bd
00000110: aea2 703d 39a6 523d 4bd6 63bd 70a9 b43d
00000120: 9d5d 4b3d 85ad 0dbd e2b4 6b3d 8f4c 9c3c
00000130: a5a2 37bd 2b7e a73d 635f a33c 1dab 7bbd
00000140: dc7f 3cbd 5e8b 8dbc d43a 773d dd37 253d
00000150: 2f26 ea3c 0aa7 d1bd 7b2f 953d 009a a33c
00000160: 361a 8bbd 5107 433d 7ebe bfbb b31a 2fbb
00000170: b411 c4bc 7e69 b73d d2ab 533d f1f2 373d
00000180: e1db 603d 65d0 333d de54 913d 26da 50bd
00000190: 7e1c 5abc ece3 623d 5fdd 4dbd 38b2 bd3d
000001a0: c844 70bd a863 923d 2e30 e0bd 5553 7bbd
000001b0: 3f74 6dbd bdd2 84bd e719 a63d a497 78bd
000001c0: df5b b1bd c033 823d 7b58 163d d81a 7b3d
000001d0: 2e34 c63d 5f3d 153d 5cec 5f3c d4d8 48bd
000001e0: 29e5 ab3d 2094 aebc 6093 c3bd a00e ebbc
000001f0: 4a6e 573c aafb 82bb 4767 043d 1a3d 3f3c
0.051049512 0.008693948 0.05841041 0.06709712 0.050875295 -0.009237877 0.054398745 -0.005898607
-0.01574851 0.010721383 0.019950666 -0.07282487 -0.034404337 0.06112155 -0.04409107 -0.018356763
0.0685682 0.031916432 0.053966638 -0.03183002 0.09211367 0.05525539 -0.07180567 -0.018727455
0.06174491 0.083287545 -0.01880815 -0.056440383 -0.045211226 -0.031505942 -0.019460244 0.028439613
-0.07456803 0.02506619 0.044811517 -0.094865546 0.0808171 -0.009209076 0.0485143 -0.05224552
-0.026470618 -0.030024974 0.02604094 0.05186456 -0.073614016 -0.043543875 0.042779043 -0.030808806
0.025068378 0.051431052 0.0055333152 0.049384855 -0.06744386 -0.091321185 0.06871716 -0.040071208
-0.006091445 -0.060477577 -0.05404873 0.0036015557 0.02311387 -0.0551513 -0.05295068 -0.08201068
-0.026463898 0.091282435 -0.10586083 -0.07983761 0.058748893 0.051428054 -0.055624288 0.0882138
0.049649823 -0.03458931 0.05754555 0.019079475 -0.044832844 0.081783615 0.019942945 -0.061442483
-0.046020374 -0.01727837 0.060358837 0.04033648 0.02858266 -0.10236938 0.07284447 0.019970894
-0.06792109 0.0476144 -0.005851566 -0.0026718795 -0.023934223 0.08955668 0.051677532 0.04490942
0.054897193 0.043899912 0.07096265 -0.050989293 -0.013312457 0.055393144 -0.050259944 0.09262508
-0.058659345 0.07147914 -0.109466895 -0.06135877 -0.05797219 -0.06485508 0.08110409 -0.06069149
-0.08660101 0.06357527 0.036705475 0.061304897 0.09677921 0.03643548 0.013667192 -0.04903491
0.08393318 -0.021310866 -0.09549594 -0.028693497 0.013148854 -0.003997286 0.032325055 0.011672283
