saved_models/mlp/MLP_hepatitis.pth (torch, 16330 bytes, 7 tensors)

net.0.weight f4 [128, 19]
-0.11221322 -0.08544821 -0.18906552 0.08610707 -0.16210353 -0.0005584244 0.07262143 0.15744795
-0.09905606 0.050435327 -0.070147775 -0.13850144 0.110080265 -0.092356145 -0.045958377 -0.17943099
0.09642872 0.09411155 0.021239925 -0.22284219 -0.053567965 -0.20707779 0.20119786 -0.19042256
-0.021452935 -0.095311075 -0.1695439 0.014315558 0.083997875 -0.20557348 -0.18137893 -0.09527003
0.11283755 0.10808063 -0.13282256 0.16774826 -0.15644315 -0.11942674 -0.11315057 -0.29512993
-0.16849221 -0.115607455 -0.1572499 -0.00448612 -0.09339022 0.3504183 0.3444513 0.16214116
-1.2861823 -0.22288743 -0.14311808 0.037086096 0.13008057 -0.13907334 0.10994159 0.34486875
-0.23735414 -0.26148283 0.092373446 0.020694554 0.19082126 0.22391835 -0.04197417 0.12615684
-0.46518165 -0.40346763 0.42773202 1.3373306 0.38579804 0.49888307 0.015980493 0.18694781
0.122667864 -0.17263493 -0.108473584 -0.048372872 0.15765151 -0.14540239 -0.34535328 0.0052955262
0.045608953 -0.009366861 -0.057558905 -0.39633685 -0.38573554 -0.1371716 0.6817939 -0.08471488
0.21485995 -0.19946586 0.16705891 -0.1823317 0.19166884 -0.10642934 0.0724191 0.12570526
-0.12211836 0.17410763 -0.041316245 -0.04406565 -0.119152896 -0.050619375 0.13512902 -0.00022043813
-0.044923846 -0.080208875 0.06437516 0.21725623 0.22728537 -0.28548944 -0.07287464 -0.18984574
-0.12355651 -0.04153918 -0.17194909 -0.10563963 0.20069955 0.18633507 -0.20707166 0.08543141
0.19747983 -0.08030902 -0.04007125 -0.11147623 -0.021858394 0.0994433 0.15847762 -0.023367584
0.1165507 -0.18112333 0.1716332 -0.16641633 0.22679548 -0.19223255 0.051005874 -0.06358336
0.21280617 0.081677 0.15668763 0.11661099 0.42234957 0.27972656 0.09451277 -0.49721843
-0.008974038 -0.35624474 -0.14788672 0.052897867 0.15963097 0.32784182 -0.019990137 -0.13220555
-0.19211379 -0.011721058 0.03009205 0.10415037 -0.092915155 0.0078024655 0.31758723 0.30639312
0.09263812 0.17695944 -0.6153859 0.018769097 -0.25149605 -0.20262623 0.107092656 0.14873956
0.23696704 0.21277131 -0.039828323 0.12883568 -0.11852692 -0.36175627 -0.12718311 -0.26025775
-0.18785647 0.1900745 -0.08994497 0.08955923 -0.0892244 -0.48103046 -0.50915754 -0.13305451
0.043073066 -0.19148222 0.20874111 -0.051261283 -0.055086397 -0.07236358 -0.17443718 -0.050295994
0.0501727 0.2045864 -0.046323627 -0.11585522 -0.15932585 0.05415298 0.044027403 -0.06929086
0.18129177 -0.0806427 -0.16683292 -0.0873031 -0.05840294 -0.11012122 0.22064562 -0.15460172
0.14411242 0.05244382 0.007591693 -0.23108676 -0.13161416 -0.12549922 -0.19571383 0.21317628
0.3461279 0.24102269 0.10879613 -0.50770146 0.024397323 0.0023855425 0.19851796 0.1724893
-0.039577335 0.1894377 -0.1471247 0.10152769 0.047814135 0.1139917 0.20030572 -0.19352
0.38649392 0.1919143 0.15395525 0.193603 -0.07659507 0.025021715 -0.8362706 0.2983859
-0.6939464 0.051146228 0.10704526 -0.19730365 -0.020652179 -0.067051776 0.13984166 -0.2074963
-0.08276527 0.059124604 -0.1934117 0.20315711 0.2117012 0.15668254 0.059439316 -0.06258015
00000000: 0bd0 e5bd 79ff aebd 649a 41be e758 b03d
00000010: 78fe 25be 3a63 12ba 8bba 943d 093a 213e
00000020: e7dd cabd 4695 4e3d a3a9 8fbd 52d3 0dbe
00000030: c371 e13d 3825 bdbd da3e 3cbd c2bc 37be
00000040: 6c7c c53d 8ebd c03d 5aff ad3c be30 64be
00000050: 156a 5bbd 330c 54be d006 4e3e 22fe 42be
00000060: 11be afbc 7432 c3bd eb9c 2dbe cd8b 6a3c
00000070: 1407 ac3d db81 52be 66bb 39be ef1c c3bd
00000080: 6017 e73d 6159 dd3d a302 08be 33c6 2b3e
00000090: a232 20be 0296 f4bd 7cbb e7bd 451b 97be
000000a0: 3989 2cbe 9ac3 ecbd 1e06 21be 4d00 93bb
000000b0: 5f43 bfbd 076a b33e ec5b b03e 5508 263e
000000c0: 9fa1 a4bf 9a3c 64be 8c8d 12be 97e7 173d
000000d0: d733 053e 3e69 0ebe 0e29 e13d a392 b03e
000000e0: f70c 73be 14e1 85be 4a2e bd3d a087 a93c
000000f0: a666 433e da4a 653e 1bed 2bbd 422f 013e
00000100: 4a2c eebe 4f93 cebe b1ff da3e a62d ab3f
00000110: 5287 c53e 9a6d ff3e 86e9 823c 3f6f 3f3e
00000120: 4a39 fb3d 36c7 30be 6627 debd a222 46bd
00000130: 666f 213e 5de4 14be 25d2 b0be 1886 ad3b
00000140: 74d0 3a3d 7677 19bc e3c2 6bbd aaec cabe
00000150: 217f c5be b676 0cbe 0c8a 2e3f ff7e adbd
00000160: 3f04 5c3e c740 4cbe 7e11 2b3e 29b5 3abe
00000170: d644 443e a0f7 d9bd 7750 943d e1b8 003e
00000180: 3119 fabd 4549 323e 393b 29bd 2f7e 34bd
00000190: 6f06 f4bd 4356 4fbd 435f 0a3e 6925 67b9
000001a0: 1102 38bd 8d44 a4bd 20d7 833d 6b78 5e3e
000001b0: 7fbd 683e ac2b 92be 4d3f 95bd ec66 42be
000001c0: 320b fdbd fd24 2abd 6c13 30be 9759 d8bd
000001d0: 2f84 4d3e 9fce 3e3e 980a 54be aaf6 ae3d
000001e0: 2738 4a3e 0e79 a4bd c021 24bd a64d e4bd
000001f0: 6010 b3bc eea8 cb3d f547 223e 606d bfbc
00000200: 22b2 ee3d 6578 39be 9dc0 2f3e 0b69 2abe
00000210: 133d 683e 9cd8 44be 89eb 503d fe37 82bd
00000220: dce9 593e 4546 a73d b972 203e bed1 ee3d
00000230: 343e d83e 5238 8f3e e98f c13d 6a93 febe
00000240: d807 13bc b665 b6be 9e6f 17be 6fab 583d
00000250: 4d76 233e e2da a73e 5bc2 a3bc e460 07be
00000260: 7ab9 44be ae09 40bc 9a83 f63c ca4c d53d
00000270: 4d4a bebd d3ab ff3b cb9a a23e 8fdf 9c3e
00000280: 0eb9 bd3d db34 353e ee89 1dbf a6c1 993c
00000290: 17c4 80be 407d 4fbe 6553 db3d 2f4f 183e
000002a0: 7da7 723e b9e0 593e 0623 23bd 80ed 033e
000002b0: 3ebe f2bd 1e38 b9be 4a3c 02be 8140 85be
000002c0: 725d 40be e4a2 423e 1235 b8bd d46a b73d
000002d0: 48bb b6bd a049 f6be 2658 02bf 713f 08be
000002e0: 626d 303d ea13 44be 3bc0 553e 5af7 51bd
000002f0: 46a2 61bd 5b33 94bd a99f 32be 2c03 4ebd
00000300: e481 4d3d 197f 513e d8bd 3dbd 8045 edbd
00000310: 5126 23be 84cf 5d3d 1456 343d 5ee8 8dbd
00000320: 8da4 393e 0028 a5bd 40d6 2abe f8cb b2bd
00000330: ec37 6fbd 3c87 e1bd edf0 613e ea4f 1ebe
00000340: 3592 133e 55cf 563d bdc3 f83b 02a2 6cbe
00000350: ddc5 06be de82 00be 3569 48be e24a 5a3e
00000360: ad37 b13e a7ce 763e 81d0 de3d b9f8 01bf
00000370: e5dc c73c c356 1c3b 4b48 4b3e 09a1 303e
00000380: d81b 22bd f5fb 413e dba7 16be c0ed cf3d
00000390: c1d8 433d 7b74 e93d f11c 4d3e 1b2a 46be
000003a0: 88e2 c53e 2f85 443e 72a6 1d3e dd3f 463e
000003b0: e0dd 9cbd 57fa cc3c d415 56bf 09c6 983e
000003c0: 79a6 31bf b57e 513d 8c3a db3d f809 4abe
000003d0: c22e a9bc 7152 89bd a732 0f3e e979 54be
000003e0: d680 a9bd a42c 723d b70d 46be 6b08 503e
000003f0: 33c8 583e 6371 203e a476 733d 062a 80bd

net.0.bias f4 [128]
-0.021685654 -0.05297319 -0.10288445 -0.113548405 0.07247864 0.05847232 0.22396673 -0.13685952
-0.08881479 0.14866346 0.115824744 -0.13083816 0.17183623 -0.21462555 0.20534804 0.17164506
0.16157536 0.20916227 0.13537899 0.094618246 -0.21091904 0.12431486 0.1526825 -0.043845054
-0.2007356 0.16848136 -0.016760599 -0.18463579 -0.047352098 -0.014575913 -0.031997826 -0.10926127
-0.18533634 -0.23193242 0.10525041 -0.19966492 -0.021720499 -0.103405826 -0.21934932 -0.11837396
-0.052430782 0.20074457 0.011546062 -0.20271303 -0.03869932 0.17476517 -0.0066967905 0.25087023
-0.09808397 -0.19087112 -0.2082562 0.13901713 -0.07049808 -0.13481432 -0.048524614 -0.09117368
0.10764388 0.10430933 0.18854189 0.16163874 0.10384985 -0.20515905 0.20338672 0.21780707
-0.21973182 0.083462834 -0.12480516 -0.17750743 -0.00103858 -0.21721706 0.19741525 0.19973911
0.20438132 -0.15813878 0.19085883 0.16384389 0.076227486 0.013057897 -0.058512293 0.09436141
-0.16872695 0.0035845304 -0.11060524 0.20018317 -0.19872338 -0.07293238 0.20397621 -0.03822956
0.21710862 -0.023671709 0.17757668 0.04122515 0.10613387 -0.05209599 -0.0851039 -0.16345015
0.080960706 0.12339504 -0.15230282 0.105652474 -0.07983583 -0.123449266 0.17112301 -0.09687221
0.09404477 -0.14312878 -0.24654913 -0.17049693 -0.15727709 -0.23679784 0.018248696 0.002279222
-0.10504292 0.08034014 0.010873488 0.027449705 -0.1332204 0.020212872 0.12611274 0.14779535
-0.02903046 -0.17413048 0.021162475 0.009384066 -0.16543955 0.16732989 0.19162087 -0.07268189
00000000: 1da6 b1bc 6afa 58bd 15b5 d2bd 118c e8bd
00000010: ae6f 943d ac80 6f3d 8957 653e e724 0cbe
00000020: 87e4 b5bd 3c3b 183e 8635 ed3d 70fa 05be
00000030: d6f5 2f3e cdc6 5bbe c246 523e b9c3 2f3e
00000040: 0374 253e a22e 563e caa0 0a3e 36c7 c13d
00000050: 29fb 57be ca98 fe3d cd58 1c3e df96 33bd
00000060: a28d 4dbe 6186 2c3e 864d 89bc 2a11 3dbe
00000070: 46f4 41bd cfcf 6ebc 2710 03bd 5fc4 dfbd
00000080: cfc8 3dbe b17f 6dbe 878d d73d f674 4cbe
00000090: 30ef b1bc 6fc6 d3bd 1c9d 60be 0c6e f2bd
000000a0: a9c1 56bd fc8f 4d3e b22b 3d3c 0194 4fbe
000000b0: 2e83 1ebd a4f5 323e c070 dbbb 1072 803e
000000c0: 40e0 c8bd b873 43be 1d41 55be 825a 0e3e
000000d0: 4c61 90bd c40c 0abe bfc1 46bd 44b9 babd
000000e0: 6574 dc3d 21a0 d53d 2011 413e a084 253e
000000f0: 3baf d43d 3715 52be 9c44 503e d108 5f3e
00000100: 6101 61be 90ee aa3d d999 ffbd 82c4 35be
00000110: f620 88ba 266e 5ebe 3927 4a3e 6988 4c3e
00000120: 5649 513e 22ef 21be 7f70 433e b1c6 273e
00000130: 281d 9c3d caf0 553c 96aa 6fbd 8e40 c13d
00000140: c2c6 2cbe 71ea 6a3b 0085 e2bd d1fc 4c3e
00000150: 247e 4bbe 925d 95bd 24df 503e 9996 1cbd
00000160: b951 5e3e 2ceb c1bc a9d6 353e b4db 283d
00000170: b75c d93d 9b62 55bd f44a aebd 7a5f 27be
00000180: bace a53d 8ab6 fc3d 45f5 1bbe 5360 d83d
00000190: f880 a3bd f8d2 fcbd df3a 2f3e f064 c6bd
000001a0: 8b9a c03d 5a90 12be 6077 7cbe bf96 2ebe
000001b0: 3f0d 21be 227b 72be 4a7e 953c 005f 153b
000001c0: be20 d7bd 5f89 a43d b726 323c 34de e03c
000001d0: ee6a 08be 7795 a53c b323 013e aa57 173e
000001e0: 4ad1 edbc 434f 32be ed5c ad3c a0bf 193c
000001f0: fc68 29be 8758 2b3e 4338 443e 3eda 94bd

net.2.weight f4 [128]
0.9877105 0.9916538 1.2629321 1.3351568 1.1834832 1.3291998 1.0 1.1115834
1.0766672 1.0428399 1.0 0.968616 1.2509364 1.0 1.0057077 1.1236949
1.4337234 1.1367543 1.356447 0.9815951 1.2877572 1.0515552 1.0485927 1.0195532
1.0520539 1.1038817 0.9968412 0.9840279 1.1197007 1.0276631 1.321851 0.98016775
1.0375631 1.0221807 1.3548054 0.9573706 1.0 1.1188551 1.0 1.0
1.120069 0.9698012 1.0018865 0.97583795 0.9883031 1.5011375 1.0 1.0943253
1.0 1.2146976 0.9866549 1.1075944 0.98173904 1.2404017 1.0214859 1.010884
1.0040765 0.99864554 1.0499138 0.980563 1.0621462 1.0307661 0.99321425 1.0325775
0.9883481 1.3481375 1.293376 1.0459912 0.9825886 1.1114144 0.97966594 1.0752478
1.0870786 0.97993296 1.0426215 1.052557 0.99414086 1.1759315 1.08252 1.0606629
1.0 1.369354 0.97060657 1.0115404 1.0 0.99774826 1.3210486 1.3543767
0.99997896 1.0584021 0.9555865 1.1175765 0.9959244 1.0587374 1.0 1.0
1.0 1.0 1.3304098 1.285345 1.0 0.9713907 1.2341661 1.2033249
1.2177186 1.1406754 0.94840646 1.0050354 1.2170788 0.9611359 1.1542997 1.0
1.0815449 1.1414293 1.0046107 0.9941888 1.0719265 1.0027175 0.99458814 1.2442436
1.0131633 1.0967736 1.0590122 1.0 1.0 1.2229452 0.96084285 1.3126743
00000000: 98da 7c3f 06dd 7d3f c2a7 a13f 6be6 aa3f
00000010: 617c 973f 3823 aa3f 0000 803f 5d48 8e3f
00000020: 3bd0 893f c77b 853f 0000 803f 38f7 773f
00000030: af1e a03f 0000 803f 08bb 803f 3cd5 8f3f
00000040: 4084 b73f 2a81 913f 0ea0 ad3f d149 7b3f
00000050: 3ad5 a43f 5c99 863f 4938 863f b880 823f
00000060: b4a9 863f ff4b 8d3f fc30 7f3f 41e9 7b3f
00000070: 5a52 8f3f 778a 833f 6a32 a93f 46ec 7a3f
00000080: dece 843f d1d6 823f 436a ad3f 3d16 753f
00000090: 0000 803f a536 8f3f 0000 803f 0000 803f
000000a0: 6c5e 8f3f e444 783f d13d 803f 84d0 793f
000000b0: 6f01 7d3f 4625 c03f 0000 803f da12 8c3f
000000c0: 0000 803f 367b 9b3f 6a95 7c3f a7c5 8d3f
000000d0: 4053 7b3f 7cc5 9e3f 0dc0 823f a664 813f
000000e0: 9485 803f 3ca7 7f3f 9363 863f 2d06 7b3f
000000f0: 68f4 873f 25f0 833f 4a43 7e3f 802b 843f
00000100: 6204 7d3f c58f ac3f 588d a53f 0ae3 853f
00000110: ed8a 7b3f d442 8e3f 63cb 7a3f b8a1 893f
00000120: 6425 8b3f e3dc 7a3f 9f74 853f 30ba 863f
00000130: 0480 7e3f ec84 963f 0490 8a3f cdc3 873f
00000140: 0000 803f fe46 af3f ac79 783f 287a 813f
00000150: 0000 803f 6e6c 7f3f 1f18 a93f 375c ad3f
00000160: 9ffe 7f3f b879 873f 51a1 743f bf0c 8f3f
00000170: e7f4 7e3f b584 873f 0000 803f 0000 803f
00000180: 0000 803f 0000 803f de4a aa3f 2f86 a43f
00000190: 0000 803f 10ad 783f 28f9 9d3f 8d06 9a3f
000001a0: 34de 9b3f a701 923f c4ca 723f 00a5 803f
000001b0: 3dc9 9b3f 010d 763f 18c0 933f 0000 803f
000001c0: 1070 8a3f 5b1a 923f 1597 803f 2883 7e3f
000001d0: e334 893f 0c59 803f 549d 7e3f 6043 9f3f
000001e0: 56af 813f 1463 8c3f b68d 873f 0000 803f
000001f0: 0000 803f 7889 9c3f ccf9 753f b605 a83f

net.2.bias f4 [128]
-0.034749743 -0.01909118 -0.01187484 0.033244584 0.039835967 -0.03828998 -0.033896502 -0.036149688
-0.03403825 -0.043741662 -0.034129877 -0.033984147 -0.029914815 0.034639876 -0.038572982 -0.040595256
0.037362065 -0.037504446 -0.036744017 -0.030290222 -0.037851814 -0.034992684 -0.03485441 -0.036599383
-0.037058555 0.016535824 -0.027047204 0.035207763 -0.04203267 0.035444085 -0.04283352 -0.040438574
0.03647078 -0.037922885 0.040754624 0.028916387 0.03407304 -0.034398023 0.032560784 -0.033384558
0.03753232 0.023644004 -0.0388136 -0.029752785 -0.027741909 0.039330114 0.032803506 0.03622846
-0.03306655 0.03746695 -0.020416718 0.037396867 0.03136778 -0.03789924 -0.038970035 -0.02361647
-0.038441885 -0.0017977904 0.039020497 0.030921489 0.0410171 0.02812476 0.007976208 0.034614366
-0.035749737 -0.040416528 0.031859428 0.027380649 0.031563595 -0.03531671 -0.036012083 0.03617347
-0.033933375 -0.031441495 -0.038953207 0.034559026 -0.031986274 0.04167738 0.04001498 -0.031534303
-0.03332922 -0.035444062 -0.029329674 0.03455455 -0.03470441 -0.019529916 -0.036774755 0.038695056
0.035064373 0.038992375 -0.012393858 -0.039047904 -0.033496574 -0.026681764 -0.034376938 -0.03310517
0.032604612 0.033556074 0.034283552 -0.035757102 0.034713212 -0.035509057 -0.034537796 0.036642775
0.0406873 -0.034577854 -0.019423824 0.029278403 0.037242692 -0.029542971 -0.0032644537 0.032052107
-0.038135868 -0.039742026 -0.036380146 0.024327468 -0.03394729 -0.03392991 -0.029991504 -0.037855748
-0.036271896 -0.03323985 -0.0365623 -0.033872195 -0.03438559 0.035846252 0.040088736 -0.039492678
00000000: bf55 0ebd 1b65 9cbc b08e 42bc 792b 083d
00000010: 0a2b 233d f4d5 1cbd 0fd7 0abd b211 14bd
00000020: b16b 0bbd 752a 33bd c5cb 0bbd f632 0bbd
00000030: ea0f f5bc 8be2 0d3d b4fe 1dbd 3647 26bd
00000040: f708 193d 439e 19bd e580 16bd 3323 f8bc
00000050: 810a 1bbd 7d54 0fbd 7fc3 0ebd 3ce9 15bd
00000060: b6ca 17bd 2376 873c 1992 ddbc 0436 103d
00000070: 732a 2cbd d12d 113d 3372 2fbd eba2 25bd
00000080: 6262 153d 0755 1bbd 52ee 263d 0fe2 ec3c
00000090: 2c90 0b3d f1e4 0cbd 755e 053d 3fbe 08bd
000000a0: 7dbb 193d 12b1 c13c 02fb 1ebd 1dbc f3bc
000000b0: 0043 e3bc 9d18 213d f85c 063d 4b64 143d
000000c0: ca70 07bd f276 193d f640 a7bc 752d 193d
000000d0: 807b 003d 3c3c 1bbd 0b9f 1fbd 5477 c1bc
000000e0: 3d75 1dbd d6a3 ebba f5d3 1f3d 104f fd3c
000000f0: 8c01 283d e665 e63c a4ae 023c cbc7 0d3d
00000100: 516e 12bd cd8b 25bd 087f 023d 624d e03c
00000110: d448 013d 41a8 10bd 6881 13bd a22a 143d
00000120: b9fd 0abd ccc8 00bd 668d 1fbd c48d 0d3d
00000130: 0a04 03bd e7b5 2a3d bfe6 233d 1d2a 01bd
00000140: 3884 08bd cb2d 11bd c944 f0bc 1289 0d3d
00000150: 3626 0ebd 34fd 9fbc 20a1 16bd b57e 1e3d
00000160: a99f 0f3d 78b6 1f3d 9c0f 4bbc b2f0 1fbd
00000170: b433 09bd b793 dabc d5ce 0cbd 4999 07bd
00000180: 6a8c 053d 1872 093d e96c 0c3d 0a76 12bd
00000190: 712f 0e3d f271 11bd 8177 0dbd bc16 163d
000001a0: baa7 263d 82a1 0dbd b61e 9fbc 43d9 ef3c
000001b0: cb8b 183d 1a04 f2bc 72f0 55bb 1249 033d
000001c0: 5b34 1cbd 89c8 22bd 5903 15bd 664a c73c
000001d0: 500c 0bbd 17fa 0abd beb0 f5bc a10e 1bbd
000001e0: d791 14bd 8226 08bd 5ac2 15bd 92bd 0abd
000001f0: e8d7 0cbd 85d3 123d 1634 243d 13c3 21bd

net.2.running_mean f4 [128]
0.015503273 0.012854481 6.102685 0.8260794 3.0438313 0.024635304 0.0 5.2212896
14.289928 3.612255 0.0 11.940497 0.8397937 0.0 22.90973 0.2507574
0.65593344 14.333527 0.85145164 0.103768215 0.37623665 0.077298604 7.8767233 21.705296
4.245412 5.733505 6.853765 0.00805383 1.2469287 20.934366 0.107814476 12.762875
11.400799 2.5249045 1.1129664 6.5032454 0.0 2.79042 0.0 0.0
6.498651 30.687504 11.187342 0.489451 0.0031467678 0.06441805 0.0 3.3087974
0.0 1.8391742 8.756315 0.050405975 0.47896233 3.2459404 30.416183 0.48357818
6.5351076 25.64856 10.153145 26.57243 8.2035055 9.789313 10.141178 0.040723007
0.0082885735 0.09991541 1.5217148 17.77815 8.724931 8.029329 19.421347 3.868183
10.184132 6.783288 8.093614 10.7621155 0.0010606613 3.3991275 3.9039133 8.870331
0.0 0.8572914 9.514166 19.712738 0.0 7.203103 1.7021275 0.14115451
16.48481 9.0557 0.36903733 3.3060694 0.0044683 8.428053 0.0 0.0
0.0 0.0 1.8168801 0.07216607 0.0 10.5322895 2.8762834 0.64949155
0.56525916 6.029639 1.2733083 6.9846835 2.4700096 1.0129445 4.692319 0.0
5.063467 0.3117569 24.071512 3.1538754 2.635426 8.191773 0.00024752793 0.96292067
1.824673 2.882777 15.445624 0.0 0.0 0.2107714 0.21584964 0.017702924
00000000: 7101 7e3c 9a9b 523c 3249 c340 f179 533f
00000010: 22ce 4240 facf c93c 0000 0000 ce14 a740
00000020: 8ca3 6441 302f 6740 0000 0000 470c 3f41
00000030: b8fc 563f 0000 0000 2147 b741 4663 803e
00000040: 41eb 273f 2056 6541 bcf8 593f 6e84 d43d
00000050: 17a2 c03e bb4e 9e3d 1e0e fc40 72a4 ad41
00000060: 6ada 8740 df78 b740 0b52 db40 36f4 033c
00000070: 5c9b 9f3f 9579 a741 d6cd dc3d bc34 4c41
00000080: ac69 3641 0998 2140 af75 8e3f 961a d040
00000090: 0000 0000 3e96 3240 0000 0000 0000 0000
000000a0: f3f4 cf40 0280 f541 5aff 3241 5299 fa3e
000000b0: 013a 4e3b 9ced 833d 0000 0000 56c3 5340
000000c0: 0000 0000 0f6a eb3f de19 0c41 7f76 4e3d
000000d0: 8d3a f53e 7dbd 4f40 5854 f341 8f97 f73e
000000e0: 9a1f d140 4030 cd41 4873 2241 5694 d441
000000f0: 8f41 0341 07a1 1c41 4442 2241 2bcd 263d
00000100: cccc 073c 73a0 cc3d 8dc7 c23f a739 8e41
00000110: 5199 0b41 2278 0041 eb5e 9b41 4f90 7740
00000120: 34f2 2241 b210 d940 717f 0141 a031 2c41
00000130: e305 8b3a 4e8b 5940 b7d9 7940 e0ec 0d41
00000140: 0000 0000 7377 5b3f 063a 1841 b0b3 9d41
00000150: 0000 0000 d27f e640 50df d93f cf8a 103e
00000160: e4e0 8341 26e4 1041 76f2 bc3e a496 5340
00000170: d16a 923b 4ed9 0641 0000 0000 0000 0000
00000180: 0000 0000 0000 0000 878f e83f cecb 933d
00000190: 0000 0000 4284 2841 0715 3840 1445 263f
000001a0: d3b4 103f cdf2 c040 c4fb a23f 8782 df40
000001b0: a314 1e40 2aa8 813f 7a27 9640 0000 0000
000001c0: ec07 a240 9a9e 9f3e 7592 c041 18d9 4940
000001d0: d2aa 2840 8111 0341 a3c6 8139 f881 763f
000001e0: e38e e93f 6b7f 3840 4721 7741 0000 0000
000001f0: 0000 0000 75d4 573e b007 5d3e b905 913c

net.2.running_var f4 [128]
0.08228535 0.06256053 36.139526 1.9806056 13.0870495 0.10051221 0.05814969 20.082964
47.398293 20.774137 0.05814969 29.192926 2.0169563 0.05814969 42.4434 0.605054
1.4283729 19.903637 1.8746259 0.3314298 1.4389845 0.21899298 32.347538 47.500137
12.0615225 19.909473 18.017746 0.07735661 2.897989 49.682556 0.38833305 33.955883
37.47412 10.573868 5.6961026 23.454742 0.05814969 7.1448216 0.05814969 0.05814969
18.812714 47.18986 32.42098 1.1797929 0.059285656 0.26307243 0.05814969 7.4729714
0.05814969 7.3595357 19.67845 0.18307701 2.365102 10.4335985 61.074657 1.820292
13.0723715 59.88928 49.009407 57.474056 18.001268 9.816162 45.632378 0.14478977
0.07297964 0.20464976 10.51544 32.249138 12.880767 26.706703 40.232746 10.8086815
6.51064 20.803663 15.344838 29.778551 0.05877653 10.754886 10.050713 44.642715
0.05814969 3.9169724 23.17691 38.41996 0.05814969 31.279678 7.622922 0.9205238
35.617767 29.052317 1.1011771 17.919388 0.060440138 12.855295 0.05814969 0.05814969
0.05814969 0.05814969 9.788317 0.32097346 0.05814969 18.618685 14.266402 2.5134063
1.8157908 11.051654 5.434216 19.204638 14.255036 5.0585575 13.597741 0.05814969
25.91438 1.2006868 47.90422 14.396641 8.578836 10.682792 0.058160402 6.841062
12.807077 8.947652 46.21073 0.05814969 0.05814969 0.47426534 0.8375488 0.07618892
00000000: 3985 a83d bc1f 803d e08e 1042 7c84 fd3f
00000010: 8e64 5141 58d9 cd3d 5f2e 6e3d e9a9 a041
00000020: da97 3d42 6f31 a641 5f2e 6e3d 1d8b e941
00000030: d015 0140 5f2e 6e3d 0bc6 2942 d2e4 1a3f
00000040: ecd4 b63f a63a 9f41 bef3 ef3f 2bb1 a93e
00000050: a530 b83f b23f 603e e163 0142 2400 3e42
00000060: fffb 4041 9a46 9f41 5824 9041 246d 9e3d
00000070: a778 3940 f0ba 4642 97d3 c63e d3d2 0742
00000080: 80e5 1542 902e 2941 7946 b640 50a3 bb41
00000090: 5f2e 6e3d 61a2 e440 5f2e 6e3d 5f2e 6e3d
000000a0: 7080 9641 6bc2 3c42 15af 0142 7403 973f
000000b0: 84d5 723d 6eb1 863e 5f2e 6e3d 9522 ef40
000000c0: 5f2e 6e3d 5181 eb40 776d 9d41 8a78 3b3e
000000d0: d55d 1740 05f0 2641 734c 7442 54ff e83f
000000e0: 6f28 5141 9f8e 6f42 a209 4442 6fe5 6542
000000f0: 9902 9041 000f 1d41 8e87 3642 c543 143e
00000100: 5976 953d b58f 513e 3e3f 2841 1eff 0042
00000110: 9f17 4e41 54a7 d541 55ee 2042 5cf0 2c41
00000120: 2a57 d040 e76d a641 7584 7541 793a ee41
00000130: a9bf 703d 0314 2c41 b8cf 2041 2492 3242
00000140: 5f2e 6e3d adaf 7a40 506a b941 0aae 1942
00000150: 5f2e 6e3d c83c fa41 faee f340 73a7 6b3f
00000160: 9878 0e42 256b e841 5ff3 8c3f e85a 8f41
00000170: 1490 773d 4aaf 4d41 5f2e 6e3d 5f2e 6e3d
00000180: 5f2e 6e3d 5f2e 6e3d f29c 1c41 a256 a43e
00000190: 5f2e 6e3d 11f3 9441 2f43 6441 a6db 2040
000001a0: d56b e83f 93d3 3041 19e5 ad40 19a3 9941
000001b0: a114 6441 b4df a140 5990 5941 5f2e 6e3d
000001c0: a650 cf41 1bb0 993f ec9d 3f42 a458 6641
000001d0: ea42 0941 b7ec 2a41 9a39 6e3d fbe9 da40
000001e0: cae9 4c41 9529 0f41 cad7 3842 5f2e 6e3d
000001f0: 5f2e 6e3d e8d2 f23e 9969 563f f008 9c3d

net.3.weight f4 [1, 128]
-0.08158746 -0.010286149 -0.17364228 0.22401953 0.19390617 -0.3373202 -0.0668525 -0.14663215
-0.07069618 -0.054109056 -0.0743929 -0.046578553 -0.20875446 0.09528602 -0.054623082 -0.20043117
-0.2903469 -0.20268525 -0.32645467 -0.024866452 -0.30973467 -0.093554564 -0.07346875 -0.08357766
-0.119243965 -0.082076296 0.038546663 0.011538969 -0.13469684 0.09793317 -0.22742058 -0.021448854
0.12494279 -0.093466654 0.34774426 0.011547614 0.07246526 -0.12842938 0.035354514 -0.052975647
0.15305685 -0.0025682382 -0.054963894 -0.056306325 -0.026447354 0.4731378 0.039558016 0.16177608
-0.045430947 0.17798902 0.039886806 0.1315822 0.027338542 -0.27052665 -0.0630412 -0.0392302
-0.045348838 0.024575692 0.08212014 0.005814255 0.08607761 -0.031883802 -0.030972067 -0.0453317
-0.079251975 -0.2712831 0.19860846 0.062744886 0.062629566 -0.16090065 -0.051428247 0.14182176
-0.083658054 -0.06768498 -0.079513706 0.113616996 -0.063497506 0.1411534 -0.08420172 -0.07063276
-0.05162358 -0.2972289 -0.0015259776 0.08944273 -0.098521106 0.041588977 -0.2679032 0.28945783
0.012100917 0.06882984 -0.0122698005 -0.1952062 -0.08395602 -0.07861292 -0.083606154 -0.046322543
0.035950676 0.057315625 0.19337898 0.13831891 0.09897955 -0.046151407 -0.27370456 0.23974277
0.23709524 -0.18607655 -0.013068493 0.046370957 0.16212657 -0.047272753 0.12173352 0.03195775
-0.115707606 -0.17961377 -0.07350846 -0.035102487 -0.13501337 0.0039117103 -0.026943224 -0.24554305
-0.08289922 -0.11166284 -0.13312307 -0.06612166 -0.08395311 0.24088395 0.031127144 -0.25749454
00000000: 5417 a7bd 3c87 28bc 48cf 31be 6065 653e
00000010: 578f 463e 3cb5 acbe f7e9 88bd bd26 16be
00000020: 29c9 90bd 75a1 5dbd 4e5b 98bd 27c9 3ebd
00000030: bbc3 55be 5125 c33d 74bc 5fbd d43d 4dbe
00000040: 59a8 94be b98c 4fbe 1125 a7be bbb4 cbbc
00000050: 8b95 9ebe 8999 bfbd c976 96bd c42a abbd
00000060: 2e36 f4bd 9e17 a8bd 1be3 1d3d f20d 3d3c
00000070: f8ed 09be 3091 c83d f1e0 68be 82b5 afbc
00000080: 01e2 ff3d 726b bfbd 890b b23e 3432 3d3c
00000090: ab68 943d fe82 03be e5cf 103d fefc 58bd
000000a0: efba 1c3e e34f 28bb d221 61bd 76a1 66bd
000000b0: 1fa8 d8bc 1e3f f23e 9607 223d a1a8 253e
000000c0: cd15 3abd c142 363e 5960 233d 7cbd 063e
000000d0: 14f5 df3c 7882 8abe bf1b 81bd d9af 20bd
000000e0: b4bf 39bd f652 c93c 9b2e a83d 8285 be3b
000000f0: 7549 b03d 9798 02bd 22b9 fdbc bcad 39bd
00000100: dc4e a2bd 9ee5 8abe 0460 4b3e 6480 803d
00000110: ee43 803d 24c3 24be 6da6 52bd b939 113e
00000120: ea54 abbd 6c9e 8abd 15d8 a2bd 07b0 e83d
00000130: fb0a 82bd 848a 103e f471 acbd e9a7 90bd
00000140: 3f73 53bd 632e 98be 5003 c8ba c02d b73d
00000150: 6fc5 c9bd 3459 2a3d 9c2a 89be d133 943e
00000160: ed42 463c a9f6 8c3d 4607 49bc 22e4 47be
00000170: 22f1 abbd d0ff a0bd b439 abbd b5bc 3dbd
00000180: 0441 133d cac3 6a3d 2405 463e 79a3 0d3e
00000190: cab5 ca3d 4209 3dbd 0123 8cbe 217f 753e
000001a0: 18c9 723e da8a 3ebe 3c1d 56bc 79ef 3d3d
000001b0: 8204 263e 13a1 41bd 6c4f f93d 21e6 023d
000001c0: 1cf8 ecbd acec 37be 9a8b 96bd a0c7 0fbd
000001d0: f240 0abe ce2d 803b 09b8 dcbc a36f 7bbe
000001e0: 11c7 a9bd 7daf e4bd 6a51 08be cb6a 87bd
000001f0: 9cef abbd 48aa 763e 5afe fe3c 53d6 83be
