saved_models/mlp/MLP_parity5.pth (torch, 9136 bytes, 7 tensors)

net.0.weight f4 [128, 5]
000000 3c ec c8 be 03 3a 04 3e db 91 9f 3e dc c7 8b 3e
       -0.39242733 0.12912755 0.31165966 0.27300918
000010 50 9c b2 be b7 4c 58 3e d8 62 4d 3e 6c 80 3e 3e
       -0.34884882 0.21123014 0.20057237 0.18603677
000020 64 4c b1 be 75 d9 9b be f4 08 d6 be 2f 2d c0 3e
       -0.34628594 -0.30439344 -0.41803706 0.37534472
000030 80 d5 4f be 8b db 42 3e ed ea 81 bd 3b 8b 8e 3c
       -0.20296288 0.19029061 -0.06343637 0.017400375
000040 1c 6d 82 be 56 fe bd 3e ed ca 68 be 24 6b c1 3e
       -0.2547387 0.37108105 -0.2273366 0.37777054
000050 56 fc 64 be 7d 66 51 bb 30 c8 c1 3d 1c d3 a4 3e
       -0.22361884 -0.0031951957 0.09462011 0.32192314
000060 84 77 49 be 0e e1 a4 be 3e 9e d3 3e c5 9b 46 be
       -0.19674498 -0.32202953 0.41331667 -0.19395359
000070 2d 88 57 bc 6f 32 a7 be 5f 91 fc 3d 01 57 b0 3d
       -0.013155025 -0.32655665 0.12332415 0.08610345
000080 99 c2 d1 3e 13 d8 5c 3e e2 0d d0 3e ec b2 4e 3e
       0.4096878 0.21566801 0.40635592 0.20185441
000090 01 7c 47 3e db 0a 81 3e 1d df 8d 3d e1 91 b9 be
       0.19480897 0.25203595 0.06927321 -0.3624411
0000a0 2b d4 af bd a0 e4 bc be 9e 08 86 3e 66 f7 22 be
       -0.0858539 -0.36893177 0.2617845 -0.15914688
0000b0 c4 87 e0 bd 20 f9 df 3e b9 40 62 3e d9 c5 01 3b
       -0.10963395 0.43744755 0.22095002 0.0019801764
0000c0 24 25 de 3e 3e 2f 31 be 1d a2 8a bd bc 20 56 be
       0.4338771 -0.17303178 -0.06769202 -0.20910925
0000d0 25 58 d3 bb d9 39 81 3e 3f eb 88 3d 9c c7 97 be
       -0.0064497166 0.25239447 0.06685495 -0.29644477
0000e0 08 0c d1 be 94 58 f7 bd 04 87 73 3e 60 c5 cd bd
       -0.40829492 -0.12077442 0.23781973 -0.10047412
0000f0 6c c1 8d be bb 49 34 be b9 ad 57 be 7a db 1b be
       -0.27686632 -0.17606251 -0.21062364 -0.15220442
000100 ec 97 97 3e 04 1f fd bb af 5f 62 be 26 f3 8d be
       0.29608095 -0.0077246446 -0.22106813 -0.2772457
000110 42 18 1f be e5 68 d8 3e 8f f2 06 3c 33 d4 a8 bd
       -0.15536597 0.42267528 0.008236541 -0.08243599
000120 d7 7b 59 3d 8f 33 83 bd 8c e2 8d be d6 e6 60 be
       0.05309662 -0.064063184 -0.27711904 -0.21963057
000130 ae 19 87 3e 1c e9 b8 be 28 9b cd 3e 60 6e d7 be
       0.2638678 -0.36115348 0.40157437 -0.42076397
000140 d0 32 48 be bf ad 66 3e 92 7b 27 be b8 80 4a 3d
       -0.19550633 0.22527216 -0.16355732 0.049439162
000150 55 43 c2 3d 9b 2f 61 3e 82 86 10 be d6 c8 d5 bc
       0.09485499 0.21990816 -0.1411381 -0.026096743
000160 82 82 bb be 3b 4d 52 be d7 78 ad be f7 84 c0 3c
       -0.36623007 -0.20537274 -0.33881256 0.023500903
000170 e4 49 f5 3d 70 57 06 3e a5 fb b2 be d7 12 7d 3e
       0.11976984 0.13119292 -0.34957615 0.24714218
000180 3e 80 71 be 74 ac c2 3e 1d dc 77 3e 72 75 2b be
       -0.23584077 0.38022196 0.2420506 -0.1674402
000190 c2 6c 7c be 69 58 db be a9 07 0c 3d 48 ba 7e bd
       -0.24650863 -0.4284089 0.034186993 -0.06218937
0001a0 6c ba 9b 3e f9 49 c9 3d ed 32 6c be b3 b6 38 3e
       0.30415666 0.09828562 -0.23066302 0.18038444
0001b0 cb af 59 be 52 c5 02 3e 80 09 00 bd ef 91 6f be
       -0.21258466 0.12770584 -0.03125906 -0.23395513
0001c0 fb b2 cd be 52 2f 2e be 00 90 4e bd b4 be 07 be
       -0.40175614 -0.17010239 -0.050430298 -0.13256341
0001d0 f0 cb b7 3d e0 5f 8c bd b9 c2 cf be 8c ba 43 3e
       0.08974445 -0.06854224 -0.4057825 0.1911413
0001e0 a4 01 3b be 0a 37 74 3e a0 28 7c bd 68 c6 3e be
       -0.18262345 0.2384912 -0.06156218 -0.18630373
0001f0 7d 97 84 bd 0f 8d a3 be dc 88 b1 bd 7e 86 a0 be
       -0.064742066 -0.31943557 -0.08668682 -0.3135261
000200 8e b6 b9 be c3 0a 4e be 74 34 58 3c b0 81 f6 bd
       -0.3627209 -0.20121293 0.0131961 -0.12036455
000210 9b 21 d2 3d 11 e6 d7 be b4 fa 5b 3e bf 8a f1 bd
       0.10260316 -0.42167714 0.21482354 -0.11794042
000220 33 e5 56 3e ed 2a 41 3e 4d ec b1 3e 85 17 45 be
       0.2098587 0.18864031 0.34750596 -0.19247253
000230 4c fe cb 3e da a4 cb bd fe 99 31 be 84 1d a9 be
       0.3984245 -0.09943552 -0.173439 -0.3303033
000240 0e 71 b2 3e cd 3b ae 3e 44 1d af 3e 65 4b af be
       0.3485188 0.3403 0.34202015 -0.3423721
000250 33 2f e9 bd bb 80 86 be 16 b9 76 3d bb 97 59 3e
       -0.11385956 -0.2627009 0.060235105 0.21249287
000260 f8 ac 8b bd de 58 c6 be fb 75 91 3c a3 a7 d3 3e
       -0.068201005 -0.38739675 0.017756453 0.41338834
000270 ef 0d 88 3d ac 81 dd bd df 70 4b 3e 14 ea a7 be
       0.066432826 -0.108157486 0.19867276 -0.32795775
000280 9a 6c 92 bd b3 85 94 3e 81 a4 b3 be 81 42 26 be
       -0.0714962 0.29008254 -0.35086444 -0.16236307
000290 9c 92 84 3e 6e 29 43 bd a2 04 33 be b6 35 30 3d
       0.25893104 -0.047646932 -0.17482236 0.043019973
0002a0 7f b3 63 3e d0 7a 5c be d7 f5 8b 3e 41 07 e2 3e
       0.22236441 -0.21531224 0.27335998 0.4414616
0002b0 e5 ba 96 3e 9e ff 03 bd 69 98 4d be 68 fd 2f be
       0.29439464 -0.032226197 -0.20077671 -0.1718651
0002c0 ba 09 dc 3e 93 2e a0 be 9d 81 29 3e 8f 05 8b be
       0.4297617 -0.31285533 0.1655335 -0.27152678
0002d0 30 e8 51 be 10 bf b6 3e fc a6 7f 3e e2 8a 6c bd
       -0.20498729 0.35692644 0.24966043 -0.057749636
0002e0 aa b3 cc be ad 96 64 be ae 8d b3 be 4c 0b b2 3d
       -0.39980823 -0.22323103 -0.3506903 0.08693561
0002f0 dd 5d ef 3c 48 07 64 be 85 63 df 3d 73 8c ac 3e
       0.029219562 -0.22268403 0.10907654 0.33700904
000300 f4 e8 10 3e d4 94 93 3e 3b c1 43 be 0c 3d 46 be
       0.14151365 0.28824484 -0.1911668 -0.19359225
000310 75 90 ad 3e 47 ac c3 be 60 93 b5 be 98 6c 9a be
       0.33899274 -0.38217375 -0.35464 -0.30160975
000320 cb 59 84 be 35 10 89 3e 0b 37 e7 3c 5e 59 92 3e
       -0.25849757 0.26770177 0.028224489 0.28583807
000330 5c fb 28 3e c2 33 83 be e9 54 3a bd bc 27 4f be
       0.16502136 -0.25625426 -0.045491133 -0.20230001
000340 4f 76 df 3e 8f a6 de be 94 31 09 bc 2c 0b 8f 3e
       0.4364495 -0.4348645 -0.008373637 0.2793821
000350 b0 72 b8 3e c8 ce 2d be 31 14 c3 be cd 1f 82 3e
       0.36025 -0.16973412 -0.38101342 0.25414887
000360 f9 31 2e bc 4a 7d 80 3e b3 98 38 3e aa 72 73 be
       -0.010632032 0.25095588 0.18027 -0.2377421
000370 92 ad ca 3e d9 39 88 3e 2a 1c 6f 3c bb bc 06 be
       0.3958555 0.26606634 0.014594117 -0.13157932
000380 18 45 1c 3e fe a5 32 3e fb 9b a5 be 30 ff 2b bd
       0.15260732 0.17446133 -0.32345566 -0.041991413
000390 64 6a ba 3e c0 d9 06 bc 53 d9 4d be b1 47 83 3e
       0.36409295 -0.008230627 -0.20102434 0.25640634
0003a0 04 61 70 3e 30 c3 08 3d e8 0f 3c 3e a7 26 4d 3e
       0.23474509 0.03338927 0.18365443 0.20034276
0003b0 4e dd 4b 3c b9 23 82 be 31 ec d8 3e 5d a7 d2 be
       0.0124429 -0.2541788 0.423677 -0.41143313
0003c0 0f 13 5d be 88 95 89 3e ca 97 d1 be 53 07 63 3e
       -0.21589302 0.26871896 -0.40936118 0.22170763
0003d0 05 c0 3e 3e c4 13 e3 3e 96 bd 8a 3e 0a b1 1c be
       0.18627937 0.44351017 0.27097768 -0.1530191
0003e0 73 96 96 3e 9d 26 7f 3e d4 4f 1e 3e 88 7b 18 3d
       0.2941166 0.24917074 0.1546014 0.037227184
0003f0 ae 30 7d be 68 b9 3f 3d f8 e1 82 3d 1b c5 d8 3e
       -0.24725601 0.046807677 0.06390756 0.4233788

net.0.bias f4 [128]
000000 2f 3c 11 3e 33 ea b6 bd 32 e3 31 bd a0 35 5b be
       0.14183114 -0.08931389 -0.04342956 -0.21407175
000010 e8 d9 f5 3b 45 70 50 3e d0 7c 48 3e 08 da e7 be
       0.007502783 0.20355327 0.19578862 -0.45283532
000020 b6 5a 0c be 6c d1 97 3e 0c cf 84 3e f1 6b b8 be
       -0.13706478 0.29651964 0.25939214 -0.36019853
000030 e6 fe e1 3d e7 4e d3 be ed 32 83 3e 11 17 79 be
       0.11034946 -0.41271135 0.2562479 -0.24325205
000040 1d cd cf 3e ae e4 a8 3e 68 c1 14 be 50 05 55 be
       0.40586177 0.3298697 -0.14526904 -0.20802808
000050 e3 3c 6f be c3 ad df 3e a8 41 c7 be 8c 6c a8 be
       -0.2336307 0.43687257 -0.3891728 -0.32895315
000060 e7 e9 75 bd 48 3b 2f bd 29 31 68 be 00 17 b5 3e
       -0.06003752 -0.042781144 -0.22675003 0.3536911
000070 84 c4 90 be c8 de 2d 3e bb 2b 99 be 8e a2 cf 3d
       -0.2827493 0.16979516 -0.29916176 0.10138427
000080 15 d8 1b 3e c0 ce 5f be 68 df d2 be 48 24 88 3e
       0.15219148 -0.21856213 -0.4118607 0.2659018
000090 97 2c b1 be 17 ae 96 3e b1 6c 84 3e 46 e1 41 3e
       -0.34604332 0.29429695 0.25864175 0.18933591
0000a0 fd 24 1f 3e 57 36 19 3e 2c 5e a6 3c 4c 3f 78 be
       0.15541454 0.14962135 0.020308577 -0.24242896
0000b0 49 0f 89 be 70 fa a1 be ba eb 48 be e2 b2 bd 3e
       -0.26769474 -0.3163638 -0.19621173 0.3705054
0000c0 0e 08 c6 3e ab 05 ae be 68 1d 8a be 2e 6e 95 be
       0.3867802 -0.339887 -0.2697556 -0.29185623
0000d0 47 53 7a be e4 28 19 be e1 0d ed 3d f7 d7 94 bc
       -0.2444583 -0.14957005 0.11574913 -0.018169386
0000e0 84 6b 5e bc a1 41 75 bd 12 a5 b8 3e 82 a8 3c be
       -0.013575438 -0.05987704 0.3606344 -0.18423656
0000f0 fc 53 bc 3e 78 3e 60 3e 6e d8 96 3e b4 72 6f 3e
       0.36782825 0.2189883 0.29461998 0.233836
000100 c6 e8 99 3e 1a 6c be be fa f7 46 3e 71 79 e0 3e
       0.30060405 -0.3719185 0.19430533 0.43842652
000110 cb 38 de bd 8c c7 05 be 52 05 a7 be 5f 11 e2 3d
       -0.10850676 -0.13064402 -0.32621247 0.110384695
000120 0d e3 7e 3e 21 87 0a 3e 5b da 0a 3e 7c c6 84 3e
       0.248913 0.1352811 0.13559859 0.25932682
000130 02 54 e0 be 5c 5b 0e 3e 24 3c b2 be 93 35 e1 be
       -0.43814093 0.13902038 -0.3481151 -0.43986186
000140 c1 ee 7e bd 19 6f 9d be c3 f4 04 3e 80 99 9d 3d
       -0.062239412 -0.30748823 0.12983994 0.076952934
000150 0a 1f c3 3e 67 c8 c7 3e c0 b1 52 3e 98 32 03 3e
       0.38109618 0.39020082 0.20575619 0.12812269
000160 02 8d e8 3d 3d 98 ca be 7e 83 a2 be 05 af 9e 3e
       0.1135502 -0.39569274 -0.31740946 0.30992904
000170 3b 8a 20 be a1 32 8e 3e 02 77 90 be 35 1f df 3d
       -0.1567773 0.27773002 -0.28215796 0.10894624
000180 5e 48 70 3e c3 46 55 3d 9c 98 1f be 93 d4 cd be
       0.23465106 0.052069437 -0.1558556 -0.40201244
000190 07 2a 21 be 1b 89 a6 bc df 7e 97 3e 0d a4 bd 3e
       -0.15738688 -0.020329049 0.29588982 0.37039223
0001a0 44 a2 34 be 48 60 3a be 84 26 28 3e a4 a0 bb be
       -0.17640024 -0.18200791 0.16420943 -0.36645997
0001b0 3f eb c7 be 1d 0e 74 3d 8b bc 23 3d b9 43 86 bd
       -0.39046666 0.059583772 0.03997473 -0.06555886
0001c0 cf 30 2d 3e b7 23 8c be 9a 9c 71 3d cc 56 5a be
       0.1691315 -0.27370998 0.058987238 -0.21322173
0001d0 72 7c 53 3e 90 c7 60 3e 7d a0 91 bd 9f a2 5f be
       0.20652941 0.21951127 -0.07110689 -0.21839379
0001e0 cb 66 e2 bd 7c 11 89 3d 9c df 7e bd f9 7a 86 bd
       -0.110547625 0.06692788 -0.06222497 -0.06566424
0001f0 6c ac 87 be 7f 13 2b 3e e7 41 09 be d1 c2 bc 3e
       -0.26498735 0.16706656 -0.13404046 0.36867383

net.2.weight f4 [128]
000000 04 1a 7f 3f be a2 81 3f f8 4e 7f 3f 84 ad 7e 3f
       0.9964907 1.012779 0.9972987 0.99483514
000010 2a 94 7f 3f be 11 81 3f 91 30 7e 3f 5c 90 7d 3f
       0.99835455 1.008354 0.99292856 0.990484
000020 09 c1 80 3f b6 1f 7c 3f 17 ce 7e 3f 00 00 80 3f
       1.005891 0.9848589 0.9953322 1.0
000030 46 ba 80 3f 28 e4 7e 3f 89 d1 7e 3f ab 80 7c 3f
       1.0056846 0.9956689 0.99538475 0.9863383
000040 39 7c 7f 3f f2 82 80 3f 06 10 7e 3f 5d 37 7f 3f
       0.99798924 1.0039961 0.992432 0.9969385
000050 65 f5 7d 3f 3e 17 81 3f 00 00 80 3f 00 00 80 3f
       0.9920257 1.0085218 1.0 1.0
000060 54 7f 80 3f 00 00 80 3f 3f 72 80 3f 95 aa 81 3f
       1.0038857 1.0 1.0034865 1.0130183
000070 c9 c2 80 3f 71 0d 81 3f 2f a2 7e 3f 70 83 7d 3f
       1.0059444 1.0082227 0.9946622 0.9902868
000080 1f 59 80 3f 24 ef 7e 3f 17 66 82 3f 5e 84 7c 3f
       1.0027198 0.9958365 1.0187405 0.98639476
000090 e1 73 7d 3f 90 f5 7c 3f e6 9c 82 3f 1c 7a 81 3f
       0.9900494 0.988122 1.0204132 1.011539
0000a0 af fa 7d 3f f4 68 7e 3f c4 c3 81 3f c8 e0 7c 3f
       0.9921064 0.99378896 1.0137868 0.9878049
0000b0 47 79 7f 3f 7e 29 80 3f 03 2b 7f 3f 63 19 7e 3f
       0.9979443 1.0012662 0.99675006 0.9925749
0000c0 82 24 7f 3f 50 0d 7d 3f 00 00 80 3f 0b 7b 80 3f
       0.9966508 0.9884844 1.0 1.003755
0000d0 4f 35 7b 3f 23 3c 84 3f 8f cc 80 3f b0 37 80 3f
       0.9812822 1.0330852 1.0062426 1.0016994
0000e0 4d b6 7f 3f 33 74 7f 3f 52 29 7f 3f 00 00 80 3f
       0.99887544 0.9978668 0.99672425 1.0
0000f0 b7 f7 7d 3f a1 2c 7d 3f 5e a0 7f 3f 9d e6 7d 3f
       0.9920611 0.98896223 0.99854076 0.9918001
000100 b8 a1 80 3f 23 8f 7e 3f 43 70 7e 3f b9 75 80 3f
       1.0049353 0.9943716 0.9939005 1.0035926
000110 47 66 80 3f 00 00 80 3f 55 08 7d 3f 13 21 7c 3f
       1.0031213 1.0 0.9884084 0.9848797
000120 67 16 80 3f 28 8d 7f 3f 9d 38 81 3f 52 14 80 3f
       1.0006837 0.9982476 1.0095402 1.0006201
000130 f0 42 7f 3f 42 79 81 3f 00 00 80 3f 00 00 80 3f
       0.99711514 1.011513 1.0 1.0
000140 2d 10 7d 3f e1 bb 7f 3f 6d 80 7d 3f 84 d5 80 3f
       0.9885281 0.99896055 0.9902409 1.006516
000150 19 1a 7c 3f 63 83 7f 3f 67 84 80 3f 15 58 81 3f
       0.9847732 0.99809855 1.0040406 1.0105006
000160 07 33 80 3f 47 14 7f 3f 2f ee 7e 3f 29 38 82 3f
       1.0015572 0.99640316 0.9958219 1.0173389
000170 81 dc 80 3f 28 47 7e 3f f6 43 7d 3f 6b d1 7f 3f
       1.0067292 0.99327326 0.98931825 0.9992892
000180 b4 f5 7e 3f 14 bc 7e 3f 00 00 80 3f 65 c2 7d 3f
       0.99593663 0.99505734 1.0 0.9912475
000190 3a 02 81 3f d5 fc 7f 3f 9a 64 7e 3f e2 5c 7e 3f
       1.0078804 0.99995166 0.99372256 0.9936048
0001a0 63 c1 80 3f 00 00 80 3f 03 6e 7e 3f 0a ca 7e 3f
       1.0059017 1.0 0.99386615 0.9952704
0001b0 e2 e9 80 3f 36 bf 7e 3f ac bb 7f 3f ed 20 7e 3f
       1.0071375 0.99510515 0.9989574 0.9926899
0001c0 16 2e 7f 3f 46 30 7c 3f bd 31 80 3f 37 5e 7e 3f
       0.99679697 0.9851116 1.0015179 0.9936251
0001d0 e4 ac 81 3f d2 eb 7c 3f c1 4a 80 3f 18 da 80 3f
       1.0130887 0.98797333 1.0022813 1.0066557
0001e0 99 bd 80 3f 6f e8 80 3f cc 7d 80 3f df cf 7e 3f
       1.0057861 1.0070933 1.003839 0.99535936
0001f0 00 00 80 3f ee 7f 80 3f 0f 44 7c 3f f4 8d 7f 3f
       1.0 1.0039041 0.9854135 0.9982598

net.2.bias f4 [128]
000000 a8 95 58 bb 2a 7b 61 3b 9b 0a 48 3b 12 95 53 3b
       -0.0033048186 0.0034405687 0.00305239 0.0032284898
000010 86 72 50 3b be eb 58 3b 99 0f 66 bb a3 75 50 bb
       0.0031806543 0.0033099498 -0.0035104512 -0.0031808398
000020 78 43 55 bb af f5 6f bb 8b c3 52 3b 55 92 49 bb
       -0.0032541435 -0.0036614945 0.003216001 -0.0030757387
000030 bd 51 4e 3b 1b 49 4d bb 9f ab 43 bb 42 7c 57 3b
       0.0031481825 -0.0031324092 -0.0029856933 0.003288046
000040 45 ff 52 3b 2f de 58 bb e8 04 55 bb 1e 54 55 bb
       0.003219561 -0.0033091416 -0.0032504145 -0.0032551358
000050 bb a1 55 bb a5 22 61 bb f9 6d 49 3b c3 5f 00 ba
       -0.003259762 -0.0034352925 0.0030735715 -0.0004897082
000060 47 f6 55 3b 8b 08 4d 3b 94 a6 4c bb 76 cb 56 3b
       0.0032648013 0.003128561 -0.0031227218 0.003277508
000070 8f fb 52 bb f1 3d 5a 3b f7 e6 1f 3b 89 76 58 bb
       -0.0032193398 0.003330108 0.002439914 -0.0033029637
000080 ee 30 59 3b a9 17 50 3b 0c b7 5c 3b 1a a2 5b bb
       0.0033140737 0.0031752384 0.003367844 -0.0033513368
000090 91 4e 56 bb ed 7a 57 3b d6 be 7a 3b 7a 8f 5b 3b
       -0.0032700638 0.0032879666 0.003826072 0.0033502267
0000a0 49 ab 61 bb ca f9 4a 3b a9 1b 5c 3b a6 af 57 bb
       -0.003443437 0.003097164 0.0033585823 -0.003291109
0000b0 d8 b6 56 bb cb 72 5e bb 95 d6 94 bb 70 f9 59 bb
       -0.0032762792 -0.0033942934 -0.0045421817 -0.0033260249
0000c0 72 c3 2b 3b b8 f8 5a bb 9e 3e 01 3b 38 0e 5a 3b
       0.0026209024 -0.0033412408 0.001972116 0.0033272635
0000d0 ed 18 59 bb 50 d9 51 ba d9 3e 5f bb ae 07 5b 3b
       -0.003312643 -0.00080050994 -0.003406456 0.0033421325
0000e0 5f de 4e 3b 8d 7a 54 3b 51 18 9b bb c2 9e 49 bb
       0.003156565 0.0032421679 -0.0047331234 -0.0030764793
0000f0 87 4b 3a 3b 46 6a 7e bb a7 1b 63 bb da de 59 bb
       0.0028426365 -0.0038820668 -0.0034653933 -0.0033244402
000100 67 3f 7f bb 29 ad 54 bb 26 91 58 bb 89 c2 52 bb
       -0.0038947703 -0.0032451844 -0.00330455 -0.003215941
000110 4e 86 53 3b 87 1e 3a bb fb 47 5e bb 85 58 5a bb
       0.0032276097 -0.0028399543 -0.0033917415 -0.0033316922
000120 f0 8f 51 3b 56 fd 66 bb 2a 85 5c 3b 06 61 b9 bb
       0.0031976663 -0.0035246215 0.0033648708 -0.005657318
000130 1f 88 61 bb cf 4b 6b bb af a4 3c 39 cb ad cb 3a
       -0.003441341 -0.003590334 0.00017990427 0.0015539465
000140 39 6f 53 bb f2 88 6e bb 5c 41 58 bb 55 d3 5a 3b
       -0.0032262339 -0.0036397544 -0.0032997942 0.0033390124
000150 95 42 4f 3b 3d 9c 53 3b a7 a4 3a 3b de d8 58 bb
       0.003162538 0.003228917 0.0028479488 -0.0033088247
000160 cd 67 55 3b fe 62 4a bb d6 07 55 3b 43 44 59 3b
       0.003256309 -0.0030881758 0.0032505891 0.003315226
000170 13 8d 5d bb 22 22 47 3b 8e 95 63 bb e4 b0 44 3b
       -0.003380601 0.0030385335 -0.0034726593 0.0030012662
000180 41 dc 67 bb ba 73 54 3b a5 cb 4c bb d9 00 56 bb
       -0.0035379084 0.0032417611 -0.0031249311 -0.0032654314
000190 2a 7f 5f bb ae 5b 53 3b 36 3e 62 bb 4c 86 57 3b
       -0.0034102895 0.003225069 -0.0034521944 0.0032886444
0001a0 e2 9b 56 3b 96 98 47 bb 0c 46 57 3b 67 ac 54 3b
       0.0032746722 -0.0030455939 0.0032848148 0.0032451393
0001b0 17 f8 54 3b ae 56 5b bb 5c fb 81 bb 0b 10 5f bb
       0.0032496506 -0.0033468413 -0.003966732 -0.0034036662
0001c0 68 1b 52 3b ac de 52 bb 0d 3f 5a 3b 47 23 56 3b
       0.0032059792 -0.003217618 0.0033301741 0.0032674836
0001d0 0f e7 64 bb db 85 73 bb a5 08 58 bb c7 49 55 3b
       -0.003492776 -0.0037158641 -0.0032964137 0.0032545195
0001e0 42 cb 58 bb 74 12 69 bb fa bb 59 bb 2c 98 5c bb
       -0.0033080135 -0.0035563977 -0.0033223615 -0.0033660037
0001f0 53 26 3f bb 14 57 57 3b 26 3f 51 3b f0 6b 58 bb
       -0.002916713 0.00328583 0.0031928509 -0.003302332

net.2.running_mean f4 [128]
000000 cb 19 da 3d cf 6e 23 3d ef 5e c3 3c 72 54 15 3d
       0.10649451 0.039900597 0.023848979 0.036457486
000010 3e 85 02 3d 12 ed 28 3d 21 64 a7 3e e7 3d 3a 3c
       0.03186535 0.041241713 0.3269358 0.011367298
000020 fa 35 d5 3b 1e 46 9b 3e d7 c4 bc 3d 00 00 00 00
       0.0065066786 0.30326933 0.09217232 0.0
000030 d2 40 03 3c c7 1c 66 39 75 d8 79 3d a3 f2 ee 3b
       0.00801106 0.0002194523 0.060997445 0.007292108
000040 45 0b 12 3e db ee b1 3d 34 be 90 3b 1a ac 66 3d
       0.14262111 0.08688136 0.004417205 0.056316473
000050 cf b2 40 3b 0a 7a 47 3e 00 00 00 00 00 00 00 00
       0.0029403453 0.19480148 0.0 0.0
000060 22 fc 8f 3b 00 00 00 00 5c dc bd 3b b7 d2 60 3e
       0.0043940702 0.0 0.005794091 0.21955381
000070 46 e1 db 3c 17 67 b3 3d e9 98 88 39 d4 f3 db 3d
       0.026840817 0.08759897 0.00026053868 0.10739866
000080 5a e3 71 3d fe 73 19 3b 80 6f 5d 3d 3a b6 be 3d
       0.05905471 0.0023415084 0.054061413 0.09312101
000090 62 08 09 3c 9e 11 1b 3d 7a 6e 70 3e 76 a5 8e 3c
       0.008363815 0.037858598 0.23479643 0.017412882
0000a0 66 de 0f 3e 58 e4 09 3d b3 2b 98 3d d5 c1 11 3d
       0.14049682 0.03366503 0.0743021 0.035585243
0000b0 d9 73 99 3d 23 2b f5 3b 0a 7e 3d 3d 5c 4f 16 3e
       0.07492799 0.007481949 0.04626278 0.1467871
0000c0 87 47 ea 3d ca d2 b2 3d 00 00 00 00 fb 34 c5 3d
       0.11439424 0.08731611 0.0 0.09629246
0000d0 3e 22 cf 3d 00 00 00 00 80 e8 ca 3c 78 94 96 3b
       0.10113953 0.0 0.024769068 0.0045953356
0000e0 b5 57 ce 3d 26 23 29 3d 87 2c e8 3d 00 00 00 00
       0.100753225 0.041293286 0.11336618 0.0
0000f0 5c 04 d5 3d 02 c3 89 3e 8e 01 08 3e 6e 63 e8 3d
       0.10401222 0.26906592 0.13281843 0.1134709
000100 7b c6 44 3e 24 82 47 3a 5e 0c 9f 3d 98 a1 8c 3d
       0.1921634 0.000761064 0.07766031 0.06866759
000110 af a7 d1 3d 00 00 00 00 e1 5d c1 3d 7d ca 67 3d
       0.10237061 0.0 0.09441734 0.056589592
000120 f6 24 78 3e dc 6f 16 3e 5a 2c bb 3d e5 0a 4a 3e
       0.2423285 0.14691108 0.09139319 0.19730718
000130 e8 47 98 3d b0 94 35 3e 00 00 00 00 00 00 00 00
       0.0743559 0.17732501 0.0 0.0
000140 53 a5 8e 3d 09 75 f5 3d 34 8c 3d 3d bc 22 9f 3c
       0.06965127 0.11985213 0.046276286 0.019425742
000150 c5 bf 7c 3d e1 5d 3d 3e 40 d6 ee 3d ee bc c5 3d
       0.061706323 0.18492843 0.11661959 0.09655176
000160 d2 5a d5 3d d6 27 93 3c e8 33 d8 3b 05 b6 7c 3e
       0.10417713 0.017963331 0.0065979846 0.2467881
000170 da 04 f4 38 44 f7 1c 3e 88 07 0f 3e 66 ae 9d 3d
       0.0001163573 0.153287 0.13967717 0.076992795
000180 5a 5a fc 3d 23 b6 80 3c 00 00 00 00 5f c1 9e 3a
       0.12321921 0.01571185 0.0 0.0012112072
000190 07 34 91 3d 0b e1 3b 3b be e5 14 3e 3c 96 63 3d
       0.070900016 0.0028668072 0.14540765 0.055563197
0001a0 7b 6b f1 3c 00 00 00 00 88 4c 88 3d 6b 9d 7d 3c
       0.029470196 0.0 0.06655222 0.015479426
0001b0 f3 c9 c7 3a b8 cf 26 3e d4 76 c0 3d 37 96 29 3d
       0.0015242681 0.16290176 0.09397665 0.04140302
0001c0 96 80 51 3e 16 78 b5 3c 05 03 58 3d ca c5 0f 3c
       0.20459208 0.022151988 0.052737255 0.008775184
0001d0 6f e4 fd 3d 3a 3e 15 3e 48 69 92 3d de f9 a0 3c
       0.12397086 0.14574519 0.07148987 0.019650396
0001e0 54 1d ab 3c 46 c2 a4 3d 4b 71 a9 3c 9c 79 c4 3d
       0.020888008 0.08044867 0.020683905 0.09593508
0001f0 00 00 00 00 95 95 8a 3d 61 0a 49 3d fa 1d 36 3e
       0.0 0.06766812 0.049082164 0.17784873

net.2.running_var f4 [128]
000000 99 91 1f 3f 2d b6 19 3f 4f 46 18 3f 89 c1 19 3f
       0.6233154 0.60043603 0.5948228 0.60060936
000010 56 d9 18 3f de 0f 1a 3f ef 91 23 3f 85 a0 17 3f
       0.5970663 0.6018046 0.6389455 0.5922931
000020 82 4d 17 3f 7f 8e 1e 3f 76 fb 19 3f 59 2a 17 3f
       0.5910264 0.6193618 0.60149324 0.5904899
000030 27 68 17 3f 7d 2a 17 3f 7a be 18 3f b8 6c 17 3f
       0.591433 0.59049207 0.59665644 0.59150267
000040 e6 6b 1b 3f f1 57 1b 3f 96 4b 17 3f 66 66 1a 3f
       0.60711515 0.6068106 0.5909971 0.603125
000050 87 43 17 3f e6 e5 19 3f 59 2a 17 3f 59 2a 17 3f
       0.59087414 0.6011642 0.5904899 0.5904899
000060 36 45 17 3f 59 2a 17 3f 13 50 17 3f 22 2d 1e 3f
       0.5908998 0.5904899 0.5910656 0.6178762
000070 42 50 19 3f 28 63 1d 3f 91 2a 17 3f d8 66 1c 3f
       0.5988809 0.61479425 0.59049326 0.6109443
000080 e0 a4 1d 3f bd 31 17 3f bb e2 19 3f 41 6e 1b 3f
       0.61579704 0.5906027 0.6011159 0.6071511
000090 a1 92 17 3f 48 62 19 3f cc 21 1b 3f 27 97 18 3f
       0.5920811 0.5991559 0.60598445 0.5960564
0000a0 44 45 1f 3f 71 a9 19 3f 9e 6e 1b 3f 17 d9 18 3f
       0.62215066 0.6002417 0.60715663 0.5970625
0000b0 79 57 1b 3f 52 81 17 3f c2 df 19 3f 17 d7 1d 3f
       0.6068035 0.591817 0.6010705 0.61656326
0000c0 10 41 1f 3f b7 58 1c 3f 59 2a 17 3f d8 5e 1d 3f
       0.6220865 0.6107287 0.5904899 0.61472845
0000d0 5d 69 1c 3f 59 2a 17 3f 5d b2 18 3f d5 58 17 3f
       0.6109827 0.5904899 0.5964716 0.5911992
0000e0 04 0b 1e 3f 35 51 1a 3f 92 a0 22 3f 59 2a 17 3f
       0.6173556 0.6028016 0.6352626 0.5904899
0000f0 14 40 19 3f e3 b0 1f 3f 3e 93 1f 3f fd 0e 1a 3f
       0.598634 0.6237928 0.6233405 0.6017912
000100 8a a0 1d 3f 38 2c 17 3f a3 01 1b 3f 8b f4 1a 3f
       0.6157309 0.5905185 0.6054937 0.6052939
000110 62 91 1d 3f 59 2a 17 3f af 52 1c 3f 68 28 1b 3f
       0.6154996 0.5904899 0.61063665 0.6060853
000120 b9 81 21 3f 26 1c 1a 3f b0 c8 19 3f 5f 52 22 3f
       0.63088566 0.601992 0.6007185 0.6340694
000130 35 87 1c 3f 8b a8 21 3f 59 2a 17 3f 59 2a 17 3f
       0.6114381 0.631478 0.5904899 0.5904899
000140 2e cd 1a 3f 38 eb 1f 3f a7 2b 1a 3f e0 7c 18 3f
       0.6046933 0.6246829 0.6022286 0.59565544
000150 bf 8f 1a 3f af 36 1c 3f 82 37 21 3f fe 6e 1c 3f
       0.6037559 0.6102094 0.62975323 0.6110686
000160 f7 84 1e 3f 54 1d 18 3f 96 66 17 3f 83 37 1e 3f
       0.6192164 0.5941975 0.5914091 0.61803454
000170 66 2a 17 3f 42 ee 20 3f 94 c7 1f 3f 2e 9d 1a 3f
       0.5904907 0.6286355 0.6241391 0.6039609
000180 c1 1d 1f 3f d2 02 18 3f 59 2a 17 3f 6d 2d 17 3f
       0.62154776 0.59379303 0.5904899 0.5905369
000190 60 e0 1e 3f 0a 39 17 3f b1 ca 1e 3f 3b 79 1a 3f
       0.6206112 0.5907141 0.6202803 0.60341233
0001a0 6a f5 18 3f 59 2a 17 3f e2 dc 1d 3f 6f 44 18 3f
       0.5974947 0.5904899 0.61665165 0.5947942
0001b0 70 30 17 3f e0 5f 21 3f 8b 6d 1b 3f ec 9a 18 3f
       0.59058285 0.6303692 0.60714024 0.5961139
0001c0 87 eb 22 3f a3 47 18 3f 26 98 1b 3f 3d 70 17 3f
       0.63640636 0.5948431 0.60779035 0.5915564
0001d0 87 8f 1e 3f 63 16 20 3f 03 f1 1d 3f fc 70 18 3f
       0.61937755 0.6253416 0.6169588 0.595474
0001e0 a5 99 18 3f f5 9c 1c 3f 98 2a 18 3f 77 3e 1d 3f
       0.5960944 0.61177 0.5943999 0.6142344
0001f0 59 2a 17 3f f7 d9 1d 3f 8b 6b 1a 3f b0 7b 20 3f
       0.5904899 0.6166071 0.6032035 0.6268873

net.3.weight f4 [1, 128]
000000 14 d1 79 3d 41 dc 07 bd 44 fa 94 bc 19 8d 62 bd
       0.060990408 -0.033169035 -0.018185742 -0.055310342
000010 63 c5 8b bc b7 99 6f bd c1 08 17 3d 35 e1 9e 3c
       -0.017061895 -0.058496203 0.036873583 0.019394496
000020 cd 1d 90 3d ac f0 8c 3b df b4 19 bd 42 b2 5c 3d
       0.07036934 0.0043011513 -0.037526008 0.053880937
000030 77 96 08 bd a7 1c aa 3c b0 eb 1d 3c f9 7f 84 bd
       -0.03334662 0.020765616 0.009638712 -0.06469721
000040 4b 84 9c bd 52 1d b8 3d 3e 34 1b 3d 40 f6 24 3d
       -0.076424204 0.089899674 0.03789162 0.040273905
000050 fa be cc 3c 02 ee 77 3d 04 b5 5a bd 40 a7 04 3a
       0.024993408 0.060529716 -0.053395286 0.00050603226
000060 ad 97 7e bd d6 33 8d bd f5 d6 d7 3c be 0e 4d bd
       -0.062156368 -0.068946525 0.026347617 -0.050062887
000070 f1 52 de 3c ae 4d ae bd 23 45 09 ba 37 7a 31 3d
       0.027139159 -0.0851091 -0.00052364374 0.043329444
000080 a8 3e b4 bd 70 23 9b bc 83 45 81 bd 9c f3 c6 3c
       -0.08801013 -0.018937796 -0.063120864 0.024286084
000090 9a 89 5d 3d da ce 87 bd 63 fc a5 bc 14 6b 14 bd
       0.054086305 -0.06631251 -0.020261949 -0.03623493
0000a0 ee 02 94 3d 57 c3 34 bc 51 16 a9 bd 9b 97 93 3d
       0.07227121 -0.011032901 -0.0825621 0.07206651
0000b0 18 52 e1 3c 8f 21 34 3d bc dc 4f bc ad a1 6c 3d
       0.027504966 0.043977316 -0.0126869045 0.057771374
0000c0 7b 6a 3a bc 4d 3c 04 3d 98 eb e4 bb 21 3c 8e bd
       -0.011377926 0.03228407 -0.006986093 -0.069450624
0000d0 fc ed 78 3d 6b c5 f4 3c 4d 9b 51 3d 38 69 b5 bd
       0.060773835 0.029879292 0.051173497 -0.088579595
0000e0 30 bc 16 bd ab bb 57 bd 06 69 5f 3b 61 62 5d 3d
       -0.036800563 -0.05266921 0.0034089698 0.0540489
0000f0 a7 38 26 bc 01 09 50 3b 51 c3 7b 3d 35 84 35 3d
       -0.010145343 0.0031743648 0.061465565 0.044315536
000100 e1 88 7b 3c 63 6d 33 3d 07 b2 a7 3c 89 f8 21 3d
       0.015352459 0.04380549 0.020470632 0.039543662
000110 6a 3d 12 bd a8 b2 d6 3c ec 75 b0 3b 90 52 94 3d
       -0.0357031 0.026208237 0.005385151 0.0724231
000120 cb 8b ad bd 03 5d d4 3c 07 50 8d bd c7 9b 99 3b
       -0.08473929 0.025923258 -0.0690003 0.0046877596
000130 7c 4c f7 3c 40 db 82 3c 05 15 87 3a 94 18 8f bb
       0.030187838 0.015973687 0.0010305947 -0.0043669436
000140 57 41 86 3c b8 9d 55 3c 7b 13 1d 3d f4 fb fe bc
       0.016388578 0.013038091 0.038348656 -0.031126
000150 62 52 bb bc ff 75 80 bd 7e b5 a9 bc 16 a7 96 3d
       -0.022866432 -0.06272506 -0.020716425 0.07356088
000160 66 20 a4 bd 7c db 16 3c 4e 42 74 bd 3c 82 4a bd
       -0.08013992 0.009207603 -0.059633546 -0.049440607
000170 99 cd 8b 3d 33 74 9b bc 01 59 45 3c 57 c6 d4 bc
       0.06826324 -0.018976307 0.012045146 -0.025973482
000180 73 05 08 3d 9d 8d 37 bd e3 92 8a 3d ff ba 5a 3d
       0.03320832 -0.044812787 0.06766298 0.05340099
000190 ed 5c 93 3d ee d8 46 bd c8 4f 87 3c c5 5d 07 bd
       0.071954586 -0.048546724 0.016517535 -0.03304841
0001a0 f5 ed 96 bd d6 be 43 3d 5f f0 8a bd 70 bd 4a bd
       -0.073696055 0.047789417 -0.067841284 -0.049497068
0001b0 cd 9e 9f bd 0d 9e 75 3d fb 1a de 3b 5f 90 a3 3d
       -0.07793961 0.059965182 0.0067781187 0.07986521
0001c0 70 5b 3d bd 6f 6c 9a 3c fb e7 b3 bd e4 3c 85 bd
       -0.04622978 0.018850533 -0.08784481 -0.065057546
0001d0 f4 54 27 3d 58 9e a9 ba 3d 23 34 3d 4d ec bf bd
       0.040852502 -0.0012940867 0.04397892 -0.09371243
0001e0 a8 9d 8b 3d 0d d3 25 3c ae a8 83 3d 7e 9d 80 3c
       0.0681718 0.010121119 0.064286575 0.015700098
0001f0 90 13 02 3d a6 ab 21 bd 79 39 77 bc 0e 3e 01 3d
       0.031756938 -0.039470337 -0.015089386 0.03155332
