saved_models/mlp/MLP_ionosphere.pth (torch, 24023 bytes, 7 tensors)

net.0.weight f4 [128, 34]
00000000: 6f35 b63d f0d7 763c 044d f7bc f6bd bebd
00000010: 209a ef3a 99a3 7ebd 31a0 353d 0100 11be
00000020: 99f3 a6bd 29e0 febd e97a 073e 1c23 f4bd
00000030: b64d d93c f9fc 2ebe 10e0 17be 7e96 f83d
00000040: 4f0f 1bbd e1ea 5c3d b8c5 fcbd bc0d 213d
00000050: 948b 48bd cedb 6e3d ef93 68bd e7b9 34be
00000060: 05ae 023d 248f 11be 7fde fb3d 3f6e e9bd
00000070: 9724 443e b590 0ebb d833 58bd 7999 10be
00000080: b4d3 003e acb5 2fbe f701 72bd 54ac 00bd
00000090: a5e6 323e db2f b53d 5c41 e83c 4ed3 5ebc
000000a0: 3564 853c 33ec a73d 0991 4abd db12 aebd
000000b0: 9d1b f63b cc16 103d a7f0 e1bd cabd 2c3e
000000c0: 5a93 d0bd 20cf f23d 3c21 28bd f6e3 dcbd
000000d0: e64e 27be 7741 5abd a993 823b f5f8 13be
000000e0: d424 05be a522 2b3d 9ff5 febd 7799 d53d
000000f0: 4960 81bd 443b de3d 5640 243d 2646 fb3c
00000100: 38df 24bd 33ba 143e 2e56 cc3d 12bb 0a3e
00000110: bfa0 013e 6035 553d a40f a33d e9c4 ef3d
00000120: b97f 0a3d 11bd d63c d843 d13d 0b74 833d
00000130: 1cb6 ec3d 7080 e83d 0a58 f73d 8189 4a3d
00000140: ea9c f4bd 8543 b6bc a560 5c3d ec45 b93d
00000150: 4e03 313d ccd4 e8bc 295c ddbd 906e 9ebd
00000160: e0c3 54bd 57de 573d 8082 0bbe 712c 44bd
00000170: 0053 373e ba95 d9bd e905 64bd f01e 083e
00000180: 4b5e adbd a58b 0bbd 3fa1 283e 286e 0f3e
00000190: 7157 f13c d81f bcbb 2354 d2bb 9774 debd
000001a0: ab98 ff3c f0a4 9ebd 4eb2 1fbd fa96 10be
000001b0: d876 1dbe 5707 32bd 26d8 35be 2221 26be
000001c0: e595 83bd d8ca e33d 102a 52bc 57ff 173e
000001d0: 87b2 133d 33d7 bf3d 648a cf3d 2310 04be
000001e0: c045 0cbc a3d8 3f3e 78ab 773d f156 1bbe
000001f0: a39c f9bd e022 1dbe d99b e83d c3cd 11be
00000200: cf15 01be 204d 2dbe d4f1 fa3d 5545 19be
00000210: 00ba 333b 1dc1 2c3e f5f4 6f3c df3f fcbd
00000220: 1555 933d dcf5 00bd 4011 af3d 4e6d b83d
00000230: 24c5 3f3d 8557 b53c df10 05be 6957 8dbd
00000240: bef6 81bd b641 e13d 9f33 583c 526b 7d3e
00000250: 7257 2abe 309a 383b c992 f2bd 4e70 51bd
00000260: b85f c9bd 59d5 fa3d 1615 153c 8668 153d
00000270: 0ac6 c83d 7a79 363c a141 9a3a 6137 22be
00000280: f7eb afbd ebc8 933d a6e5 09be 5ed5 eabd
00000290: dbe8 99bd b386 cd3d f875 91bd 56f6 cc3d
000002a0: 8767 f93d e014 223e 6c96 1fbd 06f1 2ebe
000002b0: 89bc 31bd c518 4b3d 8313 ef3d 2547 f43d
000002c0: 1eab c5bd ff07 c5bd 1066 e4bc 049a 3c3e
000002d0: e009 d63d 79b3 a1bd ef7d d3bd ac98 c2bd
000002e0: 3694 d63d f38e 4fbd 0c3f 30be 0472 96bc
000002f0: 1d91 a03d 8c47 ef3d 304c 673d 2341 2ebd
00000300: 9041 dabd 72fe 8a3e 3a00 ca3c 9c35 10be
00000310: 891c 423e c68d cf3a 351e b4bb 3f66 a8bc
00000320: 9c0f c0bd 15e8 87bd 803b 573d 0f75 40be
00000330: 1bba f63d 4c53 853d 0a22 19bd 6139 bebd
00000340: 9532 87bd b252 d6bd fd39 853d 86df c33d
00000350: 735d 3d3d 6722 293d bb9a 9abd 6ca3 10be
00000360: b7c5 d2bd d3e3 fd3c 1b1c 06be 3dd3 11be
00000370: 39b1 873a 428c cabc ce03 1b3d d06b bbbd
00000380: cc5b 1fbe 70f2 c6bc f264 1aba 2241 89bc
00000390: 7816 1d3e c78f a2bd e73a 793c 7aa7 c53c
000003a0: 809e 243c fd00 f1bd ea27 3fbd 283f eebd
000003b0: 5d20 17be 0597 0dbe d94f 4d3e e835 f3bd
000003c0: 8c0d 13be 37b4 1e3d fd06 b3bd b65e 30be
000003d0: aec0 753d 7a19 c83c 47d2 35be 8b98 e9bd
000003e0: c949 ebbd 8cdd 59bd c5df 80bd c8a3 1d3e
000003f0: c038 d33d edeb 7e3d 338e 58bd 3093 bd3d
0.088969104 0.015066132 -0.030188091 -0.09313576 0.0018280186 -0.062167738 0.044342224 -0.14160158
-0.08151931 -0.12445099 0.1323048 -0.11920759 0.026526313 -0.17088689 -0.14831567 0.12138079
-0.037856396 0.053934935 -0.12342399 0.03931974 -0.048961237 0.05831509 -0.056781705 -0.17649041
0.03190424 -0.1421476 0.12298297 -0.11397981 0.19154583 -0.0021753733 -0.052783817 -0.14121045
0.12580758 -0.17159146 -0.059083905 -0.031414345 0.17470796 0.08847018 0.028351478 -0.013600184
0.016283134 0.08199348 -0.049454723 -0.0849969 0.007510616 0.03517799 -0.11032229 0.16869274
-0.10184355 0.11855912 -0.04104732 -0.107856676 -0.16338691 -0.05328509 0.0039848876 -0.14450438
-0.1300233 0.041781086 -0.12449192 0.10429662 -0.06317193 0.10851148 0.040100418 0.030673098
-0.04025194 0.14524154 0.09977375 0.13547924 0.12658976 0.052052855 0.079619676 0.117074795
0.033813212 0.0262132 0.10218018 0.06418618 0.11558172 0.113526225 0.12077339 0.04944754
-0.119439915 -0.022248993 0.053803105 0.0904654 0.043216042 -0.028421782 -0.10808594 -0.07735932
-0.051944613 0.052702274 -0.13624 -0.047893945 0.17902756 -0.10624261 -0.0556697 0.13293052
-0.084652506 -0.034068722 0.1646776 0.14006865 0.02946064 -0.0057411008 -0.0064187213 -0.108620815
0.031200727 -0.07746303 -0.038988404 -0.14120093 -0.15377367 -0.04346403 -0.17758235 -0.16223577
-0.064250745 0.11122674 -0.012827411 0.14843498 0.03605893 0.09367218 0.10133818 -0.1289678
-0.008561552 0.18734984 0.06046626 -0.15169884 -0.12188079 -0.15345335 0.113578506 -0.14238648
-0.12605976 -0.16923952 0.12253156 -0.14967854 0.0027424097 0.16870542 0.014645805 -0.1231687
0.071939625 -0.03148447 0.08548212 0.09005223 0.046818867 0.02213646 -0.12994717 -0.06901438
-0.063458905 0.109988615 0.013195901 0.2474797 -0.1663492 0.0028168075 -0.11844403 -0.051132493
-0.0983271 0.12247724 0.009099266 0.036476634 0.09803398 0.011137361 0.0011768827 -0.15841438
-0.085899286 0.072160564 -0.1346651 -0.11466478 -0.07515117 0.100354575 -0.07102579 0.10007922
0.121779494 0.15828276 -0.038961813 -0.1708413 -0.04339269 0.04958417 0.116736434 0.11927632
-0.09651779 -0.09620666 -0.027880698 0.18418127 0.10451102 -0.0789556 -0.10326754 -0.09501776
0.10477488 -0.050673436 -0.1721155 -0.018364914 0.07840178 0.11683568 0.056469142 -0.042542588
-0.10657036 0.2714725 0.024658311 -0.1408295 0.18956198 0.0015835098 -0.005496765 -0.020556567
-0.09377977 -0.06636063 0.052546978 -0.18794654 0.120472156 0.06510028 -0.037385978 -0.09288288
-0.06601445 -0.10464992 0.06505201 0.09564118 0.0462317 0.041292574 -0.07549044 -0.1412484
-0.10291617 0.030992424 -0.13096659 -0.14240737 0.0010352499 -0.024725083 0.037845425 -0.09151423
-0.15562361 -0.024285525 -0.0005889676 -0.01675469 0.15340602 -0.079375796 0.015211797 0.02412771
0.010047555 -0.117677666 -0.046668924 -0.1163314 -0.1475844 -0.1382714 0.2004999 -0.11875516
-0.14360636 0.038746085 -0.08741567 -0.1722363 0.059998207 0.02442621 -0.17755996 -0.114060484
-0.11488683 -0.0531898 -0.06292681 0.15394509 0.103135586 0.062236715 -0.052869987 0.092565894

net.0.bias f4 [128]
00000000: bea4 d53d 83dc 0ebe fec6 203e 5765 afbd
00000010: dc79 1abe 16b5 8b3d cee1 973d f0c7 8ebd
00000020: 3d60 23be 04f2 293e cac6 333e 4b1d 213e
00000030: 39c9 123e dc20 013d e3e7 973d 44e2 433e
00000040: f0d1 333d d850 ed3d 1014 82bd 6944 993d
00000050: 2416 11be 07dd 613e ca45 283d 2425 963d
00000060: f886 afbd 4944 ea3d 9039 8cbd 1aca 9e3c
00000070: bd50 4cbd d346 f53d 1bcf 323e f765 00be
00000080: 6cc7 013d 6b22 d8ba c6fe bebd 281b 7abd
00000090: 23b9 9c3d f999 dbbd b4ef 95bd ae23 123e
000000a0: a882 9cbd a834 883d 4f63 af3d 3b26 c7bd
000000b0: 6bbb ef3c e1c1 94bc 7834 013e 472c 90bd
000000c0: a1c9 163d cbda 2e3b 65b7 7abd e21f b5bd
000000d0: fe5d 263e 0a25 033d 572b e2bd 8894 923d
000000e0: 7415 173e 0b1c d2bc 6a73 41bd 2598 2ebe
000000f0: b0fc 1b3e 2528 d0bd c485 2dbd c70e e5bd
00000100: d484 a0bd ef78 3b3c 9509 0cbe f499 4d3e
00000110: b31a 15be 8ce6 5b3d cdf2 9d3d 2b44 8fbd
00000120: 7161 12be c0cf c13d d9c5 1a3e bb24 19be
00000130: f214 2a3d 5da6 60bd edff 043e 8ebe 0b3e
00000140: 17a4 223d fb28 9d3d 3a47 753a 85e9 4cbd
00000150: f278 34bc e86d 7f3c 8392 633d ab86 c53d
00000160: a68a 0a3e 921d b8bd 9b0c 483e 6d80 d7bd
00000170: 5076 91bd c68c 8b3d 9d21 0f3e 7441 99bc
00000180: 50a3 353d f6fe 273e 74e1 c8bd 7b36 b43d
00000190: 7d7f fdbd 355a a13b d082 a03d 3288 31bd
000001a0: 9435 483d 4a36 b43d 2e8a 173e 0299 17bd
000001b0: b341 bc3c 231b 0bbe 9cc6 2a3e 67db 293e
000001c0: 472a 2abe 850c acbc 93b9 833b a42a a7bd
000001d0: 41aa f33d 29cb 383c ba5e b9bd af57 ca3d
000001e0: 8745 8d3d 9875 cabb da7f c83d 5766 80bd
000001f0: 0d78 6e3d 61de 6cbd 32fc 513e 3578 a8bc
0.10431813 -0.13951306 0.1570091 -0.08564251 -0.15085548 0.06821649 0.07416116 -0.06971729
-0.1595468 0.16596228 0.17556301 0.1573383 0.14334573 0.031525478 0.07417276 0.19129282
0.043901384 0.11587685 -0.06351483 0.07483751 -0.14168602 0.22056971 0.04108218 0.07331303
-0.08570665 0.114388056 -0.06846917 0.019383479 -0.049881686 0.11976399 0.17461817 -0.12538897
0.031684324 -0.001648975 -0.09325938 -0.061061054 0.076524995 -0.10722727 -0.0732111 0.14271423
-0.07642108 0.066506684 0.085638635 -0.09724089 0.029264173 -0.018158855 0.12617671 -0.07039695
0.036813382 0.0026680704 -0.061210055 -0.08843972 0.16246793 0.032017745 -0.11043423 0.07157236
0.14754277 -0.025648138 -0.047229208 -0.17050226 0.15233111 -0.10163907 -0.042363897 -0.11184459
-0.07837835 0.011442407 -0.1367553 0.2007826 -0.14560966 0.053686664 0.07712326 -0.06995424
-0.14294983 0.09463453 0.15114535 -0.14955418 0.04152388 -0.054846156 0.12988253 0.1364691
0.03970727 0.07673832 0.0009356622 -0.05002739 -0.011015164 0.015590169 0.055559646 0.096448265
0.13529453 -0.08990015 0.19536059 -0.10522542 -0.071026444 0.0681396 0.13977666 -0.018707968
0.0443452 0.16405854 -0.09808627 0.08799454 -0.12377832 0.0049240836 0.078374505 -0.043342777
0.04887922 0.08799417 0.14798805 -0.037011154 0.022980547 -0.1358457 0.16677326 0.16587602
-0.1661769 -0.021002064 0.004019925 -0.0816243 0.11897708 0.011278906 -0.09051271 0.098800056
0.06898027 -0.006178569 0.09790011 -0.0626952 0.058219958 -0.057829265 0.20506361 -0.020565132

net.2.weight f4 [128]
00000000: 58b3 753f cce4 8c3f 3a90 843f a38a 7d3f
00000010: 0bde 833f 0f23 813f 32af 773f f194 8c3f
00000020: beb6 8e3f 876d 8a3f bf90 873f c191 853f
00000030: ad79 8e3f 1abc 773f 4d31 793f 5782 883f
00000040: 56a2 933f ee49 733f fdcc 893f 19b2 7f3f
00000050: 8c5e 7b3f 17a3 953f 774b 873f 321f 823f
00000060: 021a 7d3f 3797 953f 425a 863f f628 823f
00000070: 3181 8d3f 8ea1 893f 34fb 7c3f 8970 8c3f
00000080: b432 7f3f 6c1a 7f3f 4627 803f a022 8c3f
00000090: 7140 8b3f aa41 753f c58c 893f 2769 7f3f
000000a0: cd87 783f 27d6 873f c938 833f 2f2b 813f
000000b0: ceb6 863f d1e5 873f b6e4 933f b35b 8f3f
000000c0: d61a 833f 5eb4 883f ecfe 843f 3e01 863f
000000d0: ffc9 793f 646d 853f 0ef8 913f 498c 893f
000000e0: e7ae 8f3f a200 913f 4847 933f 0d30 903f
000000f0: b0d2 7d3f d958 8c3f 6eca 853f b524 883f
00000100: 4e08 833f f55c 933f 24ae 773f f935 8f3f
00000110: 594d 7b3f fc2b 7a3f 6586 7d3f 6498 953f
00000120: 5ca2 8d3f 4acf 753f 388c 843f 9268 943f
00000130: 933a 7f3f e9b3 753f 10b8 923f 0479 893f
00000140: 4b75 7f3f e4b3 8b3f f733 843f 0450 853f
00000150: 9a8f 803f 2a90 813f 4d97 923f 8dc1 903f
00000160: 6c0d 813f 62ed 8d3f 5c67 883f ff1d 803f
00000170: 4d60 8b3f e383 903f 5c6a 7e3f cf38 883f
00000180: a76b 7d3f 0b18 7b3f a2da 8b3f 4b3e 8c3f
00000190: 0c2f 903f 40a4 733f b37e 853f 898b 943f
000001a0: 517c 863f f96b 883f 5dd1 7f3f fb7e 7a3f
000001b0: a3f8 813f 09e7 8b3f 9df4 823f c5c6 933f
000001c0: 96c1 733f a585 783f 08de 823f e1f7 993f
000001d0: 804e 863f c947 7c3f 84c1 823f 87aa 883f
000001e0: 95d7 823f 14a2 8b3f 76f3 763f 9080 893f
000001f0: 9334 803f 4000 913f 5d55 8b3f aced 803f
0.9597678 1.1007323 1.0356514 0.9903967 1.0302137 1.0088824 0.967517 1.0982953
1.1149518 1.0814675 1.0591048 1.0435106 1.1130883 0.96771395 0.9734085 1.0664777
1.1533916 0.9503468 1.0765682 0.9988113 0.9819114 1.1690396 1.0569905 1.016577
0.9886781 1.1686772 1.0496294 1.016875 1.1055051 1.0752428 0.98820806 1.0971843
0.9968674 0.9964969 1.0011985 1.0948067 1.0879041 0.9580332 1.0746084 0.99769825
0.97082216 1.0612229 1.0251704 1.0091304 1.0524538 1.0617009 1.1554172 1.1199859
1.0242565 1.0680044 1.0390296 1.0469129 0.97573847 1.0424008 1.1403825 1.0745937
1.1225251 1.1328318 1.1506128 1.1264664 0.9914961 1.0964614 1.0452402 1.0636202
1.0236909 1.1512743 0.9675009 1.1188346 0.981649 0.97723365 0.99033195 1.1687131
1.1065173 0.96019423 1.0355291 1.1594412 0.9969875 0.95977646 1.1462421 1.0740056
0.9978835 1.0914273 1.0328358 1.0415044 1.0043824 1.012212 1.1452423 1.1309067
1.0082221 1.1088068 1.0656543 1.0009154 1.0888764 1.1290249 0.9938104 1.0642337
0.9899239 0.9808356 1.0926096 1.095651 1.1264358 0.951725 1.042929 1.1605083
1.0506688 1.0657951 0.9992884 0.97850007 1.0154003 1.0929881 1.02309 1.1545035
0.95217264 0.97078925 1.0224009 1.2028772 1.0492706 0.98547035 1.0215306 1.0677041
1.022204 1.0908837 0.9646524 1.0742359 1.0016044 1.1328201 1.0885426 1.0072532

net.2.bias f4 [128]
00000000: c2b6 c93c 434d b13c 918d b73c 1232 323d
00000010: 5832 b13c 7d1b 02bc 761f ed3c c2f3 a7bc
00000020: 2668 8cbc 10a6 8ebc 888a a1bc 994a bcbb
00000030: 31d9 a2bc 7a7e 9abc b4ca c5bc 5815 ac3c
00000040: a56b a2bc 7822 dc3c 9626 3bbb 3757 c83c
00000050: 0683 bcbc 74fb a8bc 513f a3bc 81de b83c
00000060: 9f95 b83c ca3a db3c 37ea 873c 6a72 b9bc
00000070: f1be 9fbc b448 50bb e35e cc3c 2137 9fbc
00000080: d771 ce3c 48ac ca3c 5678 a4bc fc4d 69bc
00000090: fd68 933c 8c68 dd3c b1e7 aebc eafa c73c
000000a0: fe06 0a3d 2c24 a83c 22e7 b53c b4fe c23c
000000b0: 5c63 afbc 3ffe a53c 9dad a2bc 09fb 27bc
000000c0: 7557 a13c 036d 97bc 5046 903c f043 9d3c
000000d0: f024 b6bc dbe7 3c3d 656b b4bc ac98 99bc
000000e0: e4e8 7c3c b924 a7bc e469 a2bc c410 ab3c
000000f0: d46e c83c 5742 abbc 25ea b13c fbb5 aa3c
00000100: 1e01 c13c 5f20 49bc f192 d03c 7210 9cbc
00000110: e440 d83c 8197 b6bc 6d04 c53c 9454 a5bc
00000120: 7d9d a3bc 01db 1e3c e7ba 98bc 8235 abbc
00000130: 0268 a5bc 1ec9 ef3c 6da3 9cbc 2c26 8fbc
00000140: 7577 b0bc 4744 98bc 0e41 af3c 64bc 903c
00000150: d03b 1fbc ebc6 ae3c 8c23 a9bc dd9d a5bc
00000160: d353 bc3c d9da a6bc 05cc 9cbc b574 57bc
00000170: b089 9cbc a3ff 07bd 2661 9a3b 387d 953c
00000180: d504 d53c 38e7 c33c 505c aabc 556a a63c
00000190: 962a 9ebc 9747 df3c bd01 b13c 2b80 98bc
000001a0: cd44 aa3c 685b 98bc 283e cd3c 8d6a c7bc
000001b0: 35e7 bc3c 4012 1e3d 668b 9b3c d3b2 b2ba
000001c0: a27e e73c 52de b7bc d3a2 ba3c 2f7a a3bc
000001d0: 265a c13b 2b5e cf3c ab1a b1bc e91d a9bc
000001e0: 6e0c b93c a1ad a83c 0ebd ff3c 557c 783c
000001f0: 8ebb b63c 7953 a3bc 5d8b 863c f519 b33c
0.024623279 0.021643287 0.022406371 0.043504782 0.021630451 -0.007941124 0.028945666 -0.020501975
-0.017139506 -0.01741317 -0.019719377 -0.0057461974 -0.019878956 -0.018859137 -0.024144508 0.021006271
-0.01982672 0.026871905 -0.0028556935 0.02445565 -0.023011696 -0.020627715 -0.019927653 0.022567036
0.022532282 0.026761431 0.016591175 -0.022637565 -0.019500228 -0.0031781616 0.02494759 -0.019435467
0.025200767 0.024740353 -0.020076912 -0.014239784 0.017994398 0.02702739 -0.021350713 0.024411637
0.033698075 0.02052506 0.02220494 0.023803093 -0.021409683 0.020262836 -0.019858176 -0.010252723
0.019695023 -0.018484598 0.017611653 0.019197434 -0.02223441 0.046119552 -0.022023866 -0.018749557
0.015436385 -0.020403253 -0.019825883 0.020882018 0.02446691 -0.020905657 0.021718094 0.020838728
0.023560103 -0.012275784 0.025460692 -0.01905081 0.02639813 -0.02228904 0.024049962 -0.020181932
-0.019972557 0.009695769 -0.01864381 -0.020899538 -0.020191196 0.029270705 -0.019120896 -0.017474256
-0.021541337 -0.018587245 0.021393325 0.017667957 -0.00971885 0.021335086 -0.020646833 -0.020216877
0.02298919 -0.020368027 -0.019140253 -0.013150384 -0.019108623 -0.03320278 0.004711288 0.018248186
0.02600328 0.023913965 -0.020795971 0.020314375 -0.019307416 0.027255816 0.021607274 -0.018615803
0.02078476 -0.018598273 0.025054052 -0.0243428 0.023059467 0.038591623 0.018987369 -0.0013633616
0.028258625 -0.022444878 0.022782719 -0.019955723 0.005900639 0.025313457 -0.021619162 -0.020644145
0.022588935 0.020590605 0.031218078 0.015166362 0.02230623 -0.019937264 0.016423875 0.021862963

net.2.running_mean f4 [128]
00000000: f059 393e f585 263d 3416 df3e 394e 4b3d
00000010: 0ca8 893d 62f8 7a3e 344a 043e 6332 953d
00000020: ee59 913d 79ba db3d 863a 173e e9a0 9e3e
00000030: 99af d53d cb6a 9f3e 357e 033f 749a 8e3e
00000040: 3a98 013c 433e 773d b061 023e d5d4 113e
00000050: dfeb 4c3d c802 6d3d 73e2 713d e4aa d13e
00000060: 677f 3e3e 3021 183d 8998 963e f5f5 8b3c
00000070: f483 4d3d 7e51 583e 24e1 383e f74e aa3d
00000080: a0c0 933d 5351 0b3d c297 193d f027 043e
00000090: 5dff f03e 8bfe 483d c458 4c3d efc0 a33e
000000a0: 5035 313d 4150 963e 485d bd3e 4e7d c73d
000000b0: b7c5 3d3d ee01 f83e 52ba 1f3d 64e8 763d
000000c0: 30aa 693e 9656 603e e45b 703e b008 723e
000000d0: 91a4 9a3e 5093 833d 9797 4e3d 227b fa3d
000000e0: 9566 983d d79b 673d d6f8 b83c d99c 7a3d
000000f0: 5b00 663e d9b9 333d 5238 043f 913a 1f3e
00000100: 37e8 4d3d 6c9b 043e e9a0 f83d 77cc 1c3e
00000110: 54a9 493d ec7a af3e 3300 2f3e 64c3 293d
00000120: 41ba f23c a8f9 903e 3654 e03d d810 0d3d
00000130: fed4 763e 2efa d33d 8001 b43d d7fd aa3d
00000140: 4e0d 0b3e 2c6e 8e3d 10e5 c93e e6f9 ed3d
00000150: 9347 3d3e a718 1c3e 14d1 9e3d 5e76 2d3d
00000160: a03f 8f3e 2610 533c 9d84 a43d ea80 3f3e
00000170: 18f3 b03d 3df9 a83d 9101 493e e321 973e
00000180: ef41 843e e60f 263e 56b7 713c 4fe2 d63d
00000190: 4e6e 1a3d db85 993d 2527 863e db55 803c
000001a0: b8cd f53e b56e e83d 5dfa 593e 6840 653d
000001b0: 8a7c 9b3e 7d8a 3a3d 4e5b 8d3e 2763 563d
000001c0: 1a40 a63d d82f 343e 00ea b83e 06e4 d73c
000001d0: 6b13 a73e bfce bb3d c7cf 5c3c 0206 db3d
000001e0: 2249 b73d a0ee 0f3f abd2 e83c 66f4 503e
000001f0: 2e81 313e 835c 2e3d 80f9 e93d 9a9d 713e
0.18100715 0.040655095 0.43571627 0.049635146 0.067215055 0.24508813 0.12918931 0.07285001
0.07097231 0.10728926 0.14768419 0.3098214 0.10433883 0.31136164 0.5136445 0.27852213
0.007909829 0.06036211 0.12732577 0.14241345 0.05002963 0.05786398 0.05905385 0.40950692
0.18603288 0.037141025 0.2941325 0.017085055 0.05017467 0.21124837 0.18054634 0.083158426
0.07214475 0.034013104 0.037498243 0.1290586 0.47069827 0.049070876 0.04988934 0.31983134
0.043263733 0.29358104 0.3698523 0.09740697 0.046331134 0.48438972 0.03899605 0.06028022
0.22818828 0.2190803 0.23472553 0.23636127 0.3020368 0.06424582 0.050437536 0.12230517
0.07441441 0.056545105 0.022579592 0.061184738 0.22461073 0.04387841 0.5164844 0.15549685
0.050270285 0.12949914 0.12140066 0.15312372 0.04923375 0.3427347 0.1708992 0.041446105
0.029629828 0.28315473 0.10953562 0.03443989 0.24104688 0.10350452 0.087893486 0.08349197
0.13579294 0.06954607 0.39432573 0.1161993 0.18484335 0.15243779 0.07754722 0.042349212
0.2797823 0.012882268 0.080331065 0.1870152 0.086401165 0.082506634 0.19629504 0.2951804
0.25831553 0.16217002 0.014753183 0.10492384 0.03770285 0.07496234 0.2620174 0.01566594
0.48008513 0.11349241 0.21286912 0.055969626 0.30368453 0.04554223 0.27608722 0.052340653
0.08117695 0.17596376 0.36116028 0.026353847 0.32632002 0.09170293 0.013477272 0.10694505
0.08949496 0.5622349 0.028420767 0.2040573 0.17334434 0.042568695 0.114245415 0.23595276

net.2.running_var f4 [128]
00000000: 03fc 7c3d 7879 053c 5237 503d cf89 a63c
00000010: e1cc 753c 072d 353d 622e 0d3d 293d f93c
00000020: ca2e be3c 2419 d73c 33e2 4c3d 1ad5 9d3d
00000030: 95b8 0e3d acd1 543d 5c3e 2f3e b6e0 243d
00000040: c7e7 6b3b 2083 c03c d82b 363d 11ca 863d
00000050: 4795 8a3c f5cf a13c 6f42 973c 3d86 0a3e
00000060: 5a94 4e3d 2b4e 9f3c 842e 7b3d fd24 973b
00000070: c6c7 b73c a77f c03c d845 4b3d 7d68 c23c
00000080: 20f8 d83c 50bd 273c 6c7d 723c ae3d 123d
00000090: 0cd6 eb3d 8d90 c83c 086f 5d3c e222 273d
000000a0: 4752 693c 2c88 383d 53b8 7e3d e8da 053d
000000b0: a2da a43c 8d9d b73d 164c de3c cf1e 973c
000000c0: 375a 273d fab2 473d 08fd 4d3d 71ce 473d
000000d0: 7b51 113d 193d e83c f127 883c 8e5a c93c
000000e0: 9f7b f43c 585f 873c 9438 663c 2bfb 6e3c
000000f0: ba88 453d 117a ea3c 603f d43d 4bed 0d3d
00000100: 8036 973c fea2 bc3c d490 353d d365 063d
00000110: 55fd ae3c efe4 cb3d f980 903d 38a0 673c
00000120: 7241 a63b c784 253d baf4 e83c dfc3 f23b
00000130: fb35 5f3d 103c c63c 2120 573c b99d 943c
00000140: 4639 613d eb60 bb3c 7349 b83d 7fdc 213d
00000150: bdbc 6f3d c18c 1a3d 91aa cb3c b477 603c
00000160: bd30 8c3d 389b b63b 3d0d 0c3d 942d e53c
00000170: 49c1 c53c f952 cb3c f414 193d 9e99 373d
00000180: c741 8b3d 58e9 793d 3c15 e03b 2bb0 1a3d
00000190: cf52 9a3c 1454 9a3c 364c 973d ef0b bd3b
000001a0: 52e6 e53d 1b56 0e3d 7095 473d 837e cf3c
000001b0: dacc 293d de63 0a3c 3703 183d cf55 c63c
000001c0: 6db5 e53c 4efe 103d c1c2 403e 6186 693c
000001d0: d7b8 513d e04a 063d dde2 aa3b 2ba7 1b3d
000001e0: 6dcb 1b3d ae3a e23d 3b6a 333c eead 443d
000001f0: 1093 6c3d 65e8 953c a3c0 5d3d 2e28 633d
0.061763775 0.008146636 0.050834008 0.020329384 0.01500246 0.044232395 0.034468062 0.030424671
0.02321567 0.026257105 0.050020408 0.077066615 0.034844 0.05195777 0.17113632 0.040253364
0.0035996304 0.023500025 0.044475406 0.0658151 0.016916884 0.019752482 0.018464295 0.1352777
0.050434448 0.019446453 0.061323658 0.0046125636 0.022434127 0.02349837 0.049627155 0.023731465
0.026485503 0.010238007 0.014800411 0.035703354 0.115154356 0.02448299 0.013515241 0.04080475
0.014240808 0.04505174 0.062187504 0.03267947 0.020123783 0.08965597 0.02713589 0.018447308
0.04085752 0.04875467 0.050290138 0.048780862 0.035478096 0.028349446 0.016620608 0.024579313
0.029844103 0.016524956 0.014051575 0.01458625 0.048226096 0.028622659 0.1036365 0.03465013
0.018458605 0.02302694 0.044327572 0.03281195 0.021361033 0.09955775 0.070558496 0.01413732
0.0050737197 0.04040983 0.028437007 0.0074086036 0.05449484 0.024198562 0.013130219 0.018141614
0.05498626 0.022873363 0.08998384 0.039516922 0.058529604 0.03773189 0.024861606 0.013700414
0.068452336 0.0055727027 0.034192313 0.027975835 0.024140017 0.024819838 0.037373498 0.044824235
0.067996554 0.06101355 0.006838469 0.037765663 0.018838314 0.01883892 0.07387583 0.005769245
0.11225571 0.034750085 0.0487265 0.02532888 0.041455127 0.008446662 0.03711244 0.024210839
0.028040612 0.035398774 0.18824293 0.01425323 0.051201668 0.03278625 0.0052150325 0.03800122
0.0380358 0.110463485 0.01095062 0.048017435 0.057757437 0.01829929 0.05413879 0.05545824

net.3.weight f4 [1, 128]
00000000: b11e 083d 6e47 ad3d 06ae ba3d 632a a2bc
00000010: 45f6 ab3d 46d5 fcbc c5b2 273b 76a2 bfbd
00000020: dd1b ccbd 2ad2 b1bd ad44 babd be13 0ebd
00000030: 0551 d4bd 4357 c53b 953a d9bc 7aed 093e
00000040: e7b8 52be cfc6 bb3c dd6b 743d ad5a 583d
00000050: 5640 57bd d18e 6abe 0bf3 9ebd 208d bd3d
00000060: 2651 173d e33e f8bd 3689 513d 891f b5bd
00000070: d427 20be 2a55 59bd fe64 fe3c e9c8 04be
00000080: 60b1 6a3d 3395 3b3d bccb 42bd bdaf 9abd
00000090: 8ded cb3d 9c12 e93c a7b9 08be 58a1 633d
000000a0: 61f0 a5bb bf39 003e d3a4 e03d d517 ed3c
000000b0: 7fe6 8ebd b914 c93d fabe 14be 670b a2bd
000000c0: 0884 4a3d c9b5 e8bd dcf9 1d3d f2af 643d
000000d0: 9857 58bd 265f 3cbd d856 8a3d cd71 febd
000000e0: 08d7 99bd 8eee b3bd 4db2 1bbe 12db 123e
000000f0: 5ee3 913c 7d8d f8bd 3641 c13d 583e 0b3e
00000100: b945 3c3d 7948 cdbd 6aeb 0a3d bc0a 15be
00000110: e54f 183d 64e8 b1bc 22c8 823d 15c5 50be
00000120: b2df 22be 9e1e c03a 6dd5 91bd 14ba f7bd
00000130: c7d4 0ebd a675 76bc e736 47be e306 78bd
00000140: abc2 7dbd eac0 e2bd 9de2 803d 5e1f 353d
00000150: 2cf5 debc 03b3 9b3d aa45 4ebe 0dab 12be
00000160: 8578 ac3d e109 06be b32a 9abd 6acf cbbc
00000170: ae5e bbbd 21d8 8d3d 35eb 713c 80ba a63d
00000180: 1ff2 9d3c 709f 7d3d 2ce9 0dbe 793a a03d
00000190: 0b2d 25be 82b6 973b 2b48 b23d 1b5a 27be
000001a0: 6caa dd3d eb42 a1bd 90c2 183d adfb 19bc
000001b0: eab8 793d ca5e 6cbd 4e45 233d 264e 9ebd
000001c0: b701 af3b 18ca 71bd 28fe a83d 584c 6dbe
000001d0: 3a9a 313d ff32 df3c 1d3b c3bd a175 fbbd
000001e0: f4f3 913d 2044 fc3d 8d9a f2bc f6b7 833d
000001f0: 0b24 753d 5a7e 1dbe f0a1 61bd 319a 0f3d
0.033232395 0.0846089 0.091152236 -0.019795602 0.083965816 -0.030863415 0.0025588733 -0.09357159
-0.09966252 -0.08682664 -0.0909513 -0.034686796 -0.10367016 0.0060223653 -0.026517192 0.13469496
-0.20578347 0.022921948 0.05967318 0.05282085 -0.05255159 -0.22906043 -0.077612005 0.09255433
0.036942624 -0.1212137 0.051156245 -0.088439055 -0.15640193 -0.053059734 0.031054016 -0.12967266
0.057298064 0.045796584 -0.047557577 -0.07553051 0.099574186 0.028451256 -0.13352071 0.05557379
-0.005064056 0.12522028 0.10968938 0.028942028 -0.069775574 0.09818406 -0.14525977 -0.07912331
0.04944232 -0.11362798 0.038568363 0.055831857 -0.05281791 -0.045989178 0.067548454 -0.124240495
-0.07511717 -0.08785735 -0.15204735 0.14341381 0.017808612 -0.12136362 0.09436266 0.13598001
0.04596493 -0.10023589 0.033915915 -0.14554876 0.03718557 -0.021717258 0.063858286 -0.20387681
-0.15905645 0.0014657562 -0.07120786 -0.120960385 -0.03487089 -0.015042698 -0.19454537 -0.060553443
-0.061953228 -0.11071952 0.06293223 0.044219367 -0.027216516 0.07602503 -0.20143762 -0.14323063
0.08421425 -0.13089706 -0.075276755 -0.024879176 -0.09148918 0.06925989 0.01476555 0.08141041
0.019280491 0.06191963 -0.1385848 0.07823653 -0.16130464 0.004629911 0.08705171 -0.16342966
0.10823521 -0.07874092 0.037294924 -0.009398383 0.060967363 -0.057707585 0.039861016 -0.077297494
0.0053407806 -0.059030622 0.082516015 -0.23173654 0.043359973 0.027245997 -0.09532759 -0.12278295
0.071266085 0.12317681 -0.029614711 0.06431572 0.059848826 -0.1538023 -0.055086076 0.035059158
