saved_models/mlp/MLP__deprecated_colic.pth (torch, 17970 bytes, 7 tensors)

net.0.weight f4 [128, 22]
0.720713 0.1447354 -0.0034734737 0.17563316 -0.074569285 -0.1318261 -0.10073494 -0.21949162
-0.029306524 0.22972023 0.08651834 0.08996616 0.01717666 -0.15977545 0.057416126 -0.0063864575
-0.13319856 -0.14668733 0.17027187 0.020454153 -0.032813553 -0.356483 -0.14481032 0.091430366
-0.15083624 -0.1785245 -0.045602597 0.1670368 0.121722 0.10708899 0.118330725 0.09504361
0.08508695 0.18538673 -0.22039972 -0.14730148 -0.1405426 -0.103450164 -0.1203791 -0.20484425
0.16022566 -0.1324078 -0.15717302 -0.06546145 -0.07515269 -0.004603395 -0.18127196 0.042284198
0.119005546 0.20699121 -0.044479158 0.037546247 -0.14504793 -0.09707302 -0.16536963 0.06984724
0.158599 -0.001953216 -0.19099334 0.13648325 0.102367416 -0.14157215 -0.046456117 -0.16110472
0.053127676 0.08299834 0.11156753 -0.071600616 0.058092296 0.1486825 -0.2107145 -0.042993605
-0.09996036 -0.19581242 0.20299861 -0.16875774 0.1988489 -0.053189144 -0.05585192 0.036306426
-0.07818143 0.035174474 -0.13304031 -0.100557745 -0.17366868 0.205558 -0.13799182 0.1977121
0.47162393 -0.19110875 0.20554237 -0.19767755 0.07093559 -0.13398929 -0.19494356 0.2956476
0.3255672 0.01886533 -0.033516135 -0.14826807 -0.025321346 -0.40219998 -0.2106492 0.1118416
-0.098736696 -0.087409444 0.13240293 -0.32540888 0.027769553 -0.045955997 -0.48953262 0.33971715
0.0897882 0.011959085 0.10296085 0.10014408 0.054356154 -0.2228139 -0.041850414 -0.26692742
-0.09499556 -0.2402097 -0.31494272 -0.12490445 -0.15840486 0.2058493 -0.16057934 -0.14873406
-0.0030418294 0.1434262 0.22255406 0.3717823 0.40156776 0.10986405 -0.14525254 -0.057487953
0.04397919 -0.13739659 -0.08466575 0.03898413 -0.14476418 0.28170845 0.043543853 -0.14714968
0.15898536 -0.23335297 0.019168211 0.074821256 -0.22362316 0.07960699 0.17960282 0.17564307
0.13019785 0.059914056 -0.49042904 0.09593355 0.14166114 0.061398193 0.14021784 0.22434865
-0.10670724 -0.023644518 0.1635556 -0.034737553 0.14972465 0.18360199 0.037800938 0.03975447
0.127903 -0.06348327 0.13605645 0.02176752 -0.046056576 -0.2721743 0.041523498 0.058647882
-0.78744453 -0.24275026 -0.115093745 0.06331567 -0.093563154 0.06377603 -0.022044746 -0.11748257
0.0078254985 -0.338696 -0.1367077 0.1915095 -0.2975115 -0.013642018 0.1978945 0.22345534
0.36640066 -0.23763065 -0.014481314 0.061649855 0.19757344 -0.052259207 0.021440744 0.032601237
-0.16184568 -0.10590382 -0.13553691 0.20758238 0.06253788 -0.06430222 0.09665343 0.050951064
0.18470672 0.14204884 -0.011434212 0.11886296 -0.11472341 0.0035620779 -0.061993226 -0.064434096
-0.064300746 0.03391391 0.07295284 -0.11695436 0.34794173 -0.23213531 -0.10755785 0.22797255
-0.14644194 0.008018569 0.12280409 -0.07767145 0.089909054 0.105559394 -0.18617155 -0.19234188
0.35093814 -0.034984633 0.01558739 -0.13259496 -0.061944753 0.0070292186 -0.16311719 0.38346618
0.086699754 -0.3797075 0.4401616 -0.17091694 -0.03945668 -0.13243328 -0.24129978 0.081326246
0.03918171 0.0646481 -0.063516885 0.28243616 0.016058557 -0.01235775 0.2574825 -0.07830407
00000000: a680 383f 8435 143e 38a3 63bb 2ed9 333e
00000010: c8b7 98bd 6cfd 06be 1f4e cebd 69c2 60be
00000020: 3c14 f0bc c83b 6b3e 8730 b13d 2e40 b83d
00000030: 11b6 8c3c 2d9c 23be 2c2d 6b3d 7d45 d1bb
00000040: 3465 08be 3435 16be c05b 2e3e 788f a73c
00000050: 8167 06bd f184 b6be 2849 14be d83f bb3d
00000060: d174 1abe 20cf 36be cac9 3abd b20b 2b3e
00000070: 6249 f93d 7951 db3d 6157 f23d 39a6 c23d
00000080: 1142 ae3d 05d6 3d3e 77b0 61be 33d6 16be
00000090: 66ea 0fbe aedd d3bd 5189 f6bd b1c2 51be
000000a0: 3212 243e e995 07be f7f1 20be a710 86bd
000000b0: a7e9 99bd 13d8 96bb 5b9f 39be 3232 2d3d
000000c0: 2eb9 f33d 81f5 533e c72f 36bd 18ca 193d
000000d0: 7287 14be 38ce c6bd a856 29be 120c 8f3d
000000e0: c767 223e 8701 00bb c293 43be 44c2 0b3e
000000f0: 02a6 d13d 4af8 10be c548 3ebd a3f8 24be
00000100: 689c 593d 09fb a93d 847d e43d 58a3 92bd
00000110: 30f2 6d3d 3a40 183e 8bc5 57be 101a 30bd
00000120: 04b8 ccbd 0d83 48be dede 4f3e d4ce 2cbe
00000130: 0c9f 4b3e dcdc 59bd fcc4 64bd 0cb6 143d
00000140: 961d a0bd 1c13 103d b83b 08be 38f1 cdbd
00000150: 34d6 31be cc7d 523e ba4d 0dbe 0a75 4a3e
00000160: b178 f13e 03b2 43be b379 523e fc6b 4abe
00000170: ae46 913d 7d34 09be 499f 47be 1f5f 973e
00000180: beb0 a63e 778b 9a3c 3748 09bd 96d3 17be
00000190: b66e cfbc 28ed cdbe 6db4 57be 350d e53d
000001a0: 7736 cabd b903 b3bd a294 073e fe9b a6be
000001b0: f97c e33c 5b3c 3cbd 05a4 fabe 68ef ad3e
000001c0: e0e2 b73d 0af0 433c 23dd d23d 5718 cd3d
000001d0: 8fa4 5e3d 5429 64be 576b 2bbd b6aa 88be
000001e0: 088d c2bd 88f9 75be 2c40 a1be e7cd ffbd
000001f0: e234 22be 29ca 523e e96e 24be be4d 18be
00000200: 6e59 47bb 51de 123e 36e5 633e 405a be3e
00000210: 4a9a cd3e 6700 e13d 15bd 14be 7d78 6bbd
00000220: 8623 343d b1b1 0cbe 3d65 adbd d3ad 1f3d
00000230: 103d 14be 173c 903e 0a5b 323d 68ae 16be
00000240: 0fcd 223e 15f4 6ebe a706 9d3c e33b 993d
00000250: 78fd 64be fd08 a33d cde9 373e c7db 333e
00000260: 9652 053e 7168 753d 8419 fbbe cf78 c43d
00000270: 9e0f 113e ac7c 7b3d 4495 0f3e a7bb 653e
00000280: 5389 dabd 26b2 c1bc 1f7b 273e f748 0ebd
00000290: 6b51 193e 2902 3c3e 28d5 1a3d 95d5 223d
000002a0: 01f9 023e 8403 82bd 6252 0b3e cc51 b23c
000002b0: d2a5 3cbd 6e5a 8bbe 8b14 2a3d c338 703d
000002c0: f795 49bf 8693 78be 45b6 ebbd a5ab 813d
000002d0: 0a9e bfbd 029d 823d 2f97 b4bc b49a f0bd
000002e0: 8536 003c 9069 adbe 1afd 0bbe 111b 443e
000002f0: 6d53 98be c582 5fbc dba4 4a3e 7ad1 643e
00000300: de98 bb3e 7355 73be 0943 6dbc 8f84 7c3d
00000310: b150 4a3e c00d 56bd 80a4 af3c e088 053d
00000320: e0ba 25be 1ae4 d8bd 30ca 0abe 7a90 543e
00000330: dc13 803d e2b0 83bd 3cf2 c53d 10b2 503d
00000340: c223 3d3e 4075 113e 9056 3bbc 6c6e f33d
00000350: 1bf4 eabd c071 693b 9cec 7dbd 06f6 83bd
00000360: 1cb0 83bd 50e9 0a3d 4c68 953d c485 efbd
00000370: 6b25 b23e e1b4 6dbe 4a47 dcbd a371 693e
00000380: e0f4 15be 5160 033c b680 fb3d 3612 9fbd
00000390: 3d22 b83d 862f d83d c1a3 3ebe 45f5 44be
000003a0: 2aae b33e 0c4c 0fbd 4162 7f3c f9c6 07be
000003b0: c8b9 7dbd 5c55 e63b 3108 27be ae55 c43e
000003c0: a48f b13d 0569 c2be dc5c e13e da04 2fbe
000003d0: 549d 21bd 979c 07be 4a17 77be 608e a63d
000003e0: 007d 203d 3966 843d 2415 82bd 799b 903e
000003f0: 3c8d 833c 2978 4abc bfd4 833e e25d a0bd

net.0.bias f4 [128]
0.027486462 -0.18666469 -0.019412413 0.11027208 -0.13651802 0.03944841 -0.06490454 -0.043689664
0.027929807 0.014738426 -0.028506229 0.040435653 -0.18055853 -0.14229652 0.17979915 0.121735714
0.12228096 0.027323725 -0.040502146 0.18808268 0.09993376 0.09168625 -0.025768057 0.18347162
0.0916988 -0.0679951 0.08033708 -0.21097142 -0.014286701 -0.11084107 0.20799874 -0.086028084
-0.07519361 -0.075102344 0.16675648 -0.09922653 0.10554558 0.22321072 0.14804327 -0.12255278
0.14482678 -0.040316164 -0.1568938 0.15308316 -0.0839498 -0.14567085 0.07962796 0.039974775
0.099658735 -0.055917624 0.03146307 0.13660678 -0.21613978 0.008300799 -0.17661867 0.01841217
0.051824972 0.13896073 0.13619539 -0.08259983 0.115839496 -0.1972006 -0.07605669 0.18891625
0.119222514 -0.16175716 -0.16267182 0.040779028 0.15412325 0.0730138 0.07724563 -0.035072178
-0.08141364 0.14996117 -0.100092225 0.07248187 0.19397552 -0.07982121 -0.025748614 0.15794985
-0.21614587 0.12747729 -0.10733921 0.15682586 -0.13494772 0.14282405 0.12822542 -0.11005171
0.12614831 0.1003349 0.12679248 0.12347828 0.12188543 -0.18229142 0.18416557 0.10564434
0.16546112 0.009146417 0.17220451 -0.01918874 0.054308534 0.20132291 -0.09119442 0.060538474
-0.10759186 -0.00042840227 -0.16867891 0.1209733 0.19663224 -0.05600353 -0.005218673 0.16851872
0.07498627 -0.19929534 -0.035448387 -0.13478822 0.0142634995 0.13067609 -0.0040796287 0.1412749
-0.05303678 -0.016506562 -0.19295472 0.1772787 -0.1288284 0.1716411 0.21273929 0.10493355
00000000: 4a2b e13c 0725 3fbe c806 9fbc 54d6 e13d
00000010: 61cb 0bbe a894 213d acec 84bd eff3 32bd
00000020: 0dcd e43c 7079 713c e585 e9bc db9f 253d
00000030: 56e4 38be 2eb6 11be 451d 383e 9350 f93d
00000040: 716e fa3d 01d6 df3c 94e5 25bd bf98 403e
00000050: 12aa cc3d 00c6 bb3d 8817 d3bc fcdf 3b3e
00000060: 95cc bb3d 0441 8bbd c487 a43d e408 58be
00000070: c412 6abc a500 e3bd 9ffd 543e 7e2f b0bd
00000080: 1bff 99bd 42cf 99bd 36c2 2a3e 4737 cbbd
00000090: 4828 d83d 5a91 643e a898 173e f4fc fabd
000000a0: 794d 143e 9022 25bd c5a8 20be d5c1 1c3e
000000b0: dfed abbd bd2a 15be fc13 a33d 97bc 233d
000000c0: e119 cc3d e109 65bd 6cdf 003d a6e2 0b3e
000000d0: bf53 5dbe 1300 083c 86db 34be 1ed5 963c
000000e0: 6c46 543d b94b 0e3e ce76 0b3e 1a2a a9bd
000000f0: 423d ed3d f4ee 49be 9cc3 9bbd 4373 413e
00000100: ef2a f43d aba3 25be 7193 26be e907 273d
00000110: 7cd2 1d3e 4288 953d f532 9e3d d8a7 0fbd
00000120: 32bc a6bd 6c8f 193e 27fd ccbd 6071 943d
00000130: 85a1 463e 4d79 a3bd c2ee d2bc 9bbd 213e
00000140: 5855 5dbe 6889 023e a9d4 dbbd f596 203e
00000150: bc2f 0abe 7840 123e 864d 033e ca62 e1bd
00000160: 062d 013e 627c cd3d e3d5 013e 2ee2 fc3d
00000170: 119f f93d 9aaa 3abe e695 3c3e 0f5c d83d
00000180: a46e 293e dada 153c 6156 303e b431 9dbc
00000190: a072 5e3d 9827 4e3e 24c4 babd 31f7 773d
000001a0: 1f59 dcbd 2e9b e0b9 2aba 2cbe d9c0 f73d
000001b0: f659 493e f563 65bd 6701 abbb 2c90 2c3e
000001c0: 6792 993d 1414 4cbe 5432 11bd ec05 0abe
000001d0: 74b1 693c f4cf 053e 68ae 85bb 5eaa 103e
000001e0: 183d 59bd c538 87bc ec95 45be 8c88 353e
000001f0: 98eb 03be afc2 2f3e 54d8 593e 67e7 d63d

net.2.weight f4 [128]
1.1702472 0.9817257 0.96467274 1.0 1.2100648 1.0695553 1.0065315 0.98353976
1.3064973 1.0 1.1047466 1.0970635 0.9909156 0.9917322 0.9922213 1.2600166
1.2420744 1.0828891 1.0 1.053831 1.1169333 1.0372316 1.0629467 0.9688577
1.100407 1.0 0.9537258 0.9722917 1.2891723 1.364654 1.1668197 0.90223587
1.1269897 1.1382613 1.0272492 0.9721463 1.0 0.95462686 1.1829729 0.9372836
0.9760881 1.0 1.0256268 1.1502739 1.0465547 1.0400635 1.0 1.0409416
1.2050371 1.2318894 1.3769588 1.0454296 1.0038822 1.3096365 0.9994497 1.0529337
1.2668073 1.3832288 1.1392561 1.0055867 1.4637778 1.1314481 1.2284843 0.9830031
0.949084 1.1133235 1.0491344 1.2614677 1.1715484 1.1374209 1.2369318 1.0
1.0 1.0 0.98158896 1.0 1.0646429 0.99401504 1.0495232 1.0612772
1.0896775 0.9437863 1.0 1.0507555 1.222972 1.2706859 1.1712664 1.0510563
1.4044906 1.1885542 1.1591204 1.351673 1.0784215 1.1047895 1.0 1.0240828
1.3166472 0.9616743 0.96350735 1.1347612 1.0 1.3172388 1.0 1.2222397
1.0268884 1.4449149 1.058714 1.0900902 1.0 1.185228 1.0769436 1.0
1.0384465 0.9318402 1.0997669 1.0775363 1.1754149 1.0153162 1.0001377 1.0116534
1.0 0.9084055 1.3678871 0.9912894 1.0496314 0.92719084 1.0 1.0842308
00000000: a9ca 953f 6052 7b3f cbf4 763f 0000 803f
00000010: 67e3 9a3f 30e7 883f 06d6 803f 43c9 7b3f
00000020: 4e3b a73f 0000 803f 5668 8d3f 946c 8c3f
00000030: a5ac 7d3f 29e2 7d3f 3702 7e3f 3948 a13f
00000040: 4bfc 9e3f 1c9c 8a3f 0000 803f efe3 863f
00000050: acf7 8e3f 01c4 843f a30e 883f 0f07 783f
00000060: 23da 8c3f 0000 803f 6027 743f 1ce8 783f
00000070: 9903 a53f fbac ae3f 595a 953f eef8 663f
00000080: 3341 903f 8cb2 913f e77c 833f 94de 783f
00000090: 0000 803f 6d62 743f a86b 973f d1f1 6f3f
000000a0: e9e0 793f 0000 803f bd47 833f 2d3c 933f
000000b0: 81f5 853f cd20 853f 0000 803f 933d 853f
000000c0: a83e 9a3f 8dae 9d3f 3040 b03f a3d0 853f
000000d0: 367f 803f 2ba2 a73f efdb 7f3f 88c6 863f
000000e0: be26 a23f a40d b13f 25d3 913f 11b7 803f
000000f0: 125d bb3f 4bd3 903f f93e 9d3f 17a6 7b3f
00000100: 2bf7 723f 6281 8e3f 094a 863f c677 a13f
00000110: 4cf5 953f 0297 913f c853 9e3f 0000 803f
00000120: 0000 803f 0000 803f 6a49 7b3f 0000 803f
00000130: 3846 883f c577 7e3f c756 863f eed7 873f
00000140: 8d7a 8b3f fb9b 713f 0000 803f 287f 863f
00000150: 598a 9c3f d6a5 a23f 0fec 953f 0389 863f
00000160: 59c6 b33f 8b22 983f 0f5e 943f 9f03 ad3f
00000170: b709 8a3f be69 8d3f 0000 803f 2515 833f
00000180: e587 a83f 4930 763f 6ba8 763f db3f 913f
00000190: 0000 803f 489b a83f 0000 803f 5a72 9c3f
000001a0: 1471 833f f9f2 b83f f183 873f 1388 8b3f
000001b0: 0000 803f 8db5 973f 4ad9 893f 0000 803f
000001c0: d1eb 843f 148d 6e3f 29c5 8c3f b6ec 893f
000001d0: ff73 963f e2f5 813f 8304 803f dc7d 813f
000001e0: 0000 803f 438d 683f ed16 af3f 24c5 7d3f
000001f0: 525a 863f 615c 6d3f 0000 803f 13c8 8a3f

net.2.bias f4 [128]
0.027376361 -0.0229682 -0.017210452 -0.022571076 0.02793341 -0.0143869165 0.024730299 -0.027271135
-0.028729059 0.020054866 0.027296392 0.026954582 -0.021157585 -0.029312763 -0.011970999 0.027926465
0.027302086 0.022364646 0.020177653 0.029788572 0.017680777 0.01713158 -0.02736317 -0.017981863
0.019518891 -0.021641133 -0.011867626 -0.003112579 -0.029389044 -0.026414802 -0.013365906 0.051593743
0.027840953 0.021031147 0.025472268 -0.017737335 0.01632672 0.023608327 -0.029268732 -0.030700874
-0.01395978 0.020263467 0.025211543 0.026987538 0.025846025 0.019314498 0.014801092 0.021504913
-0.025520252 0.0228733 0.027945321 -0.036831986 0.027331876 -0.028121462 -0.022351762 0.025791135
-0.010738773 -0.023925854 -0.032322865 -0.028518526 -0.026035441 0.023008225 -0.031329174 0.04422836
-0.038552336 0.028551627 0.020670166 -0.03342296 0.056091007 0.029758262 -0.024070458 -0.015207065
0.019623663 -0.019896708 0.014458614 -0.020930745 0.030745298 0.02704284 0.037138842 -0.023490345
0.0041592703 -0.0145513965 -0.0207088 0.023429522 -0.0118113225 0.029317116 0.029041182 0.02473044
-0.021125967 0.038950663 -0.0349829 -0.024771135 0.030959373 0.017658686 -0.014972946 -0.028594995
-0.038910188 0.029841678 -0.038592137 0.029317869 0.01520606 0.030134765 0.022058342 0.026404023
0.030946286 0.026645688 -0.02804992 0.01549408 0.013756661 0.025698269 0.031413864 -0.019538179
0.022165442 -0.026134105 -0.031322554 0.054010466 -0.01922584 0.026417423 0.027310863 0.02867281
-0.021680139 0.035992373 0.02663112 -0.018412177 -0.03545518 0.025505068 -0.022687431 0.02783116
00000000: 6444 e03c ce27 bcbc effc 8cbc fae6 b8bc
00000010: 9bd4 e43c 1ab7 6bbc 3297 ca3c b767 dfbc
00000020: 3459 ebbc 1a4a a43c af9c df3c dbcf dc3c
00000030: ac52 adbc 5221 f0bc 0222 44bc 0bc6 e43c
00000040: a0a8 df3c 1036 b73c 9b4b a53c 2a07 f43c
00000050: 47d7 903c 8757 8c3c ba28 e0bc b34e 93bc
00000060: 15e6 9f3c bf48 b1bc 6e70 42bc 69fc 4bbb
00000070: 4bc1 f0bc db63 d8bc acfc 5abc f653 533d
00000080: b612 e43c 8349 ac3c 38ab d03c e34d 91bc
00000090: 9dbf 853c 4066 c13c fbc4 efbc 6680 fbbc
000000a0: 90b7 64bc 92ff a53c 7088 ce3c f814 dd3c
000000b0: 0bbb d33c 7039 9e3c 4880 723c 122b b03c
000000c0: d90f d1bc c960 bb3c 96ed e43c 23dd 16bd
000000d0: 19e7 df3c fb5e e6bc 0b1b b7bc ee47 d33c
000000e0: aef1 2fbc 2700 c4bc fb64 04bd af9f e9bc
000000f0: 4748 d5bc bf7b bc3c 0553 00bd cc28 353d
00000100: 0ee9 1dbd 1ae5 e93c 7b54 a93c 84e6 08bd
00000110: afbf 653d 99c7 f33c 692f c5bc 0e27 79bc
00000120: cec1 a03c 6cfe a2bc d3e3 6c3c f476 abbc
00000130: 90dd fb3c f288 dd3c e61e 183d d36e c0bc
00000140: 7d4a 883b fb68 6ebc 80a5 a9bc 45ef bf3c
00000150: 4784 41bc 732a f03c c6e7 ed3c 7e97 ca3c
00000160: 5d10 adbc bb8a 1f3d 3b4a 0fbd d6ec cabc
00000170: 839e fd3c f3a8 903c 1651 75bc 0d40 eabc
00000180: 4a60 1fbd 8976 f43c ca12 1ebd 072c f03c
00000190: d722 793c 2fdd f63c b2b3 b43c 404d d83c
000001a0: 1183 fd3c 0f48 da3c f2c8 e5bc e2da 7d3c
000001b0: 9e63 613c 2d85 d23c d3ab 003d 880e a0bc
000001c0: 4d94 b53c 3117 d6bc 144c 00bd 143a 5d3d
000001d0: 827f 9dbc 5a69 d83c 08bb df3c 3ee3 ea3c
000001e0: 8c9a b1bc bd6c 133d 8229 da3c 22d5 96bc
000001f0: 7339 11bd 01f0 d03c feda b9bc 2cfe e33c

net.2.running_mean f4 [128]
6.9872303 0.0056087226 0.048036356 0.0 1.6475853 6.310797 10.84906 11.483364
0.71007615 0.0 0.5902638 4.508727 0.00016993888 8.745941 2.3443728e-05 0.012582512
3.7526999 1.2789906 0.0 2.3283248 0.8804319 1.0060222 3.7838984 0.064029045
3.7967434 0.0 0.012547051 0.049657807 1.7521623 0.11864994 0.9844629 7.8858447
13.3004465 6.4044266 6.679871 0.008981441 0.0 8.405103 3.0159903 18.187637
5.6324806 0.0 5.692946 3.6479053 20.506193 8.762871 0.0 0.9623246
1.5323406 1.078981 0.5619224 2.4741583 17.045765 0.4981902 3.2663689 13.135898
2.1775434 0.8084139 3.6976736 17.610102 1.5721804 0.06018309 0.44314083 0.014764697
2.4643395 4.474303 3.3649158 0.085907966 1.1774211 0.006412582 1.1098192 0.0
0.0 0.0 11.261556 0.0 0.030265 15.815102 2.3407464 7.3013268
0.04798355 7.9996786 0.0 11.48003 0.65683246 0.06692666 6.308641 12.446207
0.21971643 4.042942 0.7736332 1.7591195 2.2823598 0.04223345 0.0 16.333069
0.029956713 17.351671 7.058696 0.9555853 0.0 1.1122018 0.0 0.009679863
2.9492445 0.1211932 9.65066 4.731715 0.0 0.68240887 11.705274 0.0
4.970811 17.893005 2.0732057 1.092524 1.5395578 10.566486 7.38675 0.8320115
0.0 12.341347 0.21231458 0.00011954701 0.3202746 9.163189 0.0 1.3253781
00000000: 6497 df40 60c9 b73b c5c1 443d 0000 0000
00000010: 13e4 d23f 0df2 c940 c095 2d41 dcbb 3741
00000020: 8dc7 353f 0000 0000 871b 173f 7e47 9040
00000030: 9f31 3239 60ef 0b41 06a9 c437 e126 4e3c
00000040: 3c2c 7040 f7b5 a33f 0000 0000 4603 1540
00000050: fc63 613f 56c5 803f 642b 7240 a921 833d
00000060: d8fd 7240 0000 0000 2592 4d3c fc65 4b3d
00000070: db46 e03f bdfe f23d c305 7c3f d758 fc40
00000080: a1ce 5441 10f1 cc40 81c1 d540 e526 133c
00000090: 0000 0000 4d7b 0641 fc05 4140 4880 9141
000000a0: 483d b440 0000 0000 9d2c b640 4877 6940
000000b0: af0c a441 b834 0c41 0000 0000 e85a 763f
000000c0: bd23 c43f 0d1c 8a3f 25da 0f3f 9c58 1e40
000000d0: ba5d 8841 c912 ff3e 300c 5140 a32c 5241
000000e0: df5c 0b40 37f4 4e3f afa6 6c40 7de1 8c41
000000f0: 353d c93f 8b82 763d 5be3 e23e a1e7 713c
00000100: bdb7 1d40 7d2d 8f40 c85a 5740 84f0 af3d
00000110: bcb5 963f a320 d23b 8e0e 8e3f 0000 0000
00000120: 0000 0000 0000 0000 552f 3441 0000 0000
00000130: 4eee f73c a80a 7d41 cace 1540 78a4 e940
00000140: 668a 443d 5efd ff40 0000 0000 34ae 3741
00000150: 2c26 283f d810 893d 63e0 c940 aa23 4741
00000160: 58fd 603e c85f 8140 d30c 463f d42a e13f
00000170: 2f12 1240 fbfc 2c3d 0000 0000 20aa 8241
00000180: c867 f53c 39d0 8a41 d6e0 e140 3da1 743f
00000190: 0000 0000 a15c 8e3f 0000 0000 4a98 1e3c
000001a0: 6cc0 3c40 2434 f83d 1a69 1a41 366a 9740
000001b0: 0000 0000 59b2 2e3f cd48 3b41 0000 0000
000001c0: e210 9f40 e024 8f41 67af 0440 d4d7 8b3f
000001d0: 3b10 c53f 5410 2941 4260 ec40 b5fe 543f
000001e0: 0000 0000 2876 4541 fe68 593e 50b5 fa38
000001f0: 08fb a33e 6c9c 1241 0000 0000 fda5 a93f

net.2.running_var f4 [128]
12.627206 0.022594165 0.080285266 0.0009550032 6.775309 17.111464 34.089703 12.78837
1.9502826 0.0009550032 2.0375273 21.375475 0.0009923839 10.82771 0.00096364936 0.015444478
8.629529 4.8783984 0.0009550032 6.179239 3.351459 3.854591 17.781496 0.13385029
9.106763 0.0009550032 0.012130114 0.13026424 7.419527 0.30207458 5.20964 13.130141
18.470356 12.149444 23.143353 0.009334611 0.0009550032 32.295937 9.501013 38.19446
20.765797 0.0009550032 17.016716 14.48966 52.363773 46.28325 0.0009550032 3.0770578
5.398592 4.2726216 2.1511476 5.672099 19.599556 2.6413941 9.947931 22.265717
6.274208 2.7744899 9.819084 29.447653 8.0807705 0.12432088 0.77142775 0.009550017
14.822162 11.712954 16.086596 0.21046048 4.4545984 0.019513743 3.708634 0.0009550032
0.0009550032 0.0009550032 40.73013 0.0009550032 0.04507915 28.965628 9.620692 24.611032
0.094114564 9.546636 0.0009550032 32.755756 3.8013573 0.12775965 33.40519 58.990185
0.7758554 10.801981 4.028104 5.219682 13.552343 0.038706142 0.0009550032 37.966133
0.10541476 28.889229 27.710857 4.181572 0.0009550032 5.72464 0.0009550032 0.010302886
8.581558 0.40860778 35.48761 19.705547 0.0009550032 2.292944 34.36259 0.0009550032
30.10719 24.60088 6.2978315 6.6064014 3.8209238 28.230518 17.723928 4.730884
0.0009550032 44.479073 0.68323106 0.0010448493 0.82431793 22.864285 0.0009550032 6.802162
00000000: 0909 4a41 6617 b93c 9a6c a43d 2e59 7a3a
00000010: 55cf d840 47e4 8841 db5b 0842 2a9d 4c41
00000020: dca2 f93f 2e59 7a3a d966 0240 f900 ab41
00000030: e112 823a 4d3e 2d41 6a9d 7c3a d60a 7d3c
00000040: 8d12 0a41 d71b 9c40 2e59 7a3a 53bc c540
00000050: 4e7e 5640 9eb1 7640 8140 8e41 0d10 093e
00000060: 4db5 1141 2e59 7a3a 63bd 463c fd63 053e
00000070: c46c ed40 85a9 9a3e 5fb5 a640 0f15 5241
00000080: 4ac3 9341 1f64 4241 9625 b941 32f0 183c
00000090: 2e59 7a3a 0a2f 0142 2604 1841 21c7 1842
000000a0: 5a20 a641 2e59 7a3a 3c22 8841 a6d5 6741
000000b0: 8174 5142 0c22 3942 2e59 7a3a 84ee 4440
000000c0: 44c1 ac40 51b9 8840 67ac 0940 d681 b540
000000d0: e4cb 9c41 9a0c 2940 ba2a 1f41 3020 b241
000000e0: 50c6 c840 3e91 3140 f81a 1d41 cb94 eb41
000000f0: d64a 0141 f29b fe3d 4a7c 453f ad77 1c3c
00000100: 9327 6d41 4268 3b41 59b1 8041 f482 573e
00000110: 128c 8e40 49db 9f3c 425a 6d40 2e59 7a3a
00000120: 2e59 7a3a 2e59 7a3a a7eb 2242 2e59 7a3a
00000130: eaa4 383d 9bb9 e741 5bee 1941 65e3 c441
00000140: 23bf c03d 05bf 1841 2e59 7a3a e505 0342
00000150: 7049 7340 6dd3 023e ea9e 0542 f3f5 6b42
00000160: 769e 463f ead4 2c41 3ae6 8040 a307 a740
00000170: 66d6 5841 558a 1e3d 2e59 7a3a 52dd 1742
00000180: b2e3 d73d 241d e741 d6af dd41 70cf 8540
00000190: 2e59 7a3a 4030 b740 2e59 7a3a 70cd 283c
000001a0: 104e 0941 0a35 d13e 50f3 0d42 f6a4 9d41
000001b0: 2e59 7a3a 98bf 1240 4b73 0942 2e59 7a3a
000001c0: 86db f041 9ace c441 d687 c940 a467 d340
000001d0: 048a 7440 1ad8 e141 9bca 8d41 6763 9740
000001e0: 2e59 7a3a 92ea 3142 3be8 2e3f 53f3 883a
000001f0: 8006 533f 0eea b641 2e59 7a3a 50ab d940

net.3.weight f4 [1, 128]
0.23751593 -0.045687508 -0.05210446 -0.09016756 0.18466383 -0.10835002 0.071010955 -0.029421985
-0.3204763 0.053601254 0.1903237 0.15489751 -0.06442257 -0.049391955 -0.013500548 0.29593492
0.20886154 0.16873415 0.05487705 -0.0861277 0.11399647 0.05084238 -0.12423133 -0.061373632
0.15970752 -0.0735612 -0.0051750373 -0.016552558 -0.29595223 -0.26856044 -0.15659702 0.014777923
0.16248688 0.122356735 0.11232182 -0.05118444 0.027118085 0.019729452 -0.23929675 -0.0009236079
-0.043180726 0.055790402 0.085604735 0.17345153 0.09635311 0.0981493 0.020505013 0.12082459
-0.2203875 0.24053435 0.3241068 -0.08564039 0.076329865 -0.25883836 -0.06850702 0.08074305
-0.19912049 -0.30829716 -0.17103888 -0.04131491 -0.35486588 0.17044722 -0.2832546 0.051431797
-0.035413902 -0.11579414 0.104686104 -0.21913686 0.15134358 0.21418718 -0.23932406 -0.02210575
0.049399205 -0.052010935 0.05231135 -0.06359747 0.12086478 0.06664434 0.12542655 -0.11951304
0.07745296 -0.02176394 -0.06085339 0.10508584 0.18079181 0.20776334 0.20441344 0.1044559
-0.34175488 -0.18095149 -0.16671206 -0.35883474 0.15051952 0.1488793 -0.021169499 -0.106443234
0.22197255 0.032267913 -0.0127628585 0.19814664 0.022101363 0.26454145 0.08042562 0.22551456
0.097752795 0.35162592 -0.1378982 0.09749111 0.016864622 0.17539923 0.08488883 -0.048614677
0.09359801 0.0010910749 -0.10925375 -0.09025368 -0.18410568 0.10753232 0.06971486 0.063514546
-0.074167944 0.0047978424 0.33138078 -0.049430415 -0.0999627 0.03416768 -0.092613935 0.12657645
00000000: 6037 733e d322 3bbd 7c6b 55bd c5a9 b8bd
00000010: 8418 3d3e 9ee6 ddbd 316e 913d 6006 f1bc
00000020: 7815 a4be fd8c 5b3d 37e4 423e 749d 1e3e
00000030: fbef 83bd 384f 4abd 6731 5dbc c884 973e
00000040: cddf 553e a5c8 2c3e c2c6 603d b863 b0bd
00000050: fb76 e93d 1940 503d ff6c febd eb62 7bbd
00000060: 5e8a 233e 41a7 96bd 5c93 a9bb 3b99 87bc
00000070: 0d87 97be c180 89be f85a 20be 1a1f 723c
00000080: f662 263e 2b96 fa3d fb08 e63d c6a6 51bd
00000090: bf26 de3c a99f a13c 350a 75be 471e 72ba
000000a0: 46de 30bd 7a84 643d 8951 af3d 479d 313e
000000b0: c854 c53d 8002 c93d 21fa a73c e272 f73d
000000c0: 43ad 61be a34e 763e 54f1 a53e 3b64 afbd
000000d0: d552 9c3d 7686 84be 694d 8cbd 9d5c a53d
000000e0: 3ee6 4bbe 20d9 9dbe d124 2fbe d339 29bd
000000f0: fbb0 b5be b789 2e3e bf06 91be 26aa 523d
00000100: 2b0e 11bd 7a25 edbd ab65 d63d 6a65 60be
00000110: d0f9 1a3e e253 5b3e 5e11 75be 1e17 b5bc
00000120: d256 4a3d 6b09 55bd 6d44 563d 643f 82bd
00000130: f487 f73d d47c 883d d16f 003e 41c3 f4bd
00000140: a89f 9e3d 4a4a b2bc 6741 79bd 3f37 d73d
00000150: 7d21 393e eabf 543e c251 513e faec d53d
00000160: 7ffa aebe 594b 39be 91b6 2abe 30b9 b7be
00000170: ca21 1a3e d173 183e a86b adbc e9fe d9bd
00000180: c64c 633e 5c2b 043d 4f1b 51bc f4e6 4a3e
00000190: eb0d b53c fa71 873e 30b6 a43d 4aed 663e
000001a0: 9e32 c83d 5008 b43e 3035 0dbe 6ba9 c73d
000001b0: ad27 8a3c db9b 333e 32da ad3d 2f20 47bd
000001c0: 50b0 bf3d 6602 8f3a 6ec0 dfbd ecd6 b8bd
000001d0: 3386 3cbe e839 dc3d aac6 8e3d ea13 823d
000001e0: 5de5 97bd 3837 9d3b beaa a93e 8c77 4abd
000001f0: 3eb9 ccbd 69f3 0b3d 60ac bdbd 429d 013e
