saved_models/mlp/MLP_corral.pth (torch, 9635 bytes, 7 tensors)

net.0.weight f4 [128, 6]
0	0xbece52bf	-0.40297505
1	0xbeb85276	-0.36000413
2	0x3f1b0c5b	0.6056573
3	0x3f075162	0.52858555
4	0x3d88fa46	0.06688361
5	0x3d0da752	0.034583397
6	0x3e5c9cb1	0.21544148
7	0xbda2b100	-0.07943916
8	0xbea0dc37	-0.3141801
9	0xbe51795f	-0.20456456
10	0x3ea05d80	0.31321335
11	0x3ed686c1	0.41899684
12	0x3e8227b1	0.25420907
13	0x3db5bac1	0.08873511
14	0xbe5ff20a	-0.21869674
15	0x3e652cce	0.22380373
16	0xbe44d8ef	-0.19223379
17	0xbd41c460	-0.04730642
18	0xbde8475b	-0.11341735
19	0x3eda0f1d	0.42589656
20	0x3e130fc9	0.1436149
21	0x3cb055e7	0.021525336
22	0xbebfa8d0	-0.3743348
23	0xbe97a0c1	-0.29614833
24	0x3eee5adc	0.46553695
25	0x3e9d448a	0.30716354
26	0x3f2ad95a	0.667379
27	0x3edd964f	0.4327874
28	0x3e0e85b1	0.13918187
29	0xbe03f373	-0.12885837
30	0xbf23a4ba	-0.6392323
31	0x3e8b1cb6	0.27170342
32	0x3e936cf4	0.28794062
33	0xbf241869	-0.64099747
34	0x3d5e1432	0.05421848
35	0x3c0db4c0	0.008649051
36	0x3e58981c	0.21151775
37	0x3e5a0c5e	0.2129378
38	0xbe4fc669	-0.20290531
39	0xbdce3cac	-0.10070166
40	0x3e7a4615	0.24440797
41	0x3e9fd180	0.31214523
42	0xbe009553	-0.12556963
43	0xbe27600a	-0.1634523
44	0x3f198ed2	0.5998355
45	0x3ef6c4f0	0.48197126
46	0x3dc0600d	0.0939332
47	0x3ebdce23	0.37071332
48	0x3e223b65	0.1584297
49	0x3ecb5d6c	0.39719713
50	0x3e3ce976	0.18448433
51	0xbd88eb1b	-0.06685468
52	0x3e80c726	0.25151938
53	0x3e17b421	0.14814807
54	0x3e98c81e	0.29840177
55	0x3ee90241	0.45509532
56	0xbe31309d	-0.17303701
57	0x3dc04ec2	0.09390022
58	0x3e01074e	0.12600443
59	0x3e1d5a0c	0.15366381
60	0xbe426181	-0.18982507
61	0xbe88d81e	-0.26727384
62	0x3f24c24a	0.6435896
63	0x3eeaea7c	0.45882022
64	0xbe0a40db	-0.13501303
65	0x3ca702c8	0.020387068
66	0xbf02e650	-0.5113268
67	0x3e57dacf	0.21079563
68	0x3d804477	0.06263059
69	0xbeb9fe5c	-0.36326873
70	0x3e2a1e17	0.16613041
71	0xbe2a145d	-0.1660933
72	0xbf1b64c5	-0.6070064
73	0xbf17bb60	-0.59270287
74	0x3e963be0	0.29342556
75	0x3e2a015c	0.16602081
76	0xbece00e3	-0.40235052
77	0xbb6977c3	-0.0035624362
78	0x3e9c55de	0.3053426
79	0xbda3d600	-0.07999802
80	0xbe85296a	-0.2600816
81	0xbea7e659	-0.3279293
82	0xbe903540	-0.28165627
83	0x3c919600	0.01777172
84	0xbe85fed5	-0.26170984
85	0xbed28d34	-0.41123354
86	0x3f610dbe	0.87911594
87	0xbffc6e58	-1.9721174
88	0x3db17674	0.08665171
89	0x3dead4c9	0.11466367
90	0x3ed24d6d	0.41074696
91	0x3ec212f8	0.37905097
92	0xbebb9b46	-0.36641902
93	0x3d16c97d	0.036813248
94	0xbe86d4f7	-0.26334354
95	0x3ea1a2bd	0.31569472
96	0xbebc64d4	-0.36795676
97	0xbe656a72	-0.22403887
98	0x3eb66132	0.3562103
99	0x3cd6aa7d	0.026204342
100	0xbdd4be2e	-0.103878364
101	0x3e7da940	0.24771595
102	0x3e3e8e28	0.18608916
103	0x3c1e7506	0.009671455
104	0xbf341ee9	-0.70359665
105	0x3f380823	0.71887416
106	0xbe103180	-0.14081383
107	0x3d17a372	0.037021108
108	0xbe873cd8	-0.26413608
109	0xbeb044f1	-0.34427598
110	0x3dc47c92	0.095940724
111	0xbe629a4e	-0.22129175
112	0x3e9a88a8	0.30182385
113	0x3ebe8d5c	0.37217224
114	0xbf038c30	-0.51385784
115	0x3ece959a	0.40348512
116	0xbdbb2afd	-0.09139059
117	0xbe89d1be	-0.26917833
118	0x3e513693	0.20430975
119	0xbe9aef45	-0.30260673
120	0x3d1d6586	0.0384269
121	0x3ea2f86b	0.31830153
122	0xbee74100	-0.4516678
123	0xbea12712	-0.3147512
124	0x3ea18a5d	0.31550875
125	0x3e0f172f	0.13973688
126	0xbe66c3a3	-0.22535567
127	0xbe4a6977	-0.19766794
128	0xbeb99407	-0.36245748
129	0x3cca4d70	0.024695128
130	0xbd8f2efc	-0.069913834
131	0xbeb8fe0e	-0.36131328
132	0x3ed79042	0.42102247
133	0x3e8f08ad	0.27936307
134	0xbe0992f5	-0.13434966
135	0x3d005d64	0.031339064
136	0xbe4a7887	-0.1977254
137	0x3e09a524	0.13441902
138	0x3e2053ba	0.15656939
139	0xbce1ee64	-0.027579494
140	0xbd133877	-0.03594252
141	0x3e6efc06	0.23338327
142	0x3ea0f7d5	0.3143908
143	0x3e620df3	0.22075634
144	0x3d327d59	0.043576572
145	0x3e8749e7	0.2642357
146	0x3e74ba20	0.23899126
147	0xbdf18f36	-0.117948934
148	0xbe07b186	-0.13251314
149	0x3e9f08d2	0.31061417
150	0x3cdd261a	0.026995707
151	0x3dbd0498	0.09229392
152	0x3eae3334	0.3402344
153	0xbe1ae4ea	-0.15126386
154	0x3eaff86b	0.34369215
155	0xbdf0ab36	-0.11751406
156	0xbe26f6a7	-0.16305028
157	0xbe29a7c7	-0.16567908
158	0xbecd8285	-0.4013864
159	0xbe9a5e70	-0.30150175
160	0xbe2b41d9	-0.16724338
161	0xbdf24ce4	-0.11831072
162	0x3ee0b6eb	0.43889555
163	0x3e53a830	0.20669627
164	0x3ee80ec8	0.45323777
165	0x3cf11257	0.02942769
166	0x3e8f0687	0.27934667
167	0x3ea4a777	0.32159016
168	0xbf52520a	-0.8215643
169	0x3efdece9	0.4959481
170	0xbca02056	-0.019546669
171	0xbea05be1	-0.31320098
172	0xbd791b32	-0.06081695
173	0x3d9464db	0.07245799
174	0xbd989f3e	-0.07452248
175	0x3ea54e11	0.32286122
176	0x3ec0317a	0.37537748
177	0xbee7dcf3	-0.45285758
178	0xbd54940c	-0.051899
179	0x3ddda2d7	0.10822075
180	0x3f018104	0.5058749
181	0xbe7ab654	-0.24483615
182	0x3d707730	0.058707416
183	0xbde44d30	-0.11147535
184	0xbe4efa36	-0.20212635
185	0xbeaa0fd9	-0.33215216
186	0x3d863ba8	0.06554347
187	0x3e8f538a	0.27993423
188	0x3e8c36a5	0.2738544
189	0xbdf437e8	-0.11924726
190	0x3e785c5f	0.24253987
191	0xbe35e4ef	-0.17763112
192	0xbe56456b	-0.20924918
193	0x3ef295a9	0.47379807
194	0x3e757306	0.23969659
195	0x3e8c35c9	0.27384785
196	0x3e04584e	0.1292431
197	0xbe2504d9	-0.1611513
198	0x3bfde593	0.0077483146
199	0xbd871339	-0.06595463
200	0xbe0951d4	-0.13410121
201	0x3e81a61f	0.25322053
202	0xbec13096	-0.3773238
203	0xbe908936	-0.28229684
204	0xbe124f9d	-0.14288183
205	0xbdc79643	-0.09745457
206	0xbba9f660	-0.005186841
207	0xbdaffc2d	-0.085930206
208	0xbebee082	-0.3728066
209	0xbe413bbc	-0.18870443
210	0x3ee2011f	0.4414148
211	0x3d06e19e	0.03293001
212	0x3ea4d76d	0.32195607
213	0x3edd0c7d	0.4317359
214	0x3e71029a	0.23536149
215	0x3e1d8cab	0.15385692
216	0x3b2ea69f	0.0026649607
217	0xbe34e2aa	-0.1766459
218	0x3f06aa41	0.52603537
219	0xbf5bc14c	-0.8584182
220	0xbd992aff	-0.07478904
221	0xbd86c43c	-0.065803975
222	0xbbb94b0c	-0.0056546982
223	0xbeb52e7d	-0.3538703
224	0xbf38df2e	-0.72215545
225	0x3e92023b	0.28517327
226	0xbc250940	-0.010073006
227	0x3e179609	0.14803328
228	0xbe2ac0f0	-0.16675162
229	0xbc2ab9e9	-0.010420301
230	0xbf48d330	-0.78447247
231	0x3e9b601f	0.30346772
232	0x3c6921e0	0.014229268
233	0x3e28304e	0.16424677
234	0x3c5cc198	0.013473891
235	0x3e8ab2e3	0.27089605
236	0xbeb0d7de	-0.34539694
237	0x3cb8c3fc	0.02255439
238	0x3df5b5b6	0.11997549
239	0x3d4fe80d	0.05075841
240	0xbe239e50	-0.1597836
241	0xbe257028	-0.16156065
242	0x3ea34782	0.31890494
243	0xbec2a239	-0.3801439
244	0xbe59ac41	-0.21257116
245	0xbdb7d2f7	-0.08975785
246	0x3ed2b5aa	0.41154224
247	0xbea88850	-0.32916498
248	0xbdb79bfc	-0.089652985
249	0xbe64cb63	-0.22343211
250	0x3e9e0ac6	0.30867594
251	0xbe1329aa	-0.14371362
252	0xbd5443c2	-0.05182243
253	0xbca4c10f	-0.020111589
254	0x3dfb1c28	0.1226123
255	0x3e0741dc	0.13208717

net.0.bias f4 [128]
0	0xbe45f88d	-0.19333096
1	0x3dd93c3d	0.10607193
2	0x3e6f7174	0.23383123
3	0xbe96f616	-0.29484624
4	0xbebc29c6	-0.3675062
5	0x3d89d364	0.06729773
6	0x3e24b13e	0.16083238
7	0xbed326da	-0.4124058
8	0x3c92269b	0.017840674
9	0xbdd75b55	-0.10515467
10	0xbe2c5ece	-0.1683304
11	0x3e99e77b	0.30059418
12	0x3edc273c	0.42998683
13	0xbec51b99	-0.38497618
14	0x3f7a11c4	0.9768336
15	0xbeb10413	-0.3457342
16	0x3e4a7fd0	0.19775319
17	0xbd75c071	-0.05999798
18	0x3e2fb740	0.17159748
19	0x3e4ae56b	0.19814079
20	0xbd2060f8	-0.039154977
21	0xbec2e0b9	-0.38062075
22	0xbd97cbe9	-0.0741194
23	0x3e71fd4d	0.23631783
24	0xbd1258a4	-0.035729066
25	0xbe43d038	-0.19122398
26	0xbe6d9a21	-0.23203327
27	0x3e83f39c	0.25771797
28	0x3eaa5edd	0.332755
29	0x3c2ef087	0.010677463
30	0x3d57e3f3	0.052707624
31	0xbdf04cce	-0.11733399
32	0x3e3a589f	0.18197869
33	0xbd599e5b	-0.053129535
34	0x3e6c4e4c	0.23076743
35	0x3d910956	0.07081859
36	0x3ebb96f4	0.36638606
37	0x3eb30c62	0.34970385
38	0x3ef53bfe	0.47897333
39	0xbeafa989	-0.34309033
40	0x3ec3824c	0.38185346
41	0xbcc3a780	-0.023883581
42	0xbee3215c	-0.4436139
43	0x3f05d8ea	0.5228411
44	0xbdbd86a7	-0.092541985
45	0xbd347a64	-0.044062033
46	0x3ed0f887	0.4081461
47	0x3ebbc01b	0.36670002
48	0x3e7b1a1e	0.24521682
49	0xbeb88716	-0.36040562
50	0x3ebe1f67	0.37133333
51	0xbe8ced30	-0.2752471
52	0x3dc89c25	0.09795407
53	0x3e572724	0.21011025
54	0x3ebe86b6	0.3721215
55	0x3d1838f1	0.03716368
56	0xbc5eb664	-0.01359329
57	0xbc246218	-0.010033153
58	0xbebe26c8	-0.37138963
59	0x3d9596f8	0.07304186
60	0x3e5feb0c	0.21867007
61	0xbe9b3530	-0.30314016
62	0xbe9c6eb9	-0.30553225
63	0x3c9e68ea	0.019337136
64	0x3dc79a13	0.09746184
65	0x3d95ea20	0.073200464
66	0x3e6a465a	0.228784
67	0xbeb172bb	-0.34657845
68	0xbe042002	-0.12902835
69	0xbea0b0b7	-0.31384823
70	0x3e93fac3	0.28902254
71	0xbe942bb9	-0.28939608
72	0x3e819d1e	0.25315183
73	0x3cd0a5e3	0.025469726
74	0x3e9ffd19	0.31247786
75	0xbd49d895	-0.049278814
76	0x3ece387f	0.40277478
77	0x3eacde1c	0.33763206
78	0xbe9171ac	-0.28407037
79	0x3e93c5d7	0.28861877
80	0xbc6c0a3c	-0.014406737
81	0xbab7d0a7	-0.0014023975
82	0x3e726966	0.23673019
83	0xbe3c9385	-0.18415649
84	0xbe9ef478	-0.3104589
85	0x3efaf485	0.4901468
86	0xbd084228	-0.033266217
87	0x3f0b2728	0.5435662
88	0x3e6366ed	0.22207232
89	0xbdd31594	-0.1030685
90	0xbeb79848	-0.3585837
91	0xbe604c8c	-0.219042
92	0xbde19298	-0.11014289
93	0x3e8a97c2	0.27068907
94	0x3d8912fd	0.06693075
95	0xbe5507bb	-0.2080373
96	0x3c682fcb	0.014171551
97	0x3ecd799e	0.4013185
98	0x3e8ab6c3	0.2709256
99	0x3e4dfa12	0.20114926
100	0x3e60a440	0.21937656
101	0x3e43a133	0.19104461
102	0xbdaf6f67	-0.0856617
103	0xbe15a199	-0.14612426
104	0xbe2313d1	-0.15925528
105	0x3e766784	0.24062926
106	0xbda54f92	-0.080718175
107	0x3e9b65c4	0.3035108
108	0xbe83d86a	-0.25751048
109	0xbe68dfb3	-0.22741584
110	0xbe152eec	-0.1456868
111	0xbe9c0b60	-0.30477428
112	0x3ebda362	0.37038714
113	0x3d8fc132	0.07019271
114	0x3e622b80	0.22086906
115	0xbe80a402	-0.25125128
116	0x3ef5e9c4	0.48029912
117	0x3ed3f571	0.41398194
118	0x3d852553	0.0650126
119	0xbe64c4e3	-0.22340731
120	0xbe27f76e	-0.1640298
121	0xbe6330b2	-0.22186545
122	0xbd271a1c	-0.040796384
123	0xbeacaec3	-0.33727083
124	0xbe0fa34a	-0.14027134
125	0xbe4727cc	-0.19448775
126	0xbda43598	-0.08018035
127	0x3eaaab8b	0.33334002

net.2.weight f4 [128]
0	0x3fcf9732	1.6218016
1	0x3f7db013	0.9909679
2	0x3f76119a	0.9612061
3	0x3f857b39	1.042823
4	0x3fd4b006	1.6616218
5	0x3fa92327	1.3213853
6	0x3f87842d	1.0587212
7	0x3fca3f9f	1.5800666
8	0x3f85d5f5	1.045592
9	0x3f937709	1.1520702
10	0x3fd98582	1.6993868
11	0x3fb274b7	1.3941869
12	0x3fa45323	1.2837871
13	0x3f800000	1.0
14	0x4030e4ed	2.7639725
15	0x3f955c18	1.166873
16	0x3f902232	1.1260436
17	0x3fb33781	1.4001313
18	0x3f782ee8	0.96946573
19	0x3f9f2b38	1.2435064
20	0x3f864ca2	1.0492136
21	0x3f800000	1.0
22	0x3f8f7f07	1.1210641
23	0x3f891ea0	1.0712471
24	0x3f813227	1.009343
25	0x3f798fb2	0.97484887
26	0x3f800000	1.0
27	0x3fac8c48	1.348031
28	0x3fdf1abf	1.7430037
29	0x3f7a4771	0.9776526
30	0x3f979db9	1.1845008
31	0x3f801d6b	1.0008978
32	0x3f8ce415	1.1007105
33	0x3f80ab0c	1.0052199
34	0x3f798b3b	0.97478074
35	0x3fba5b12	1.4559042
36	0x3fe6f274	1.8042741
37	0x3fcf75a0	1.6207771
38	0x3fd6892f	1.6760615
39	0x3f786353	0.97026557
40	0x3f8244b4	1.0177217
41	0x3f828fb6	1.0200107
42	0x3f80236a	1.0010808
43	0x3f8f53c7	1.1197442
44	0x3f8a6dac	1.0814719
45	0x3f816ba1	1.0110971
46	0x3fa1988a	1.2624676
47	0x3fe0ff27	1.7577866
48	0x3fc6de8c	1.5536666
49	0x3fb99222	1.4497721
50	0x3fe5466f	1.791212
51	0x3fb55a4c	1.4168181
52	0x3fbb162d	1.4616143
53	0x3f9cd5a9	1.2252704
54	0x3f830ec8	1.0238886
55	0x3f9785fd	1.1837765
56	0x3fa34fc0	1.2758713
57	0x3fa2afe2	1.2709925
58	0x3fa1921e	1.2622716
59	0x3f907e5d	1.1288563
60	0x3fd53b64	1.665875
61	0x3f8503eb	1.0391821
62	0x3fb11662	1.3834956
63	0x3fb0295b	1.3762621
64	0x3fa5b396	1.294543
65	0x3fab630f	1.3389605
66	0x3fa44dd8	1.2836256
67	0x3fd4d9d5	1.6628977
68	0x3f9d25a2	1.227711
69	0x3f7b4293	0.9814846
70	0x3f8e4024	1.1113324
71	0x3fb621f8	1.4229116
72	0x3fda8a9a	1.7073548
73	0x3f957e08	1.1679087
74	0x3fc9374e	1.5720003
75	0x3f76e083	0.9643633
76	0x3fa11971	1.2585889
77	0x3fa9bea9	1.326131
78	0x3f800000	1.0
79	0x3f961784	1.1725926
80	0x3fa02d6a	1.2513859
81	0x3f939afe	1.1531675
82	0x3f77c3d3	0.9678318
83	0x402c7eef	2.6952474
84	0x3f808596	1.0040767
85	0x3fac2782	1.3449557
86	0x3f9cff8d	1.2265488
87	0x3f9e6e71	1.2377454
88	0x3f960b69	1.1722232
89	0x3fbbcb50	1.4671421
90	0x3f8aaee0	1.0834618
91	0x3fc966fb	1.5734552
92	0x3fca92cd	1.582605
93	0x3f9cc4b7	1.2247533
94	0x3f9dcb4c	1.2327666
95	0x3f7a272c	0.9771602
96	0x3fc51096	1.5395687
97	0x3fe801eb	1.8125585
98	0x3f76c9c1	0.964016
99	0x3f87c94d	1.0608307
100	0x3f998a01	1.199524
101	0x3fcba287	1.5908974
102	0x3f7c53ab	0.9856517
103	0x3f8b00d0	1.0859623
104	0x3f7d4e32	0.9894744
105	0x3f871884	1.0554357
106	0x3f7dec8e	0.9918908
107	0x3f885b30	1.0652828
108	0x3f8a8e70	1.0824718
109	0x3fb080e4	1.3789334
110	0x3f74c65f	0.9561519
111	0x3fe26b8f	1.7689074
112	0x3fecdfae	1.8505762
113	0x3fc92775	1.5715166
114	0x3f8c4740	1.0959244
115	0x3f800000	1.0
116	0x3fa192db	1.2622942
117	0x3f7df54a	0.99202406
118	0x3fb142c4	1.38485
119	0x3f739976	0.9515604
120	0x3fd49ff6	1.6611316
121	0x3f87f600	1.0621948
122	0x3fb340b0	1.4004116
123	0x3fde1683	1.735062
124	0x3f7fbdf9	0.9989925
125	0x3f800000	1.0
126	0x3f91a70e	1.1379106
127	0x3f8c78f0	1.0974407

net.2.bias f4 [128]
0	0xbdf39604	-0.118938476
1	0xbd96d3a1	-0.07364584
2	0xbd6999ce	-0.057031445
3	0x3da7b0da	0.08188029
4	0xbe051853	-0.1299756
5	0x3de014c4	0.10941461
6	0xbdbd4959	-0.092425056
7	0xbe0a9051	-0.13531615
8	0xbc5efdd0	-0.013610318
9	0xbdc9b390	-0.09848702
10	0xbe1d07c9	-0.15335001
11	0x3dd5b8a0	0.10435605
12	0xbddcfb00	-0.10790062
13	0x3dbcd79d	0.092208125
14	0x3e75a450	0.23988461
15	0xbdc7727a	-0.097386315
16	0xbe004fa3	-0.12530379
17	0x3dd7d52d	0.10538707
18	0xbd1bce4d	-0.03803854
19	0x3ddf9f02	0.10919
20	0x3b789256	0.003792902
21	0x3dc530bc	0.09628436
22	0xbdc22804	-0.094802886
23	0xbdadb9b3	-0.08482685
24	0xbd378123	-0.04480089
25	0x3d3e636a	0.046481527
26	0xbdc6345e	-0.09677957
27	0xbddceb01	-0.10787011
28	0x3e035c4e	0.1282818
29	0x3d79e109	0.061005626
30	0x3ddecfeb	0.10879501
31	0x3cbb4d24	0.022863932
32	0xbdaaff7e	-0.083495125
33	0x3d994a39	0.0748486
34	0xbd87ab89	-0.066245146
35	0xbe02de04	-0.12780005
36	0x3df80f61	0.12112308
37	0x3dfb8dbb	0.12282892
38	0x3decafda	0.115569785
39	0x3d25e091	0.040497366
40	0x3d993861	0.074814565
41	0xbbc63c45	-0.006049665
42	0xbd8e9472	-0.069619074
43	0x3daa17ce	0.08305322
44	0xbca13e57	-0.019683046
45	0x3d957175	0.07297031
46	0x3dc803b2	0.0976633
47	0x3e32ee2b	0.17473666
48	0xbe144e19	-0.14482917
49	0xbdd6aa55	-0.10481707
50	0x3df19610	0.117962
51	0xbe0c8907	-0.13724147
52	0xbde8b011	-0.11361707
53	0x3dd0e88e	0.10200606
54	0x3cba264a	0.022723336
55	0xbdb42a86	-0.08797173
56	0xbde41c59	-0.111382194
57	0xbdc7f9fe	-0.09764479
58	0xbdf7507d	-0.12075899
59	0xbda6aca0	-0.08138394
60	0x3e0f42f8	0.1399039
61	0xbcb18603	-0.021670347
62	0xbdce46cf	-0.100720994
63	0xbdd4fa4e	-0.10399304
64	0xbdf43e47	-0.11925941
65	0x3e1699af	0.14707063
66	0xbdf422dd	-0.11920712
67	0xbe063061	-0.13104393
68	0xbdc90b1e	-0.098165736
69	0x3d4f22ce	0.0505703
70	0xbdb793bf	-0.08963727
71	0x3df03e8a	0.117306784
72	0xbdb192e1	-0.08670593
73	0x3dc59166	0.09646873
74	0x3de33586	0.11094193
75	0x3d282759	0.04105315
76	0x3d34c3b1	0.04413194
77	0x3e13eb63	0.14445262
78	0x3de0c353	0.10974755
79	0x3d3ae562	0.045628913
80	0xbdc2bccc	-0.095086664
81	0x3dba48e3	0.09095933
82	0xbd84654f	-0.064646356
83	0xbe88ee9a	-0.2674454
84	0x3d9b518a	0.07583912
85	0x3e11b26e	0.14228222
86	0xbdc45c00	-0.0958786
87	0x3dd03cb2	0.10167827
88	0x3e0e686f	0.13907026
89	0xbdefb139	-0.117037244
90	0x3db88cdc	0.09011242
91	0xbde7dde0	-0.11321616
92	0x3e10a2eb	0.14124648
93	0x3d0b6ad8	0.03403744
94	0xbdd41efd	-0.10357473
95	0x3d557edb	0.052122932
96	0xbe0f34c3	-0.13984971
97	0x3e126a47	0.14298354
98	0x3d2595aa	0.040425934
99	0xbcc815fb	-0.024424544
100	0xbe0d3ad0	-0.13791966
101	0xbe11cc3c	-0.14238065
102	0xbd8d0d10	-0.06887257
103	0x3bedd369	0.007257868
104	0xbd39bdf3	-0.045347165
105	0x3d33313c	0.043748125
106	0xbd9befa0	-0.07614064
107	0x3da75a8e	0.08171569
108	0xbdd23430	-0.1026386
109	0xbdd2d3de	-0.10294317
110	0x3d3b0bfa	0.04566572
111	0xbe038409	-0.12843336
112	0x3e2e0909	0.16995634
113	0xbe1fba78	-0.15598476
114	0xbcafb4f2	-0.021448586
115	0xbe044acc	-0.12919158
116	0x3dc68e6f	0.09695136
117	0xbc2c4445	-0.010514324
118	0xbded712a	-0.1159385
119	0x3d740f85	0.059585113
120	0x3e09ed55	0.13469441
121	0x3daaadad	0.08333907
122	0xbddad922	-0.10685946
123	0xbdc6db54	-0.09709802
124	0x3d96f3f2	0.073707476
125	0x3dda74be	0.10666798
126	0xbdcee46e	-0.10102163
127	0x3ddd5f5b	0.10809203

net.2.running_mean f4 [128]
0	0x3e9bb59a	0.30411988
1	0x3eca6dac	0.39536798
2	0x3e4e1ae0	0.2012744
3	0x3c221632	0.009892987
4	0x3e7f5f1f	0.2493863
5	0x3da276eb	0.07932838
6	0x3f163101	0.58668524
7	0x3e8102a3	0.25197324
8	0x3eef78ae	0.4677176
9	0x3eccdaae	0.4001059
10	0x3d9ffed8	0.078122795
11	0x3d20f38e	0.03929477
12	0x3cdf74a1	0.027277293
13	0x00000000	0.0
14	0x3c504dfa	0.012713904
15	0x3d9f6572	0.07783021
16	0x3e401ef2	0.18761805
17	0x3de963fe	0.11396025
18	0x3e7b6eab	0.24553935
19	0x3d82b00d	0.06381235
20	0x3e0b5136	0.13605198
21	0x00000000	0.0
22	0x3e437f52	0.19091538
23	0x3f258d54	0.64668775
24	0x3e08727d	0.13324924
25	0x3e234a71	0.15946366
26	0x00000000	0.0
27	0x3f847252	1.0347388
28	0x3d0182bf	0.03161883
29	0x3e94fc36	0.29098672
30	0x3d47f627	0.048818734
31	0x3e2e7b1b	0.17039149
32	0x3eb32d52	0.34995514
33	0x3c4b2536	0.0123990085
34	0x3cd3975a	0.025829006
35	0x3f4c1bd5	0.7972997
36	0x3d8aba47	0.06773811
37	0x3d47da59	0.048792217
38	0x3c74dc6a	0.014945129
39	0x3c9d8bae	0.019231644
40	0x3e518daf	0.20464204
41	0x3e008139	0.12549295
42	0x3cb97b12	0.022641692
43	0x3e0d3e1c	0.13793224
44	0x3e1d4fcb	0.1536247
45	0x3e286eb8	0.16448486
46	0x3e529055	0.20562871
47	0x3d56b6ed	0.052420545
48	0x3f32fe89	0.6991964
49	0x3e3ca987	0.18424045
50	0x3e0240c9	0.12720026
51	0x3c0044ee	0.007828934
52	0x3f3c4be9	0.7355333
53	0x3e7fca98	0.24979627
54	0x3e4dba56	0.20090613
55	0x3eea314f	0.45740744
56	0x3dd18f8e	0.10232459
57	0x3eb638d8	0.35590243
58	0x3e15d359	0.14631404
59	0x3eaf718c	0.34266317
60	0x3bd2110a	0.0064107226
61	0x3c90789a	0.017635632
62	0x3cad4453	0.021150744
63	0x3edc62ff	0.43044278
64	0x3e7a5834	0.2444771
65	0x3e2d2fae	0.1691272
66	0x3f19ff8c	0.6015556
67	0x3df2c9e3	0.11854913
68	0x3dcfa3de	0.10138677
69	0x3beda8fa	0.0072528096
70	0x3f2dae5f	0.67844194
71	0x3c8a1f2b	0.016860565
72	0x3f65c6ed	0.8975666
73	0x3e13ad8f	0.14421676
74	0x3d218322	0.0394317
75	0x3d4fe90a	0.050759353
76	0x3de05337	0.10953372
77	0x3dba5cd5	0.090997376
78	0x00000000	0.0
79	0x3df277d7	0.11839264
80	0x3e8cbfa6	0.27489966
81	0x3d54a76d	0.051917482
82	0x3d0741ac	0.033021614
83	0x3bda2113	0.006656775
84	0x3d236827	0.03989425
85	0x3e9b22d0	0.30299997
86	0x3d769be0	0.060207248
87	0x3df96259	0.121769615
88	0x3e40392c	0.1877181
89	0x3e3cc190	0.18433213
90	0x3a6ac129	0.00089551747
91	0x3bcf4494	0.006325314
92	0x3cddef54	0.02709166
93	0x3dbf700b	0.093475424
94	0x3eae8dbf	0.3409252
95	0x3e2d507d	0.16925235
96	0x3f14cd4a	0.58125746
97	0x3c588610	0.013215557
98	0x3f146e98	0.5798125
99	0x3f094d42	0.5363351
100	0x3e644c78	0.22294796
101	0x3f2a4475	0.6651071
102	0x3bc643c0	0.006050557
103	0x3e941d0f	0.2892842
104	0x3d42540a	0.047443427
105	0x3ec49fbd	0.3840312
106	0x3a969372	0.0011488034
107	0x3eb71757	0.35759994
108	0x3be85949	0.0070907217
109	0x3e328a16	0.17435488
110	0x3ddcad86	0.107752845
111	0x3a157bdd	0.0005702356
112	0x3e6cddb2	0.23131445
113	0x3d3c80c2	0.04602123
114	0x3f38501e	0.7199725
115	0x00000000	0.0
116	0x3dea0bff	0.11428069
117	0x3e5a0b6c	0.2129342
118	0x3eea6463	0.45779714
119	0x3c2bf269	0.010494807
120	0x3b9dcbf9	0.004815575
121	0x3de73503	0.11289408
122	0x3cc31157	0.02381198
123	0x3db1ceee	0.08682047
124	0x3df0f9f1	0.117664225
125	0x00000000	0.0
126	0x3cc5e726	0.024158072
127	0x3eb15868	0.3463776

net.2.running_var f4 [128]
0	0x3dedc4e5	0.1160982
1	0x3e06a083	0.13147168
2	0x3dc22295	0.09479252
3	0x3d5ddfa1	0.054168347
4	0x3dc0ddf1	0.09417332
5	0x3d92328a	0.07138546
6	0x3e011f2d	0.12609549
7	0x3ddf8bd8	0.10915345
8	0x3de920fc	0.113832444
9	0x3e0aa559	0.13539638
10	0x3d8a22f2	0.067449465
11	0x3d6fc316	0.058535658
12	0x3d7472c8	0.059679776
13	0x3d565cef	0.052334722
14	0x3d5f2153	0.05447514
15	0x3dabaf27	0.08383017
16	0x3db29112	0.08719076
17	0x3db42d54	0.08797708
18	0x3de238d6	0.11045997
19	0x3d8f14f1	0.06986416
20	0x3dafee25	0.08590344
21	0x3d565cef	0.052334722
22	0x3dd0c061	0.10192943
23	0x3ddd3453	0.10800996
24	0x3da1e110	0.079042554
25	0x3db2f82c	0.08738741
26	0x3d565cef	0.052334722
27	0x3e183868	0.14865267
28	0x3d66c022	0.056335576
29	0x3dee6bc7	0.11641651
30	0x3d803c1e	0.062614664
31	0x3dbacd7f	0.091212265
32	0x3dfa9d68	0.12237054
33	0x3d5e4893	0.05426843
34	0x3d637f8c	0.05554156
35	0x3e024d17	0.1272472
36	0x3d8fcf7e	0.07021998
37	0x3d709aa4	0.058741227
38	0x3d5bdde7	0.05367842
39	0x3d636fa2	0.055526383
40	0x3dc2343f	0.094826214
41	0x3dac08cc	0.08400115
42	0x3d62c9c0	0.055368185
43	0x3da0a824	0.0784457
44	0x3db4bcfe	0.0882511
45	0x3db26f1b	0.08712598
46	0x3dbfe0fa	0.09369083
47	0x3d8c0a17	0.06837862
48	0x3dbea25d	0.09308312
49	0x3da07ad4	0.078359276
50	0x3db0fc6f	0.08641898
51	0x3d59e02e	0.05319231
52	0x3e1864c3	0.14882188
53	0x3d9f9c1d	0.07793448
54	0x3da3bdd0	0.07995188
55	0x3defd665	0.117108144
56	0x3d9966a2	0.07490279
57	0x3da72b60	0.0816257
58	0x3dc7edaa	0.09762128
59	0x3dd2cfd9	0.1029355
60	0x3d5aed02	0.053448685
61	0x3d67b210	0.056566298
62	0x3d66fd90	0.05639416
63	0x3dc48aa4	0.09596756
64	0x3dd7b1af	0.10531937
65	0x3db7a182	0.08966352
66	0x3de8b715	0.11363045
67	0x3d8766e1	0.066114195
68	0x3d84b428	0.064796746
69	0x3d59201f	0.05300915
70	0x3e3ee878	0.18643367
71	0x3d68f955	0.056878407
72	0x3dcc68d8	0.09980935
73	0x3db02cf3	0.086023234
74	0x3d7161ca	0.05893115
75	0x3d868f82	0.06570341
76	0x3d8da535	0.06916276
77	0x3d97d609	0.07413871
78	0x3d565cef	0.052334722
79	0x3d94b214	0.07260528
80	0x3dc61737	0.09672397
81	0x3d727de1	0.05920208
82	0x3d6cb9a6	0.057794236
83	0x3d5a8633	0.05335064
84	0x3d7762aa	0.060396828
85	0x3e0543b5	0.1301411
86	0x3d7ae55e	0.061253898
87	0x3daa1f44	0.08306745
88	0x3dc5aa41	0.09651614
89	0x3dbb8b87	0.09157472
90	0x3d5675cb	0.05235843
91	0x3d5a21f0	0.05325502
92	0x3d64b505	0.055836696
93	0x3d922dc3	0.071376346
94	0x3dc9e823	0.0985873
95	0x3dc8c0c3	0.098023914
96	0x3dc79c7f	0.09746646
97	0x3d5921bc	0.053010687
98	0x3dad1f01	0.08453179
99	0x3e141d6c	0.14464349
100	0x3dc89657	0.097943
101	0x3dd9fae5	0.106435575
102	0x3d5970cc	0.053086087
103	0x3de9535e	0.11392854
104	0x3d7e8e9d	0.062147725
105	0x3e09d973	0.13461857
106	0x3d568786	0.05237534
107	0x3dcffca5	0.1015561
108	0x3d592db2	0.053022094
109	0x3d8c4428	0.06848937
110	0x3d919471	0.07108391
111	0x3d56a157	0.05239996
112	0x3dc46ccf	0.09591066
113	0x3d7b80da	0.06140218
114	0x3e0d6c10	0.13810754
115	0x3d565cef	0.052334722
116	0x3d879ef9	0.066221185
117	0x3dfcdd7a	0.12346931
118	0x3dccd2bc	0.10001132
119	0x3d5c1e46	0.05373981
120	0x3d58aef4	0.052901223
121	0x3d8cd05c	0.06875679
122	0x3d685704	0.05672361
123	0x3d957166	0.0729702
124	0x3da9211d	0.08258269
125	0x3d565cef	0.052334722
126	0x3d721f5a	0.05911193
127	0x3db36853	0.08760133

net.3.weight f4 [1, 128]
0	0x3ec28474	0.3799168
1	0x3d48adeb	0.048993986
2	0x3c2ff951	0.010740594
3	0xbde05d97	-0.10955351
4	0x3ebebd7a	0.37253934
5	0xbe893002	-0.2679444
6	0x3da6fa63	0.08153226
7	0x3e8ffd2b	0.2812284
8	0x3da9c72a	0.08289941
9	0x3e21d3a1	0.15803386
10	0x3ea9d849	0.33172825
11	0xbeb8a083	-0.3605996
12	0x3e1c0405	0.15235908
13	0xbe5587c8	-0.20852578
14	0xbf0040d9	-0.5009895
15	0x3e36dff7	0.17858873
16	0x3d39acb2	0.04533071
17	0xbe8ca484	-0.27469265
18	0xbb96b12e	-0.004598758
19	0xbe3cc718	-0.18435323
20	0x3d5fc24b	0.05462865
21	0xbe404b18	-0.18778646
22	0x3e170279	0.14747037
23	0x3df72a79	0.12068648
24	0x3d0ed644	0.03487231
25	0x3c0f2610	0.008737102
26	0x3e3e3999	0.1857666
27	0x3e42504b	0.18975942
28	0xbed4a623	-0.41533002
29	0xbd78d166	-0.060746573
30	0xbdde92e9	-0.10867865
31	0x3d169585	0.036763687
32	0x3e0568b5	0.13028224
33	0xbd8d288f	-0.068925016
34	0x3d67e10b	0.056611102
35	0x3e7d7dce	0.24755022
36	0xbe9d96cf	-0.3077912
37	0xbeb0f833	-0.3456436
38	0xbed9048e	-0.42386287
39	0x3c3f4295	0.011673589
40	0xbdbd4988	-0.092425406
41	0xbd38c7f4	-0.045112565
42	0x3d81e5f6	0.0634269
43	0xbd990f2f	-0.07473599
44	0x3da3f018	0.080047786
45	0xbdbe3361	-0.092871435
46	0xbe8d6e30	-0.2762313
47	0xbeb091e8	-0.34486318
48	0x3e8bf61a	0.27336198
49	0x3ebb96b5	0.36638418
50	0xbe82f353	-0.25576267
51	0x3df07cf8	0.11742586
52	0x3e4c426f	0.19947217
53	0xbe4ec774	-0.20193273
54	0xbd84e703	-0.064893745
55	0x3e57c521	0.21071292
56	0x3e59c6c2	0.21267226
57	0x3e856e69	0.260608
58	0x3e1e8867	0.15481721
59	0x3e0afc08	0.13572705
60	0xbef49604	-0.47770703
61	0xbd865c21	-0.06560541
62	0x3eb99380	0.36245346
63	0x3ea12a4a	0.31477576
64	0x3e0dbf9e	0.13842627
65	0xbe1fdf90	-0.15612626
66	0x3e215163	0.15753703
67	0x3e9cb3c3	0.30605897
68	0x3e29ffdb	0.16601507
69	0xba75ec79	-0.00093812455
70	0x3e26ae47	0.16277419
71	0xbe6a29ec	-0.22867554
72	0x3e9492e5	0.29018322
73	0xbe2b061e	-0.16701552
74	0xbec91dac	-0.3928045
75	0x3cc58cda	0.024115015
76	0xbe228d64	-0.15874249
77	0xbe26bddc	-0.16283363
78	0xbe1c7a2b	-0.15280978
79	0xbd698331	-0.05700988
80	0x3e71bcbb	0.23607151
81	0xbe45712d	-0.19281454
82	0x3d5adacf	0.05343133
83	0x3f233b1a	0.63762057
84	0xbd9f9019	-0.07791156
85	0xbe220bff	-0.15824889
86	0x3e53d369	0.20686115
87	0xbe46274e	-0.19350931
88	0xbdc95a35	-0.09831659
89	0x3e3d6bdd	0.18498178
90	0xbdc54b14	-0.09633461
91	0x3efbcfd3	0.49181995
92	0xbe8db108	-0.27674127
93	0xbdc7c0b4	-0.09753552
94	0x3e05d323	0.13068824
95	0xbcd76706	-0.026294243
96	0x3e701eb2	0.2344921
97	0xbf0754ff	-0.5286407
98	0x3d0bf827	0.034172203
99	0x3d8cc9d6	0.06874435
100	0x3db8d410	0.09024823
101	0x3e8a7581	0.27042773
102	0x3d00fc73	0.031490754
103	0x3da5ff54	0.081053406
104	0xbd1e667b	-0.03867195
105	0x3d4fec5c	0.05076252
106	0x3db39ef0	0.08770549
107	0xbde26d8d	-0.110560514
108	0x3d981436	0.0742573
109	0x3e8b2faa	0.27184802
110	0xbc699b13	-0.014258164
111	0x3f23676c	0.63829684
112	0xbeb36687	-0.3503916
113	0x3e5189f3	0.2046278
114	0x3dd8ec27	0.105919175
115	0x3e07baea	0.13254896
116	0xbe84f559	-0.25968435
117	0xbd85f99c	-0.0654175
118	0x3e845a84	0.25850308
119	0xbc078d9d	-0.008273509
120	0xbeb57bcc	-0.35446012
121	0xbdb715db	-0.089397155
122	0x3ea78e26	0.32725638
123	0x3e90ca19	0.28279188
124	0xbda09ca1	-0.078423746
125	0xbe220f56	-0.15826163
126	0x3dd21e8c	0.102597326
127	0xbda31bae	-0.07964264
