saved_models/mlp/MLP__deprecated_cleve.pth (torch, 13362 bytes, 7 tensors)

net.0.weight f4 [128, 13]
00000000: e49c 89be 172b 173f 8ecc 6f3c c6a8 59be
00000010: 266d 883e 841d 11bf 2f1f adbe 4ab7 6cbd
00000020: cffa 7e3f c444 c13e ef35 84be cd95 1f3f
00000030: eaeb 1e3e 4038 66bc 0e84 5ebe 362e 743e
00000040: e80d e5bc ebe6 89be 4671 80bd 0660 5c3e
00000050: 604d 1bbe 06cc 1abe d8c2 113d 60ec 8bbd
00000060: 7091 5f3e 5966 19be 2cfb 42be 1d3c 62bf
00000070: 2a19 fa3b 5928 2cbc cfc3 883e f3c5 b43e
00000080: 2544 483e 8423 60be 8df8 1cbf 399e 17bf
00000090: cef0 f83e 5384 52bf 035e 58bd a918 0bbd
000000a0: 03ed 0dbe ad73 10be 37e4 793d 5060 d8bb
000000b0: 17bc 8cbd 0466 b0bc dc6d 8b3d bc47 efbe
000000c0: ba85 bc3d 1031 223e 83bf 9abd 83d7 cebe
000000d0: ce15 273d 388a 4bbf 4967 40be 1985 853e
000000e0: 680b 5cbe 1c73 d53e c14d 7bbd 8591 233e
000000f0: 6878 2cbf 6050 58bd 8dad a8bd e6e9 d9be
00000100: 51e3 77bd 0679 f43d 5013 86bf 7eb1 6b3d
00000110: b0e9 213e c8c3 0ebe 5030 f73e 7087 e63d
00000120: 958e 543e a7c4 8dbf 22dd ecbe 03fe ad3e
00000130: 65bb 22bf ef28 1fbf d54f 6fbd ac45 5d3f
00000140: a5f1 a23d 300a 7f3e 4788 363d 9503 9abe
00000150: c1ea 2dbe 44c9 1dbe 3aec 8a3f 851b 4b3f
00000160: 346c dfbe 19f7 083f db08 8d3e 1e78 b3bd
00000170: a7ea 833e a0e0 5e3d e612 8bbd 7053 ebbd
00000180: 9a5e 11be 505b 133e 40ef b43d c6da bebd
00000190: 1ee1 f1bd 7070 2e3d d23c 783e b0d9 48bd
000001a0: d0a0 f73d ce36 83bd 90f4 eb3c 5c91 b8bd
000001b0: ccd4 64be d0b7 46be c417 d93d d68b 1d3e
000001c0: aecc 513e 21c5 03be 4648 55be d09b 12be
000001d0: 50e3 283d c601 433e b7a0 03bf d231 2fbe
000001e0: 215a b5bc d396 3b3e a61d 583e e6cd dd3d
000001f0: baaf 283a 4fe5 2fbf d6fe 8ebe 6162 d23e
00000200: 585b fabd bfb1 b8be d373 263e da4e 74bf
00000210: e9dd 973e f19c 2a3e dc70 863e 88bb fd3e
00000220: 2fca d83d 713e 48be 0a5f 8ebf f195 ebbe
00000230: 75d2 053f eaac 87bf 495e ccbe 60ab 24bc
00000240: 6e13 d2bd 990f 8abe c864 05be b458 f5bd
00000250: a030 563e 5a7c 22be 5420 23bd 4a38 233e
00000260: fa2f 76be 4ca6 8dbd 60ab 483d 2918 873e
00000270: 11ea f2bd 0288 8c3f c71d 3fbe 5b86 283e
00000280: 2016 933d 8fed 5cbe 5480 89be fbbc 09be
00000290: bde4 a83f 1fdd 403f 3e8f 0abe 7520 833f
000002a0: 8a78 363f 503a e03c 60ed b73c d00a 73be
000002b0: 2a03 7abe 770b 7cbe 187e 43be 1863 473e
000002c0: 047b 5d3e c5c8 823e e8d2 393e 20f2 5d3c
000002d0: e6e3 18be 2c7d e23d 2940 153e d479 44bf
000002e0: 3512 f7bc d445 563e d959 983d 47eb f53d
000002f0: 08f3 cb3e 7716 533e c585 8fbf 4fdb 40bf
00000300: ffef 863c ab9a 0dbf a5a0 07bf cc15 75be
00000310: e7c0 da3c 4638 533e d6bd e0bd 369f 58bd
00000320: b8bc 0f3d d4ab 1cbe fefd 123e fe1f 86be
00000330: 0a62 89bd a8c9 633e 20fe 6fbe 5b70 6cbe
00000340: 7302 093e 1398 9e3f f48c e3bd ca52 2e3e
00000350: c6a1 f2bd 8f33 ffbe 85f1 d0be 6e2a 113e
00000360: c65b 8e3f dda9 223f dc13 f2be 30ba 6f3f
00000370: ea51 373f 3665 013e 3788 1d3f 3442 6f3e
00000380: a2b3 573e a24f 743c 6b0a c5be e482 2ebe
00000390: aa21 25be 219e 873f 4248 313f 7789 29be
000003a0: 04cf 3f3f 538c 6a3e 74db 8bbe ff41 9ebe
000003b0: c17b 80bd 80e2 873e c6bb d33d 3a92 2d3e
000003c0: 43ba a4bd fa52 573d ae73 88be 9b4a 0ebe
000003d0: b063 1d3b a6f7 00bf 824f 803d e610 4f3e
000003e0: db84 8dbe 8c90 4bbe cc2f f43d b2c8 1dbe
000003f0: c6f5 683e 6284 82be c6b6 c6bd b235 4dbe
-0.2687751 0.59050125 0.014636172 -0.21255788 0.26645774 -0.5668566 -0.33812854 -0.057791986
0.99601454 0.37747777 -0.25822398 0.6233795 0.15519682 -0.014051497 -0.21730062 0.23845753
-0.027960733 -0.2693399 -0.06271605 0.21521005 -0.15166235 -0.15116891 0.035586208 -0.06832194
0.21832824 -0.14980449 -0.19041127 -0.88372976 0.0076323943 -0.0105076665 0.2671189 0.35307273
0.19557245 -0.21888548 -0.6131676 -0.59225804 0.4862122 -0.8223316 -0.05282403 -0.033959065
-0.13859944 -0.14106627 0.06100866 -0.006603278 -0.06871813 -0.02153302 0.068080634 -0.46734416
0.09205194 0.15839028 -0.07556059 -0.40398797 0.04079228 -0.7950778 -0.187894 0.26078108
-0.21488726 0.41689384 -0.06135345 0.1597348 -0.67371225 -0.052811027 -0.08236227 -0.42561263
-0.06051952 0.11937146 -1.0474644 0.057542317 0.15811801 -0.13941872 0.48279047 0.112563014
0.20757516 -1.1075639 -0.4626246 0.33982858 -0.6356719 -0.62171835 -0.058425743 0.86434436
0.07956246 0.2490623 0.044563558 -0.30080858 -0.16984083 -0.15408808 1.0853341 0.79338866
-0.4363724 0.5350204 0.2754582 -0.08763145 0.25764963 0.054413438 -0.06790714 -0.11490524
-0.14196244 0.14390302 0.08834696 -0.093190715 -0.11810516 0.042587698 0.24241951 -0.049035728
0.120912194 -0.064069375 0.02880314 -0.090121 -0.223468 -0.19406056 0.10600236 0.15385374
0.20488235 -0.12868167 -0.20828351 -0.1431725 0.041232407 0.19043645 -0.51417106 -0.17108849
-0.022137703 0.18319254 0.2110506 0.10830288 0.00064348767 -0.6870927 -0.279288 0.41090682
-0.12224454 -0.3607311 0.16255121 -0.9543282 0.29661492 0.16661431 0.2625798 0.49557137
0.105854385 -0.1955507 -1.1122754 -0.46012834 0.52274257 -1.0599644 -0.39915684 -0.010050625
-0.10257612 -0.26965025 -0.13026726 -0.119798094 0.20916986 -0.15867749 -0.039825752 0.15939441
-0.24041739 -0.06916484 0.04899156 0.2638562 -0.11861051 1.0979006 -0.18663703 0.16457503
0.071819544 -0.21574996 -0.2685572 -0.13450997 1.3194805 0.75337404 -0.13531205 1.024428
0.7127768 0.027371556 0.022452056 -0.23734593 -0.2441527 -0.24613748 -0.1909107 0.19471395
0.21628958 0.255438 0.1814686 0.013546497 -0.14930686 0.11059031 0.14575256 -0.76748395
-0.030160049 0.20925075 0.07439012 0.12007766 0.39833856 0.20614038 -1.1212698 -0.7533464
0.01647186 -0.5531413 -0.529795 -0.23934096 0.026703311 0.20626935 -0.10973708 -0.05288621
0.035092086 -0.15299922 0.14354703 -0.26196283 -0.067081526 0.22244895 -0.23436785 -0.23089735
0.1337984 1.2390159 -0.11110869 0.17023769 -0.11847262 -0.49844024 -0.40809265 0.14176342
1.1121757 0.6354044 -0.47280777 0.93643475 0.71609366 0.12636265 0.6153597 0.23365098
0.21064618 0.014911564 -0.3848451 -0.17042118 -0.16126123 1.0595132 0.6925088 -0.16556345
0.74925256 0.22905092 -0.27315867 -0.30909726 -0.06273604 0.26539993 0.10338549 0.16950312
-0.08043339 0.052569367 -0.26650757 -0.13895647 0.0024015717 -0.5037788 0.06265165 0.2022129
-0.27640423 -0.19879359 0.11923179 -0.1540859 0.22750005 -0.25491625 -0.0970283 -0.20040014

net.0.bias f4 [128]
00000000: 1672 82be 4c02 5f3e 7618 06be 14a4 09be
00000010: 90ac b0bc db7a 6fbe 9a0b 863e 00ee 783b
00000020: 7d99 873e 5662 27be 8095 913e 6c3e 2e3e
00000030: e13b 173d 5690 25be b559 42be e994 5cbe
00000040: a680 30be 9d4d eabd 87ff 75be 22fc 043e
00000050: e826 72bd 79f9 803e 248d b83d 6e6e 40bd
00000060: 22c6 90be c4eb 583e 4336 0dbe f2f5 763e
00000070: 6431 69be 4e08 bdbd e472 073e f9b1 803e
00000080: 3f99 24be 240e c23d e10d 82be d663 2a3e
00000090: a159 debc 3e19 d2bd b88e 2fbe 4bcf 833e
000000a0: c9bd 843e fac0 2d3e fb3e 393e fd79 bdbd
000000b0: ba09 37bc c850 623e 0e87 773d 4f80 213e
000000c0: b87b 51be 8b02 00be f837 25bc 902e 803d
000000d0: 7009 f63d fa20 723e 6043 403d baf0 c5bd
000000e0: 8070 3a3e ca3e 473e bbc7 743d 626c 4a3e
000000f0: b377 6e3d b7ce eebd 49a9 77be 74f2 433d
00000100: ab42 47be 5bf3 893e 0031 323b e018 8ebe
00000110: e534 833e 304c 1a3e 1fb6 20be cc37 12bd
00000120: 942b 56bd 89e0 6abe c168 e03d e077 43bd
00000130: 237e 31be 81f5 083e 35d3 0a3e f5b5 0bbe
00000140: 6e89 6fbe b56f 25be d1d4 a7bc d9b4 9f3d
00000150: 7ac4 cbbd 17e1 7b3e 9c79 2f3e d09a f03c
00000160: 85d0 833d b02f 343e 8f17 893e db79 573e
00000170: 943c e8bd 5a35 713e ba3e 503d 7234 6f3d
00000180: 6e04 1f3d 2570 30be 7093 88be 8e86 6ebe
00000190: d934 62bd aaf1 643e 2ec0 37be 66cf 87bd
000001a0: 8295 11be 0277 5c3e 984e 36be b852 02be
000001b0: 25f3 7abe 94d8 093e 26d9 dc3d 3b28 ed3c
000001c0: 02c0 56be 402f a53c b5ef a63c 2ec4 663e
000001d0: 388c 803d 766e 063e 6aef 66be 94fb 123e
000001e0: f1fc 0fbe e34c aa3b 1098 4bbe 4620 7a3e
000001f0: 74b9 f73d e5eb 343c 57a5 2b3d 7c42 21be
-0.25477666 0.2177822 -0.13095269 -0.13441497 -0.02156666 -0.2338671 0.26180726 0.0037983656
0.2648429 -0.16346106 0.28434372 0.17016 0.03692234 -0.16168341 -0.18979533 -0.2154118
-0.17236575 -0.11440585 -0.24023257 0.12986806 -0.059119135 0.25190333 0.090112954 -0.046980314
-0.28276163 0.21183687 -0.1379023 0.24117258 -0.22772747 -0.092300996 0.13227421 0.25135782
-0.16074084 0.09475353 -0.25401214 0.16639647 -0.027142348 -0.10258721 -0.17144287 0.2574409
0.25926045 0.16968146 0.18090431 -0.09251783 -0.011171753 0.22101128 0.060431533 0.15771602
-0.20457351 -0.1250097 -0.010084145 0.06258881 0.12013519 0.23645392 0.046939254 -0.096650556
0.18206978 0.19457546 0.05976079 0.19767907 0.058219623 -0.116605215 -0.24185671 0.047838643
-0.19459026 0.26943478 0.002718985 -0.27753353 0.25626293 0.15068126 -0.15694474 -0.035697743
-0.052287653 -0.22937216 0.1095748 -0.047721744 -0.17333274 0.13374902 0.13557132 -0.1364363
-0.23392269 -0.16155894 -0.020487221 0.07798166 -0.09949584 0.24597584 0.17136234 0.029370695
0.06436256 0.17596316 0.26775786 0.21042578 -0.11339679 0.23555508 0.05084107 0.058399625
0.038822584 -0.1723028 -0.26674986 -0.23293516 -0.05522618 0.22357813 -0.17944404 -0.06631355
-0.14217189 0.21529773 -0.17803419 -0.12726867 -0.24506815 0.13461524 0.10783605 0.028949847
-0.20971683 0.020164132 0.020377973 0.22535774 0.062767446 0.13128075 -0.22552267 0.14353782
-0.14061333 0.005197154 -0.19882226 0.24426374 0.12095919 0.01104257 0.041905727 -0.15748018

net.2.weight f4 [128]
00000000: e7d8 803f 0000 803f 3598 753f 4910 2e3f
00000010: 68ee 713f bc91 843f d3f9 833f 0000 803f
00000020: 0000 803f a5bd 133f b38c 813f 0000 803f
00000030: 570b 953f 0000 803f 864e 813f 6075 7e3f
00000040: 3474 953f 092b 7c3f 64fc 5f3f 0000 803f
00000050: 0000 803f b6f7 8f3f cced 803f 5a03 8b3f
00000060: 1598 7a3f 070f 973f 50df 793f 0000 803f
00000070: 0000 803f 0000 803f 4592 663f 0000 803f
00000080: 0000 803f 0000 803f eb43 803f d642 7e3f
00000090: e309 873f 2230 823f e572 823f 0000 803f
000000a0: 0000 803f 00ba 753f 637e 893f 0172 423f
000000b0: 7011 7d3f 0000 803f 3414 873f 7b60 903f
000000c0: 0000 803f 0000 803f 74dd 783f 0000 803f
000000d0: 0000 803f 0000 803f 4c93 7f3f 0000 803f
000000e0: 331c 3e3f 4f4b 773f b1ac 923f b713 8f3f
000000f0: b639 6d3f d14f 8d3f 688d 7f3f 9941 443f
00000100: 3e82 723f 0000 803f 0000 803f 57db 7b3f
00000110: 0000 803f 0000 803f a214 883f 4357 933f
00000120: 0000 803f aee1 6b3f 7363 863f 3593 823f
00000130: 1d54 8e3f 21d5 7a3f 84a1 6c3f 5d2f 823f
00000140: 0478 6c3f 8dcc 793f 8f72 613f 983e 8a3f
00000150: 0000 803f 9833 873f 0000 803f 0000 803f
00000160: 065b 723f 0000 803f c058 133f bdfb 7c3f
00000170: 0000 803f 0000 803f 64cc 983f 6fe6 723f
00000180: 8977 823f bc10 993f 299d 893f d980 8f3f
00000190: 60df 783f 0000 803f 0000 803f 0000 803f
000001a0: 0000 803f 3571 8c3f 0000 803f 0000 803f
000001b0: 70a0 903f 9694 7b3f 8d22 8d3f 2c7e 933f
000001c0: 9774 8e3f 25d9 7c3f e4af 7b3f 0000 803f
000001d0: 0000 803f 0000 803f f573 853f a2d3 643f
000001e0: dbaa 873f b73d 853f 0000 803f 0000 803f
000001f0: 0000 803f 1169 7b3f f703 7f3f bbf8 b23f
1.0066193 1.0 0.95935374 0.679936 0.94504404 1.0356975 1.0310615 1.0
1.0 0.5771125 1.0121063 1.0 1.1644086 1.0 1.0102088 0.9939785
1.1676087 0.98503166 0.8749449 1.0 1.0 1.124747 1.007257 1.0860398
0.9788831 1.1801461 0.9760637 1.0 1.0 1.0 0.9006694 1.0
1.0 1.0 1.0020727 0.99320734 1.0549892 1.0170939 1.0191313 1.0
1.0 0.9598694 1.0741695 0.75955206 0.9885473 1.0 1.055304 1.1279444
1.0 1.0 0.9721291 1.0 1.0 1.0 0.9983413 1.0
0.7426178 0.96599287 1.1458951 1.1177891 0.92666185 1.1039983 0.99825144 0.76662594
0.94729984 1.0 1.0 0.9838156 1.0 1.0 1.0631297 1.1511005
1.0 0.92141235 1.04991 1.0201174 1.1119419 0.9798146 0.92433953 1.0170704
0.9237063 0.97577745 0.8806543 1.0800352 1.0 1.056262 1.0 1.0
0.9467014 1.0 0.57557297 0.9882162 1.0 1.0 1.1937375 0.94882864
1.0192729 1.1958232 1.0751086 1.1211196 0.97215843 1.0 1.0 1.0
1.0 1.0972048 1.0 1.0 1.1298962 0.982736 1.1026169 1.152288
1.112933 0.98768836 0.9831526 1.0 1.0 1.0 1.0426012 0.89385426
1.0599016 1.0409459 1.0 1.0 1.0 0.98207194 0.99615425 1.3982157

net.2.bias f4 [128]
00000000: b877 dfbc 7971 6d9f c890 0d3a c5e6 a63c
00000010: 3651 ec3c 21cf 863b 082b 8cbc 1b2e 5e98
00000020: 1684 fd90 2397 1f3d 1897 8d3c d127 8cb1
00000030: 43be 99bc 9329 b2b5 ecb6 743c 22f0 a03a
00000040: 2ce5 9dbc ad25 95bc 4414 8b3c d495 acb9
00000050: f3ab a62d 36ce 95bc f1e1 213d 9043 8cbc
00000060: e81c 573d fd4c 93bc 2df8 123d 6778 b925
00000070: 7a0f 93b9 32d3 2db1 b31f 253c ee40 43a9
00000080: ba60 b22d d451 5424 be56 87bc 058b 883c
00000090: e34f 9fbc 4ce5 143c 28ec 7b3c 5a43 8116
000000a0: dd9b 81bb b329 823c 0ae1 e0bc 3f46 f7b9
000000b0: 1a17 75bc a195 02af 9c2d 8f3c 0cec 87bc
000000c0: c414 ac94 80fb abb5 a19f 4f3c 5dff 2c14
000000d0: 1e4d a12f 1d61 1aaa c4db 153a 96e5 6a2a
000000e0: 969f f23c 6a79 ac3c 2e52 a4bc 6db8 8ebc
000000f0: 28ec 893c 8bc7 963c 90b1 3e3d 063c e43c
00000100: f4b3 5f3c fcb3 1c93 465d ad34 d849 063d
00000110: 173b 0334 0275 0daf 3449 8cbc 4f1a acbc
00000120: 3c02 a21e 12d9 243d 4c3b 8dba 05f3 8cbc
00000130: c559 7ebc 128e 9e3c a9e0 993c c4bf 143d
00000140: e287 b03d 2018 54bb ee2f 8b3c ac97 8fbc
00000150: 0349 75bc c34a 9abc a195 4625 440c 6c8f
00000160: 8022 7a3c 334d faa3 3f73 073d a9a9 7e3c
00000170: 683b 4217 3046 68b9 a722 9b3c 5b61 30ba
00000180: f402 953c eb27 933c 0272 edbc abbb ab3c
00000190: 6a74 4e3c 47af e621 59fd 579e 34ae 83a9
000001a0: 486a 1126 4d4f a83c 432c 16b3 9198 cd14
000001b0: a4df aa3c b833 80bc e19f 86bc ee40 923c
000001c0: 200e b33c 7138 8dbc 8c2e 133d a259 a728
000001d0: d1d7 4223 6307 ab93 a36d 8dbc 7a49 203d
000001e0: 77a6 7fbb 9d22 f8bc bab1 4a97 4bbd 8913
000001f0: 5ca2 e52e e39d 983c 5acc 4abc 9102 e83c
-0.027278766 -5.0280565e-20 0.0005400297 0.020373711 0.028847318 0.004114047 -0.017110363 -2.8716105e-24
-9.9994415e-29 0.038962495 0.017283961 -4.079063e-09 -0.018767482 -1.3274133e-06 0.01493619 0.0012278596
-0.019274317 -0.018206442 0.016977437 -0.00032918027 1.8948376e-11 -0.018286806 0.039522115 -0.01712206
0.0525178 -0.017981047 0.03588121 3.2173972e-16 -0.00028049556 -2.5294864e-09 0.010078358 -4.3355015e-14
2.0279212e-11 4.6039483e-17 -0.016520854 0.016667852 -0.019447273 0.009087872 0.015376128 2.088358e-25
-0.003955348 0.015889024 -0.027451057 -0.0004716385 -0.014959121 -1.187659e-10 0.017477803 -0.016592048
-1.7375752e-26 -1.2813689e-06 0.012672336 8.734142e-27 2.9340524e-10 -1.371164e-13 0.00057166466 2.0863029e-13
0.029617112 0.021053988 -0.020058718 -0.017421925 0.01683624 0.018405696 0.046556056 0.027860653
0.013653744 -1.9778707e-27 3.2291626e-07 0.032785267 1.2221822e-07 -1.2865445e-10 -0.01712475 -0.021008639
1.7153341e-20 0.040246077 -0.0010775118 -0.017205724 -0.015524332 0.019354854 0.018783884 0.036315694
0.086196676 -0.0032363012 0.016990628 -0.017528377 -0.014971021 -0.018834477 1.7224459e-16 -1.1638061e-29
0.0152670145 -2.713775e-17 0.03306889 0.01554338 6.275976e-25 -0.00022151391 0.018937422 -0.0006728374
0.018189885 0.01796337 -0.028985027 0.02096351 0.012600997 1.5631802e-18 -1.1434396e-20 -5.847788e-14
5.045102e-16 0.020545626 -3.4964852e-08 2.0759887e-26 0.020858593 -0.015649661 -0.016433658 0.017853227
0.021857321 -0.017238827 0.035933062 1.8579597e-14 1.0562462e-17 -4.3173753e-27 -0.017264193 0.039132573
-0.0039009133 -0.030289942 -6.5494043e-25 3.477032e-27 1.0442555e-10 0.018629974 -0.012377823 0.028321536

net.2.running_mean f4 [128]
00000000: 0505 5441 0000 0000 c0a0 fb40 54ca 5a41
00000010: 9aa7 0c41 ae31 7341 f5dc aa41 0000 0000
00000020: 0000 0000 50de 5042 631d 8342 0000 0000
00000030: dfdf 8c41 0000 0000 f249 a442 a1ed 9638
00000040: 7c94 ce41 740c 8b41 01d7 5642 0000 0000
00000050: 0000 0000 7191 5d41 235d f640 0788 f141
00000060: ff0e 853c 7116 3242 0d39 9e3b 0000 0000
00000070: 0000 0000 0000 0000 277d cc41 0000 0000
00000080: 0000 0000 0000 0000 c507 f042 d0aa 1542
00000090: 13e6 5b42 c6c2 053f 4331 e341 0000 0000
000000a0: 0000 0000 7b9e 103c 9443 5c40 7f77 9b41
000000b0: c6c7 8642 0000 0000 45fa 6f42 d5a7 ef41
000000c0: 0000 0000 0000 0000 1504 2a3b 0000 0000
000000d0: 0000 0000 0000 0000 5110 0c38 0000 0000
000000e0: c340 db42 1403 bc42 be52 8341 eb20 a341
000000f0: 12a7 b541 32f2 4b42 ba2d 933c 7e86 1742
00000100: fbe6 9a41 0000 0000 0000 0000 bf30 5941
00000110: 0000 0000 0000 0000 bdd4 d241 8b18 1042
00000120: 0000 0000 568f 1e41 70ab bf3f 53e3 da42
00000130: ba06 473f 649c 5f41 2c18 9b42 92a3 f040
00000140: 5192 1b40 fb60 3f3e 28ef 6d42 0d2c ef41
00000150: 0000 0000 36e6 1343 0000 0000 0000 0000
00000160: 0e0c d142 0000 0000 b56c 2342 4e98 b841
00000170: 0000 0000 0000 0000 e3ad db41 9464 6541
00000180: 75c4 8d42 bb07 c641 feb3 3041 c52b 0542
00000190: 3eaa bb41 0000 0000 0000 0000 0000 0000
000001a0: 0000 0000 87b2 bd41 0000 0000 0000 0000
000001b0: 55ef 9a40 c7ea 2242 a36f 3c42 2765 9241
000001c0: 7eeb 883d 134e d842 104e 0a3c 0000 0000
000001d0: 0000 0000 0000 0000 36b9 2342 df05 8c3e
000001e0: 0c9c 1541 bf91 7f3f 0000 0000 0000 0000
000001f0: 0000 0000 bdaf 0042 104f 253c b28c 933f
13.251225 0.0 7.863373 13.6743965 8.790918 15.199629 21.35789 0.0
0.0 52.217102 65.557396 0.0 17.609312 0.0 82.144424 7.196819e-05
25.822502 17.38108 53.709965 0.0 0.0 13.848008 7.698869 30.19142
0.016242502 44.521915 0.0048285783 0.0 0.0 0.0 25.56111 0.0
0.0 0.0 120.015175 37.41681 54.97468 0.52250326 28.399054 0.0
0.0 0.008826847 3.4416246 19.433348 67.39018 0.0 59.994404 29.95695
0.0 0.0 0.0025942374 0.0 0.0 0.0 3.3393797e-05 0.0
109.62649 94.00601 16.415401 20.391073 22.706577 50.98652 0.01796614 37.88134
19.362783 0.0 0.0 13.574401 0.0 0.0 26.353876 36.023968
0.0 9.909994 1.4974194 109.44399 0.7774464 13.975681 77.54721 7.519967
2.4308054 0.18689339 59.48355 29.89651 0.0 147.89926 0.0 0.0
104.523544 0.0 40.85616 23.074368 0.0 0.0 27.459906 14.337055
70.883705 24.753775 11.043943 33.292744 23.458126 0.0 0.0 0.0
0.0 23.712172 0.0 0.0 4.8417153 40.729275 47.10902 18.29939
0.066855416 108.15249 0.008441463 0.0 0.0 0.0 40.93087 0.2734823
9.350597 0.99831766 0.0 0.0 0.0 32.17162 0.010089651 1.1527312

net.2.running_var f4 [128]
00000000: 072f 0e43 429a 5d3b 16a2 ee42 5067 a340
00000010: aacf 9642 b894 a042 1ca9 6142 429a 5d3b
00000020: 429a 5d3b 09ca 0a43 b080 8643 429a 5d3b
00000030: 072e 4142 429a 5d3b d0d6 1942 0de4 5d3b
00000040: 1dda 2f42 205c 4a42 d0c1 5442 429a 5d3b
00000050: 429a 5d3b 7317 6f41 d93d a442 d77e c342
00000060: 3a97 a23d 19c4 a742 da40 8d3c 429a 5d3b
00000070: 429a 5d3b 429a 5d3b a629 0542 429a 5d3b
00000080: 429a 5d3b 429a 5d3b d9a9 8843 7631 3943
00000090: b947 1442 d9a5 c940 effa 4642 429a 5d3b
000000a0: 429a 5d3b 14cc c53c d209 ae41 05a1 2341
000000b0: 488e 7443 429a 5d3b 890d 2242 bf96 8d41
000000c0: 429a 5d3b 429a 5d3b 431a b03b 429a 5d3b
000000d0: 429a 5d3b 429a 5d3b 9e3b 5e3b 429a 5d3b
000000e0: 8f1e 1f43 a375 4f43 5295 ca41 aa51 5742
000000f0: 6efc ce42 26f1 2d42 b8ab ca3d d511 ef42
00000100: 33c2 5841 429a 5d3b 429a 5d3b f73a 0842
00000110: 429a 5d3b 429a 5d3b 7f11 8242 d564 b841
00000120: 429a 5d3b aeb8 1b43 5167 0241 3820 2143
00000130: 9d5a 9e40 10b6 0243 b612 8e42 1382 6a42
00000140: 2f74 8b41 19ae 3a3f 20e7 1d43 27ff 8041
00000150: 429a 5d3b 01cd 8643 429a 5d3b 429a 5d3b
00000160: 109b f342 429a 5d3b 77eb aa42 e62d ab41
00000170: 429a 5d3b 429a 5d3b 134c 3d41 eb71 5042
00000180: e011 8b42 0700 ae41 c935 e141 d470 c540
00000190: c282 b642 429a 5d3b 429a 5d3b 429a 5d3b
000001a0: 429a 5d3b 1ad8 4a42 429a 5d3b 429a 5d3b
000001b0: 0d5d d541 ad66 e042 17bf 6742 55e2 8141
000001c0: 1e54 5d3f 7491 4a43 7100 c63c 429a 5d3b
000001d0: 429a 5d3b 429a 5d3b 034b 7442 24f0 853f
000001e0: 2168 fe42 841f a940 429a 5d3b 429a 5d3b
000001f0: 429a 5d3b 33cb 8e42 a987 013c e099 2941
142.1837 0.0033813869 119.316574 5.1063614 75.405594 80.29047 56.415146 0.0033813869
0.0033813869 138.7892 269.00537 0.0033813869 48.29495 0.0033813869 38.459778 0.0033857853
43.963 50.589966 53.18927 0.0033813869 0.0033813869 14.943225 82.1208 97.747734
0.079390004 83.883 0.017242838 0.0033813869 0.0033813869 0.0033813869 33.290672 0.0033813869
0.0033813869 0.0033813869 273.32693 185.1932 37.07004 6.301495 49.745052 0.0033813869
0.0033813869 0.024145164 21.754795 10.226811 244.55579 0.0033813869 40.513218 17.698606
0.0033813869 0.0033813869 0.0053742244 0.0033813869 0.0033813869 0.0033813869 0.0033910046 0.0033813869
159.11937 207.45952 25.32291 53.82975 103.49303 43.485497 0.09896034 119.53483
13.547412 0.0033813869 0.0033813869 34.057583 0.0033813869 0.0033813869 65.03417 23.049234
0.0033813869 155.7214 8.150224 161.12585 4.948561 130.71118 71.036545 58.627026
17.43173 0.729219 157.90283 16.124586 0.0033813869 269.6016 0.0033813869 0.0033813869
121.80286 0.0033813869 85.45989 21.397411 0.0033813869 0.0033813869 11.831073 52.111248
69.53491 21.750013 28.151262 6.170023 91.25539 0.0033813869 0.0033813869 0.0033813869
0.0033813869 50.711037 0.0033813869 0.0033813869 26.670435 112.20054 57.93661 16.235514
0.8645648 202.56818 0.024170132 0.0033813869 0.0033813869 0.0033813869 61.073254 1.046391
127.20338 5.285097 0.0033813869 0.0033813869 0.0033813869 71.39687 0.007905879 10.600067

net.3.weight f4 [1, 128]
00000000: fcd8 563d a0a7 0a20 355f 7bbd 2b4d b5ba
00000010: 3217 99bc e6de a4bd e117 e93d 80b0 bb18
00000020: a6bc 8991 f72a 0dbb fc1e 93bd 1304 4e32
00000030: 9cf3 193e 93d0 9d36 f0d4 c8bd aea0 54b3
00000040: 0fbf 483e c1d0 0e3d 3c75 9eba 661a ccb9
00000050: 9166 0cae e968 363e 1e46 983d 8f6e 183e
00000060: 3605 95ba 3496 413e 1c23 6031 aff2 5b26
00000070: da45 e9b9 5174 69b1 62a0 a9bc 1d6b 90a9
00000080: 237b f4ae 0fa2 2824 cf99 923d ee14 aabd
00000090: e490 f73d b384 c5bd c21b bbbd 289b 9396
000000a0: 97db 7b3b a5ef 13bc f60a d33d e56d 273a
000000b0: 0fc7 0f3d d3a3 af2f 6b25 e7bd 74eb 473e
000000c0: f49c c915 1387 9e35 7aa9 da3c 84ec ad94
000000d0: f63a c32f f417 c02a b4e9 97ae 030e 13ab
000000e0: 1f2c b3b9 e49b 42bd 1278 083e 1241 353e
000000f0: 12f1 e4bc 1f37 40be 7e8c 19bc dcff 9cbb
00000100: 956d 01bd 3a94 9913 4e15 66b4 90a0 9fbd
00000110: 5952 d5b4 809e be2f 14b2 ed3d 0c37 493e
00000120: c4a4 3b9f 83d3 043d c7cb f33d 8b3e a83d
00000130: 40a5 243e 01e4 433d 4f6d 31bc 8c30 d2bd
00000140: 9891 a83c 8389 8b3d 4170 7bbc a12c 133e
00000150: f42e 6f3c cb08 db3d cdb2 e424 84b0 4610
00000160: 9020 1ebd f290 3d24 fe34 e03a a7df a9bd
00000170: a7f1 d097 13ec bc39 fb38 4bbe bf74 92ba
00000180: 7a1e 6bbd d3ac 3abe b908 e93d de40 09be
00000190: af13 40bd db3b 82a2 c7de f91e 582c 312a
000001a0: fd83 9126 9eed ccbd c3b1 ea33 7647 5094
000001b0: 5f18 1ebe 8614 6d3d c3a8 123e e5b0 4fbe
000001c0: e0e4 39be 40d0 653d 5045 9cbc d803 aba8
000001d0: 6d4e c3a3 1edd 4114 2746 013e 8f99 983a
000001e0: cdf0 a03d d36a e53d 747d c117 d16b 3294
000001f0: a6f8 99af cac8 78bd 2303 4a3d 8229 cfbe
0.052453026 1.1744517e-19 -0.061370093 -0.0013832202 -0.018687818 -0.08050327 0.11381508 4.8516587e-24
-2.1731052e-28 -0.0021540502 -0.07183644 1.19917045e-08 0.15034336 4.703246e-06 -0.098062396 -4.9506234e-08
0.19604133 0.034867052 -0.0012089382 -0.0003892958 -3.1923412e-11 0.17813458 0.07435249 0.14885925
-0.0011369351 0.18904954 3.2616247e-09 7.6309786e-16 -0.00044493267 -3.397208e-09 -0.02070636 -6.413466e-14
-1.1117709e-10 3.6566462e-17 0.07158243 -0.08304773 0.120881826 -0.09644451 -0.09136154 -2.3847048e-25
0.0038430446 -0.009029304 0.10304825 0.000638692 0.035101946 3.194872e-10 -0.11286434 0.19523412
8.143088e-26 1.1811229e-06 0.02669214 -1.7561825e-26 3.5512188e-10 3.4122672e-13 -6.908199e-11 -5.2244336e-13
-0.00034174413 -0.04751195 0.13327053 0.17700604 -0.027946983 -0.18771027 -0.009371875 -0.004791243
-0.031598646 3.8768793e-27 -2.142817e-07 -0.07794297 -3.9734257e-07 3.467342e-10 0.11606231 0.19649905
-3.973508e-20 0.032428276 0.11904102 0.08215054 0.16078663 0.047824863 -0.010829284 -0.10263166
0.020577237 0.06813338 -0.015346588 0.14372493 0.014598597 0.106950365 9.918214e-17 3.9184597e-29
-0.038605273 4.1105616e-17 0.0017105637 -0.082946114 -1.3502687e-24 0.00036034043 -0.19845955 -0.0011173709
-0.05740211 -0.1822999 0.11378617 -0.13403651 -0.04689377 -3.5299945e-18 2.6456039e-20 1.5736143e-13
1.0097172e-15 -0.100062594 1.0928809e-07 -1.05154096e-26 -0.15438984 0.0578809 0.1432219 -0.20282324
-0.18153715 0.056106806 -0.01907602 -1.898648e-14 -2.1175157e-17 9.7876176e-27 0.12624417 0.0011642444
0.07858429 0.11202016 1.25040015e-24 -9.0079665e-27 -2.8007213e-10 -0.060738362 0.049319398 -0.40461355
