saved_models/mlp/MLP_prnn_synth.pth (torch, 7639 bytes, 7 tensors)

net.0.weight f4 [128, 2]
0	0xbf0c9353	-0.549123
1	0xbf3411e6	-0.7033981
2	0xbef73ccb	-0.4828857
3	0x3f496b77	0.78679603
4	0x3f5f34f8	0.871902
5	0xbef37d9a	-0.47556764
6	0xbc221c68	-0.009894468
7	0xbd51bad4	-0.051203564
8	0x3eabd9d2	0.3356462
9	0xbeb55513	-0.3541647
10	0x3e72af66	0.23699722
11	0xbe699dd8	-0.22814119
12	0x3f15cbc3	0.5851404
13	0xbe2788f0	-0.16360831
14	0xbe2ca822	-0.16861013
15	0xbeec84be	-0.46195024
16	0xbedd1824	-0.4318248
17	0xbe2b7874	-0.16745168
18	0x3ed53aeb	0.41646513
19	0xbcd49f9f	-0.02595502
20	0xbf68de58	-0.9096427
21	0x3e547495	0.20747598
22	0xbed01ab8	-0.40645385
23	0x3f2d6154	0.67726636
24	0xbec6a5fb	-0.38798508
25	0x3dbdd1bb	0.092685185
26	0xbedaddf3	-0.4274746
27	0xbe8ddbed	-0.27706853
28	0x3e8a9972	0.27070194
29	0xbeb64d42	-0.35605818
30	0x3edc4d1b	0.43027577
31	0xbf23c182	-0.63967144
32	0xbd86d486	-0.065835044
33	0x3f2ca8b5	0.67444927
34	0x3eabc0a7	0.3354542
35	0x3f0eb86a	0.55750144
36	0xbf5a5450	-0.852849
37	0x3e3b6955	0.183019
38	0xbe9ba9a9	-0.30402878
39	0x3dc2a251	0.09503616
40	0x3e996c8e	0.29965633
41	0x3ef4d81f	0.47821137
42	0xbe0b428f	-0.13599609
43	0x3ee81dd8	0.4533527
44	0xbf36314f	-0.7116899
45	0xbda7d45b	-0.081948005
46	0xbf2f94e8	-0.6858659
47	0x3d069cd7	0.032864418
48	0xbcd4c0f8	-0.02597092
49	0xbf16a287	-0.5884175
50	0x3e650b6b	0.22367637
51	0x3e8db35a	0.27675897
52	0x3e669b14	0.22520095
53	0xbe15e590	-0.14638352
54	0x3f098b7b	0.53728455
55	0xbee1c4a8	-0.4409535
56	0xbe2452ac	-0.16047162
57	0xbf0e9c33	-0.5570709
58	0x3aa047e2	0.0012228454
59	0xbe288ff7	-0.16461168
60	0xbde463c4	-0.11151841
61	0xbdb87f59	-0.09008665
62	0x3e1cecb1	0.15324666
63	0x3e169908	0.14706814
64	0xbf2f1550	-0.68391895
65	0x3f02326e	0.508582
66	0x3f32a773	0.6978676
67	0xbf25c800	-0.647583
68	0x3ddd5512	0.108072415
69	0xbd0a55f2	-0.03377337
70	0xbe449024	-0.1919561
71	0xbe6ed96d	-0.23325129
72	0xbea28c7d	-0.3174781
73	0xbe14c1ac	-0.14527005
74	0xbe998dd2	-0.29991013
75	0xbf0031ef	-0.5007619
76	0x3e6fa82b	0.23403995
77	0x3f16b6a1	0.5887242
78	0x3da07324	0.07834461
79	0x3f28632d	0.6577633
80	0xbf302679	-0.68808705
81	0x3ef2394d	0.47309342
82	0xbeca13c5	-0.39468208
83	0xbeed5223	-0.46351728
84	0x3f1a5a23	0.6029379
85	0x3ea5966a	0.3234132
86	0x3e77aff0	0.24188209
87	0xbea16fcb	-0.31530604
88	0x3c602680	0.013681054
89	0x3e04b244	0.12958628
90	0x3eae1940	0.3400364
91	0x3f3016cd	0.6878479
92	0xbcebe6c0	-0.028796554
93	0xbebc3bca	-0.36764365
94	0x3efda7af	0.49541995
95	0x3f23b989	0.6395498
96	0x3ed89a91	0.42305425
97	0xbef91b1d	-0.48653498
98	0x3e2f55c4	0.1712256
99	0xbf038dfa	-0.51388514
100	0xbe10224c	-0.14075583
101	0xbed62bef	-0.41830394
102	0x3edd8f6a	0.4327348
103	0xbf23e7d6	-0.6402563
104	0xbeb1f239	-0.34755114
105	0xbf3140e2	-0.6923963
106	0x3efa62b2	0.48903424
107	0x3f1f9380	0.6233444
108	0xbeb13bb9	-0.34615877
109	0x3d31f005	0.04344179
110	0xbe373aeb	-0.17893569
111	0xbe2b6ebd	-0.16741462
112	0xbea2b6da	-0.3178013
113	0xbc91df11	-0.017806562
114	0x3eb525d9	0.35380438
115	0x3f41a13b	0.75636643
116	0xbe7d316e	-0.24725887
117	0xbe204f98	-0.15655363
118	0x3e116cc3	0.14201646
119	0x3f0f91fa	0.5608212
120	0xbe20e18c	-0.1571104
121	0xbe98bdf2	-0.29832417
122	0xbe3eb979	-0.1862544
123	0xbf24e3b3	-0.6440994
124	0x3f00922b	0.50223035
125	0xbe52bbca	-0.20579448
126	0xbf167fcb	-0.58788747
127	0x3d1b152f	0.037862
128	0xbefe6b21	-0.49691108
129	0x3f12b523	0.5730764
130	0x3e54a39f	0.20765541
131	0x3ec19661	0.37810043
132	0x3c8842d9	0.016633438
133	0x3ef2e6c7	0.47441694
134	0x3ebe704c	0.3719505
135	0x3efe69b8	0.49690032
136	0xbf2a8c5e	-0.66620433
137	0x3e475768	0.19466937
138	0xbec52712	-0.3850637
139	0xbdb2ca50	-0.08729994
140	0xbebecb80	-0.37264633
141	0xbe257ec0	-0.16161633
142	0x3f222b0d	0.6334694
143	0x3e28a562	0.16469339
144	0x3f0771e9	0.5290819
145	0xbe69f950	-0.22849011
146	0x3e27c29d	0.16382833
147	0x3f2ed817	0.68298477
148	0xbe9daa51	-0.30794004
149	0xbe49628d	-0.196665
150	0xbe39b669	-0.1813599
151	0x3f20458e	0.6260613
152	0xbec3dcc0	-0.38254356
153	0x3ed5344b	0.4164146
154	0xbf4a2f7e	-0.7897872
155	0xbf0e7740	-0.5565071
156	0xbe3ed103	-0.18634419
157	0x3f20201b	0.6254899
158	0x3d1b5880	0.037926197
159	0xbdb08ed8	-0.08620995
160	0xbc3ba8c0	-0.011453807
161	0x3e9cc96e	0.3062243
162	0x3f1c04f5	0.60945064
163	0x3e35dc78	0.17759883
164	0xbf1bf906	-0.60926855
165	0xbe0a7bfa	-0.13523856
166	0xbf3b71b8	-0.73220396
167	0x3e809da5	0.25120273
168	0xbea37ec2	-0.31932646
169	0xbf092c31	-0.53583056
170	0x3e2332d0	0.15937352
171	0x3ea45402	0.32095343
172	0xbf15bbd4	-0.5848973
173	0xbe29caee	-0.16581318
174	0x3eb99653	0.362475
175	0x3f11eea1	0.57004744
176	0xbe241a10	-0.16025567
177	0x3ec36efd	0.38170615
178	0xbeea015a	-0.45704156
179	0xbdca391b	-0.09874173
180	0xbcfa8eb3	-0.030585622
181	0x3b73b03e	0.0037183906
182	0x3cd6ba34	0.026211835
183	0xbdea4b8b	-0.1144019
184	0x3f1d4f9b	0.61449593
185	0xbe83f590	-0.25773287
186	0xbd797bc0	-0.060909033
187	0xbf13b196	-0.5769285
188	0x3eeb78ae	0.4599051
189	0xbf17a781	-0.59239966
190	0x3dc030d0	0.0938431
191	0xbe6152a2	-0.22004178
192	0xbe448a16	-0.191933
193	0x3d8a259a	0.06745453
194	0xbe10db54	-0.14146167
195	0xbf36a60a	-0.71347106
196	0x3e9f5cb8	0.31125426
197	0xbe11e942	-0.14249137
198	0x3d038529	0.032109413
199	0xbebd87be	-0.37017626
200	0xbdf1a1a0	-0.11798406
201	0xbf07ed32	-0.53096306
202	0xbf287863	-0.65808696
203	0xbdf7056b	-0.1206158
204	0xbed7c380	-0.42141342
205	0xbe624438	-0.22096336
206	0xbd1557c0	-0.036460638
207	0xbf11c20c	-0.5693672
208	0xbf178774	-0.5919106
209	0xbf21931a	-0.63115084
210	0xbdd715a2	-0.10502173
211	0x3e4b8bd1	0.19877554
212	0x3d8dc2e7	0.0692194
213	0xbdb8b833	-0.09019508
214	0xbf59013f	-0.84767526
215	0x3d0f26dc	0.03494917
216	0xbc5548b2	-0.01301782
217	0xbe5aed10	-0.21379495
218	0x3f0a318c	0.5398185
219	0x3ec03aad	0.37544766
220	0xbf254022	-0.64550984
221	0x3f015274	0.5051644
222	0x3f358e30	0.70920086
223	0x3a0b8c4e	0.0005323336
224	0xbf024b91	-0.50896555
225	0x3f36e382	0.714409
226	0xbe196f52	-0.14983872
227	0x3de50983	0.11183455
228	0xbea831dd	-0.32850543
229	0xbf35abe0	-0.70965385
230	0xbe41c7fb	-0.18923943
231	0x3f06b8d8	0.526258
232	0xbd72a757	-0.05924162
233	0xbe74a71d	-0.23891874
234	0xbe4955c0	-0.19661617
235	0x3eca3c42	0.39499098
236	0x3f540ccc	0.82832026
237	0xbd3e6e83	-0.04649211
238	0xbe476570	-0.19472289
239	0xbe94b76a	-0.29046184
240	0x3f095d45	0.53657943
241	0x3dba9638	0.09110683
242	0xbf0086f2	-0.5020591
243	0xbde61efe	-0.1123638
244	0xbedb95cb	-0.4288772
245	0xbeaf8b19	-0.3428581
246	0x3f0002cd	0.50004274
247	0xbf22334e	-0.63359535
248	0x3ed0a565	0.40751186
249	0xbde75dbe	-0.11297177
250	0xbf06d4fc	-0.5266874
251	0x3f32fcd8	0.6991706
252	0x3f2dff5d	0.6796778
253	0xbc8ca6a0	-0.017169297
254	0x3f28ef5f	0.6599025
255	0xbdbeb830	-0.09312475

net.0.bias f4 [128]
0	0xbeed99df	-0.46406457
1	0x3edf1b9e	0.43575758
2	0x3f10b81c	0.5653093
3	0x3f2f207b	0.68408936
4	0xbf159ae8	-0.58439493
5	0x3ed13bdc	0.40865982
6	0xbed2188a	-0.41034347
7	0x3ee38358	0.44436145
8	0xbf2b7f7a	-0.6699139
9	0x3e1d4e7c	0.1536197
10	0xbedb53d0	-0.4283738
11	0x3e7e2720	0.24819613
12	0x3ec6a512	0.38797814
13	0x3c10979b	0.008825208
14	0xbecff5af	-0.4061713
15	0x3f25b8f3	0.64735335
16	0x3eafe52b	0.3435453
17	0xbefc566c	-0.49284685
18	0xbecb96bc	-0.3976344
19	0x3e1510fb	0.14557259
20	0x3eabc714	0.33550322
21	0xbe083f69	-0.13305439
22	0x3e019a67	0.12656556
23	0xbe86f7ce	-0.26360935
24	0x3f20abdd	0.6276224
25	0xbe885e18	-0.26634288
26	0xbdf42a90	-0.11922181
27	0x3e15848e	0.14601347
28	0x3f08367e	0.5320815
29	0x3ef2ddcf	0.47434852
30	0x3f00d643	0.5032694
31	0x3e408d86	0.18803987
32	0xbe27e0eb	-0.16394393
33	0xbe2fdc3e	-0.1717386
34	0x3e994af1	0.29939988
35	0x3dc56abf	0.09639501
36	0x3f0ebe96	0.5575956
37	0x3e592267	0.2120453
38	0x3f23ed40	0.6403389
39	0x3e9e0aaf	0.30867526
40	0xbef73a27	-0.48286554
41	0x3f090b81	0.5353318
42	0x3eb1de4f	0.3473992
43	0xbe438c7c	-0.1909656
44	0xbf232e21	-0.6374226
45	0xbcc91357	-0.024545355
46	0x3e746841	0.23867895
47	0xbec07594	-0.37589705
48	0x3f22486d	0.6339176
49	0xbde63b90	-0.112418294
50	0xbf148827	-0.5802025
51	0xbf1773dd	-0.5916117
52	0x3e2541c0	0.16138363
53	0xbf17686d	-0.59143716
54	0x3f0943e1	0.536192
55	0x3e760a89	0.24027456
56	0xbe881bbd	-0.26583663
57	0x3ec36ea7	0.3817036
58	0x3f001ce3	0.5004408
59	0xbf115d38	-0.56782866
60	0xbef21bca	-0.47286826
61	0x3ec2c4ed	0.38040867
62	0x3f2eb8ab	0.6825053
63	0xbe6d8370	-0.2319467
64	0x3f2448fb	0.6417386
65	0x3e4d5895	0.20053323
66	0x3ee2f824	0.4432994
67	0xbf29aa5d	-0.6627558
68	0x3f08c8bc	0.53431296
69	0xbf2c5f1f	-0.67332643
70	0xbeec2ff8	-0.46130347
71	0xbe88099f	-0.2656984
72	0xbf272824	-0.65295625
73	0x3f19a26d	0.6001347
74	0x3ed9eb81	0.42562488
75	0x3ecf55f3	0.40495262
76	0x3ed45d80	0.41477585
77	0x3ed00062	0.40625292
78	0x3e8c86a7	0.27446482
79	0xbec4c844	-0.3843404
80	0xbf0b9e4c	-0.54538417
81	0xbf272be8	-0.6530137
82	0x3eb5fdf3	0.3554531
83	0xbcc0de1e	-0.023543414
84	0x3e68eb21	0.22745945
85	0xbf1a0686	-0.60166204
86	0x3f279f87	0.65477794
87	0x3cc9f32f	0.024652092
88	0xbd69c719	-0.05707464
89	0xbde9dd1f	-0.114191286
90	0x3eed9226	0.46400565
91	0x3ee768c5	0.4519712
92	0xbf314b8e	-0.6925591
93	0xbf19948d	-0.59992296
94	0xbe7e8d54	-0.248586
95	0xbe0b65c0	-0.13613033
96	0x3f389edc	0.721174
97	0x3e93e4ea	0.28885585
98	0x3ef5dc6a	0.48019725
99	0x3c5cf496	0.013486048
100	0xbe9c6884	-0.3054849
101	0xbe2faa15	-0.17154725
102	0xbef0f320	-0.4706049
103	0xbf070bf4	-0.52752614
104	0xbe8fe73f	-0.28106114
105	0x3d82f0b9	0.063935705
106	0x3e9985f7	0.2998502
107	0x3dcbf298	0.099583805
108	0x3e0e11db	0.13873999
109	0xbe8a747d	-0.27041999
110	0xbe391781	-0.18075372
111	0xbe630123	-0.22168402
112	0x3f30bdb8	0.6903949
113	0x3e997774	0.29973948
114	0xbe748b69	-0.23881306
115	0xbebd44a1	-0.36966422
116	0x3e55726d	0.20844431
117	0x3ec4d0cc	0.3844055
118	0xbdead3f9	-0.11466212
119	0xbe757d92	-0.23973683
120	0xbf1c040e	-0.60943687
121	0xbdfd46fa	-0.12367053
122	0xbf0296cc	-0.5101135
123	0x3db8f466	0.0903099
124	0x3e4a9c9c	0.19786304
125	0xbf19614a	-0.59914076
126	0xbefef5d5	-0.4979693
127	0xbf1ab359	-0.6042991

net.2.weight f4 [128]
0	0x3f812a25	1.0090986
1	0x3f8a0351	1.0782262
2	0x3f8df456	1.109019
3	0x3f6c33ec	0.92266726
4	0x3f800000	1.0
5	0x3f6a8707	0.91612285
6	0x3f800000	1.0
7	0x3f8c120e	1.094301
8	0x3f800000	1.0
9	0x3f88ab21	1.0677224
10	0x3fba7e87	1.4569863
11	0x3f89afb4	1.0756745
12	0x3f4aadda	0.79171526
13	0x3f88c95b	1.0686449
14	0x3f800000	1.0
15	0x3f95459c	1.1661868
16	0x3f95d557	1.1705731
17	0x3f880e80	1.0629425
18	0x3fb83042	1.4389727
19	0x3f6eb233	0.9324066
20	0x3f8912bb	1.0708841
21	0x3f730f80	0.94945526
22	0x3f8bca53	1.092112
23	0x3fa067f6	1.2531726
24	0x3f920acb	1.1409544
25	0x3f914142	1.134804
26	0x3f800000	1.0
27	0x3f84d980	1.0378876
28	0x3f8d7ce3	1.1053737
29	0x3f85e678	1.0460958
30	0x3f677327	0.90410084
31	0x3f69e9ee	0.91372573
32	0x3f8f281d	1.1184117
33	0x3fac80d7	1.3476819
34	0x3f6fd2c8	0.93681
35	0x3f81c83b	1.013923
36	0x3f79c167	0.97560734
37	0x3f83f061	1.0307733
38	0x3f8c173d	1.0944592
39	0x3f91e9e4	1.1399503
40	0x3f9f40ee	1.244169
41	0x3f844945	1.033486
42	0x3f7e0ba8	0.99236536
43	0x3f800000	1.0
44	0x3f800000	1.0
45	0x3f8b35ec	1.0875831
46	0x3f9bd4a5	1.2174269
47	0x3f9324a9	1.1495563
48	0x3f878b7b	1.0589441
49	0x3f800000	1.0
50	0x3f800000	1.0
51	0x3f800000	1.0
52	0x3f98a67e	1.1925809
53	0x3fae98b1	1.3640348
54	0x3f6f6d0a	0.93525755
55	0x3f801b9d	1.0008427
56	0x3f76b903	0.96376055
57	0x3f8b9c14	1.0907006
58	0x3f6f117c	0.93386054
59	0x3f792f09	0.97337395
60	0x3f800000	1.0
61	0x3f8dab4b	1.10679
62	0x3f807e02	1.0038455
63	0x3fb2ebdd	1.397823
64	0x3f866550	1.0499668
65	0x3f876538	1.0577765
66	0x3f8fd404	1.1236577
67	0x3f7e373a	0.9930302
68	0x3f732af5	0.9498742
69	0x3f800000	1.0
70	0x3f800000	1.0
71	0x3f9e09e9	1.2346774
72	0x3f800000	1.0
73	0x3f774b61	0.96599394
74	0x3f7be6b6	0.9839891
75	0x3f9015dc	1.1256671
76	0x3f68cb3f	0.9093513
77	0x3f873838	1.0564032
78	0x3f8529aa	1.040334
79	0x3f800000	1.0
80	0x3f800000	1.0
81	0x3f800000	1.0
82	0x3f7c521b	0.98562783
83	0x3f86c847	1.052987
84	0x3f859be6	1.0438201
85	0x3f800000	1.0
86	0x3f790636	0.972751
87	0x3f859c32	1.0438292
88	0x3f8b3d64	1.087811
89	0x3fae5a98	1.3621397
90	0x3f739ddc	0.9516275
91	0x3f81136f	1.0084056
92	0x3f800000	1.0
93	0x3f800000	1.0
94	0x3f800000	1.0
95	0x3f800000	1.0
96	0x3f6fa1f0	0.9360647
97	0x3f84fa48	1.038888
98	0x3f807479	1.0035545
99	0x3f79839b	0.9746644
100	0x3f800000	1.0
101	0x3fb83a6b	1.4392828
102	0x3f800000	1.0
103	0x3f800000	1.0
104	0x3f715cf6	0.9428247
105	0x3f84a35e	1.0362356
106	0x3f652106	0.89503515
107	0x3f89d8e6	1.0769317
108	0x3f8d9bf4	1.1063218
109	0x3fa54967	1.2913026
110	0x3f8964c9	1.0733882
111	0x3f9bacbe	1.2162092
112	0x3f87e03b	1.0615305
113	0x3f6d59bd	0.92715055
114	0x3f783313	0.96952933
115	0x3f7505a2	0.9571172
116	0x3f86e1a0	1.0537605
117	0x3f6f922b	0.9358241
118	0x3f8e108a	1.1098797
119	0x3f800000	1.0
120	0x3f800000	1.0
121	0x3f89a23d	1.0752636
122	0x3f800000	1.0
123	0x3f6f07eb	0.93371457
124	0x3f8c918f	1.0981921
125	0x3f9bed35	1.2181765
126	0x3f800000	1.0
127	0x3f800000	1.0

net.2.bias f4 [128]
0	0x3a5c9208	0.00084140943
1	0xbb9515f0	-0.0045497343
2	0x3b43bdf2	0.0029867855
3	0x3a22d204	0.00062111043
4	0xb5420665	-7.2279937e-07
5	0xbcd039c2	-0.025418166
6	0xab0f0e4f	-5.0823663e-13
7	0x3c1b66e7	0.009484983
8	0xa1670f29	-7.828591e-19
9	0xbbb4a731	-0.005513095
10	0xbb187c8d	-0.0023267597
11	0xbb8dc064	-0.0043259133
12	0x3d6a81d0	0.057252705
13	0x3cb387b1	0.021915289
14	0x34d1362d	3.8968702e-07
15	0x3b81a670	0.0039566085
16	0xbc2e4c77	-0.010638348
17	0x3c9f94fd	0.019480223
18	0x3bd9744f	0.0066361795
19	0x3cb076b3	0.021540975
20	0xbc8d1a77	-0.017224533
21	0x3cc4fad6	0.02404539
22	0x3c671f1f	0.014106541
23	0x3c87b7ca	0.01656713
24	0x3c0a26d7	0.008432112
25	0x3a57a7f0	0.0008226624
26	0xa4b2c0fc	-7.752212e-17
27	0xbc03d346	-0.008045977
28	0x3c1533d6	0.009106597
29	0x3c20c5d8	0.009812795
30	0x3bf6aa02	0.0075275907
31	0xbc22b933	-0.00993185
32	0xbb39d4b3	-0.0028355538
33	0xbb06e05b	-0.0020580504
34	0xbcb91d23	-0.022596901
35	0x3c88a706	0.016681205
36	0x3ca47d9f	0.020079432
37	0x3c8dde58	0.017317936
38	0xbc2d13fd	-0.010563848
39	0xbc1ccf30	-0.009570882
40	0xbc443b0c	-0.0119769685
41	0x3c375263	0.011189076
42	0xbc82a773	-0.015948987
43	0x37f20b9a	2.885405e-05
44	0xb406d8f2	-1.2558647e-07
45	0xbc88da9d	-0.016705805
46	0x3b907add	0.0044091777
47	0x3ac9abfd	0.001538634
48	0x3b6812ba	0.0035411553
49	0x3a0c8f43	0.0005361924
50	0x2ce6527d	6.546151e-12
51	0xa55fa6bb	-1.9398657e-16
52	0x3c759a13	0.014990347
53	0x3ba9dcf8	0.005183812
54	0x3cc64c12	0.024206195
55	0x3c43cc3c	0.011950549
56	0x3bba5e33	0.005687499
57	0xbc31da19	-0.010855221
58	0x3b84b879	0.004050311
59	0x3c63f2ec	0.013912898
60	0xb4ad73d5	-3.230804e-07
61	0x3c43eb2a	0.011957923
62	0xba95fb7d	-0.0011442747
63	0x3c050b95	0.008120437
64	0xbb54110f	-0.00323588
65	0xbc404efe	-0.011737583
66	0xbc0ca366	-0.008583879
67	0x3c092ca2	0.008372458
68	0x3c4f0d7b	0.012637491
69	0xb5793ae2	-9.2845414e-07
70	0xb5559015	-7.955835e-07
71	0xbbeea8ec	-0.0072833207
72	0x2e180fbf	3.4574784e-11
73	0xbb464d1f	-0.003025837
74	0x3cc5ab97	0.024129672
75	0x392be9b9	0.000163949
76	0x3cc0ae52	0.023520622
77	0x3c145740	0.009054005
78	0x3b2eaec0	0.0026654452
79	0x33f43467	1.1371667e-07
80	0x3566de88	8.60055e-07
81	0xbd38f00c	-0.0451508
82	0x3c452db7	0.012034825
83	0x3d1fda49	0.039026532
84	0x3c6e9838	0.014562659
85	0x245364e9	4.5838806e-17
86	0x3c98a139	0.018631564
87	0xbc49c6d0	-0.012315467
88	0xbbd9f619	-0.0066516516
89	0x3be6a782	0.0070390115
90	0x3c46473d	0.0121019455
91	0x3bd002fd	0.0063480125
92	0xb75958ac	-1.2954853e-05
93	0xbc0fbc5d	-0.008772937
94	0xb539eab6	-6.925942e-07
95	0x3585e685	9.976362e-07
96	0x3c83e435	0.016100029
97	0x3c6b2179	0.014351242
98	0x3a89f2f2	0.0010524674
99	0x3af8e7be	0.0018989963
100	0x2323d734	8.881819e-18
101	0x3ba1f05b	0.0049419827
102	0xb8034ba8	-3.1303294e-05
103	0x2e148af0	3.3774705e-11
104	0x3cac1797	0.021007342
105	0xbbbbc54f	-0.005730308
106	0xbcba31bf	-0.022728799
107	0x3a311403	0.0006754996
108	0x3ae67d7e	0.0017585007
109	0xbc0e77bf	-0.008695542
110	0xbb1c2064	-0.0023823017
111	0xbbd2aaaf	-0.0064290385
112	0xba90d650	-0.0011050198
113	0x3c79f3b1	0.015255854
114	0x3c8071b0	0.01567921
115	0x3cdf4aa7	0.027257277
116	0x3ba52a66	0.0050404547
117	0x3c957a4e	0.018246796
118	0xbca5f406	-0.020257961
119	0x38419480	4.6153087e-05
120	0xa0b93503	-3.13753e-19
121	0x3d0929c1	0.033487085
122	0x32a34b77	1.9010015e-08
123	0xbb59bd61	-0.003322445
124	0xbad1611a	-0.0015974373
125	0xbc94ddf8	-0.01817225
126	0x37a40cd8	1.9556304e-05
127	0x28dac9ce	2.429038e-14

net.2.running_mean f4 [128]
0	0x38a38ccd	7.798672e-05
1	0x3f4d2d83	0.8014757
2	0x3f005c7e	0.5014113
3	0x3f28a142	0.6587106
4	0x00000000	0.0
5	0x3e968f18	0.29406047
6	0x00000000	0.0
7	0x3e5a468f	0.21315978
8	0x00000000	0.0
9	0x3d97324b	0.073826395
10	0x3c0d4925	0.008623396
11	0x3f0fb3e7	0.56133884
12	0x3ecb584c	0.39715803
13	0x3d401271	0.046892587
14	0x00000000	0.0
15	0x3ea8374c	0.32854688
16	0x3f255f81	0.6459885
17	0x3cb5b8b9	0.02218281
18	0x3cd02991	0.025410445
19	0x3e387936	0.18014988
20	0x3f09f59e	0.5389041
21	0x3db1dbf8	0.08684534
22	0x3e46da55	0.19419225
23	0x3dc671bb	0.09689661
24	0x3eb8be2a	0.36082584
25	0x3c4e2343	0.012581649
26	0x00000000	0.0
27	0x3d97295f	0.07380938
28	0x3e8ca26a	0.27467662
29	0x3ecef12c	0.40418375
30	0x3ee35d1b	0.4440697
31	0x3e8f6003	0.2800294
32	0x3e19f3a5	0.1503435
33	0x39fef34d	0.00048627928
34	0x3e90c8c7	0.2827818
35	0x3d282cc3	0.041058313
36	0x3efb62d0	0.49098825
37	0x3db27011	0.08712781
38	0x3f645a61	0.8920041
39	0x3f1916ec	0.598006
40	0x3d7dc870	0.06195873
41	0x3e9ab437	0.30215618
42	0x3eedbbbb	0.4643229
43	0x00000000	0.0
44	0x00000000	0.0
45	0x3e8ad06a	0.27112132
46	0x3d0ebecc	0.034849927
47	0x3ddbf3c9	0.10739858
48	0x3eea7263	0.45790395
49	0x00000000	0.0
50	0x00000000	0.0
51	0x00000000	0.0
52	0x3d052caa	0.032513298
53	0x3c1d357c	0.009595271
54	0x3f0f233c	0.5591314
55	0x3e280fc4	0.16412264
56	0x3b4c64c1	0.0031187984
57	0x3f357558	0.7088218
58	0x3ed112ba	0.408346
59	0x3baa08f4	0.0051890556
60	0x00000000	0.0
61	0x3e01ce1f	0.12676285
62	0x3f160cf1	0.58613497
63	0x3d0a4075	0.033752877
64	0x3f66ed06	0.9020542
65	0x3eb7bc06	0.35885638
66	0x3f2594b3	0.6468002
67	0x3a844192	0.0010090342
68	0x3f28b449	0.65900093
69	0x00000000	0.0
70	0x00000000	0.0
71	0x3cf1b0e5	0.029503295
72	0x00000000	0.0
73	0x3f697ba1	0.9120427
74	0x3eab4b50	0.33455896
75	0x3f2f0f88	0.68383074
76	0x3f1ce132	0.6128112
77	0x3e7b0ad1	0.24515845
78	0x3f0f42ad	0.55961114
79	0x00000000	0.0
80	0x00000000	0.0
81	0x00000000	0.0
82	0x3eb69652	0.3566156
83	0x3e54d46b	0.20784156
84	0x3daed4ee	0.08536707
85	0x00000000	0.0
86	0x3f17afb2	0.59252465
87	0x3e84b096	0.25915974
88	0x3dbeac9c	0.093102664
89	0x3c714ad5	0.014727314
90	0x3eed1de6	0.46311873
91	0x3ece7d7a	0.40330106
92	0x00000000	0.0
93	0x00000000	0.0
94	0x00000000	0.0
95	0x00000000	0.0
96	0x3f418cd7	0.7560553
97	0x3d706406	0.05868914
98	0x3ed6b9f8	0.41938758
99	0x3aaa6e42	0.001300283
100	0x00000000	0.0
101	0x3bc70e1b	0.0060746795
102	0x00000000	0.0
103	0x00000000	0.0
104	0x3cb2adf5	0.021811465
105	0x3e10bf98	0.14135587
106	0x3e86f6b5	0.26360098
107	0x3e8f96ed	0.28044835
108	0x3c5b07eb	0.013368587
109	0x3d4abf16	0.04949864
110	0x3d9e5925	0.07731847
111	0x3cf617b6	0.030040603
112	0x3f8221f9	1.0166618
113	0x3eb78508	0.35843682
114	0x3b27ea93	0.0025621995
115	0x3e065d2a	0.13121477
116	0x3d8ed61e	0.06974433
117	0x3f0e8166	0.55666196
118	0x3c161a44	0.009161536
119	0x00000000	0.0
120	0x00000000	0.0
121	0x3dddcc0b	0.10829934
122	0x00000000	0.0
123	0x3d24c4cb	0.04022674
124	0x3d8695fe	0.065715775
125	0x3d1afaa3	0.037836682
126	0x00000000	0.0
127	0x00000000	0.0

net.2.running_var f4 [128]
0	0x3c0f0117	0.008728287
1	0x3d9b0223	0.07568767
2	0x3dd6a89a	0.10481377
3	0x3c74636e	0.014916284
4	0x3c0effb0	0.008727953
5	0x3cdcf3e8	0.026971772
6	0x3c0effb0	0.008727953
7	0x3d14bc4f	0.036312398
8	0x3c0effb0	0.008727953
9	0x3c739018	0.014865898
10	0x3c1f866b	0.009736638
11	0x3d664e39	0.056226943
12	0x3daeab1e	0.08528732
13	0x3c8a0bf4	0.016851403
14	0x3c0effb0	0.008727953
15	0x3d4c0d23	0.049817216
16	0x3d074392	0.033023424
17	0x3c38dfac	0.011283796
18	0x3c570e61	0.013125987
19	0x3d106326	0.035250805
20	0x3d693aae	0.056940727
21	0x3c85aa1e	0.01631647
22	0x3d75f0a2	0.06004394
23	0x3cf29bd3	0.029615318
24	0x3cf9c1d3	0.03048793
25	0x3c1b836b	0.009491782
26	0x3c0effb0	0.008727953
27	0x3c8ffcce	0.017576601
28	0x3d2b80ee	0.041871004
29	0x3c2031a1	0.009777457
30	0x3cc1285a	0.023578811
31	0x3cdc1128	0.02686365
32	0x3d2ea190	0.042634547
33	0x3c0f8fad	0.008762282
34	0x3c51c42e	0.012803121
35	0x3c61f699	0.013791704
36	0x3d2c2de6	0.04203596
37	0x3cf165d8	0.029467508
38	0x3d5ebc51	0.05437881
39	0x3d260133	0.040528487
40	0x3cada565	0.02119703
41	0x3d9cd52d	0.076578476
42	0x3dd8b95c	0.105822295
43	0x3c0effb0	0.008727953
44	0x3c0effb0	0.008727953
45	0x3d625666	0.055258177
46	0x3c50ae70	0.012736902
47	0x3ce9d1af	0.028542368
48	0x3d2b4e98	0.041823
49	0x3c0effb0	0.008727953
50	0x3c0effb0	0.008727953
51	0x3c0effb0	0.008727953
52	0x3c7842e9	0.015152671
53	0x3c200fcb	0.00976939
54	0x3d29e57a	0.04147861
55	0x3cb80627	0.022463871
56	0x3c11a51a	0.008889461
57	0x3dc4c9f8	0.09608835
58	0x3cff547c	0.031168215
59	0x3c148d28	0.009066857
60	0x3c0effb0	0.008727953
61	0x3d16487d	0.036690224
62	0x3d8ad9b1	0.067798026
63	0x3c5d636d	0.0135124745
64	0x3d8e3e22	0.06945445
65	0x3d0cf574	0.03441377
66	0x3cb60772	0.022220347
67	0x3c0fa6fb	0.008767839
68	0x3ddd4977	0.10805028
69	0x3c0effb0	0.008727953
70	0x3c0effb0	0.008727953
71	0x3c3907cf	0.011293366
72	0x3c0effb0	0.008727953
73	0x3d6fdea0	0.05856192
74	0x3d30faeb	0.043208044
75	0x3d0034eb	0.031300467
76	0x3d53a58f	0.05167156
77	0x3dd68010	0.10473645
78	0x3d054f3b	0.032546263
79	0x3c0effb0	0.008727953
80	0x3c0effb0	0.008727953
81	0x3c0effb0	0.008727953
82	0x3dc04b67	0.09389382
83	0x3d75d5be	0.060018294
84	0x3d00ba10	0.031427443
85	0x3c0effb0	0.008727953
86	0x3dd700d4	0.10498205
87	0x3d4d947d	0.050190438
88	0x3c768012	0.015045183
89	0x3c2376db	0.009977068
90	0x3c17cc11	0.009264962
91	0x3c163fcb	0.009170483
92	0x3c0effb0	0.008727953
93	0x3c0effb0	0.008727953
94	0x3c0effb0	0.008727953
95	0x3c0effb0	0.008727953
96	0x3c97af64	0.01851625
97	0x3c9d2ef9	0.019187437
98	0x3d028357	0.031863537
99	0x3c0f84bb	0.008759673
100	0x3c0effb0	0.008727953
101	0x3c17da62	0.009268375
102	0x3c0effb0	0.008727953
103	0x3c0effb0	0.008727953
104	0x3c55d3f6	0.013051024
105	0x3c4279de	0.011869876
106	0x3c83e7ef	0.016101805
107	0x3dc87fff	0.09790038
108	0x3c1d85c0	0.009614408
109	0x3c71bba3	0.014754209
110	0x3cbf3270	0.02333948
111	0x3c36cd9a	0.011157418
112	0x3da0339a	0.07822342
113	0x3c7cc823	0.015428576
114	0x3c133017	0.0089836335
115	0x3cd57bd1	0.026060017
116	0x3c695151	0.014240579
117	0x3cc699af	0.024243204
118	0x3c173c4b	0.009230684
119	0x3c0effb0	0.008727953
120	0x3c0effb0	0.008727953
121	0x3cf56810	0.029956847
122	0x3c0effb0	0.008727953
123	0x3c6e19b9	0.0145325
124	0x3c657bd1	0.014006571
125	0x3c7c59b9	0.015402251
126	0x3c0effb0	0.008727953
127	0x3c0effb0	0.008727953

net.3.weight f4 [1, 128]
0	0xb5f212dd	-1.8035895e-06
1	0x3dc5a582	0.09650709
2	0xbdfafd29	-0.12255318
3	0x38d15f8d	9.983694e-05
4	0x35d86912	1.6123834e-06
5	0xbb1f23b0	-0.0024282746
6	0x2c62b6f3	3.2218089e-12
7	0xbd620482	-0.05518008
8	0x2185584e	9.035805e-19
9	0xbde3130b	-0.110876165
10	0xbebbb681	-0.36662677
11	0x3e07ae9d	0.13250203
12	0x3bd4c302	0.0064929733
13	0xbd31fc3e	-0.043453448
14	0xb338b24c	-4.3003e-08
15	0xbe610f5f	-0.2197852
16	0x3df39ca3	0.118951105
17	0x3d8ffc1f	0.0703051
18	0xbeb6f797	-0.3573577
19	0x3c985360	0.018594444
20	0x3d7c887c	0.0616536
21	0x3d10314f	0.035203274
22	0x3ddcf909	0.10789687
23	0xbe3ace2c	-0.18242711
24	0xbe30a383	-0.17249875
25	0x3e30a4cf	0.1725037
26	0xa4bf84ce	-8.3058026e-17
27	0x3db80a9b	0.08986398
28	0xbe329d21	-0.17442752
29	0xbda8b9f4	-0.08238593
30	0x3b15f13a	0.0022879378
31	0xbb4857e3	-0.0030569963
32	0x3e4be1ef	0.19910406
33	0x3ea6293c	0.32453334
34	0x3a16a468	0.00057465443
35	0xbd4e1120	-0.0503093
36	0xbc8466a0	-0.016162217
37	0xbd98e9f4	-0.07466498
38	0x3e1e2619	0.1544422
39	0x3e30a442	0.1725016
40	0xbe3fb7d1	-0.18722464
41	0xbd9a58dd	-0.075364806
42	0x3d2d2d8e	0.042279772
43	0xba3f082a	-0.00072872883
44	0xb6fb104d	-7.4822806e-06
45	0x3d9216b1	0.07133234
46	0xbe37f260	-0.17963552
47	0x3df3b481	0.11899663
48	0xbdeb9943	-0.11503842
49	0x3a14daf2	0.00056783773
50	0xad7147f8	-1.3715244e-11
51	0xa5cfe7f7	-3.6065961e-16
52	0xbe40d31a	-0.18830529
53	0x3e66bd35	0.22533114
54	0xbb5ae271	-0.003339913
55	0xbd6e1e9c	-0.05813466
56	0x3d0f41c6	0.034974836
57	0x3e13780b	0.14401262
58	0x3ce3a90f	0.027790574
59	0xbd4ce960	-0.05002725
60	0xb3e59a8f	-1.06917575e-07
61	0xbe191f13	-0.1495326
62	0xbd85b9c4	-0.065295726
63	0xbea4013a	-0.32032186
64	0x3d7e2238	0.062044352
65	0x3de2ec00	0.1108017
66	0x3e4272b9	0.18989076
67	0xbcda45be	-0.026644584
68	0xbd1fcc97	-0.03901347
69	0x36633867	3.3858466e-06
70	0x36108e76	2.1540595e-06
71	0x3e8a279b	0.26983342
72	0xaea5fcda	-7.548247e-11
73	0x3d24a869	0.04019967
74	0xbc49e854	-0.012323458
75	0x3dbcb396	0.09213941
76	0x3b8de561	0.0043303226
77	0x3de5431d	0.111944415
78	0x3d8aff47	0.067869715
79	0xb4011aeb	-1.2023854e-07
80	0xb7d1f0b2	-2.5026824e-05
81	0xbd3a1b8e	-0.045436434
82	0xbd93f631	-0.07224692
83	0x3dabba2a	0.08385117
84	0xbdd66f92	-0.10470499
85	0x2580f419	2.2369867e-16
86	0xbcb907d7	-0.022586746
87	0x3dc69dd4	0.09698072
88	0x3e27626c	0.16346139
89	0xbea1ce56	-0.31602734
90	0x3aff5922	0.001948152
91	0xbdaa705c	-0.08322212
92	0x399f8ce1	0.00030431806
93	0xbc1cd8d0	-0.0095731765
94	0x353be36e	6.999388e-07
95	0xb68d709f	-4.2152383e-06
96	0xbc2f8c68	-0.010714628
97	0xbdc3e639	-0.09565396
98	0xbdb00074	-0.085938364
99	0x3d045f27	0.032317307
100	0x215a48ec	7.3957784e-19
101	0xbeb1839c	-0.34670722
102	0x3a50e6c7	0.0007968959
103	0xaea2aa8a	-7.397201e-11
104	0x3cd71421	0.026254715
105	0x3ddb1c9f	0.106988184
106	0xbb421946	-0.0029617115
107	0x3e21a1b8	0.15784347
108	0xbe338045	-0.175294
109	0x3e765bdc	0.24058479
110	0x3dd7bacd	0.10533676
111	0x3e823c1e	0.2543649
112	0x3d8191bd	0.063266255
113	0xbc2bb200	-0.01047945
114	0x3c53c393	0.0129250465
115	0xbd44ded0	-0.048064053
116	0xbd9daf1b	-0.07699414
117	0x3cb82c0b	0.022481939
118	0x3e0426c7	0.12905417
119	0xbaa00075	-0.0012207167
120	0xa250f407	-2.8318443e-18
121	0xbda46b97	-0.08028334
122	0xb29f8097	-1.8568512e-08
123	0xbb5a0a9f	-0.003327049
124	0xbe2c2f2f	-0.16814874
125	0xbe2a95fc	-0.16658777
126	0xb9f98fd8	-0.00047600153
127	0xa94173d3	-4.295507e-14
