saved_models/mlp/MLP__deprecated_house_votes_84.pth (torch, 15079 bytes, 7 tensors)

net.0.weight f4 [128, 16]
00000000: 3e07 173e ed90 3d3e 2bab 4bbe 5cd1 2c3e
00000010: c9ac 183e 0602 2abe dd26 583e 5daa abbc
00000020: c959 08be 51db 513d 266a a63d d5e3 1d3e
00000030: ca1e a3bd ec59 623e b074 153d ba0f 313e
00000040: 8385 893d cc9f 8e3d 095b 183e 13b8 263e
00000050: bc34 3cbd 6445 82be 1183 0d3d 42eb 83be
00000060: dfc8 60be ce2b 533e c230 213e 5354 6ebe
00000070: e518 083e b97c 0d3d de1c 15bd 55a3 983d
00000080: f001 74bd e88d bfbd 5c1a 06be a81b 2dbd
00000090: e4e7 443e f8dd 89bd c695 25be 9e93 4bbe
000000a0: 226a 6abe 880b 0a3e 12bb 5e3e c0ca d83b
000000b0: f0d0 a33c 344b b3bd ccb9 d4bd d00e 6abe
000000c0: 5b73 60be cbd1 403e e74e 8d3e e010 0a3e
000000d0: 89bd da3d 6001 673e 3683 76be 5381 2b3e
000000e0: 1963 303e 863b 303d 390e 3d3e 578f 19bd
000000f0: d4d6 92bd 38dc 823d 9cc2 07be 94f4 3b3e
00000100: 3a7d 943c c074 343d 8f02 6dbe c404 5d3c
00000110: 0715 623e aa72 f73d 9de0 033e ec18 d0bd
00000120: bd7c 2b3e 1c67 843c 8664 51be ac1c a9bd
00000130: c8c4 583e c260 393e 67d0 11bd 5b31 f8bd
00000140: 2960 06be 78f9 523e 3194 1cbd c552 afbd
00000150: c7a0 44be a016 bebd 3544 6f3d 341e bd3d
00000160: aa96 223e dbde 833d c8d2 6a3e ce87 17be
00000170: 6d6a 23be 5d7a c03d e8b3 383e 1cc6 cbbd
00000180: 7964 7b3e 3944 6f3a d37a c6bd df0f 253d
00000190: 3b83 703e 2df7 6abc 1574 963d e897 ac3d
000001a0: 661a 323d fbcf e1bd 8e25 64be 5200 4fbe
000001b0: c104 83bc 5fb0 17be 7ab5 413e d75b 6cbe
000001c0: 3155 e5bd ce4a 55be 37e0 303e 392b 17be
000001d0: 7fcc 533e e7f2 093d ce8e 623e cc7a 0b3e
000001e0: 2931 5cbe ea39 e8bc 2a92 52be 0813 57be
000001f0: 587f 143e e190 1f3e 613a 30be 4176 d8bd
00000200: ccdd 573e 788a d1bd c133 683e 94bf 903d
00000210: 7af5 273e 0757 4a3e 206d 51bd 5373 3f3d
00000220: a6e9 473e 14f8 32be f3f1 1bbd ee3e 8a3d
00000230: b296 d4bd a37a f0bd b27a b63c c3cd 79be
00000240: babd 21bd f918 fbbb cfc2 6b3e 060b 0ebe
00000250: 2991 1abe f64c dfbc f85c 68be 9c0d f5bd
00000260: 88b5 02bc 8004 74be a962 2fbe 8dd2 2a3e
00000270: 0726 dbbc ba92 52bc 4d1f 18be 318a 153e
00000280: 6acc 163d 1d94 7d3e 5b53 f33d 4852 46be
00000290: 61fe ae3d 1d12 173e cf2a 643e 62fb 90bb
000002a0: fa3a 133d 9f82 5fbe b351 3b3e d604 743e
000002b0: 5449 6c3e 809a 09be df7c 98bd 0be4 d9bd
000002c0: f02b 2f3e c86b 65bd 089b f9bd 80fe e3bd
000002d0: 84cf f13d 101e f63c e015 fc3d f0b5 dcbc
000002e0: 00ae ebba 926c 6cbe e2d5 04be 1898 683d
000002f0: b048 2f3d 6094 12be 6834 58bd 008a 98bb
00000300: 6e2c acbd 3ce0 a43d f91e 3bbe 0809 35be
00000310: b1ca 073e 8a21 54be 18ba 26bb 0ee4 4a3e
00000320: f608 553e 5b1e ffbc bfbc 8c3d 71ae 883e
00000330: 231e 283e 67f6 05be 8674 bd3c af69 ab3d
00000340: 5600 623c 16d1 863e e843 0e3e fa96 79be
00000350: 17f7 febd ca5f 4bbe b073 613d 7260 243e
00000360: afbf 603e 0e49 f03d cc6b 9e3d 3830 223e
00000370: 1465 2e3e 4cde 7b3d d76e f73d 63e1 353d
00000380: 9ff3 31be 8ccd 263d 04cc 6a3e 0356 3b3e
00000390: 2d52 e43c b999 023b 85b1 aabd 8de2 ed3d
000003a0: 8116 333e 002f 56be dc49 ddbb 6a16 fcbd
000003b0: 55a2 3bbe 9856 39be 8a1e a23c 996a 05be
000003c0: daa6 a83d cd87 e1bc 9f87 4dbe 2967 083d
000003d0: cfb6 373e e736 4ebe cbc4 91bd 13fb 01be
000003e0: dadb f4bd 4c9d d1bd a090 9d3d cded 603e
000003f0: 9049 abbe 6f8b 303e 4ef8 383e 2a56 013e
0.14748856 0.18512316 -0.19889514 0.1687674 0.14909662 -0.16602334 0.21108575 -0.020955259
-0.133155 0.051234547 0.08125715 0.15418942 -0.07964857 0.22104615 0.036488235 0.17291155
0.067149185 0.069640726 0.14878477 0.16281156 -0.04594873 -0.25443566 0.034548823 -0.25765425
-0.21951626 0.20622179 0.15741256 -0.23274355 0.13290747 0.034542773 -0.036404483 0.07453028
-0.05957216 -0.09353238 -0.13095993 -0.042262703 0.19229084 -0.0673179 -0.16170415 -0.1988053
-0.22892049 0.13480961 0.21751049 0.0066159666 0.01999709 -0.08754578 -0.103870004 -0.22857213
-0.21919005 0.1883003 0.2759926 0.13483 0.10680682 0.22559118 -0.2407349 0.16748552
0.17225303 0.043025516 0.18462457 -0.037490215 -0.071698815 0.0638966 -0.13257831 0.18355018
0.018126119 0.044056654 -0.23145507 0.013489906 0.22078334 0.12082417 0.12878652 -0.101610035
0.16746803 0.016162448 -0.20448503 -0.08257422 0.21168816 0.18103316 -0.03559914 -0.12118789
-0.1312262 0.20602977 -0.038227264 -0.08560709 -0.19201957 -0.09281659 0.058414657 0.092342764
0.15877786 0.06438991 0.22931969 -0.14797899 -0.15958567 0.09398339 0.18037379 -0.09949896
0.24550046 0.00091272924 -0.096913956 0.04029834 0.2348756 -0.014341158 0.0734636 0.08427411
0.043482207 -0.11025997 -0.22279951 -0.20214966 -0.015993478 -0.14813374 0.18916884 -0.23081909
-0.111978896 -0.20829317 0.17273031 -0.14762582 0.20683478 0.033678915 0.22124788 0.13621062
-0.21503128 -0.028347928 -0.2056357 -0.21003354 0.14501703 0.1558261 -0.1720977 -0.1056943
0.21080703 -0.10231489 0.22675993 0.07067791 0.16402236 0.19759761 -0.05112946 0.04674084
0.19522724 -0.17477447 -0.038072538 0.06750284 -0.10380305 -0.11742141 0.022275303 -0.24394898
-0.039487578 -0.007662889 0.23023532 -0.13871393 -0.15094437 -0.027258378 -0.22691715 -0.119654864
-0.007977851 -0.23829842 -0.1712748 0.16681881 -0.026751531 -0.012852365 -0.1485569 0.14603497
0.03681604 0.24763532 0.11881133 -0.19367325 0.08544613 0.14753003 0.22281955 -0.0044244984
0.035944916 -0.21827172 0.18292885 0.2382997 0.23074847 -0.13437843 -0.07445692 -0.10639199
0.17106605 -0.05601099 -0.12187773 -0.111325264 0.118071586 0.030043632 0.1230886 -0.026942223
-0.0017980933 -0.23088291 -0.12972215 0.056785673 0.04279393 -0.14314413 -0.052784353 -0.0046551228
-0.08406912 0.08050582 -0.18273534 -0.17679226 0.13260914 -0.20715919 -0.002544051 0.19813558
0.208042 -0.031142404 0.06871938 0.26695588 0.16417746 -0.13082276 0.023126852 0.08369767
0.013794025 0.26331395 0.13893092 -0.24373999 -0.124494724 -0.1986076 0.05504197 0.16052416
0.21948121 0.11732684 0.07735404 0.15838706 0.17030746 0.061491296 0.12081688 0.0444044
-0.1737809 0.04072337 0.22929388 0.1829453 0.027871216 0.0019928052 -0.083346404 0.11615477
0.17489053 -0.20916367 -0.0067531895 -0.12308963 -0.18323644 -0.18099439 0.019789953 -0.13028945
0.082349494 -0.027530575 -0.20071267 0.033301506 0.1794083 -0.20138131 -0.071176134 -0.12693433
-0.11955996 -0.1023508 0.07693601 0.21965714 -0.3345456 0.1724069 0.1806347 0.12630525

net.0.bias f4 [128]
00000000: a0d2 56be e2e5 20bd 2249 24be 7cda a1bd
00000010: a71d 593e 4d4b 1e3e 7b67 67be 206f 41be
00000020: 46ba 4bbe a465 ab3d 5a01 90bc 4006 97bb
00000030: fb24 2bbe 446f 43bd bc7e 7abe 44fe 96bd
00000040: 1246 0d3e acfb 8b3e ed99 2c3e 7274 e6bd
00000050: 3715 193e 40a5 32bd 89e0 383e b0a3 6f3e
00000060: 7d6a 70be 78ab 64be e32f fc3b 13f4 6d3e
00000070: 155d 263e a9c1 863e f206 713e 66f1 463e
00000080: 5e0e 36be 4280 b3bd ee9a 513d 8b90 fbba
00000090: 2af4 f0bd 475f efbd e507 5d3d 4c81 123e
000000a0: 82ce ad3d 3719 ecbd 5e3f 8abd e026 353e
000000b0: 543d 243d 0a6b 803e 429c 8b3d edc1 313e
000000c0: 583d 093e 85ba fd3c 34b6 6bbe f61e c23d
000000d0: 7a14 0cbd 1201 603e ad14 13bd 6083 fe3d
000000e0: 4f8f 1dbe 36d0 103e 24f5 b5bd 3e0e 363e
000000f0: d3d8 283e 3f59 573e 440b 37bd e8f2 4c3d
00000100: 4997 1a3d c55b ea3a 0489 4a3e 9e3e 363e
00000110: da7b 643e 37b5 2e3b bbff ee3d 660c 4e3e
00000120: 9d52 59be 55b7 56be 19ea d8bc 3061 88be
00000130: 9027 5fbd aea3 673d 7d5d cd3b 1b07 d5bd
00000140: 86e3 29be 6e31 15bd a772 523e 6b95 22be
00000150: b923 05be 43bc 03ba dc6f 92bd 7f12 563e
00000160: aa8b 863b d978 823c 34a8 933d c47c 6d3e
00000170: 185f 393e 0881 643e 5994 78bd 955b aebd
00000180: 20ca 98bd 0fb9 8c3d 71c0 61be 84a9 d5bd
00000190: 442f e1bd 724f 283e af04 1e3e 6149 73be
000001a0: 8b81 9b3d e9e9 6cbe 6392 2f3e 69ba 773e
000001b0: cda3 3e3b a994 9dbd f80b 4fbe 96e7 833d
000001c0: 3756 563e 68f9 55be 7981 e9bd dfd8 a43d
000001d0: d8cc 243e 046f b53d 6a97 5dbe 342a 063e
000001e0: 4338 3c3e 33fe 743e d467 b1bd 8d34 133e
000001f0: 9d59 75be 6567 423e d2a0 bc3b 9cdb 4cbe
-0.20978785 -0.039281733 -0.16043523 -0.07903001 0.21202718 0.15458412 -0.22598068 -0.18890047
-0.19895276 0.08368996 -0.01757877 -0.0046088994 -0.16713326 -0.047713533 -0.24462408 -0.07372716
0.13796261 0.27340448 0.16855593 -0.11252679 0.14949499 -0.043614626 0.18054403 0.23402286
-0.23478122 -0.22331035 0.007696138 0.23237638 0.16246445 0.26319626 0.23537806 0.19428024
-0.17778918 -0.087646976 0.051173143 -0.0019192857 -0.117653206 -0.116880946 0.053962607 0.14307135
0.08486654 -0.11528247 -0.067503676 0.17690611 0.04009755 0.25081664 0.06816913 0.17359133
0.13402307 0.030972729 -0.23018724 0.094785616 -0.034199215 0.21875408 -0.03590839 0.124274015
-0.15386699 0.14141926 -0.088846475 0.1777887 0.16488962 0.21030138 -0.044688478 0.05003634
0.037741933 0.0017880133 0.1977883 0.17797324 0.2231287 0.0026658305 0.116698705 0.20121917
-0.2122292 -0.20968373 -0.026478814 -0.26636648 -0.05448109 0.05655258 0.006267248 -0.10401746
-0.165907 -0.036424093 0.20551549 -0.15877311 -0.13001908 -0.00050253066 -0.07150242 0.20905493
0.0041060047 0.015926765 0.072098166 0.23192126 0.18102682 0.22314847 -0.06068835 -0.08513562
-0.07460427 0.068712346 -0.22046067 -0.10432723 -0.10995343 0.16436556 0.15431474 -0.2375846
0.07593068 -0.23136105 0.17145686 0.24192204 0.0029089332 -0.0769437 -0.2021941 0.06440656
0.20931326 -0.20895922 -0.11401648 0.080491774 0.16093767 0.08859065 -0.21639791 0.13102037
0.18380837 0.23925094 -0.08662382 0.14375515 -0.23959966 0.18984754 0.005756476 -0.2000565

net.2.weight f4 [128]
00000000: ef8f 833f 937a 773f 0000 803f bcec 763f
00000010: 37ee 843f 6357 833f f47f 6f3f 8b37 823f
00000020: accf 7d3f c087 803f 1fca 793f 0000 803f
00000030: aa27 6f3f 2b4d 8a3f aa9b 763f f0bd 863f
00000040: 81e6 763f 825a 893f 77f5 843f be32 783f
00000050: 74f0 863f 0000 803f edeb 843f 1f78 813f
00000060: b6b0 7b3f 9325 803f 4ffd 883f 1143 813f
00000070: c376 7d3f 8fe7 8c3f 6367 873f c9af 823f
00000080: 101d 7f3f ca38 7d3f 1599 743f 7d80 883f
00000090: 8d36 823f a594 753f b363 783f f61e 8b3f
000000a0: 5015 7d3f 6180 903f 8554 833f f4b5 833f
000000b0: e001 8c3f a2ac 8a3f dde0 833f 106e 8d3f
000000c0: dab4 853f 3f96 853f 0000 803f b76c 753f
000000d0: 581b 793f 8363 8b3f 872e 883f 75eb 853f
000000e0: 569a 7b3f 84c6 873f 2f50 763f 2dad 783f
000000f0: 7273 803f 85d4 743f 854a 863f 8908 9a3f
00000100: f5b1 7e3f 165b 8d3f a423 773f ab8a 8c3f
00000110: 96ef 8e3f 8de1 863f b460 793f 932f 803f
00000120: d829 953f 33ac 8f3f 1f0a 863f 2426 7f3f
00000130: 643c 833f 0c53 893f 550c 823f 43eb 8e3f
00000140: e832 813f 607c 763f aff1 833f f62e 813f
00000150: 345a 8c3f 7019 783f 00b9 7e3f fbe9 773f
00000160: e467 863f 8316 7a3f 1e9c 8b3f 31ae 913f
00000170: 288a 843f 3850 713f 45ed 813f 5590 803f
00000180: 520f 8c3f 0ed5 8c3f 319e 913f 4ed6 853f
00000190: 973a 753f 716f 823f e107 883f 3cc1 7b3f
000001a0: 3dbb 7f3f 3f88 7d3f 0372 7c3f f9b1 813f
000001b0: 8452 823f d1a0 8a3f 2621 813f 166c 873f
000001c0: c2fd 813f 0000 803f 13bd 893f c880 8a3f
000001d0: 46f5 7a3f 7caf 783f 7514 913f 7da2 873f
000001e0: f8b5 7f3f 2ab7 8c3f 6516 833f 5f81 8a3f
000001f0: 1492 843f 0c05 803f ab65 863f 5722 7a3f
1.02783 0.9667141 1.0 0.9645498 1.0385197 1.0261043 0.93554616 1.01732
0.9914501 1.0041428 0.9757404 1.0 0.934199 1.08048 0.96331275 1.0526714
0.9644547 1.0730746 1.038741 0.96952426 1.054213 1.0 1.0384499 1.0114783
0.98316514 1.0011467 1.0702304 1.0098592 0.9900934 1.1008166 1.0578426 1.0209895
0.9965372 0.9891478 0.95546085 1.0664212 1.0172898 0.9592994 0.9702713 1.0868824
0.98860645 1.1289178 1.0260168 1.0289903 1.0938072 1.0833933 1.0302998 1.1049213
1.0445817 1.0436476 1.0 0.9586901 0.9730735 1.0889744 1.0639199 1.0462481
0.9828237 1.0607457 0.962161 0.97139245 1.0035231 0.9563678 1.0491492 1.2033855
0.9949029 1.1043422 0.9653876 1.0979818 1.1166866 1.0537583 0.9741318 1.0014518
1.1653395 1.1224426 1.0471839 0.9966757 1.0252805 1.0728469 1.0160013 1.1165546
1.009366 0.9628353 1.0308131 1.0092456 1.0965028 0.96913815 0.9950104 0.968414
1.0500455 0.976906 1.0907018 1.1381284 1.0354662 0.9426303 1.0150534 1.0044047
1.0942175 1.1002519 1.1376401 1.0456026 0.95792526 1.0190259 1.0627404 0.9834173
0.9989508 0.9903602 0.9861147 1.0132438 1.0181432 1.0830327 1.0088241 1.057986
1.0155566 1.0 1.0760826 1.0820551 0.9803051 0.9714277 1.1334368 1.0596462
0.9988704 1.0993397 1.0241209 1.0820731 1.035708 1.000154 1.0499777 0.9770865

net.2.bias f4 [128]
00000000: 7eb9 25bd c032 943c f528 19bd 6048 f03c
00000010: 4538 38bd 8214 233d fefd 953d b443 a4bc
00000020: 911d 0e3d d3d3 bd3c a236 abbc eb2e 193d
00000030: 7a68 debc 9770 343d 6dc9 00bd 78f9 0a3d
00000040: e42d f53c e6ea 19bd 9011 363d b254 09bd
00000050: 3a55 1ebd f70b 14bd 9a9e 253d 8d77 1d3d
00000060: 6724 0c3d 0387 273d 4820 61bc c274 163d
00000070: c3b3 103d 9136 1bbd 3a5f 9bbc 42c9 48bd
00000080: fd69 0bbb e840 f5bc ee3a e33c d904 22bd
00000090: fa78 04bd 64b4 a5bc d2d4 10bd 41e5 49bd
000000a0: c8f1 103d 9799 2fbd 2278 3ebd 3e72 33bd
000000b0: 291c 25bd 1078 f9bc 0e9f 1dbd 571b 20bd
000000c0: 6aaa 26bd 22f1 2cbd 65ce c03c d4e1 0f3d
000000d0: 90eb e1bc 7bd5 3e3d 45a6 193d e116 29bd
000000e0: 26b0 e0bc 35e6 27bd f56e 58bc 8df5 babc
000000f0: 3a21 1d3d e77a 133d d223 2dbd 942b 34bd
00000100: 4352 1fbd 4847 293d b012 49bd 0c61 94bc
00000110: c62a e93c 4cff 3abd d8d8 093d f62c 273d
00000120: b387 4b3d b795 31bd 883e 293d 2f51 06bd
00000130: 6e61 0f3d d73d 353d a2d3 1fbd ea1c 213d
00000140: 2a59 0c3d 5fff 91ba eca0 22bd 58f6 1c3c
00000150: 34fd 173d 0bf6 113d c6a5 c2bc 4609 b23c
00000160: f385 133d b6b3 18bd a711 1fbd 4991 23bd
00000170: 8ccc 2ebd 6e50 ca3c ba97 f2bc 4ff9 0bbd
00000180: 8c5d 253d fc90 1d3d d83c 493d df50 21bd
00000190: c1ca d93c 9721 033d a06b 1f3d 5434 0abd
000001a0: 1853 0fbd 456d 00bd 1df8 41bd ebc4 cfbc
000001b0: 5b2c 163d 7685 1d3d 7e94 b0bc 4d26 263d
000001c0: f9e5 193d d535 14bd b807 38bd abe6 18bd
000001d0: 0a26 113d 296a be3c 8e0f 2bbd bab2 1bbd
000001e0: 4bb4 1d3d 1a1e 223d 24d1 18bd fef3 3fbd
000001f0: 021a 2fbd cd76 fa3c 123e 1e3d 3dd6 0b3d
-0.040460102 0.018090606 -0.037392575 0.029331386 -0.044975538 0.03981448 0.07323836 -0.020051815
0.034696165 0.023172295 -0.020900074 0.03739826 -0.027149428 0.044052687 -0.031442095 0.03392932
0.029929109 -0.037577532 0.044450343 -0.033528037 -0.038655497 -0.036144223 0.040434457 0.03844409
0.034214403 0.04090024 -0.013740607 0.036732443 0.035327684 -0.037893835 -0.018966306 -0.04902006
-0.002127289 -0.029938176 0.02773806 -0.039555404 -0.032341935 -0.020227619 -0.03535921 -0.0492909
0.03538683 -0.042871084 -0.046501286 -0.04381012 -0.04031006 -0.030452758 -0.038481764 -0.039088573
-0.040689863 -0.04222215 0.023535917 0.035127476 -0.027578145 0.04659031 0.037512083 -0.041281585
-0.027427744 -0.040991027 -0.013210048 -0.022822166 0.038361765 0.03600588 -0.04227049 -0.04398687
-0.03889681 0.041327745 -0.049090087 -0.018112682 0.028462779 -0.045653626 0.033654064 0.040814362
0.04968996 -0.04335567 0.0413194 -0.032792266 0.035005026 0.04424843 -0.03902019 0.039334215
0.03426472 -0.0011138729 -0.03970425 0.009580217 0.037106708 0.035635035 -0.023760688 0.021732938
0.036016416 -0.03728076 -0.038835194 -0.039933477 -0.04267554 0.024696555 -0.029613364 -0.034173306
0.040372416 0.038468346 0.04913029 -0.039383765 0.026585938 0.032014456 0.038921 -0.03374131
-0.034991354 -0.031354208 -0.04735576 -0.025362452 0.036663394 0.038457356 -0.021555182 0.04056387
0.037572835 -0.03618415 -0.044929236 -0.037329357 0.035436668 0.02324398 -0.04176288 -0.038012244
0.03850202 0.03957949 -0.037308827 -0.04686355 -0.042749412 0.030574227 0.038633414 0.03413986

net.2.running_mean f4 [128]
00000000: a7d4 a03f 666c 3c3d 0000 0000 576c ad3f
00000010: 7541 673f baf7 c63e 8a29 8d3d 9679 683c
00000020: ca25 f63e 7a00 4a3a b282 863f 0000 0000
00000030: 9d82 d03e 91b9 993f e7a4 033b a3ed 663a
00000040: 0924 d23d c6e1 533b 8e5c 193f 20d4 1037
00000050: 7402 d33f 0000 0000 bc70 233f ec1a 103f
00000060: c5a2 243d 37ce 763d 03a6 893f 6e28 323b
00000070: 3851 0a3d fb0f 043b e18a f33d 5d2d 9b3f
00000080: 3207 983f 50c3 1d3a 8a59 bf3f 12d9 df3e
00000090: 4716 2f3c e9fe 303d 5f14 503f 80dc 503f
000000a0: d258 ef3a 0c26 0e3b 7d02 223f 5add dd3f
000000b0: 04f2 cc37 640e b83d 32eb 653e 7a7c bb3e
000000c0: ced2 3a3e 0a01 fb3e 0000 0000 964e e33e
000000d0: 440a 8138 3937 b83d cb78 5736 b83e aa3f
000000e0: 6f2c 0937 9c19 3f3f 3c41 853e 78a2 4c3f
000000f0: 1cab 503f 10fe 823e 01f0 b53e 2453 743e
00000100: 87fc f43e c736 0d3f 7864 e13f 915b 663a
00000110: c96e f83a d278 fb3d b13e bb3a 2fec 523f
00000120: 933f 743e 3d83 463e 9477 c63e ff15 8c3f
00000130: 0e9f 403e bb31 1a3f 80be 9b3e 5be9 203d
00000140: 68af 9639 88e3 363f d313 4d3b c8fc 223c
00000150: 06f8 903d f09f e33c d4f4 1d37 058b fb3e
00000160: 52c4 903b 3525 703f 1551 d939 a74a ac3d
00000170: 21ab f03f eaaf 8b3f 5400 2f3e 07cd 563f
00000180: e429 223c 04ba 893d 3404 7e3e 044e 573f
00000190: 02d8 343f c1e5 013f b254 9c3f 41bc 753f
000001a0: 24a5 dd3d ab3c 183d cf32 413e 017e bd3e
000001b0: d203 f43c 5c79 fe35 4a26 323d 1256 613e
000001c0: ed3c df3e 0000 0000 b04e d63d bd86 8d3a
000001d0: b3ab 003b cae2 773b d8fc 7b3e cd4a bf3b
000001e0: af1d 8f3f 70e3 443e 110c 1b3f a034 0d3e
000001f0: d757 693e 06e6 693c 10b6 0e40 2d96 313a
1.2564896 0.046001814 0.0 1.3548688 0.90334255 0.38860875 0.068926886 0.014189145
0.48075706 0.00077057595 1.0508635 0.0 0.4072465 1.2009755 0.0020087303 0.00088092143
0.102607794 0.0032330616 0.5990685 8.632458e-06 1.6485124 0.0 0.63843894 0.5629108
0.04019429 0.060255256 1.0753788 0.0027184743 0.033768862 0.0020151127 0.118917234 1.2123219
1.1877196 0.00060181785 1.49492 0.437203 0.010686464 0.04321185 0.81281084 0.81586456
0.0018260723 0.0021690158 0.63285047 1.7333176 2.4431392e-05 0.0898712 0.22453001 0.36618406
0.18244478 0.4902423 0.0 0.44395894 6.1531115e-05 0.08994908 3.2107807e-06 1.330039
8.176182e-06 0.7464845 0.26026332 0.7993541 0.8151109 0.2558446 0.3553467 0.2385984
0.47848913 0.5516171 1.7608786 0.0008787448 0.0018953915 0.12278904 0.0014285651 0.8239164
0.23852377 0.19386001 0.38763106 1.0944213 0.18810675 0.6023213 0.30418777 0.039285045
0.00028740917 0.71440935 0.0031292334 0.009947963 0.07078557 0.027786225 9.414933e-06 0.491295
0.0044179345 0.93806773 0.00041449876 0.08412676 1.8802224 1.091306 0.17089969 0.83906597
0.009897683 0.06724933 0.24806291 0.8410342 0.706421 0.507412 1.2213347 0.9599038
0.10822514 0.037167232 0.18867038 0.37010196 0.029786978 1.8959795e-06 0.043493547 0.2200549
0.4360117 0.0 0.10464227 0.0010797601 0.001963359 0.0037824386 0.24608171 0.0058377744
1.1180934 0.19227386 0.60565287 0.13789606 0.22787414 0.014276033 2.2298622 0.0006774392

net.2.running_var f4 [128]
00000000: 8348 f43d 22ae 643c 5869 8d39 5344 0d3e
00000010: 3ec5 013e 3019 a33d 301a ac3c d434 363b
00000020: eb45 8c3d 0134 a839 e9df dd3d 5869 8d39
00000030: d97e 7e3d e8ee 3b3e 1f4a 083a 6b2f 053a
00000040: d9af 5c3c 1721 5d3a f6ad df3d 61e2 8e39
00000050: 0c7a 103e 5869 8d39 6de4 283d 4fed 243e
00000060: 3029 0c3c 4f67 3e3c eed8 003e 0efd 653a
00000070: 4cb7 b73b c683 223a 4c82 bb3c f8d2 663e
00000080: 0918 253e aa1a ac39 7b44 023e 7689 313d
00000090: bf61 203b 0da2 0a3c 2330 dc3d 7579 433e
000000a0: beda 1a3a f038 7b3a 2bec c13e 2f4a 9d3e
000000b0: 9f71 8d39 1263 a83c 3add 833d a5ee 1c3d
000000c0: 96d1 383d d6c6 ed3d 5869 8d39 9761 bf3d
000000d0: e07c 9539 781c 933c 839d 8d39 8b63 9b3d
000000e0: 94bb 8e39 7617 6f3e 9c5a 7d3d b9c8 403d
000000f0: f67f d63d 15b1 0d3d 4cf4 8e3d 65bc 3f3d
00000100: 25fc 853e 6478 e63d 559a fc3d e21e b739
00000110: 2e5f 363a b27c 263d b294 fb39 e8ff 1b3e
00000120: ada4 583d 7a54 0b3d a2d5 b73d a122 a03d
00000130: cba5 1c3d c611 9d3d 798c 6a3d 9a5e b33c
00000140: db74 a339 6b3d cd3d b01e 553a df7d 653b
00000150: 1977 c33c db0d f03b d629 8f39 9570 a23d
00000160: 8444 5c3a 302c 823e bb7c b339 c9b8 e53c
00000170: 4296 313e a420 323e da6d 4e3d 725f e53d
00000180: dabc 0f3b 8937 ab3c 18dc 603d 5a39 603d
00000190: 75cc cc3d 32ff bf3d 101f c03d e845 893d
000001a0: 4736 023d 26e3 e33b f8bc 653d 327b a73d
000001b0: c238 0a3c 867b 8d39 d85e 053c fa7d 7b3d
000001c0: b8f7 9e3d 5869 8d39 faf7 ca3c 77d9 143a
000001d0: 3174 2f3a c09f 983a 0a71 333d 12b0 7e3b
000001e0: 71f8 3c3e 07a1 693d 087b fd3d c9a8 633d
000001f0: 4340 963d 3dec 163b 428a 4d3e 4b84 a539
0.11927893 0.013957532 0.00026972103 0.13795595 0.12672898 0.079637885 0.02100858 0.0027802484
0.06849273 0.00032082203 0.10833723 0.00026972103 0.06213269 0.18352854 0.0005199033 0.0005080613
0.01346966 0.0008435412 0.10921852 0.00027253016 0.14109057 0.00026972103 0.04123347 0.16106151
0.008554742 0.01162131 0.12582752 0.0008773365 0.0056065675 0.00061994453 0.022889279 0.22541416
0.1612245 0.00032826263 0.12721436 0.043343984 0.0024472324 0.0084614875 0.10751369 0.19089301
0.0005907229 0.00095833745 0.37875494 0.3072066 0.0002697827 0.020555053 0.0643868 0.038313527
0.04512175 0.116101906 0.00026972103 0.09344786 0.00028512534 0.01795791 0.0002701097 0.07587346
0.00027224107 0.23348793 0.06185399 0.047066424 0.10473625 0.034592707 0.0698019 0.046810526
0.26168934 0.112534314 0.12334124 0.0003492749 0.0006956932 0.040646262 0.00047985237 0.15234339
0.052891422 0.03401611 0.08976294 0.07819105 0.03824405 0.07669406 0.05726287 0.021895695
0.00031176847 0.1002148 0.0008129878 0.0035017652 0.023860501 0.0073258705 0.00027306256 0.079316296
0.00084025436 0.25424337 0.00034234472 0.028042214 0.17342475 0.17395264 0.05039773 0.111998454
0.0021932633 0.020900505 0.054897398 0.054742195 0.099999346 0.093748465 0.09380925 0.06702787
0.031790044 0.0069545684 0.056088418 0.081777945 0.008436384 0.00026985648 0.008140288 0.061399437
0.07762092 0.00026972103 0.024776448 0.0005678157 0.0006693034 0.0011644289 0.043808974 0.003886227
0.18454148 0.057038333 0.12376982 0.055580888 0.07336476 0.0023028993 0.20072272 0.00031569818

net.3.weight f4 [1, 128]
00000000: bd8c 8c3d 77c2 623c e138 403d 13a5 9fbc
00000010: 66dc 583d 4346 2abd 7afb 8139 c97e 0fbd
00000020: abd1 25bd 0d0d d33c 6a3c d0bc 5491 3fbd
00000030: 9cf2 043b b1dc cdbd f293 e83b a8c0 87bd
00000040: 260f d43a dc45 dd3d db9d 4ebd c22a a83c
00000050: 536a 0b3e 822a eb3d 8566 99bd 3e6b bbbd
00000060: 7992 4cbd 51ea 60bd d147 923d baed c6bd
00000070: 90b8 8fbd f010 193e 71bf 8ebd 30c7 d33c
00000080: 816f d4bc b848 9d3c 481c d3bc 8973 093e
00000090: c743 a03d 77f2 233c bc58 733d 92ce a53d
000000a0: bf5a 0dbd f662 163e d3ab 303d 6326 6a3d
000000b0: 7bb3 1b3e a8bd 9b3d 7f5c eb3d b320 2f3e
000000c0: a00c c63d f19a b43d 4bc3 d2bc df6d 2fbd
000000d0: 79b2 aeba f0e9 bcbd 3e92 f7bd 3cf6 9a3d
000000e0: 8a93 3bbc ff0f ff3d 233a a5bb da8f 02bd
000000f0: 2253 a3bd 67d2 3f3b db2a e23d 4af6 4c3e
00000100: 8e8a 0abc e693 04be f85b 323c 367f 943d
00000110: f5e7 933d e879 b63d ae79 9dbb b39d c8bc
00000120: 15e6 f5bd c51a f43d 97be adbd 7966 853d
00000130: 485a d3bd 1894 e7bd ad4c 653d 2379 2ebe
00000140: 75c9 82bc d23b 303c fb57 cc3d 6075 20bd
00000150: b6d5 14be b4e0 0fbd f45c 9fbc 0f47 443c
00000160: 1764 bdbd 530b 313d c891 613d c443 3a3e
00000170: 510e 963d 1247 2d3c 3a2e 0d3d 3101 b83d
00000180: 76d2 09be e9ce 24be 75a8 ddbd 93ec 933d
00000190: b654 e4bb ccfa aabd 2808 01be ac7c 783d
000001a0: 44dd 933d 08c2 843d 5052 89bb 9f05 263d
000001b0: ec0d 24bd bb91 adbd 0f50 193d 46db dabd
000001c0: b636 ccbd 744f bb3d 6e10 ed3d da30 9d3d
000001d0: 1046 1fbd ed78 43bc bad9 3e3e f0a6 c63d
000001e0: 6903 9cbd 9a3b 30be 787f b83d 9c37 b93d
000001f0: 6b34 a83d ef0e 3fbd 56b8 c6bd db6c 50bd
0.06862781 0.013840309 0.046929244 -0.019487893 0.052944563 -0.041570913 0.00024792162 -0.03503302
-0.040483158 0.025763059 -0.025419433 -0.046769455 0.0020286208 -0.10051859 0.0070977146 -0.06628543
0.0016178831 0.1080434 -0.05044351 0.020528201 0.13614778 0.11482717 -0.07490257 -0.09151314
-0.049944375 -0.05491096 0.07142604 -0.097133115 -0.070176244 0.14947867 -0.06970108 0.025851816
-0.025932075 0.019199714 -0.025770321 0.1342298 0.078254275 0.010006539 0.059410796 0.08096041
-0.03451037 0.14686188 0.043132614 0.057165515 0.15205185 0.076045334 0.114922516 0.17102318
0.09670377 0.08818615 -0.025727889 -0.04282939 -0.0013328335 -0.092243075 -0.1208844 0.07566497
-0.01144875 0.12454223 -0.005042331 -0.03187547 -0.07974841 0.0029269697 0.1104333 0.20015827
-0.008455886 -0.12947044 0.010886185 0.07250826 0.07221977 0.089099705 -0.004805765 -0.02448926
-0.12006775 0.119191684 -0.08483618 0.06513686 -0.10319954 -0.113075435 0.055981327 -0.17038397
-0.015965203 0.01075645 0.099777184 -0.039174438 -0.14534649 -0.035126403 -0.019453503 0.011979832
-0.09247606 0.04322369 0.05507067 0.18189913 0.073269494 0.0105760265 0.034467913 0.08984602
-0.1345919 -0.16094555 -0.10823146 0.07222857 -0.006968106 -0.08348617 -0.12600768 0.06066577
0.072199374 0.06482321 -0.0041907206 0.040532704 -0.04005234 -0.084750615 0.037429865 -0.10686354
-0.09971373 0.09146014 0.11575399 0.07675333 -0.038885176 -0.011930686 0.18637744 0.096998096
-0.07617838 -0.17210236 0.09008688 0.0904381 0.08213123 -0.0466451 -0.09703128 -0.050885063
