saved_models/mlp/MLP__deprecated_hungarian.pth (torch, 13478 bytes, 7 tensors)

net.0.weight f4 [128, 13]
00000000: e88b 15be ccbb 243e 2417 563e 3c1d d9bd
00000010: 90d9 30be db9a 01be 9a37 62be ea94 f0bd
00000020: 905d 8c3c d03d 1dbe 1a88 7d3e 00a2 47bc
00000030: e0f2 85bc cb67 593e 0fbe d0be 6174 07bf
00000040: a1f2 3dbd b964 ba3c 2328 e4be 5f45 c83d
00000050: d188 203e f00d 79bf 399c 42bf 6295 ed3e
00000060: b070 7a3e 3a42 713e db3a 103e 4ccc 803c
00000070: de4c 98be 4c7c b23d 1d9e 67be 6199 8d3c
00000080: 2f16 303e 04c9 bdbd 3726 aabd 1de6 50be
00000090: 6fb9 e93d 4e1d 9d3d f0db 7abe efa5 58be
000000a0: 8aba fb3c a2f4 65bc 376c d73d 6a7e 073e
000000b0: 174d 26bc 9842 f3bd 6f64 cdbd ddf2 a3be
000000c0: 37b6 1cbf 1028 333e bdc5 1c3e e3f3 513d
000000d0: 3b5c 94be 09fe 83bd e91b 4bbe fe95 053d
000000e0: 23c3 cabc 7a08 6f3e 327b 89be 8640 0e3e
000000f0: f128 26be 8c8b e53d e519 033e c36a 15be
00000100: d050 fc3d 8e4c 58be 4f78 9b3e 5df0 1f3e
00000110: bd02 323c 210c f53d f795 c53d 2efa fbba
00000120: 6ce0 39be 0466 2f3f 2eb4 ab3e f690 4dbe
00000130: 05a4 103d 21d7 04be 5e33 70be 5c8b b53e
00000140: afab bf3e ca70 843e 0eac 8a3e b3bf 743e
00000150: cbdf 77be fa82 49be 7e41 ca3e 9ed1 8c3e
00000160: a3ce 31be ce5a 623e 779b 2cbe 8c58 3ebd
00000170: 56d3 0fbe b010 c93d 6037 8fbd 61e2 17be
00000180: 8b07 0fbe d085 2fbe 282a 27be 9cd9 603e
00000190: 2c1e 71be b8f8 8abd ac97 06be fdab 843e
000001a0: 75f0 62be 8040 b53b 0ae0 6f3e 5856 0bbe
000001b0: c004 f03c a67d 4b3e 025c 45be ecbb 36be
000001c0: 4673 8abe b25e 87be 70d5 d83d 6025 153e
000001d0: 562e 4f3e 10aa 75bd acea 0dbe 64d4 7dbe
000001e0: b1a1 3c3d f041 163e 864f d3be 12c9 6fbe
000001f0: cc56 613e f86a 20bf 31c9 84be a938 623e
00000200: 9466 c53d 280f 593e 4eb0 493d 1aad 97bd
00000210: 4dee 8e3d c9df 833d d366 2cbe 0ef1 7ebe
00000220: c0a5 013c 90b0 00be 925b 58be 3a22 67be
00000230: fd6f 12be c788 713e 3807 8bbe 00a5 3c3e
00000240: 29b0 a4be 681f d139 1e60 283d 8f93 12be
00000250: b023 13bc 9407 40be 1034 97bc 9001 703d
00000260: 43fc d7be 2dac 15be 532b 813e 031a 363e
00000270: 4402 37be 3825 e63d 1f88 153e 54ba 203e
00000280: 0f12 793e 456e 7a3d c7f2 f93d 7853 bd3d
00000290: 9dfe a33e 04a9 e83e 8360 cdbe 156c cb3b
000002a0: a267 46be 80ec 063d 4178 873e a0dc 4abd
000002b0: 68b6 5a3d b329 49be daa4 713e 035d 883e
000002c0: df15 63be 4098 fa3b 61ce 4dbe 6fc2 1ebe
000002d0: 30fb f73d 9ea1 f7bd 70e6 d3bd 3ec9 703e
000002e0: 26cc f3bd aa92 3fbe 3452 f2bd 6262 6d3e
000002f0: 0419 d7bd d42d 4fbd 54ca 993d 333a 42be
00000300: 77b7 42be 9334 5bbe c07d 38bc e081 4f3d
00000310: 02bf a03e db0e 703e 6090 9cbd b6bd f2bd
00000320: b35a 473e b6bd 383e d6b5 d53d 265c 5e3c
00000330: 3feb e43d 58eb 05be 047d 75be e533 0bbe
00000340: 8c0d 713d 18af a33e ff40 7fbe 4858 8e3e
00000350: f08c 96be 8e0f b3bd c112 843e 6ea5 58bd
00000360: 9bfb 0cbe c8df e73d 16e7 e23b 049a 543d
00000370: 811d 413d 9538 babb 4828 be3e 90ad a73d
00000380: 3c52 333e 9cec 6d3e 4e86 e63e 2d30 cb3d
00000390: ff62 60bd 922b 1a3f 0080 0a3f 8186 2fbe
000003a0: c042 d33c ba71 9d3d 5ca5 883d acfe e23d
000003b0: f80c dd3d 705c 84be 5a8f 4abe b800 df3d
000003c0: a157 883e 6868 3fbe 2f95 83be 0067 2cbc
000003d0: 604c 4c3c 8ede 683e cc9b 3f3e 2f71 713b
000003e0: 260f e6be 54aa 01be f193 723e 84a2 1c3e
000003f0: 879d 52be e2b6 513e d0d5 013e d3ca e5be
-0.14604151 0.16087264 0.20907265 -0.10601279 -0.17270494 -0.12656729 -0.22091523 -0.11747153
0.017134458 -0.15355611 0.2475895 -0.01218462 -0.016351163 0.21231 -0.40770003 -0.52911955
-0.046373967 0.022753106 -0.44561872 0.097788565 0.15677191 -0.9728689 -0.76019627 0.46403033
0.2445705 0.2356042 0.14084952 0.015722416 -0.29746145 0.08715114 -0.22618909 0.01728505
0.17195962 -0.09266856 -0.0830807 -0.20400281 0.11412322 0.07671605 -0.24497962 -0.21157049
0.030728597 -0.014035376 0.10518687 0.13231817 -0.010150216 -0.11877936 -0.10028922 -0.32021227
-0.6121554 0.17495751 0.15309806 0.05125798 -0.28976616 -0.06444938 -0.19834866 0.032613747
-0.024751252 0.23343077 -0.26851803 0.13891801 -0.16226555 0.11208257 0.12802847 -0.14591508
0.12320101 -0.21122953 0.30365226 0.15619035 0.010864911 0.11965204 0.09647744 -0.001922434
-0.18152016 0.6851504 0.33535904 -0.2007483 0.03531267 -0.1297269 -0.23457095 0.35457885
0.37435672 0.258673 0.27084392 0.23901252 -0.24206464 -0.1967887 0.39503092 0.27503675
-0.17363982 0.22104952 -0.1685618 -0.046471164 -0.14045462 0.09817636 -0.06992984 -0.1483245
-0.13967721 -0.17140889 -0.16324675 0.21958011 -0.23546666 -0.067857206 -0.13143796 0.25912467
-0.2216204 0.0055313706 0.23425308 -0.13607156 0.02929914 0.1987215 -0.1927338 -0.17845124
-0.27041072 -0.26439434 0.10587585 0.14565039 0.2023252 -0.059976637 -0.13859051 -0.24788052
0.04605264 0.1467359 -0.4127161 -0.23416546 0.22005767 -0.6266322 -0.25934747 0.22091927
0.09638706 0.21197188 0.049240403 -0.074060634 0.06979046 0.06439168 -0.168361 -0.24896643
0.007913053 -0.12567353 -0.21128681 -0.2257165 -0.14300533 0.23587333 -0.27153945 0.18422318
-0.3216565 0.00039886986 0.04110729 -0.14314102 -0.0089806765 -0.18752891 -0.018457443 0.05859524
-0.42184648 -0.14616461 0.25228366 0.1778336 -0.17871958 0.11237568 0.14602707 0.15696079
0.24323295 0.061140317 0.12204509 0.09244436 0.32030192 0.4544145 -0.40112695 0.0062079527
-0.1937547 0.032940388 0.26458934 -0.04952681 0.053396612 -0.19644813 0.23598042 0.26633462
-0.22176312 0.007647544 -0.20098259 -0.15503858 0.12108457 -0.12091373 -0.10346687 0.23514268
-0.119041726 -0.18708292 -0.11832085 0.23182061 -0.10502818 -0.050580814 0.07509294 -0.18967514
-0.19015299 -0.21406774 -0.01126045 0.050660968 0.31395727 0.23443167 -0.07644725 -0.11852591
0.19468193 0.18041119 0.10435073 0.013571775 0.11177682 -0.13078058 -0.23973471 -0.13594015
0.05885081 0.31969523 -0.24927138 0.27801728 -0.29404402 -0.08743201 0.25795558 -0.05289214
-0.13767855 0.1132198 0.0069245202 0.051904693 0.047147278 -0.0056830146 0.37140107 0.08187401
0.17511839 0.2323479 0.4502434 0.09921298 -0.05478191 0.60222733 0.5410156 -0.17141153
0.025788665 0.07687707 0.06672165 0.11083731 0.10793489 -0.25851774 -0.19781247 0.10888809
0.26629356 -0.18692172 -0.25699756 -0.010522604 0.012469381 0.22741148 0.18711776 0.0036841144
-0.44933432 -0.12662631 0.23689248 0.1529637 -0.20567904 0.2047992 0.12679219 -0.44881305

net.0.bias f4 [128]
00000000: f48c 823d 41d3 ae3d f6f9 8b3d af2a ae3d
00000010: 324e ecbd 2e83 993d 15bf 943e 1273 79be
00000020: df29 8c3e 83e1 343e c628 0abe d7ac 76bd
00000030: 21ca 86be 5442 433e 80f9 423b 77f5 d03d
00000040: 7fc3 363e 88e8 a33d a84d e0bc 2d1e 28bd
00000050: b4ea 08bd 3e11 d3bd 9644 643d c103 563e
00000060: b063 063e b323 5c3d aaec f73d eb3a 833b
00000070: 31e3 f13d 3cbe 0cbb aa7a 863d 1f8e c0bc
00000080: 1d8a 04be 6612 e83d aaf0 52be ff8f 84be
00000090: 9ed4 7a3e c7ff abbb 1f4a c83d e276 cabd
000000a0: fc2a 48bc 59c7 8ebe 40bb e83d a0fa 3dbd
000000b0: aa00 1e3e 6436 3b3e f719 9a3c 1921 ebbd
000000c0: 8099 fdbd 80b6 44be 364c 2e3e d001 4bbe
000000d0: 1e66 16be c294 9fbe 178e 8dbe 795d 683d
000000e0: e927 983d 8253 90bd cdec 0a3e 2eb0 66be
000000f0: 6c6b 8b3e 16b4 3abe 9a34 45be d2f9 0dbe
00000100: 584d 283e a5c7 72be 594a 923e 8663 b0be
00000110: 1750 f7bd acbf 50be ddb9 80be 06d2 0dbe
00000120: 6db9 583e b81a 883e 60bf c63e 02f4 293e
00000130: 77e6 d13d cc15 59be 9cfa 753d 4239 41be
00000140: 319b b2bd 649a 813c 631c f9bd 6611 243d
00000150: 086f 153d f332 78be 1a9f 763e bcb1 403e
00000160: ac97 f7bd f6c4 3b3e 621e 00bc 5908 a83d
00000170: d1cc 143d 6eca 82be 9b07 fe3d a879 29bd
00000180: 92bd 2a3e e43e bc3d 2aa4 703e 6c0a ddbd
00000190: fa7e 993d 6c4f 20bd 230b 423d d2d7 0f3e
000001a0: 65c7 4d3e 1bfc 493e 6b3d 14be 4812 333d
000001b0: 7b0f 2a3e ea59 3abe 64ae 30be b6c9 ab3d
000001c0: a8d1 4dbe 644c 073e ecf3 0c3e 043c d23d
000001d0: 2f34 6c3e 271d 013e a580 52be 0452 7b3e
000001e0: 7fc2 6e3e 13f8 a73d 3711 5fbd 0185 1ebe
000001f0: 242e c53d 8523 3fbe 3858 ed3a bc5b 2f3e
0.06374541 0.08536387 0.06834786 0.08504235 -0.11538352 0.07495724 0.29052034 -0.24360302
0.27375695 0.17664151 -0.13492116 -0.060223427 -0.26326087 0.19068271 0.0029750764 0.10203069
0.17848013 0.08003336 -0.02738078 -0.041044403 -0.033426955 -0.10306023 0.05572947 0.2089987
0.13123965 0.053744983 0.12105687 0.0040048263 0.118109114 -0.0021475693 0.06566365 -0.023505269
-0.12943311 0.11331634 -0.20599619 -0.2589111 0.2449517 -0.005248997 0.097797625 -0.09885956
-0.0122172795 -0.27886465 0.1136384 -0.046381593 0.15429941 0.18282467 0.01881121 -0.11480922
-0.123827934 -0.19210243 0.1702126 -0.1982491 -0.14687392 -0.3116818 -0.27647468 0.056729767
0.07429487 -0.07047178 0.13566895 -0.22528145 0.27230394 -0.1823276 -0.19258347 -0.1386483
0.16435754 -0.23708971 0.28572348 -0.3445093 -0.12075823 -0.20385617 -0.25141802 -0.13849649
0.21164484 0.26582885 0.38817883 0.16596988 0.10249036 -0.21199721 0.060053453 -0.18869498
-0.08721007 0.01582069 -0.121636175 0.040055655 0.03648284 -0.24238186 0.2408413 0.188178
-0.12089476 0.18336853 -0.007819744 0.08204717 0.03632814 -0.25545067 0.124037944 -0.041375786
0.16673878 0.09191683 0.23500124 -0.107930034 0.07494922 -0.039138243 0.047373902 0.14047173
0.20095594 0.19725077 -0.14476554 0.043718606 0.16607468 -0.18198362 -0.17254025 0.08388083
-0.20099509 0.13212734 0.13764924 0.10265353 0.23066781 0.12608777 -0.20556886 0.24543005
0.23316382 0.08201613 -0.054459777 -0.15480424 0.09627941 -0.18665893 0.0018107956 0.17124838

net.2.weight f4 [128]
00000000: 0000 803f 249e a33f c93d 923f b26e 843f
00000010: 90c2 7e3f 108a 903f 2ee9 843f 0000 803f
00000020: 0000 803f fdf7 743f 6943 7d3f 060f 7c3f
00000030: 9e86 813f 0000 803f 0000 803f c190 833f
00000040: a738 883f 9d2f 843f 0000 803f e14b 783f
00000050: 0000 803f 0000 803f 0013 8a3f 7949 8a3f
00000060: 0000 803f 3546 8f3f fcf9 863f 338c 853f
00000070: 04c7 843f 5972 7f3f 2ce4 8c3f 8fcc 803f
00000080: 7d4b 823f fba9 833f 4e91 713f 1525 863f
00000090: 0000 803f 2b29 823f f63c 923f 888d 7d3f
000000a0: 74ac 8a3f aca8 873f 0000 803f 0000 803f
000000b0: 5a56 8c3f fb00 893f 07f1 8e3f fa5f 9d3f
000000c0: d66c 943f cef3 7f3f 6dbf 7a3f 946a 7d3f
000000d0: b35a 9f3f 0dd2 953f f3e0 843f 0f58 833f
000000e0: 96fd 833f 0adb 863f 1c8f 803f a49a 8a3f
000000f0: f81f 7e3f da24 823f 1b5c 803f 122c 853f
00000100: 0000 803f 914e 863f c081 7e3f 3757 823f
00000110: 8a41 823f 0000 803f a5c3 813f 4c96 843f
00000120: 4484 5a3f 4af8 833f 9670 823f 0000 803f
00000130: 2b0e 713f 4538 833f c3dc 833f 14a5 773f
00000140: 6c25 803f 32e6 803f c496 823f 6d93 803f
00000150: 36e4 7e3f 0000 803f 0000 803f 0f2a 8b3f
00000160: 87c0 783f 0000 803f 2ab8 883f 024f 883f
00000170: 68dd 803f 375f 883f 173e 4b3f e6d9 7a3f
00000180: 0000 803f aab2 843f 0000 803f 0000 803f
00000190: 6ca2 843f 0000 803f 063d 8c3f a228 793f
000001a0: caa7 773f e7f7 893f 9a4b 8a3f 0000 803f
000001b0: c238 743f 0000 803f 0000 803f 1020 8b3f
000001c0: 288b 853f 0933 a33f 0000 803f 8260 823f
000001d0: 94e0 863f f449 843f c054 8e3f 996e 783f
000001e0: d7b0 923f 2118 7d3f c1a9 953f b256 8a3f
000001f0: 0000 803f b010 863f d8b7 883f 0000 803f
1.0 1.2782636 1.1425105 1.0346282 0.9951563 1.1292133 1.0383661 1.0
1.0 0.956909 0.98930985 0.98460424 1.0119207 1.0 1.0 1.027855
1.0642289 1.032703 1.0 0.9699078 1.0 1.0 1.0787048 1.0803672
1.0 1.11933 1.0545039 1.043341 1.0373235 0.99783856 1.1007133 1.0062426
1.0179287 1.0286249 0.9436234 1.0480067 1.0 1.0168813 1.1424854 0.99044085
1.0833879 1.059835 1.0 1.0 1.0963852 1.0703424 1.1167306 1.2294915
1.1595714 0.9998139 0.9794834 0.9899075 1.2449554 1.1704727 1.0381149 1.0261248
1.0311763 1.0535595 1.0043674 1.0828443 0.9926753 1.0167496 1.0028108 1.0404074
1.0 1.0492727 0.9941673 1.0182866 1.0176251 1.0 1.0137831 1.0358367
0.8535807 1.0310147 1.0190609 1.0 0.94162244 1.0251547 1.0301746 0.96736264
1.001142 1.007025 1.020226 1.0044991 0.9956697 1.0 1.0 1.087221
0.97168773 1.0 1.0681202 1.0649111 1.0067568 1.0654057 0.79391617 0.97988737
1.0 1.0367024 1.0 1.0 1.0362067 1.0 1.0956123 0.97327626
0.967404 1.0778779 1.0804322 1.0 0.95399106 1.0 1.0 1.086916
1.0433092 1.274995 1.0 1.0185702 1.0537286 1.0335069 1.1119614 0.9704376
1.1460217 0.9886494 1.169243 1.0807707 1.0 1.0473843 1.0681105 1.0

net.2.bias f4 [128]
00000000: cf47 073d 0181 083d d129 4a3d 7544 3a3d
00000010: bf06 1fbd 727b 4ebd a643 45bd a715 1dbd
00000020: 5a66 263d e70e 213d 6a76 04bd 808d 423d
00000030: 1f43 4bbd e8fa 273d 6a3a 1f3d 7fd4 35bd
00000040: d83f 2fbd 3067 48bd 9fa4 18bd 11d1 293d
00000050: daef 233d 20c7 1fbd be57 48bd 8f9d 43bd
00000060: 98fd 183d 788c 4d3d 0f47 173d 50e0 3c3d
00000070: 04f0 323d ffe8 2f3d a5e1 46bd e74b 4c3d
00000080: fd6b 3dbd c1d6 4ebd 0ea9 083d 178b 40bd
00000090: 2edf 22bd adb5 2cbd 8099 543d 2561 2d3d
000000a0: 8fe0 5dbb 70b3 42bd 8753 123d 396d 1c3d
000000b0: 95d0 48bd 7e5a 48bd 3912 3abd f698 393d
000000c0: cb30 cf3c 5c5f 3e3d 8e15 193d 637e 1ebd
000000d0: 37b6 48bd e4a4 48bd 3ea6 48bd 549e 2fbd
000000e0: 8c60 44bd 8942 41bd 7a4d 3bbd c89c 3e3d
000000f0: cb1e 933c df19 443d 67f8 2fbd 94f0 363d
00000100: 1353 1b3d f551 453d 6b42 2a3d ba69 31bd
00000110: 0704 49bd 7132 213d d2a9 2f3d dfa3 3d3d
00000120: af95 0b3d af3d 42bd 3026 353d 30bd 243d
00000130: 3658 003d 791f 383d 1f1b 2dbd 0a12 283d
00000140: a93d 2e3d 18cd 40bd 7d6b 3e3d 265d 31bc
00000150: 98fb 3a3c b71d 12bd 7e28 183d 61ca fc3c
00000160: 2b99 14bd bd38 223d 9ea9 44bd 1ebf 313d
00000170: 791b 29bd ae23 40bd bfde 1e3d 9f9a 253d
00000180: d395 14bd 2426 37bd 48ef 1ebd 92f5 24bd
00000190: 34c5 323d 726b 243d 3c25 483d 96c0 263d
000001a0: 468c 353d af46 43bd 60c0 43bd 76a0 0f3d
000001b0: d0ac 833c 40f2 153d d3cd 1dbd 0e75 4dbd
000001c0: ce03 3c3d 1c49 58bd 632a 243d 565d 443d
000001d0: 8e8e 2f3d 886d 07bd 4204 3a3d 245b 5bba
000001e0: d1aa 44bd 0178 2b3d 3982 45bd 9f65 60bd
000001f0: 79e6 12bd fa35 453d 47f6 423d 5365 12bd
0.033027466 0.033326153 0.049356285 0.045475442 -0.038824793 -0.050410695 -0.048160218 -0.038350727
0.040624954 0.039320853 -0.03233949 0.047498226 -0.04962456 0.041010767 0.038874067 -0.044392105
-0.042785496 -0.048926532 -0.03726637 0.041459147 0.040023662 -0.03900826 -0.048911802 -0.04775768
0.03735122 0.05018279 0.036933 0.04611236 0.043685928 0.04294681 -0.048555035 0.049877074
-0.046245564 -0.050497774 0.033364348 -0.047007646 -0.039763622 -0.042165447 0.0519042 0.042328972
-0.0033855771 -0.047534406 0.03572419 0.0381901 -0.049027044 -0.048914425 -0.045427535 0.04531189
0.025291821 0.04647766 0.03737407 -0.03869475 -0.0490019 -0.048985377 -0.048986666 -0.042875603
-0.047943637 -0.047182593 -0.045728184 0.046536237 0.01795902 0.047876235 -0.042961504 0.044663027
0.037921023 0.048173863 0.041567247 -0.04331372 -0.049076106 0.039354745 0.042886563 0.046298858
0.034078296 -0.047422107 0.04422587 0.040219486 0.031334125 0.04495189 -0.042262193 0.04103283
0.042539272 -0.047070593 0.046489228 -0.010825431 0.011412524 -0.03567287 0.03714799 0.03085822
-0.036278885 0.03960489 -0.048013322 0.043395154 -0.041285966 -0.046909027 0.038786646 0.04043066
-0.036275696 -0.044714108 -0.038802415 -0.040273257 0.0436451 0.04014153 0.048863634 0.040711008
0.04432323 -0.04767483 -0.047790885 0.035065137 0.016073614 0.03660798 -0.038526367 -0.05016046
0.045902066 -0.052804098 0.040079486 0.047940575 0.04286056 -0.03306344 0.045414217 -0.0008367768
-0.048014466 0.04186249 -0.048219893 -0.054784413 -0.035864327 0.04814718 0.04759815 -0.03574116

net.2.running_mean f4 [128]
00000000: 0000 0000 3655 7541 6b4c 683c f1a4 0740
00000010: ed16 6f3b 34b3 a53e 9843 0441 0000 0000
00000020: 0000 0000 ba8b 8841 c37d 873a 621c fa3f
00000030: 3e6d 6e41 0000 0000 0000 0000 2481 5a3f
00000040: 5ce3 8b3e 944f 9c41 0000 0000 eb79 9341
00000050: 0000 0000 0000 0000 72e2 8940 8d15 3f41
00000060: 0000 0000 db0b 933c 8571 d540 4a96 b03a
00000070: f8a2 c241 529b 5641 748a d641 af65 6a3f
00000080: cf4e 523f 08a7 8a41 7a14 7641 ef3b be41
00000090: 0000 0000 4473 983f bd4b c23d 3a24 9941
000000a0: be95 1c3d dddc 3a39 0000 0000 0000 0000
000000b0: 48ac 3941 f6cf e741 7278 0f40 28af 8f40
000000c0: 203c 0e41 7acc f73e d9b8 c241 0bff 283c
000000d0: 4fc7 9941 70af a640 94bf 5c3e 0d91 5c3e
000000e0: 3dd3 113f 817f 9441 dd98 bb40 ca05 b241
000000f0: f041 9341 6b4f 233e 9b8c c83f fe3a ad41
00000100: 0000 0000 df68 7f3f 17d2 8741 3f87 3741
00000110: 0b5c 9340 0000 0000 e785 5841 b046 8941
00000120: b818 c641 f87f 2b41 82e5 0940 0000 0000
00000130: c6cd ba41 8602 e73f 95fe 3f41 1257 5241
00000140: 0398 8441 c06b ec40 03cd 1b3e 780a 023f
00000150: 6fc4 c139 0000 0000 0000 0000 fd99 bb40
00000160: b0b7 5f3e 0000 0000 1c27 3841 7a6f 903f
00000170: d3e9 1140 1a13 5b41 dced 8741 761c 8e41
00000180: 0000 0000 950e 323f 0000 0000 0000 0000
00000190: f37a 5641 0000 0000 1bd0 903d f45d b240
000001a0: 33cc d03c 57ef 5f40 e161 c93f 0000 0000
000001b0: 943f 0541 0000 0000 0000 0000 019a d63f
000001c0: 7a8f 4d3e 382a 9640 0000 0000 e95f 9d3e
000001d0: 45d5 0841 3d88 7040 a8b9 ee3e f582 703f
000001e0: 1dfa 6341 0210 323a 9243 1b41 aab7 9d3e
000001f0: 0000 0000 09ff a63c 0594 623f 0000 0000
0.0 15.333303 0.014178376 2.1194422 0.003648217 0.32363284 8.266502 0.0
0.0 17.068226 0.0010337163 1.9539912 14.90167 0.0 0.0 0.853533
0.273219 19.538857 0.0 18.43453 0.0 0.0 4.3088923 11.942761
0.0 0.017949989 6.6701074 0.0013472524 24.329575 13.41292 26.817604 0.91561407
0.821515 17.331558 15.379999 23.779264 0.0 1.1910176 0.09487102 19.142689
0.038228743 0.0001782062 0.0 0.0 11.604561 28.976543 2.2417264 4.4901314
8.889679 0.4839819 24.340258 0.010314713 19.222319 5.2089157 0.21557456 0.21539707
0.5696295 18.562258 5.86241 22.252827 18.407196 0.15948264 1.5667909 21.653805
0.0 0.99769396 16.977583 11.470519 4.6049857 0.0 13.532691 17.159515
24.76207 10.718742 2.154633 0.0 23.350475 1.8047645 11.999654 13.146257
16.574224 7.388153 0.15214925 0.50797224 0.00036958183 0.0 0.0 5.8625474
0.21847415 0.0 11.509548 1.128402 2.2798965 13.692163 16.991142 17.763897
0.0 0.695535 0.0 0.0 13.405017 0.0 0.07070943 5.573969
0.025487995 3.4989831 1.5732995 0.0 8.328022 0.0 0.0 1.6765748
0.20074263 4.6926537 0.0 0.30737236 8.552068 3.7583153 0.4662602 0.93949825
14.248563 0.00067925465 9.703997 0.30804187 0.0 0.020385282 0.8850711 0.0

net.2.running_var f4 [128]
00000000: aeca 883b e74a d240 5769 133d 8587 5341
00000010: e611 c73b 328d 813f ecef d442 aeca 883b
00000020: aeca 883b 48ce 8242 c8d1 973b 2bfb f040
00000030: c47e 1d43 aeca 883b aeca 883b 061a 1c40
00000040: 336b 453f 5b03 0f43 aeca 883b 2694 5442
00000050: aeca 883b aeca 883b 7743 f341 5419 2042
00000060: aeca 883b 78ab e73c af64 3a42 fbd2 983b
00000070: dfa8 1142 4afb 7f41 5f25 6c42 1eb5 b740
00000080: 0ce4 3a40 5362 b942 813f 0a43 4749 5e42
00000090: aeca 883b a958 5740 9ae1 aa3e 4070 0e43
000000a0: bdad 8a3d f9e1 893b aeca 883b aeca 883b
000000b0: 7cd7 2d42 cd16 b442 8038 0341 1fbe d940
000000c0: f170 5041 4586 cd3f aaa7 a342 31a3 9d3c
000000d0: 98df b641 e2d2 de41 4823 133f 912a 143f
000000e0: d0d6 6140 3bd6 7842 8c03 fe41 d5e1 2042
000000f0: fc70 1241 da3a e53e f779 e140 12f9 2542
00000100: aeca 883b 9467 a840 e220 1643 d3d8 9042
00000110: c782 ac41 aeca 883b 1337 0b43 b317 9a41
00000120: b098 1b43 441f ee42 0b90 8841 aeca 883b
00000130: 7aeb 3742 435d 7541 6c83 1c41 ec2a 6f42
00000140: c5cc c542 18b3 8942 fdd8 583e 1932 ce3f
00000150: 8041 993b aeca 883b aeca 883b 6bce c441
00000160: 1c20 df3e aeca 883b ff49 d042 0465 7040
00000170: c301 c641 c16f a342 1fe4 0f43 48c4 9642
00000180: aeca 883b b9bf fa3f aeca 883b aeca 883b
00000190: 9d88 fe41 aeca 883b 2104 4e3e 46f5 6842
000001a0: ad1a ba3d abb9 8e41 66b2 de40 aeca 883b
000001b0: 814a 9541 aeca 883b aeca 883b e251 ce40
000001c0: 5de5 fc3e a3f7 4841 aeca 883b 75b2 083f
000001d0: a760 4641 55f3 f240 7c05 c73f b5c1 8a40
000001e0: 8481 1442 f03f 9f3b 76e8 2241 bd2c 993f
000001f0: aeca 883b fea4 263d 6667 3940 aeca 883b
0.004174552 6.5716434 0.03598913 13.220586 0.0060751317 1.0121214 106.4686 0.004174552
0.004174552 65.40289 0.004633162 7.53066 157.49518 0.004174552 0.004174552 2.4390883
0.771167 143.0131 0.004174552 53.144676 0.004174552 0.004174552 30.407942 40.024734
0.004174552 0.028280005 46.598324 0.0046638227 36.414913 15.99885 59.036495 5.740859
2.9201689 92.69204 138.24806 55.57156 0.004174552 3.3647864 0.33375245 142.43848
0.06771419 0.0042078462 0.004174552 0.004174552 43.460434 90.04453 8.201294 6.804458
13.027574 1.6056601 81.82747 0.019242855 22.859177 27.85297 0.5747571 0.5787745
3.528736 62.20921 31.751732 40.22054 9.152584 0.44771463 7.0461383 41.493233
0.004174552 5.262644 150.12845 72.423485 21.563856 0.004174552 139.21513 19.261572
155.59644 119.061066 17.070333 0.004174552 45.979958 15.335269 9.782085 59.791916
98.89994 68.84979 0.21176524 1.6109039 0.0046769977 0.004174552 0.004174552 24.60079
0.43579185 0.004174552 104.14452 3.7561655 24.75086 81.71827 143.8911 75.38336
0.004174552 1.9589759 0.004174552 0.004174552 31.816706 0.004174552 0.20118763 58.239525
0.09087119 17.840658 6.959277 0.004174552 18.661379 0.004174552 0.004174552 6.4474955
0.4939374 12.560458 0.004174552 0.53397304 12.398597 7.5922036 1.5548549 4.336146
37.12648 0.004859917 10.181753 1.1966778 0.004174552 0.040684693 2.896936 0.004174552

net.3.weight f4 [1, 128]
00000000: d72b 04bd 3f85 4cbe 6d4c 30be 26b8 a1bd
00000010: 0ba5 8d3d c6d9 203e 9122 da3d b7ea 7d3d
00000020: 66b1 ccbd 5d44 5abc 284d 213d 65c7 f2bc
00000030: baec 253d a83e e2bd 330c 8cbd f896 963d
00000040: 4d6f fb3d 8c71 883d e09e 513d eb53 5bbd
00000050: 259c b1bd 01bc 8f3d 4b37 293e 2c41 033e
00000060: f5b5 54bd 2493 d3bd 3370 8cbd 342d afbd
00000070: 3efa bcbd 0e4e 47bd 863c 163e 6d38 6bbd
00000080: 35ca c53d 8361 553d c2be 9bba 271f c93d
00000090: 76c0 a73d 66c4 883d 94ca 08be 78ad 6dbd
000000a0: c355 9bbd 3201 0a3e d8e0 21bd 859a 76bd
000000b0: de85 c03d a379 e73d 5acb 1e3e 8ddd 82be
000000c0: 629c edbd 08e0 9ebd af32 bebc e43b 823d
000000d0: 7d22 8c3e 577f 213e 5827 c63d a0d6 d23d
000000e0: 23f2 a33d f8a6 043e e18b 2f3d bf8b a7bd
000000f0: 230f 103d 32e0 7fbd 515c 973d aaf0 a6bd
00000100: 6bff 6abd 32aa a5bd ec32 5bbd c1f9 d13d
00000110: cd23 9b3d ad01 9abd ce03 a8bd d80b e2bd
00000120: b8a5 6c3b 96aa cd3d 1ed0 7bbd 17b5 b9bd
00000130: 59e9 fb3a 98c5 babd 494e b93d 3210 40bd
00000140: 5f7c 61bd 2417 643d 00c6 a1bd bef6 3cbd
00000150: 09ab 33bc 4399 203d bb66 4dbd b880 b2bd
00000160: 672d 6e3d 9b2e a2bd bd06 1a3e 5048 17be
00000170: 9568 453d cdac 173e 56e3 183a 3281 69bd
00000180: 7e21 313d e973 d13d 2823 8a3d 410b bc3d
00000190: 54bc cdbd 9068 b6bd 990b 23be b345 25bd
000001a0: 5acc 28bd 60d8 ac3d aa50 243e c10e 14bd
000001b0: ce5c bd3c 0658 3bbd b423 833d 8abe 1f3e
000001c0: c332 06be 91bc 753e 77da b3bd a965 9abd
000001d0: 25ed dfbd c87c af3d 2fbb 0cbe 1ac6 84bc
000001e0: b658 d63d 2737 a6bc f13a 6b3e dc1c af3d
000001f0: 4c83 253d 0792 a1bd 1045 9cbd 494f 223d
-0.03226837 -0.19972704 -0.17216654 -0.07896452 0.06916245 0.15708074 0.10651124 0.06199142
-0.099947736 -0.013321963 0.039380223 -0.029636094 0.040508963 -0.11047107 -0.06838264 0.07353014
0.12277088 0.06662282 0.051176906 -0.053546827 -0.0867236 0.07018281 0.16524999 0.1281783
-0.05193134 -0.10330799 -0.06857338 -0.08553544 -0.092274174 -0.048658423 0.14671525 -0.05742686
0.096577086 0.052094948 -0.0011882412 0.09820395 0.08191006 0.06678085 -0.13358527 -0.05802676
-0.07584717 0.13477018 -0.03952107 -0.060205955 0.09400533 0.11302497 0.1550726 -0.25559655
-0.11602093 -0.07757574 -0.023217527 0.063590795 0.27370062 0.15771233 0.09675473 0.10294843
0.08005168 0.12954319 0.04285801 -0.08180951 0.035170685 -0.06246967 0.07390655 -0.08151372
-0.05737249 -0.08089103 -0.05351536 0.10252715 0.07575188 -0.07519851 -0.08203851 -0.11037415
0.0036109518 0.10042302 -0.061477773 -0.09067743 0.0019219323 -0.09119719 0.09048135 -0.046890445
-0.05505025 0.05568613 -0.07899094 -0.04613375 -0.010966071 0.03920866 -0.0501468 -0.087159574
0.058148768 -0.079190455 0.15041633 -0.14773679 0.04819544 0.14812012 0.00058322155 -0.057007976
0.04324483 0.10227186 0.06744987 0.09181834 -0.10045686 -0.089066625 -0.15922393 -0.040349673
-0.04121051 0.08439708 0.16046396 -0.036146883 0.023115542 -0.045738243 0.06403294 0.15600029
-0.13105302 0.23997714 -0.08781903 -0.075389214 -0.109339036 0.08568722 -0.1374328 -0.016207743
0.10466139 -0.02028997 0.22971703 0.08550426 0.040408418 -0.07889181 -0.0763036 0.039626393
