saved_models/mlp/MLP_analcatdata_boxing1.pth (torch, 8332 bytes, 7 tensors)

net.0.weight f4 [128, 3]
00000000: 3aea 0ebf 78af cc3e 792b b0be b0dd aa3e
00000010: 14df f23e ae64 cbbd 600a d43e 2af9 593e
00000020: b70a 58be 9916 12bf 3060 523d 4c42 f53e
00000030: 8d42 a23b 9c10 99be 70e3 b6be f083 99be
00000040: 6f33 d3be 96e6 923e ac36 073f 9f9a 2a3d
00000050: d386 0c3f 7931 833d 442f 3c3e 744e 27be
00000060: bec6 b13e 47c3 f0bd 9bac 71be b8be babe
00000070: 5077 aebd 41aa 80be be6a f03e 1d62 d1be
00000080: 87dc 773e bcbb 13bf 58c0 58be 0357 723e
00000090: dafa b43e ba08 03be 0e32 2bbe e01b 043f
000000a0: e204 a8bc 5852 5a3e b903 13bf 0913 12bf
000000b0: 3ac8 e8be 9af2 c8be 9486 f93e 8052 62bc
000000c0: f9b8 2a3d b3f9 57be e2ef d33d 8a82 aa3e
000000d0: e770 023c 5546 823e 80e9 9e3e 0f5b 9bbe
000000e0: d019 543e c128 b13e 63f7 8e3d 3814 8dbe
000000f0: d00a 0e3f 9336 e4bd b796 54be 6e28 e73e
00000100: 4055 8cbe ec1f 0ebf 3c5b 623e e671 0c3f
00000110: 585a 613d ccf5 2f3e 5f3b babe 1d95 c93d
00000120: ff08 59be fabc 31be 9233 d03d a94b 02bf
00000130: 49db 8ebe 3ac7 433e 8374 d73e bb07 be3e
00000140: cbde 36be 9052 20be 7797 4ebd f20f c33e
00000150: 12c8 0a3e 9802 813e 5d15 08bf b4c3 cfbe
00000160: 2418 023f aadc a83e f33d 5abe 17f0 be3e
00000170: 858d 1abd 29cd af3e ec73 10be 9c89 0bbf
00000180: b9db a73e 372d 23be ceb3 1a3e e823 ac3d
00000190: 5218 25bd aabb 52be cd21 0d3e 143d febe
000001a0: d2a2 6f3e 1ec1 c43d b730 0abf 4974 11bc
000001b0: f218 a63e 44cc 9dbd 10c5 363e 64af c3be
000001c0: c809 8a3e 94cd 9ebd 17e7 063f e3f9 7b3e
000001d0: 2127 df3c 4fe3 9abd 1ea4 f1bc 95ae c73e
000001e0: 4dec d23e 3544 c73e 7687 dd3e d840 113e
000001f0: b4ae fabe 20d2 c2bd 36c8 8e3e 6805 b0be
00000200: 179f 48be 761a d8be 8d81 173e 5aae b93e
00000210: e65e 0dbf 2204 a93e aa0d 423e 187a 82bd
00000220: c024 8bbe 74c1 0cbf 41a5 893e cca4 f43d
00000230: fb90 1dbe ce33 063f b970 d4be 7242 f03d
00000240: f267 113f 681e c2be 8e3e 2f3e 6d33 8cbd
00000250: 3097 963e 21f6 b43e b165 b8be e9ff a63d
00000260: d673 303e b2d1 01bf 3ab4 69be 6cd1 d5bd
00000270: 6057 48be 4ccb 723e 58cd 96bd bfcd da3d
00000280: c76c 9a3e 47ae c43e 14cb d43c a686 a33e
00000290: a0ce f83e 243c eb3e d323 47be 51c6 f0be
000002a0: 5412 f0bd 9836 023e 9bbe 95be c094 3cbe
000002b0: 2ae7 093f 2673 abbe 61a9 d8be ad9f 54be
000002c0: d32f d73e d3c9 8d3d 1aec 13bf 7683 a53e
000002d0: d4b9 65be 3f55 ac3e 6e67 a23e a1fa 103f
000002e0: ce47 803e 6979 16be 0ca3 0e3e 6cd6 8e3e
000002f0: 78f2 c13e fbc8 a53e 25d6 a63e 3c51 ac3e
00000300: e1c5 5e3e fa41 edbe 668e d13e 3ad0 8b3e
00000310: b76d e4be 9c93 f1bd f26a 20be 03b5 83be
00000320: 08ea 96be 365a 023e 1e27 b83e 8e83 a0be
00000330: 6ebd d0be ae16 10bf 6000 b13e 72ad eebe
00000340: 40c1 60be 24a5 e3be aa51 24be 0dfc 8bbe
00000350: ac3c cebe 7f67 11bf 6ba5 13bf 44df 10bf
00000360: eef6 4dbe 0a20 ecbe 4f89 593c 0cfb 72be
00000370: 1023 843e e835 c5be 8c38 19be 21c5 03bf
00000380: 60be 61bd 9ce8 473e 5087 943d 175b 7b3c
00000390: 3609 09bf c2ad f5be d6ef 36be fa92 d3be
000003a0: 0252 013f 0781 8bbe 8218 a7be 9f94 11bf
000003b0: c6c3 de3e 1923 f33e 2f8b 903e 0f3c 45bd
000003c0: e387 f6be 0064 67bb ce9d 3f3d 0fb2 d03e
000003d0: c4a2 d63e 7206 d0bc 106f f9be b4a5 0d3e
000003e0: b4a5 d1be 2d62 e33e 6011 c8bd cd5d d33e
000003f0: 0de2 15be 66f0 233e f791 f33e c363 8e3d
-0.5582615 0.39977622 -0.34408167 0.3337226 0.4743582 -0.099313125 0.41414165 0.21286455
-0.21097837 -0.5706573 0.051361263 0.47902143 0.004951781 -0.29895484 -0.35720396 -0.29983473
-0.41250178 0.28691548 0.528178 0.041651364 0.54893225 0.064059205 0.18377405 -0.16338521
0.3472194 -0.11755996 -0.23601 -0.36473632 -0.08518851 -0.25129893 0.46956438 -0.40895167
0.24205218 -0.57708335 -0.21167123 0.23666005 0.35347635 -0.12796298 -0.16718313 0.51605034
-0.02051014 0.21320474 -0.57427555 -0.57060295 -0.4546526 -0.3924759 0.48735487 -0.013813615
0.04168031 -0.21091346 0.103484884 0.33302718 0.007961488 0.25444284 0.3103752 -0.3034291
0.20712972 0.34601405 0.06980779 -0.27554488 0.5548525 -0.11143222 -0.20760618 0.45148033
-0.2740879 -0.5551746 0.22105116 0.54861295 0.0550178 0.17183608 -0.36373422 0.09842894
-0.21194838 -0.17357245 0.10166086 -0.508967 -0.27901676 0.19118968 0.4208108 0.37115273
-0.17858426 -0.15656495 -0.050437417 0.38098103 0.13552883 0.2519729 -0.531576 -0.40578997
0.50818086 0.32980853 -0.21312694 0.3729255 -0.03773262 0.34336212 -0.1410672 -0.5450685
0.32784823 -0.15935217 0.15107653 0.08405286 -0.040306397 -0.205794 0.13782425 -0.49655974
0.23401955 0.09607147 -0.5398058 -0.008877822 0.32440907 -0.07704976 0.17848611 -0.3821975
0.26960588 -0.07754055 0.52696365 0.24607043 0.027240338 -0.07562887 -0.029497202 0.39000383
0.41195908 0.38919225 0.4326741 0.14184892 -0.48961413 -0.095127344 0.27887124 -0.34379125
-0.19591938 -0.42207688 0.14795513 0.36265832 -0.5522293 0.33010966 0.18950525 -0.06370944
-0.27176476 -0.54982686 0.2688389 0.11945495 -0.15387337 0.524228 -0.4149225 0.117314234
0.5679923 -0.37913823 0.17113706 -0.06845746 0.29412222 0.3534403 -0.36015084 0.0815428
0.17231688 -0.50710595 -0.22822657 -0.10440335 -0.19564581 0.23710364 -0.07363385 0.10683774
0.30161116 0.38414213 0.025975741 0.31938666 0.48595142 0.4594432 -0.1944726 -0.47026303
-0.11722246 0.12716138 -0.29246983 -0.18416119 0.53868353 -0.3348629 -0.42316726 -0.20764036
0.42028674 0.069232605 -0.5778214 0.3232686 -0.22434169 0.33658788 0.31719536 0.5663243
0.25054783 -0.14694752 0.13929385 0.27897966 0.378803 0.32379898 0.32585254 0.33655727
0.21755172 -0.463394 0.40928954 0.27307302 -0.44614956 -0.117957324 -0.15665796 -0.25724038
-0.29475427 0.12729725 0.35967344 -0.31350368 -0.40769523 -0.56284606 0.345706 -0.46616703
-0.21948719 -0.4446193 -0.16046777 -0.27340737 -0.40280664 -0.5679855 -0.5767428 -0.56590676
-0.20113727 -0.46118194 0.013277366 -0.2372858 0.25808 -0.3851769 -0.14962977 -0.5147267
-0.055113196 0.19522327 0.07252371 0.015341542 -0.5352968 -0.4798413 -0.17864928 -0.41323072
0.5051576 -0.27246878 -0.32635885 -0.568674 0.43508738 0.47487715 0.2823119 -0.04815298
-0.48150548 -0.0035307407 0.046781354 0.40760848 0.41921055 -0.025393698 -0.48717546 0.13832742
-0.40946734 0.4441084 -0.09768939 0.41282502 -0.14637013 0.16009673 0.475723 0.06952622

net.0.bias f4 [128]
00000000: b41b 59be ca22 27be 79a3 a3bd 18a5 c5be
00000010: 2714 063f 2355 04bf cc43 e3be 50f1 593d
00000020: a499 c1bd 37e9 d93e 01e7 06bf 59c2 443e
00000030: 11e3 f8be 2076 883d 960f b13e 0074 f93b
00000040: b658 6d3e 817e 4f3e cf2f e9bd 82de 8d3e
00000050: e6ca d83d 908e a8bd 3291 233e 3605 af3d
00000060: a9cc d6be 8fa5 c3be c441 973e 2e96 2fbe
00000070: 75e1 f3bd a493 9e3e 38d8 fd3e 42f7 033f
00000080: 7b36 12be 54f3 013f ff5d 33be 3c6f f63e
00000090: ec5a 333e eec6 73be e276 a3bc 7d19 993e
000000a0: ea43 7c3e 2d4b 0f3f 4e61 debe 41e4 a0be
000000b0: 1730 493e 141f eebe 81ea 0cbf 89ed 62be
000000c0: d7ea b73e 0704 fb3e 74f8 7dbe f60d e7be
000000d0: 9818 b2bd 17f6 973e 0a5f 033f 50a3 dbbe
000000e0: ed0f f4be 5006 2c3d c4bc b03e ae81 e23e
000000f0: d8fe fa3d 668a c1be e816 02bf e2e9 27bd
00000100: 47a0 783e 92b9 8c3e 9071 0bbf c409 b13e
00000110: f031 763d c06c 353c 9e93 c4be 20cc 10bd
00000120: f8e1 34bd f291 a43e 2c2a ccbe 80cf 203e
00000130: ce37 a6be 0726 dcbe c037 61be 9149 babe
00000140: 262c b83e 9df7 0d3f fc77 06bf 1b01 eebd
00000150: 93d4 08bf 1d9f 55be 801e 92bb ef08 82be
00000160: 3e41 743e 88d5 0ebf 10e7 083f 6dca acbe
00000170: dbe3 83bd aa32 09be 6b00 db3d 8ade 06bf
00000180: 3fd1 023f a107 8fbe 03ef fb3e 5e39 bfbe
00000190: fca8 03bf 02ab 00be 487d f03e 6407 9a3e
000001a0: a7ab c63d 24ec e5be 94b2 f53e 63ba aebe
000001b0: 2e87 f23e 2045 d73e a874 1c3d 2f07 d1be
000001c0: e097 0abf 4c79 113f 6941 1abe 3311 603a
000001d0: f5fe a53e e223 c53e 6149 593e b839 993e
000001e0: 340f e8be 390a a8be 7070 073f 8513 24bd
000001f0: 2bf5 1d3e 78b7 b8bd 008e 963e 5531 f3be
-0.21201974 -0.16321865 -0.07990164 -0.3860252 0.523745 -0.5169241 -0.44387662 0.05320865
-0.09453133 0.4256074 -0.52696234 0.19214763 -0.48610738 0.066631556 0.34582204 0.007612705
0.23178372 0.20263101 -0.11386072 0.27708822 0.10585575 -0.08230317 0.15973356 0.08545916
-0.41953018 -0.3821225 0.29542363 -0.17147133 -0.11908237 0.30972016 0.49579024 0.5154916
-0.14278595 0.50761914 -0.17516325 0.4813174 0.17515153 -0.23806354 -0.019954149 0.2990226
0.24635282 0.55974084 -0.43433613 -0.31424144 0.19647251 -0.46508086 -0.55045325 -0.22160925
0.35921356 0.4902651 -0.24801809 -0.4512784 -0.08696097 0.2967994 0.51316893 -0.42898035
-0.476684 0.041998208 0.34519017 0.44239563 0.12255639 -0.37800902 -0.508162 -0.040994532
0.24279891 0.2748533 -0.5447016 0.34577763 0.060106218 0.011073291 -0.38393873 -0.03535092
-0.044160813 0.32142597 -0.39875925 0.15704155 -0.3246445 -0.42997763 -0.21993923 -0.36384252
0.35971183 0.5545595 -0.5252683 -0.116213046 -0.5344936 -0.20861478 -0.0044592023 -0.2539744
0.23853013 -0.5579457 0.53477573 -0.3374819 -0.06439944 -0.13398233 0.10693439 -0.5268332
0.51100534 -0.27935508 0.4920579 -0.37348455 -0.51429725 -0.12565234 0.46970582 0.30083764
0.09700709 -0.44906723 0.47987807 -0.34126577 0.4736876 0.42044926 0.03819719 -0.40825793
-0.5413799 0.5682571 -0.15064014 0.0008547485 0.3242108 0.3850394 0.21219398 0.29926848
-0.453241 -0.328203 0.5290594 -0.040057678 0.15425555 -0.09019369 0.29405212 -0.47498575

net.2.weight f4 [128]
00000000: 0000 803f b225 803f 6dc3 7d3f 5c2e 803f
00000010: 62a9 7d3f d73c 7d3f b720 803f a730 7e3f
00000020: 24b9 7d3f 7aed 7e3f f773 803f 958b 803f
00000030: ea04 7e3f 0361 803f 0000 803f 0000 803f
00000040: 738e 7f3f 9369 7f3f 6d20 7f3f 64bd 7d3f
00000050: 6bf5 803f ca3c 813f 07cb 7f3f c88a 803f
00000060: 949b 7e3f ab05 7e3f 810f 7f3f bba6 803f
00000070: 8ea5 803f af72 7e3f 31be 7e3f 386f 813f
00000080: a36b 803f bef1 7c3f 466c 7f3f 0550 803f
00000090: 7c37 7f3f 0000 803f 691c 7f3f f3a3 803f
000000a0: 90c8 7f3f 043a 813f ca1a 7e3f 7835 803f
000000b0: 13c9 7d3f 0000 803f 1b03 813f 25ad 7e3f
000000c0: 29d3 7e3f 386a 7e3f 7177 803f 0000 803f
000000d0: 0000 803f a776 803f 57cf 7e3f 346a 7d3f
000000e0: 0000 803f 0000 803f 29af 7e3f f16f 7f3f
000000f0: f25b 7e3f 58e9 7e3f 5528 803f 2e09 803f
00000100: 5cc0 7f3f b4a8 7d3f 0000 803f 5d1d 813f
00000110: ff20 803f 0000 803f 0000 803f 0000 803f
00000120: e6d2 7f3f 0000 803f 0000 803f cf0f 7f3f
00000130: 0000 803f 0000 803f 002e 7f3f 4527 7f3f
00000140: b341 7d3f 014c 7f3f 0000 803f 3383 7f3f
00000150: 7098 7e3f 186b 803f 0000 803f 0000 803f
00000160: e49a 803f 5d20 7f3f 1f15 803f 9fe7 7f3f
00000170: 37c0 803f 5917 813f 3d55 7d3f 0000 803f
00000180: 703e 7f3f 6c1b 803f 93e4 7d3f 275f 803f
00000190: 0000 803f 0000 803f 7e9a 7e3f e12d 7d3f
000001a0: 6e65 7e3f 43ef 7f3f 4522 803f a4d9 7f3f
000001b0: 180b 813f 7cf1 7e3f 569a 7f3f 4600 7e3f
000001c0: 0000 803f 8ecf 7e3f 9b9e 7e3f 5158 803f
000001d0: 7aed 7e3f 6adc 803f c670 803f 7944 7e3f
000001e0: 0000 803f acf0 803f 0000 803f 2a73 803f
000001f0: 68b9 7e3f 0000 803f faeb 7e3f 121b 803f
1.0 1.0011504 0.9912632 1.0014148 0.9908658 0.9892096 1.0009984 0.9929299
0.9911063 0.9958111 1.003539 1.0042597 0.9922625 1.0029606 1.0 1.0
0.99826735 0.9977047 0.9965885 0.9911711 1.0074896 1.0096676 0.9991917 1.0042353
0.99456143 0.992274 0.9963303 1.0050882 1.0050523 0.99393743 0.9950896 1.0112066
1.0032848 0.9880637 0.9977459 1.002442 0.9969404 1.0 0.99652725 1.0050033
0.9991541 1.009583 0.99259627 1.0016317 0.9913494 1.0 1.0079073 0.9948295
0.99540955 0.99380827 1.0036451 1.0 1.0 1.003621 0.99535125 0.9899018
1.0 1.0 0.99486023 0.99780184 0.9935905 0.99574804 1.0012308 1.0002801
0.9990289 0.99085546 1.0 1.0087086 1.001007 1.0 1.0 1.0
0.9993118 1.0 1.0 0.99633497 1.0 1.0 0.99679565 0.99669296
0.98928374 0.9972535 1.0 0.9980957 0.9945135 1.0032682 1.0 1.0
1.0047269 0.9965876 1.0006446 0.999628 1.0058659 1.008525 0.9895819 1.0
0.9970465 1.0008368 0.991769 1.0029038 1.0 1.0 0.99454486 0.9889813
0.9937352 0.9997446 1.0010458 0.9994147 1.008151 0.99587226 0.9984487 0.9921917
1.0 0.99535453 0.9946076 1.0026952 0.9958111 1.0067265 1.0034416 0.9932323
1.0 1.0073447 1.0 1.0035145 0.9950166 1.0 0.9957882 1.0008261

net.2.bias f4 [128]
00000000: 86a1 5ebc d0ca 5d3c fc9a debb 9cb4 5ebc
00000010: fb60 56bc a598 233c a903 5e3c f22e 5bbc
00000020: ea30 5abc 5bd2 5dbc aca2 5f3c bf8f 5ebc
00000030: 0227 5bbc 19fc 5d3c b252 5f3c 54be 5ebc
00000040: f7f7 5bbc 8d25 5bbc 4667 5cbc 67ba 5bbc
00000050: 6c49 5f3c e23f 5f3c 69a5 5d3c 86f8 653c
00000060: 402f 463c 6882 593c b867 5cbc 3413 60bc
00000070: 70a8 5f3c 9603 5c3c a267 5b3c 5296 5f3c
00000080: 44ab 5e3c f036 5abc ba49 5cbc 1f9b 5e3b
00000090: f63f 5cbc 89d0 5f3c 0d3f 5cbc 2c2d 60bc
000000a0: c66b 5bbc d77d 5f3c 4003 efbb b1dd 5dbc
000000b0: 8de7 583c bea0 5ebc 7eb2 5f3c 3fda 5bbc
000000c0: b0e0 57bc d6d4 3f3b d45d 5ebc e011 5fbc
000000d0: c6fa 5e3c 4c55 5ebc e55a 5c3c 4107 4bbc
000000e0: eefb 61bc 9101 60bc b033 583c 21a8 5c3c
000000f0: f727 5a3c 9d2d 5abc 8657 5dbc 7fac 5d3c
00000100: 53d6 5cbc a3d4 5abc 307e 5e3c d549 5f3c
00000110: f42a 5ebc e635 5fbc 21ca 5e3c fa02 5fbc
00000120: 0865 5d3c f8c9 613c 6b37 61bc 083a 5cbc
00000130: a61e 5fbc 9606 5fbc 457a 5c3c bab6 5cbc
00000140: e511 583c cd57 5bbc 2ec6 5e3c 547c 5cbc
00000150: f9b8 5b3c 613f 61bc e91f 60bc 6bf2 623c
00000160: 561b 5fbc ad72 5cbc 21c6 5d3c e91d 5dbc
00000170: bcc1 5fbc f81d 683c 732e 5bbc 3181 5f3c
00000180: 1a09 5c3c 0a3d 5dbc ba49 5bbc 8a55 5e3c
00000190: 0eba 5ebc d16f 5e3c 1e08 593c f371 59bc
000001a0: 1ad6 573c e51b 5dbc 7194 5ebc 9b96 59bc
000001b0: 5b2b 653c b85d 5a3c 2caf 5c3c 9b00 5abc
000001c0: 7e7e 61bc 5225 5b3c 21d8 5c3c d439 5fbc
000001d0: c8b4 5dbc a4ee 5f3c e31f 60bc c2c6 5a3c
000001e0: 0f3c 5fbc 5a2a 663c 5fa3 62bc 514f 5ebc
000001f0: 5356 5c3c 8e9d 5e3c 3074 5c3c a03e 5dbc
-0.013588315 0.013537124 -0.006793378 -0.013592865 -0.013084645 0.009985124 0.013550677 -0.013377892
-0.013317326 -0.013538922 0.013649624 -0.013584076 -0.013375999 0.013548874 0.013630556 -0.013595182
-0.013425819 -0.013375652 -0.013452357 -0.013411141 0.013628345 0.013626071 0.013528206 0.014036303
0.012096226 0.01327572 -0.013452463 -0.013676453 0.0136509985 0.013428589 0.013391407 0.013646679
0.013590638 -0.013318762 -0.013445312 0.003396697 -0.013442984 0.0136605585 -0.013442767 -0.013682645
-0.013392394 0.013640842 -0.0072940886 -0.013541625 0.0132388 -0.013588129 0.013653396 -0.013418733
-0.013176128 0.0029271147 -0.013572175 -0.013615102 0.013609594 -0.013570141 0.013449405 -0.012391866
-0.013792975 -0.013672248 0.013195917 0.013467819 0.013315192 -0.013316539 -0.013509637 0.013529896
-0.013478833 -0.013356361 0.01357989 0.013628443 -0.0135600455 -0.01362369 0.013597996 -0.0136115495
0.013512857 0.013781063 -0.013746123 -0.01344157 -0.013618147 -0.01361241 0.013456886 -0.0134713
0.01318786 -0.013387633 0.013597054 -0.0134573765 0.0134108 -0.013748021 -0.013679483 0.013851742
-0.013617357 -0.013455075 0.013536007 -0.013495901 -0.01365703 0.014167301 -0.013377774 0.0136416415
0.013429904 -0.013503322 -0.013384277 0.013570199 -0.013594164 0.013576464 0.013246564 -0.0132717965
0.013173604 -0.01349542 -0.013585196 -0.013280536 0.0139873875 0.013328008 0.013469499 -0.013305808
-0.013763068 0.013375597 0.0134792635 -0.013624627 -0.013531871 0.013667736 -0.013679477 0.013353052
-0.013625159 0.014048183 -0.013832896 -0.013568715 0.013448316 0.013587369 0.013455436 -0.0135037005

net.2.running_mean f4 [128]
00000000: 0000 0000 7c23 573f 4501 383f 02f8 8c3f
00000010: c031 b73b 6274 033f c3b3 a240 cbd6 df3c
00000020: b11e db3e 58d5 5d3a b531 3240 4322 c83e
00000030: bc9b d33e 58db 5a40 0000 0000 0000 0000
00000040: 5036 703f 1daf 4340 ade9 1340 09b3 043f
00000050: 9967 a13f c4c9 7c3e a7d7 be3f 0c29 a33f
00000060: 5c10 5b3d f646 173e 2048 8e3f 45ef cb3f
00000070: a3cc 243b 1ae2 8c3f 8138 e53c bfd6 743e
00000080: d251 0440 4c23 d13d 29fa d63f b09d 183f
00000090: eacd 2040 0000 0000 489d 1440 c420 1740
000000a0: de4f 9340 097d d53e 36c0 443e 7d42 593f
000000b0: af1f 9a3e 0000 0000 1f40 7b3e 019f 1f40
000000c0: 0fa8 6140 46b7 1a40 5fa5 553e 0000 0000
000000d0: 0000 0000 4aa0 4740 006a 6640 8f3e 863e
000000e0: 0000 0000 0000 0000 fbd5 b73f 3003 2040
000000f0: bf5e aa3f 9c8f aa3f 9763 1f40 5eba 5940
00000100: f5df 5c40 19f2 1d3f 0000 0000 eab7 b63d
00000110: 2c83 6a3f 0000 0000 0000 0000 0000 0000
00000120: cb8b c43b 0000 0000 0000 0000 0293 843f
00000130: 0000 0000 0000 0000 f421 ab3f ca90 ba3f
00000140: c4fe a33d b0a5 0540 0000 0000 4ffd 8440
00000150: 420d f93f 2a66 2040 0000 0000 0000 0000
00000160: 60ea 0d40 ddf2 0b40 7654 b240 9bcf 4040
00000170: a5b7 e53f da97 723e 522b 083f 0000 0000
00000180: d1f4 833f 250c 3b40 bcdc 5b3f 8059 0640
00000190: 0000 0000 0000 0000 d083 813f 5891 2c3e
000001a0: b52b 0940 8dd1 ee3f a2a8 cb3b 8007 8540
000001b0: 59f4 843f 67f6 9b3f ee06 fa3e 36af fd3e
000001c0: 0000 0000 2892 b03f 05cc 953e e48b 903f
000001d0: 15f3 3c3a f457 3c3d fc71 cb3e ad90 993f
000001e0: 0000 0000 82c8 043e 0000 0000 e028 5840
000001f0: b9e2 4b40 0000 0000 098b e63e a098 8c40
0.0 0.8403852 0.7187694 1.1013186 0.0055906475 0.5134946 5.0844436 0.027324101
0.42796853 0.00084622717 2.7842839 0.3908864 0.41329753 3.4196377 0.0 0.0
0.93832874 3.057563 2.3111374 0.51835686 1.260974 0.24686342 1.4909562 1.2746902
0.0534824 0.14773163 1.1115761 1.5932394 0.0025146387 1.1006501 0.027981045 0.23910044
2.067494 0.102118105 1.6795093 0.5961561 2.512568 0.0 2.3220997 2.3613749
4.6034994 0.41696957 0.19213948 0.8486708 0.30102298 0.0 0.24536179 2.4940798
3.5258825 2.4174361 0.20863865 0.0 0.0 3.1191583 3.6002197 0.26219603
0.0 0.0 1.4362177 2.5001945 1.3310164 1.3325076 2.4904535 3.402
3.4511693 0.61697537 0.0 0.089217976 0.916064 0.0 0.0 0.0
0.00599811 0.0 0.0 1.0357363 0.0 0.0 1.3369737 1.4575436
0.08007577 2.0882378 0.0 4.1559215 1.9457171 2.5062356 0.0 0.0
2.21743 2.1866982 5.57281 3.0126712 1.7946669 0.2369074 0.531911 0.0
1.0309087 2.9226162 0.8588369 2.0992126 0.0 0.0 1.0118351 0.16852319
2.1432927 1.86577 0.006215171 4.1571655 1.0387069 1.2184571 0.48833412 0.49547738
0.0 1.3794603 0.29257217 1.1292691 0.0007207853 0.045982316 0.397354 1.1997277
0.0 0.12967113 0.0 3.3774948 3.185713 0.0 0.4502795 4.393631

net.2.running_var f4 [128]
00000000: 0817 e03d 7a72 393f a88c 4d3f 385e de3f
00000010: 1e30 e23d be74 153f 14ad 9040 28fa ea3d
00000020: 08cd eb3e 1468 e03d e38e 0740 22c9 203f
00000030: c47f df3e e662 1940 0817 e03d 0817 e03d
00000040: 28c5 513e 708e b63f 7c80 8f3f 8999 0c3f
00000050: dd23 de3f 172d d43e 72fb 153f 5b55 cd3e
00000060: 770b 083e 6f20 813e d87b 983f a3bc a83f
00000070: 38fe e13d 409e 983f 7ea3 ec3d 3126 b93e
00000080: 9bcd 863f c72a 163e 5037 2e3f 3523 573e
00000090: eb15 8f3f 0817 e03d e685 0e40 b1f9 ae3f
000000a0: ba62 3a40 3988 8f3e cd8e 813e 4d62 843f
000000b0: 326c d03e 0817 e03d 1834 6c3e 0b21 0a40
000000c0: a927 2840 0027 933f 5eb8 8b3e 0817 e03d
000000d0: 0817 e03d 0561 b13f 05a4 ff3f dab8 d53e
000000e0: 0817 e03d 0817 e03d 7c86 ef3f 5848 833f
000000f0: be97 833f 1e60 e23f 1ada b33f 0df8 e93f
00000100: c641 df3f 70c9 093f 0817 e03d a0e3 183e
00000110: 2935 963f 0817 e03d 0817 e03d 0817 e03d
00000120: 4716 e13d 0817 e03d 0817 e03d 4de6 cc3e
00000130: 0817 e03d 0817 e03d 56dd d43f 8eb1 c63f
00000140: 958e 193e af45 ba3f 0817 e03d 6efd 3640
00000150: 5603 f13f 1f88 af3f 0817 e03d 0817 e03d
00000160: 0ca4 3c40 d0fb a53f b44f 7840 4ea9 ef3f
00000170: e50b d03f 1d03 913e c6f1 4e3f 0817 e03d
00000180: 4201 a83f 9cc7 c53f fb9a a33f bdc9 0c40
00000190: 0817 e03d 0817 e03d cba2 8a3f db5a 813e
000001a0: 16d7 de3f dcfe 713f 971a e33d 5912 3c40
000001b0: efa6 533f 88a2 893f ff2e 363e 55c1 0a3f
000001c0: 0817 e03d a04f 4e3f 6a12 3e3e c8ff ce3f
000001d0: d451 e03d 93fc 063e 1d33 0c3f 6861 0b3f
000001e0: 0817 e03d cc45 4d3e 0817 e03d 4756 1040
000001f0: 4767 2b40 0817 e03d ca94 1a3f 662f 5c40
0.10941893 0.724403 0.8029275 1.7372503 0.11044334 0.5838126 4.5211277 0.11473495
0.46054864 0.10957351 2.118096 0.62806904 0.43652165 2.3966613 0.10941893 0.10941893
0.20485365 1.4262218 1.1211085 0.54921776 1.7354695 0.4144065 0.585868 0.40104184
0.13285623 0.25220057 1.1912794 1.3182567 0.110348165 1.1923294 0.11554621 0.3616195
1.0531496 0.14664756 0.6805315 0.21009524 1.1178564 0.10941893 2.2269225 1.366995
2.9122758 0.28033617 0.2530426 1.0342499 0.40707546 0.10941893 0.23066747 2.1582668
2.6274207 1.1496277 0.27289099 0.10941893 0.10941893 1.3857733 1.997193 0.41742593
0.10941893 0.10941893 1.8712916 1.0256453 1.0280683 1.7685583 1.4050934 1.8278824
1.7441947 0.53822994 0.10941893 0.14930582 1.1734973 0.10941893 0.10941893 0.10941893
0.10990577 0.10941893 0.10941893 0.40019456 0.10941893 0.10941893 1.6630046 1.5522935
0.14995797 1.4552516 0.10941893 2.8592181 1.8829143 1.3713416 0.10941893 0.10941893
2.9475126 1.2967472 3.8798647 1.8723543 1.625363 0.28322688 0.80837667 0.10941893
1.3125384 1.5451541 1.2781671 2.1998131 0.10941893 0.10941893 1.083093 0.2526463
1.7409389 0.9452951 0.11089056 2.9386199 0.82676595 1.0752726 0.17791365 0.5420125
0.10941893 0.8059025 0.18561712 1.6171808 0.109531075 0.13182287 0.5476549 0.54445505
0.10941893 0.20046157 0.10941893 2.255266 2.6781785 0.10941893 0.60383284 3.440393

net.3.weight f4 [1, 128]
00000000: de93 a6bd cdb9 7a3d 5ec0 563b 4fc9 fcbc
00000010: 331b 5bbc fa70 7e3a a0f1 523d 1de0 31bd
00000020: f5e1 17bd fae9 a8bc 0aa3 f23c 1995 95bd
00000030: 0618 51bd 353c b63d e2c8 593d 0540 99bd
00000040: c42b b2bc 5795 8fbc 7737 63bd 8ef7 97bd
00000050: dea3 8a3d dfab a83d 431a 353d be1a 3e3c
00000060: 218f 3b3b c0fe f03c 864d 52bd 0f98 06bd
00000070: 860f 523d 1dec 883d fc33 393d 28af 9d3d
00000080: 2162 3f3d 220b 47bd 2939 0bbd b4f8 2f3c
00000090: b79a 32bd d147 2f3d cdd0 41bd 4bc1 01bd
000000a0: 5989 6abc 95ee 863d d0a6 7a3b f045 b0bd
000000b0: 2f9b bc3c 02f9 a6bd e57a 673d 59d8 48bd
000000c0: 7bb1 1abc 1c01 42bb c26f 96bd f521 79bd
000000d0: 1956 833d 7ec3 93bd c685 9f3d 4a9f 70bb
000000e0: 4412 64bc a3ee 22bd 5d31 673c 5d8e a23d
000000f0: a747 e33c d6d4 85bc 19f7 afbd 696d ae3d
00000100: 9b75 3cbd b401 48bd 3498 ba3d de5d 7a3d
00000110: 20d2 3ebd 4ba8 66bd 4d67 943d 8fd8 80bd
00000120: 88c7 5c3d 36de c13c dc69 e0bc 968b 47bd
00000130: be3e 72bd 868f 7fbd fbd3 853d daf7 9ebd
00000140: 7ea6 b63c 0372 a4bc 38fd 953d 839e 30bd
00000150: 6a5b 513d a6cc 8fbc 191f 1cbd be99 873c
00000160: 57b3 46bd c8fb 6bbd b162 953d 434a 8dbd
00000170: 779e 26bd 15b1 2a3c 2c0e 80bd 25d6 473d
00000180: bac0 333d ca2b 9bbd 8c1b 63bd 4197 6a3d
00000190: 9c16 9bbd 4339 c43d df9d 963c c795 15bd
000001a0: c8ef 6e3c a1f3 b0bd 4dbb 85bd a8fc d3bb
000001b0: 2581 af3c ec20 bf3c 0318 9a3d 8520 05bd
000001c0: 2ec8 d0bc 0272 0b3d 7bbe a33d 93c7 01bd
000001d0: 1cd9 fbbc affc 123d 7fe5 f2bc 6952 0f3d
000001e0: 8bc5 63bd 0900 593c 8c96 9bbc 9de9 98bd
000001f0: c7a8 a03d e59a a83d 52fc a93d 085f 95bd
-0.08133672 0.06121235 0.0032768468 -0.03085771 -0.013373184 0.0009706166 0.051499963 -0.04342662
-0.037080724 -0.020619381 0.029618759 -0.07303829 -0.0510483 0.08898202 0.053170092 -0.07482914
-0.021749385 -0.017527265 -0.055472817 -0.07420264 0.067695364 0.08235907 0.0442145 0.0116030555
0.0028619247 0.02941835 -0.051343463 -0.032859858 0.051284336 0.0668566 0.04521559 0.07699424
0.046724442 -0.0485946 -0.03399006 0.010740448 -0.04360458 0.0427931 -0.04731827 -0.03167848
-0.014314973 0.06588475 0.00382464 -0.086070895 0.023023216 -0.08152963 0.056513686 -0.04903445
-0.009441729 -0.0029602712 -0.07345535 -0.0608234 0.06412906 -0.072150216 0.07789187 -0.0036716037
-0.0139203705 -0.039778363 0.01411089 0.0793731 0.027744127 -0.01633684 -0.08592052 0.08516962
-0.046010595 -0.04882975 0.09111062 0.061124675 -0.04658711 -0.05631284 0.072462656 -0.06291305
0.053901225 0.023665529 -0.027394228 -0.048717104 -0.059141867 -0.062392734 0.06534573 -0.07762118
0.022296187 -0.020073896 0.07323688 -0.04311992 0.05111257 -0.017553639 -0.038115595 0.016552802
-0.048510876 -0.057613164 0.072942145 -0.0689893 -0.040678468 0.010418196 -0.06252703 0.04878821
0.04388497 -0.075767115 -0.055446193 0.057273153 -0.07572672 0.09581234 0.018385826 -0.036519792
0.0145835355 -0.086402185 -0.065298654 -0.006469328 0.021423886 0.023331128 0.07524111 -0.032501716
-0.025486078 0.034044273 0.07995316 -0.03168447 -0.030743174 0.03588551 -0.029650448 0.0349907
-0.055608314 0.013244637 -0.018992685 -0.07466433 0.07844692 0.08232669 0.083000794 -0.072935164
