saved_models/mlp/MLP_prnn_crabs.pth (torch, 10199 bytes, 7 tensors)

net.0.weight f4 [128, 7]
0	0x3ebad015	0.3648688
1	0xbe4721f5	-0.19446547
2	0xbe8e4443	-0.27786455
3	0x3a18f000	0.00058341026
4	0x3e68a332	0.22718504
5	0xbeaf87a7	-0.34283182
6	0x3dbbdcac	0.09172949
7	0xbe8c67e4	-0.27423012
8	0x3e41eb8b	0.18937509
9	0xbe729943	-0.23691277
10	0x3e315906	0.17319116
11	0x3e6853d6	0.22688231
12	0xbe8e9c14	-0.27853453
13	0xbe357943	-0.17722039
14	0xbd853dc6	-0.06505923
15	0x3d98b2c0	0.07455969
16	0x3e160f94	0.1465438
17	0x3e09270c	0.13393801
18	0x3e985412	0.2975164
19	0xbe9b13d2	-0.3028856
20	0x3e0e293a	0.13882914
21	0xbeb391bf	-0.35072133
22	0xbe5d20b0	-0.215945
23	0xbd1c28df	-0.038124915
24	0x3e86cbfd	0.26327506
25	0xbc389188	-0.011265166
26	0x3e863092	0.2620893
27	0x3e890b7d	0.26766577
28	0x3db62ed0	0.088956475
29	0xbd4c9a78	-0.049952
30	0xbe72632c	-0.23670644
31	0x3dea2000	0.11431885
32	0xbdbfc868	-0.09364396
33	0xbddff4c4	-0.10935357
34	0x3e2a813e	0.16650864
35	0xbea8cb1e	-0.32967466
36	0x3e8d9af2	0.27657276
37	0x3e83a4c1	0.25711635
38	0xbe4a22a9	-0.19739784
39	0x3da02b31	0.07820738
40	0x3dd19c93	0.10234942
41	0x3e888aee	0.26668495
42	0x3d968e2d	0.07351337
43	0xbced43f6	-0.02896307
44	0x3d7ec37b	0.062198143
45	0x3c6aded4	0.014335353
46	0x3ebaa5dc	0.36454666
47	0x3e842ca0	0.25815296
48	0x3e3287ad	0.17434569
49	0xbe8dda33	-0.27705535
50	0xbdbe2788	-0.09284884
51	0xbe4fc393	-0.2028945
52	0x3e50172e	0.20321342
53	0xbea1550f	-0.31510207
54	0xbeabf620	-0.33586216
55	0xbeac52ec	-0.33657014
56	0xbe49c748	-0.19704926
57	0x3e1e04d1	0.15431525
58	0xbe5a3b78	-0.21311748
59	0x3ed77449	0.42080906
60	0xbd86ee98	-0.06588477
61	0xbd23d6a0	-0.039999604
62	0x3eaec936	0.34137887
63	0x3e6e854e	0.23293039
64	0x3dea1123	0.1142905
65	0xbde6d82f	-0.112717025
66	0x3e093b7b	0.13401596
67	0x3ea332a9	0.31874588
68	0x39e00eab	0.00042735538
69	0xbe40ed0b	-0.18840425
70	0xbeeefb97	-0.46676323
71	0xbe398b83	-0.18119626
72	0x3ed11b9e	0.40841383
73	0x3e9c1880	0.30487442
74	0xbe47d702	-0.19515613
75	0x3d1150b4	0.035477355
76	0x3e60c247	0.21949111
77	0x3e20cb13	0.15702467
78	0xbe108beb	-0.14115874
79	0x3ee2ed15	0.44321504
80	0xbe4b8a8a	-0.19877067
81	0x3dc808d1	0.097673066
82	0x3e8e37b8	0.27776885
83	0x3d67fd45	0.05663802
84	0x3df7c5f8	0.120983064
85	0xbebf1cfb	-0.37326798
86	0xbe61c25c	-0.22046798
87	0x3e1a9a76	0.15097985
88	0x3e9fcf33	0.31212768
89	0xbe99eb5f	-0.30062386
90	0x3e10c5fe	0.14138028
91	0xbe871efa	-0.2639082
92	0xbd904ea0	-0.070462465
93	0x3df55a02	0.11980058
94	0x3e8d5be3	0.27609167
95	0x3eb01755	0.343928
96	0x3dd74d26	0.10512762
97	0x3da93500	0.08262062
98	0xbe4d3679	-0.20040311
99	0xbbafa200	-0.005359888
100	0xbe8f59b0	-0.27998114
101	0xbd0c3950	-0.034234345
102	0x3ebbca5b	0.36677822
103	0xbe4e53e2	-0.20149186
104	0xbd0cb298	-0.034350008
105	0xbe3d6a55	-0.18497594
106	0xbcd50176	-0.026001673
107	0xbec02c70	-0.37533903
108	0x3bc41a20	0.0059845597
109	0x3e47d64d	0.19515343
110	0x3ec92b79	0.3929098
111	0x3dc568db	0.0963914
112	0x3e12a78a	0.14321724
113	0xbe8dfef0	-0.27733564
114	0xbeb4c086	-0.35303134
115	0x3d2087f8	0.03919217
116	0xbd453b60	-0.048152328
117	0xbe6ec130	-0.23315883
118	0x3ea8b7f5	0.32952848
119	0xbebd8250	-0.37013483
120	0xbe8ec3d1	-0.2788377
121	0x3ee9c9a6	0.45661658
122	0xbd8c69ff	-0.06856155
123	0x3eb496a8	0.35271192
124	0xbe2b769b	-0.16744463
125	0x3eca91a1	0.3956423
126	0x3e324ebf	0.17412852
127	0xbeebc287	-0.4604685
128	0x3e8a5d61	0.27024367
129	0x3db8860a	0.09009941
130	0x3e4eb0f3	0.20184688
131	0xbe4d7fec	-0.2006833
132	0xbad8519d	-0.0016503815
133	0x3e3a095a	0.1816763
134	0xbeb2b38d	-0.3490261
135	0xbe92e8c4	-0.2869321
136	0x3ea048e9	0.31305626
137	0xbe2c01ff	-0.16797636
138	0xbe85414d	-0.26026383
139	0x3e8c5e97	0.27415916
140	0x3e0f981a	0.14022866
141	0x3e260862	0.16214135
142	0xbd63d7c0	-0.055625677
143	0xbe87857d	-0.2646903
144	0xbdd225a0	-0.10261083
145	0xbe892a34	-0.2679001
146	0x3e5b125a	0.2139372
147	0x3c111660	0.008855432
148	0x3e096362	0.13416818
149	0x3de680f4	0.112550646
150	0xbe9225e9	-0.28544548
151	0xbdf1f4a0	-0.11814237
152	0xbe9e6c43	-0.30941972
153	0xbe57b6e9	-0.21065868
154	0x3dc1bc80	0.09459782
155	0xbe5f1f44	-0.2178927
156	0xbe1b4ae8	-0.15165293
157	0x3e1e71ea	0.15473142
158	0xbeafdbc0	-0.34347343
159	0xbdef8654	-0.11695543
160	0xbeb557b1	-0.35418466
161	0xbde04738	-0.10951084
162	0xbe3c10fc	-0.18365854
163	0xbe1ffe76	-0.15624413
164	0x3e8101e5	0.25196758
165	0xbe97ae1f	-0.2962503
166	0xbde466c0	-0.111524105
167	0xbea81260	-0.3282652
168	0xbe4fd6b8	-0.20296752
169	0xbebdb2c2	-0.37050444
170	0x3ea13949	0.31489018
171	0x3ebc575d	0.36785403
172	0xbea4455c	-0.32084167
173	0x3d7be8d5	0.061501343
174	0x3e438ab6	0.19095883
175	0xbebdec08	-0.3709414
176	0xbe4a42c8	-0.19752038
177	0x3eb2ae38	0.34898543
178	0xbd6f7480	-0.058460712
179	0x3e8149be	0.25251573
180	0x3d464929	0.048409615
181	0x3eb40fe3	0.3516837
182	0x3d3e96b8	0.046530455
183	0x3da3478c	0.07972631
184	0xbe79339e	-0.24336097
185	0xbdd7ff48	-0.10546738
186	0xbeadabee	-0.33920234
187	0xbe56297b	-0.20914261
188	0xbe1f9a7b	-0.15586273
189	0xbe3afb61	-0.18259956
190	0x3cad30a0	0.02114135
191	0x3e653162	0.2238212
192	0xbeb3538c	-0.3502468
193	0x3dc365a4	0.09540871
194	0xbd904b04	-0.07045558
195	0xbe433d35	-0.19066317
196	0xbdd1b73e	-0.10240029
197	0x3e95c637	0.29252788
198	0xbdceea2b	-0.10103258
199	0x3ea359c7	0.31904432
200	0xbcc9aaa2	-0.024617497
201	0x3e8c0bf0	0.27352858
202	0xbe6afd15	-0.22948106
203	0x3e91ff59	0.28515127
204	0xbea0a2bc	-0.31374156
205	0x3de8208c	0.11334333
206	0xbe956d19	-0.29184797
207	0xbe9963ec	-0.29959047
208	0x3e62b8da	0.22140828
209	0x3dfaa51c	0.12238523
210	0x3f055631	0.5208464
211	0x3ec4639b	0.38357243
212	0xbe1c7bb4	-0.15281564
213	0xbeb8323f	-0.35975835
214	0xbd6a72c6	-0.057238363
215	0xbb83a40e	-0.0040173596
216	0xbc84ca35	-0.016209701
217	0xbde5af49	-0.112150736
218	0xbec5f808	-0.38665795
219	0x3aaa261b	0.0012981327
220	0xbd0a9e87	-0.03384259
221	0x3dc27b61	0.09496189
222	0x3e841677	0.2579839
223	0x3c8e7c23	0.017393177
224	0xbd84ebb8	-0.06490272
225	0x3dd49928	0.10380775
226	0xbe931ca2	-0.28732783
227	0xbe599e19	-0.21251716
228	0x3e9420b3	0.28931198
229	0xbeb45e56	-0.35228223
230	0xbea7d136	-0.32776803
231	0x3d8e22b7	0.06940215
232	0xbd9bdcd0	-0.07610476
233	0xbe638510	-0.22218728
234	0x3ea67e4a	0.32518226
235	0x3dbf4f8a	0.09341343
236	0x3e764393	0.24049215
237	0x3e26bb7d	0.16282459
238	0xbe12743c	-0.14302152
239	0x3ddd953c	0.1081948
240	0xbe405942	-0.18784049
241	0xbe5f8747	-0.21828948
242	0x3ebb6ab5	0.36604849
243	0xbeb0b569	-0.34513405
244	0xbea9bbee	-0.3315119
245	0xbe6c0b2a	-0.23051134
246	0xbe8d0a8d	-0.27547112
247	0xbe20eefa	-0.15716162
248	0xbe8eec8a	-0.2791484
249	0xbdad7a68	-0.08470613
250	0xbe02132a	-0.12702623
251	0xbe47f2e7	-0.19526254
252	0xbe95cc92	-0.29257637
253	0x3dbcffb4	0.09228459
254	0x3cce5430	0.025186628
255	0xbe82bce1	-0.25534728

net.0.bias f4 [128]
0	0xbe09c288	-0.13453114
1	0x3db984be	0.09058522
2	0x3e4e295f	0.2013297
3	0x3d01ef09	0.031722102
4	0x3c55f660	0.013059229
5	0xbbba875c	-0.0056924056
6	0x3c24c15f	0.010055869
7	0x3e397e2e	0.1811454
8	0xbe64d91a	-0.22348443
9	0xbd43eab5	-0.047831256
10	0xbd5b6ae3	-0.053568732
11	0xbd668f85	-0.056289215
12	0x3eb5eb91	0.35531285
13	0xbeb4a6ff	-0.35283658
14	0x3e92b0bf	0.28650472
15	0x3e4c4ae7	0.19950448
16	0x3ebacab5	0.36482778
17	0xbeb6870e	-0.35649914
18	0x3dcd0a9e	0.10011791
19	0x3e594b4a	0.21220127
20	0x3e41878a	0.1889936
21	0x3e822127	0.25415918
22	0xbc7b7040	-0.015346587
23	0xbe43428f	-0.19068359
24	0xbe8dfdb7	-0.27732632
25	0x3e810f1f	0.2520685
26	0x3e9df9a1	0.30854514
27	0xbdc1a1c8	-0.094546854
28	0xbeb381a9	-0.3505986
29	0xbe412f48	-0.18865693
30	0x3eb183c2	0.34670836
31	0xbc0128fa	-0.007883305
32	0xbe839a51	-0.25703672
33	0x3d61c78c	0.055121943
34	0xbe7a32b2	-0.24433401
35	0xbe9b30cc	-0.30310667
36	0x3e221ec6	0.15832052
37	0xbe14ab9b	-0.14518587
38	0x3c9438b0	0.018093437
39	0x3e84e55c	0.25956237
40	0x3ca3beb0	0.019988388
41	0x3e8bd8b4	0.2731377
42	0xbeaeb339	-0.3412111
43	0xbe9ed942	-0.3102513
44	0x3ea2f6d9	0.31828955
45	0xbe0ee4c0	-0.13954449
46	0x3bf75f40	0.0075491965
47	0x3cb018bf	0.021496175
48	0xbe31d693	-0.1736701
49	0x3e9de711	0.30840352
50	0xbe7d7242	-0.24750617
51	0xbd04aaf0	-0.03238958
52	0xbe096c58	-0.13420236
53	0x3d94e9fd	0.07271192
54	0x3e7f7e9a	0.24950638
55	0xbd4c9a78	-0.049952
56	0x3db2b0e5	0.08725146
57	0x3dea57d8	0.11442536
58	0x3dff404c	0.124634355
59	0x3d953fbf	0.07287549
60	0xbcb4e734	-0.022082902
61	0xbde7fddc	-0.11327717
62	0x3dbc39f4	0.09190741
63	0xbe80e4e4	-0.2517463
64	0xbeac725d	-0.33681002
65	0xbe9fcbe1	-0.31210235
66	0xbea5350a	-0.32267028
67	0x3e905e6d	0.2819704
68	0xbdace5bc	-0.08442256
69	0x3e8aca5d	0.27107516
70	0xbeacb66c	-0.33732927
71	0xbe844c37	-0.25839397
72	0x3ead6545	0.33866325
73	0x3b9ee76b	0.0048493645
74	0xbe1571c7	-0.14594184
75	0xbebf711e	-0.3739099
76	0xbebb72a5	-0.36610904
77	0xbe4084d5	-0.18800671
78	0xbd2fe406	-0.04294207
79	0xbe0724df	-0.13197659
80	0xbde5620f	-0.11200344
81	0x3e423809	0.18966688
82	0xbeb2f45b	-0.34952053
83	0x3e352c56	0.17692694
84	0xbe339774	-0.17538244
85	0x3ebde71e	0.3709039
86	0x3da71350	0.081579804
87	0xbeab33cb	-0.33437952
88	0xbe8d6514	-0.2761618
89	0x3dd637c1	0.10459853
90	0xbe04ebb3	-0.12980537
91	0x3e87cd53	0.26523837
92	0x3e73ab54	0.23795825
93	0xbe0878a6	-0.13327274
94	0xbcc57fab	-0.024108728
95	0xbe63df02	-0.2225304
96	0x3e0f66aa	0.14004007
97	0x3e861adc	0.26192367
98	0x3d65313d	0.05595516
99	0x3be68d12	0.00703586
100	0xbba81365	-0.005129265
101	0x3e7ced19	0.2469982
102	0x3e1e7e98	0.15477979
103	0x3e02bc94	0.1276725
104	0x3d26edf0	0.04075426
105	0xbe61fefc	-0.22069925
106	0xbd7cfea8	-0.061766297
107	0x3e8fa7ea	0.28057796
108	0xbd53c380	-0.051700115
109	0xbdc61276	-0.0967149
110	0xbecbcf90	-0.39806795
111	0xbe231cf7	-0.15929018
112	0xbeaaa78b	-0.3333095
113	0xbe7b687c	-0.24551576
114	0xbe2a7e5e	-0.16649768
115	0xbdeadb0e	-0.114675626
116	0xbcfbd5b0	-0.030741543
117	0xbd6d4d52	-0.057935067
118	0x3e03a6b5	0.12856562
119	0xbe930e39	-0.2872179
120	0x3d9e8c1b	0.07741567
121	0xbd3608e8	-0.044442087
122	0x3ed3f61e	0.4139871
123	0x3e525e32	0.20543745
124	0xbca50440	-0.020143628
125	0xbe288ffd	-0.16461177
126	0xbe853ddc	-0.26023757
127	0xbe13cb6b	-0.14433067

net.2.weight f4 [128]
0	0x3f800000	1.0
1	0x3f85b76e	1.0446603
2	0x3fa8bc6e	1.3182504
3	0x3f95af0a	1.1694043
4	0x3f800000	1.0
5	0x3f817d26	1.0116317
6	0x3f86f04b	1.0542082
7	0x3f800000	1.0
8	0x3f895b11	1.0730916
9	0x3f79212d	0.9731625
10	0x3fe07ea0	1.7538643
11	0x3f8f4af0	1.1194744
12	0x3f80e65d	1.0070301
13	0x3f90f436	1.1324527
14	0x3f800000	1.0
15	0x3f888952	1.0666907
16	0x3f800000	1.0
17	0x4003d3bf	2.059799
18	0x3f9efc1e	1.242069
19	0x3f800000	1.0
20	0x3f800000	1.0
21	0x3f800000	1.0
22	0x3f800000	1.0
23	0x3f800000	1.0
24	0x3fa32d37	1.2748173
25	0x3fadf302	1.3589785
26	0x3f800000	1.0
27	0x3f800000	1.0
28	0x3f8027f9	1.0012199
29	0x3f800000	1.0
30	0x3f88acca	1.0677731
31	0x3f84cb0a	1.0374463
32	0x3f800000	1.0
33	0x3f7e57ac	0.99352527
34	0x3f800000	1.0
35	0x3f800000	1.0
36	0x3f800000	1.0
37	0x3f800000	1.0
38	0x3f800000	1.0
39	0x3f8180a3	1.0117382
40	0x3f800000	1.0
41	0x3f75f777	0.96080726
42	0x3f800000	1.0
43	0x3f90a1c2	1.1299365
44	0x3f800000	1.0
45	0x3fac1e04	1.344666
46	0x3f800000	1.0
47	0x401251ac	2.2862349
48	0x3f800000	1.0
49	0x3f800000	1.0
50	0x3f92ec88	1.1478434
51	0x3fc62288	1.5479288
52	0x3f914061	1.1347772
53	0x3f79c7e1	0.97570616
54	0x40151e69	2.329981
55	0x3f800000	1.0
56	0x3f932ea7	1.1498612
57	0x3f800000	1.0
58	0x3f800000	1.0
59	0x3f7d0d66	0.9884857
60	0x3f75c818	0.96008444
61	0x3f800000	1.0
62	0x3f800000	1.0
63	0x3f800000	1.0
64	0x3fb44999	1.408496
65	0x3f800000	1.0
66	0x3f801fca	1.0009701
67	0x3fa3f329	1.2808582
68	0x3f800000	1.0
69	0x3f800000	1.0
70	0x3f8cc5be	1.0997846
71	0x3f941f9d	1.1572148
72	0x3f800000	1.0
73	0x3f802a05	1.0012823
74	0x3f797bea	0.974547
75	0x3f800227	1.0000657
76	0x3f956f66	1.1674621
77	0x3f800000	1.0
78	0x3f700ba3	0.93767756
79	0x3f823bad	1.0174462
80	0x3fbcfaf3	1.4764084
81	0x3f7b45cd	0.9815338
82	0x3f721555	0.945638
83	0x3f800000	1.0
84	0x3f9b75b6	1.2145298
85	0x3f80e710	1.0070515
86	0x3f702fd2	0.9382297
87	0x3fa9d29d	1.3267399
88	0x3f800000	1.0
89	0x3f829179	1.0200645
90	0x3f789122	0.97096455
91	0x3f95ffd0	1.1718693
92	0x3ff9ba2a	1.9509938
93	0x3f784557	0.96980804
94	0x3f7a0f94	0.9768002
95	0x3faad600	1.3346558
96	0x3f8cc037	1.0996159
97	0x3f8a4b1b	1.080417
98	0x3f84bff5	1.0371081
99	0x3f954067	1.1660279
100	0x3f877833	1.0583557
101	0x3f76c869	0.9639955
102	0x3f8ab507	1.0836495
103	0x3f8f46f2	1.1193526
104	0x3f800000	1.0
105	0x3f800000	1.0
106	0x3f800000	1.0
107	0x3f8679a6	1.0505874
108	0x3f800000	1.0
109	0x3f83c1b1	1.0293485
110	0x3f85c04b	1.0449308
111	0x3f8e89e4	1.1135831
112	0x3f800000	1.0
113	0x3f800000	1.0
114	0x3f8377c6	1.0270927
115	0x3f93d2b5	1.1548678
116	0x3f800000	1.0
117	0x3f7d80fe	0.9902495
118	0x3f75e7d6	0.9605688
119	0x3f800000	1.0
120	0x3f80b12c	1.0054069
121	0x3f800000	1.0
122	0x3f94b626	1.1618087
123	0x3f800000	1.0
124	0x3f800000	1.0
125	0x3f89395c	1.072063
126	0x3f800000	1.0
127	0x3fa3ce46	1.2797325

net.2.bias f4 [128]
0	0xbc8e489c	-0.017368607
1	0x3cef03cd	0.029176617
2	0xbce9724a	-0.02849688
3	0xbcfbae0e	-0.030722644
4	0x3ca136f5	0.019679526
5	0xbb86975c	-0.004107399
6	0xbce84a1f	-0.028355656
7	0xbb528806	-0.0032124533
8	0xbcddba2e	-0.027066316
9	0xbcb3244d	-0.021867895
10	0xbce669c8	-0.028126612
11	0xbce36bc8	-0.027761355
12	0xbc9626ae	-0.01832899
13	0xbcf6cc19	-0.030126618
14	0xbca82938	-0.020527467
15	0x3cb435a4	0.021998234
16	0x3aca5bc2	0.0015438723
17	0xbd163f8c	-0.036681697
18	0xbd2b792a	-0.041863598
19	0x3c8f5908	0.017498508
20	0xad1e5177	-8.999349e-12
21	0xbca21b5a	-0.019788433
22	0xbbf35599	-0.0074259755
23	0x3c819ebe	0.015822764
24	0xbd1072bb	-0.035265666
25	0xbcfc6e40	-0.03081429
26	0xbca6c17a	-0.020355929
27	0x3bafeab8	0.005368557
28	0x3cc037ce	0.02346411
29	0xbc9e3910	-0.019314319
30	0x3c560ad1	0.013064102
31	0x3cb3274b	0.021869322
32	0x3c8f048a	0.01745822
33	0xbc86f199	-0.016472625
34	0xbc97434f	-0.018464712
35	0x260d3bc7	4.9000215e-16
36	0xbc868af6	-0.016423684
37	0x3c68cb95	0.014208694
38	0x3c997d84	0.018736608
39	0xbc65dabd	-0.014029202
40	0x3ca2bfa4	0.019866772
41	0xbca98f16	-0.020698112
42	0xba151906	-0.00056876277
43	0xbcf24089	-0.029571788
44	0xbc4a88da	-0.0123617295
45	0xbd15c64f	-0.036566075
46	0xbc9a1e2e	-0.018813219
47	0x3d13776a	0.036002554
48	0x3ca50787	0.02014519
49	0xbca4a78a	-0.02009942
50	0xbcec04cf	-0.028810887
51	0xbcec364d	-0.028834486
52	0x3b954d48	0.004556332
53	0x3c87c4ff	0.016573427
54	0xbd1078df	-0.03527152
55	0x3c99fac8	0.01879634
56	0xbd13a64c	-0.036047265
57	0x3c9d39c1	0.019192578
58	0x3ca71dda	0.020399977
59	0xbcb6fede	-0.022338327
60	0x3c609980	0.013708472
61	0xbca355bb	-0.01993834
62	0x3ca089f2	0.019597027
63	0xbc91058c	-0.01770284
64	0xbd1a765a	-0.037710525
65	0xbca9eb18	-0.020741984
66	0x3c40f28e	0.01177658
67	0x3b377681	0.0027994218
68	0xbca9e30b	-0.020738145
69	0xbc8c3c6a	-0.017118651
70	0x3ca2e812	0.01988605
71	0xbd091e66	-0.033476256
72	0x3c2b9765	0.010473107
73	0x3b281971	0.002564993
74	0x3cbb78e7	0.0228848
75	0xbc8a5834	-0.016887762
76	0xbce0dd68	-0.027449325
77	0x3c9d27b4	0.019183971
78	0x3c0ab818	0.008466743
79	0xbce8f313	-0.02843622
80	0xbc794b89	-0.015215763
81	0xbcb64e55	-0.022254148
82	0x3c968d35	0.01837788
83	0x3c25fc18	0.010130905
84	0x3d062bb5	0.032756526
85	0x3cd2d8b5	0.0257381
86	0x3b31eb81	0.0027148428
87	0x3cbde82c	0.023181997
88	0x39adac4a	0.00033125497
89	0x3cd2209f	0.02565032
90	0x3cb2825f	0.021790681
91	0xbbe563d6	-0.0070004268
92	0xbd08fd71	-0.033444826
93	0x3cc165fb	0.023608198
94	0x3cc10148	0.023560181
95	0x3cf42d49	0.02980675
96	0xbbb7da7e	-0.005610763
97	0xba89a771	-0.0010502172
98	0xbcc9e57f	-0.024645565
99	0xbcea87ef	-0.028629271
100	0x3cdb9f6a	0.026809413
101	0xbcb958ed	-0.02262541
102	0x3cd65d17	0.026167436
103	0x3cf85ad7	0.030316753
104	0xbc9e6992	-0.01933745
105	0x3c8bb8c1	0.017055871
106	0x3c72a340	0.01480943
107	0xbcc1dd14	-0.023664989
108	0xbc9c5320	-0.019082606
109	0xbcd4b9f8	-0.025967583
110	0xbcda89bc	-0.026677005
111	0xbd05c489	-0.032658134
112	0xbca8ed2a	-0.020620901
113	0xbc9d854d	-0.019228602
114	0x3caa7239	0.020806419
115	0xbced65ec	-0.028979264
116	0x3c97db6b	0.018537244
117	0xbcb23e4a	-0.021758217
118	0xbc511b9d	-0.012762931
119	0xbc873876	-0.016506415
120	0xbcdc79f4	-0.02691362
121	0xbc8bbe7d	-0.017058605
122	0x3cdec947	0.027195586
123	0x3c90de0a	0.017684001
124	0x3c97535f	0.018472372
125	0x3caf0e8f	0.021369247
126	0xbc68e301	-0.014214278
127	0x3cf9bf53	0.030486738

net.2.running_mean f4 [128]
0	0x00000000	0.0
1	0x3df72781	0.12068082
2	0x40c06d9b	6.0133796
3	0x411f2c80	9.948364
4	0x00000000	0.0
5	0x41924270	18.28244
6	0x41bb6338	23.423447
7	0x00000000	0.0
8	0x40bdbe6a	5.929494
9	0x411c97d4	9.787067
10	0x4035b107	2.83893
11	0x4172cebe	15.175474
12	0x3ac9c72a	0.0015394439
13	0x41990148	19.125626
14	0x00000000	0.0
15	0x4177757f	15.466186
16	0x00000000	0.0
17	0x41115091	9.08217
18	0x3c98ab73	0.01863644
19	0x00000000	0.0
20	0x00000000	0.0
21	0x00000000	0.0
22	0x00000000	0.0
23	0x00000000	0.0
24	0x3d961e42	0.0732999
25	0x416fd9a5	14.990636
26	0x00000000	0.0
27	0x00000000	0.0
28	0x41795f41	15.585755
29	0x00000000	0.0
30	0x403f9c00	2.9938965
31	0x404d3c12	3.2067914
32	0x00000000	0.0
33	0x4144f2b3	12.309253
34	0x00000000	0.0
35	0x00000000	0.0
36	0x00000000	0.0
37	0x00000000	0.0
38	0x00000000	0.0
39	0x41b3a6d5	22.45646
40	0x00000000	0.0
41	0x418f0935	17.879496
42	0x00000000	0.0
43	0x4133bef6	11.234121
44	0x00000000	0.0
45	0x408f3ef7	4.476436
46	0x00000000	0.0
47	0x4009345c	2.1438208
48	0x00000000	0.0
49	0x00000000	0.0
50	0x41556c80	13.338989
51	0x411e3ed4	9.890339
52	0x40a0cbf0	5.0248947
53	0x419d88c3	19.691778
54	0x408d69e7	4.4191775
55	0x00000000	0.0
56	0x404acb78	3.1686687
57	0x00000000	0.0
58	0x00000000	0.0
59	0x3fab3fb5	1.3378817
60	0x401750c1	2.3643038
61	0x00000000	0.0
62	0x00000000	0.0
63	0x00000000	0.0
64	0x40a6636a	5.1996355
65	0x00000000	0.0
66	0x40dd4bf3	6.915521
67	0x4050ddbb	3.2635334
68	0x00000000	0.0
69	0x00000000	0.0
70	0x3fe35eed	1.7763344
71	0x414ed4a3	12.926913
72	0x00000000	0.0
73	0x40896a08	4.2941933
74	0x3cbda15b	0.02314823
75	0x41493ccb	12.577342
76	0x407c592f	3.9429433
77	0x00000000	0.0
78	0x413bca98	11.736961
79	0x40d05e04	6.5114765
80	0x40931e23	4.597429
81	0x40640a08	3.5631123
82	0x41c5e814	24.73832
83	0x00000000	0.0
84	0x3f48a908	0.7838292
85	0x408b8470	4.3599167
86	0x414d024f	12.813064
87	0x3e7496cc	0.2388565
88	0x00000000	0.0
89	0x40a4c38e	5.1488714
90	0x3d3fa927	0.046792176
91	0x40f3ac90	7.6148148
92	0x40ace0db	5.402448
93	0x3e3b2c5f	0.18278645
94	0x408edd4a	4.464513
95	0x3f56e2fd	0.83940107
96	0x41343cf4	11.264881
97	0x40366153	2.8496902
98	0x3f92667f	1.1437529
99	0x3e0fcf9f	0.14044045
100	0x4110a7c0	9.040955
101	0x40bee511	5.965462
102	0x409f89e6	4.9855833
103	0x40ecdddc	7.4020824
104	0x00000000	0.0
105	0x00000000	0.0
106	0x00000000	0.0
107	0x3f565558	0.83723974
108	0x00000000	0.0
109	0x412e01a3	10.8754
110	0x418d04bf	17.627317
111	0x414a95ae	12.661543
112	0x00000000	0.0
113	0x00000000	0.0
114	0x413ddb1c	11.8659935
115	0x4136b688	11.419563
116	0x00000000	0.0
117	0x40955961	4.6671605
118	0x406bfbdd	3.6872475
119	0x00000000	0.0
120	0x411c329b	9.762355
121	0x00000000	0.0
122	0x3f86cb67	1.0530823
123	0x00000000	0.0
124	0x00000000	0.0
125	0x416c863c	14.782772
126	0x00000000	0.0
127	0x4004ad43	2.073075

net.2.running_var f4 [128]
0	0x3cb88d6f	0.022528378
1	0x3e3e4025	0.18579157
2	0x407b50ee	3.9268146
3	0x3fef1d45	1.8680807
4	0x3cb88d6f	0.022528378
5	0x422f79ee	43.869072
6	0x41e97397	29.18144
7	0x3cb88d6f	0.022528378
8	0x40f541ae	7.6642675
9	0x412a82e2	10.656954
10	0x3ff28386	1.8946388
11	0x40ff456f	7.977226
12	0x3cbd357c	0.023096792
13	0x4183cc18	16.474655
14	0x3cb88d6f	0.022528378
15	0x4132e045	11.179753
16	0x3cb88d6f	0.022528378
17	0x4054d80c	3.3256865
18	0x3cf3b30f	0.029748468
19	0x3cb88d6f	0.022528378
20	0x3cb88d6f	0.022528378
21	0x3cb88d6f	0.022528378
22	0x3cb88d6f	0.022528378
23	0x3cb88d6f	0.022528378
24	0x3daa42ed	0.08313546
25	0x40c9e7a4	6.3095264
26	0x3cb88d6f	0.022528378
27	0x3cb88d6f	0.022528378
28	0x4203be0f	32.935604
29	0x3cb88d6f	0.022528378
30	0x41196707	9.587653
31	0x40c0f205	6.0295434
32	0x3cb88d6f	0.022528378
33	0x40a58305	5.1722436
34	0x3cb88d6f	0.022528378
35	0x3cb88d6f	0.022528378
36	0x3cb88d6f	0.022528378
37	0x3cb88d6f	0.022528378
38	0x3cb88d6f	0.022528378
39	0x41f6f23e	30.868282
40	0x3cb88d6f	0.022528378
41	0x422df1d0	43.486145
42	0x3cb88d6f	0.022528378
43	0x4151ec30	13.120163
44	0x3cb88d6f	0.022528378
45	0x402bfd24	2.6873255
46	0x3cb88d6f	0.022528378
47	0x3f6d8b89	0.9279104
48	0x3cb88d6f	0.022528378
49	0x3cb88d6f	0.022528378
50	0x4068fb8b	3.640353
51	0x40778fbd	3.868148
52	0x413168dc	11.0881
53	0x41b10dc7	22.131727
54	0x3f852c90	1.0404224
55	0x3cb88d6f	0.022528378
56	0x40974f85	4.728457
57	0x3cb88d6f	0.022528378
58	0x3cb88d6f	0.022528378
59	0x405f1ab6	3.4860053
60	0x40496a72	3.147122
61	0x3cb88d6f	0.022528378
62	0x3cb88d6f	0.022528378
63	0x3cb88d6f	0.022528378
64	0x408bec1e	4.372573
65	0x3cb88d6f	0.022528378
66	0x4116662f	9.399947
67	0x4004d987	2.0757768
68	0x3cb88d6f	0.022528378
69	0x3cb88d6f	0.022528378
70	0x3fbe3d18	1.4862394
71	0x415e8e01	13.909669
72	0x3cb88d6f	0.022528378
73	0x3fd001c6	1.6250541
74	0x3ce4a4bc	0.027910583
75	0x41554232	13.328661
76	0x40eea318	7.457409
77	0x3cb88d6f	0.022528378
78	0x403b74cb	2.9290035
79	0x4039c409	2.90259
80	0x3fd57e3d	1.667915
81	0x413b73e6	11.7157955
82	0x428597cd	66.796486
83	0x3cb88d6f	0.022528378
84	0x3fbb0b25	1.4612776
85	0x41598444	13.594791
86	0x40629615	3.5404103
87	0x3e2174a0	0.15767145
88	0x3cb88d6f	0.022528378
89	0x4157f032	13.496141
90	0x3d2b8b39	0.04188082
91	0x4086f0e0	4.2169037
92	0x3f768faf	0.96312994
93	0x3e3db747	0.18526946
94	0x411ad0f2	9.676012
95	0x3eb0706c	0.3446077
96	0x40b2dd63	5.5895247
97	0x3f9e6ccc	1.2376952
98	0x40043bba	2.0661454
99	0x3e3456c1	0.17611219
100	0x41c3d284	24.47779
101	0x3fdeccda	1.7406266
102	0x4149f21f	12.621612
103	0x414f04ac	12.938641
104	0x3cb88d6f	0.022528378
105	0x3cb88d6f	0.022528378
106	0x3cb88d6f	0.022528378
107	0x3fb13c5d	1.3846546
108	0x3cb88d6f	0.022528378
109	0x41d2d890	26.355743
110	0x41fadb7d	31.357172
111	0x419df35a	19.743824
112	0x3cb88d6f	0.022528378
113	0x3cb88d6f	0.022528378
114	0x409c78b2	4.8897333
115	0x41aa3c9f	21.2796
116	0x3cb88d6f	0.022528378
117	0x412a1837	10.630912
118	0x40fc4b0f	7.8841624
119	0x3cb88d6f	0.022528378
120	0x4137d59c	11.489651
121	0x3cb88d6f	0.022528378
122	0x402e94a3	2.727822
123	0x3cb88d6f	0.022528378
124	0x3cb88d6f	0.022528378
125	0x41151e1c	9.319851
126	0x3cb88d6f	0.022528378
127	0x3f10bd63	0.5653898

net.3.weight f4 [1, 128]
0	0x3d2f98a7	0.04287019
1	0xbd95322a	-0.07284959
2	0x3e497bae	0.19676086
3	0x3e11b9e8	0.14231074
4	0xbd8dfe0b	-0.069332205
5	0x3d1252f6	0.03572365
6	0x3daad229	0.08340866
7	0x3b8181c4	0.003952237
8	0x3e033825	0.12814386
9	0x3bce7f45	0.006301793
10	0x3eddc844	0.43316853
11	0x3e36f3a4	0.17866379
12	0x3d4399ef	0.047754224
13	0x3e0d5779	0.138029
14	0x3db4bbe5	0.088249005
15	0xbdc023e2	-0.09381844
16	0xbaef746e	-0.0018268952
17	0x3f19d1f1	0.6008597
18	0x3e466c77	0.19377314
19	0xbd33a6ac	-0.043860123
20	0x2d2b3a93	9.733231e-12
21	0x3d920cd5	0.07131354
22	0x3c26e7e3	0.010187122
23	0xbd08cf43	-0.033400785
24	0x3e7404dd	0.2382998
25	0x3ea726d7	0.3264682
26	0x3dab5957	0.083666496
27	0xbbe3ef57	-0.0069560218
28	0xbdb721cf	-0.08941995
29	0x3d81cf91	0.06338418
30	0xbd73e6e2	-0.05954636
31	0xbd92367b	-0.071392976
32	0xbd3260cf	-0.043549355
33	0xbc0e4c41	-0.008685173
34	0x3d57a9ac	0.052652046
35	0xa6172e98	-5.2451795e-16
36	0x3d161e19	0.036649797
37	0xbcd8f464	-0.026483722
38	0xbd642a66	-0.055704497
39	0x3d0ce476	0.034397565
40	0xbd951b20	-0.07280564
41	0x3b9f60a2	0.0048638145
42	0x3a2ba757	0.0006548068
43	0x3e193ee2	0.14965394
44	0x3ca90f2c	0.020637117
45	0x3e7891c0	0.24274349
46	0x3d67ed89	0.056623016
47	0xbf62806a	-0.88477194
48	0xbda1086c	-0.078629345
49	0x3d9ef339	0.07761235
50	0x3e37f50d	0.17964573
51	0x3eb6556b	0.35612044
52	0xbdcaa6d4	-0.09895101
53	0xbcfb354a	-0.030665059
54	0x3f4eacbb	0.80732316
55	0xbd6716bc	-0.056418166
56	0x3e01515d	0.12628694
57	0xbd7c5a54	-0.06160958
58	0xbdadaa74	-0.08479777
59	0x3d17d98b	0.0370727
60	0x3ce46605	0.027880678
61	0x3d98017d	0.07422159
62	0xbd8b0f47	-0.06790023
63	0x3d3a5c87	0.045498397
64	0x3e850690	0.2598157
65	0x3dc1f9cf	0.09471475
66	0x3d533dc9	0.051572595
67	0xbe1e3248	-0.15448868
68	0x3dc1b957	0.09459179
69	0x3d283568	0.041066557
70	0xbd924da3	-0.07143714
71	0x3e04c742	0.12966636
72	0xbc8320ce	-0.016006853
73	0x3d6f8c38	0.058483332
74	0xbd565976	-0.05233141
75	0xbd2a6a7f	-0.04160547
76	0x3e62a3c8	0.2213279
77	0xbd7bdaf4	-0.061488107
78	0xbb58106f	-0.003296878
79	0x3d125df6	0.03573414
80	0x3e957ccd	0.29196778
81	0x3d5953b3	0.053058337
82	0xbc83a27f	-0.016068695
83	0xbc7a2abc	-0.015268978
84	0xbe2e35d9	-0.17012729
85	0xbd31d80d	-0.043418933
86	0x3beaec35	0.0071692714
87	0xbe4340f6	-0.1906775
88	0xb9c616e1	-0.0003778255
89	0xbd495c45	-0.04916026
90	0xbc407159	-0.011745774
91	0x3e14a9ed	0.14517947
92	0x3f20470e	0.6260842
93	0xbd0aa960	-0.033852935
94	0xbd04055b	-0.03223167
95	0xbe98c33c	-0.29836452
96	0x3de1f860	0.11033702
97	0x3db7c720	0.08973527
98	0x3da1fa98	0.07909125
99	0x3e653e58	0.22387064
100	0xbdd87304	-0.105688125
101	0x3c9a9beb	0.018873176
102	0xbe0e52c2	-0.13898757
103	0xbdf16fce	-0.11788903
104	0x3d8286cf	0.06373369
105	0xbd266f28	-0.04063335
106	0xbcebfb04	-0.028806217
107	0x3e019712	0.12655285
108	0x3d761a76	0.06008383
109	0x3da941f9	0.082645364
110	0x3dd3c9aa	0.10341199
111	0x3dd372a6	0.10324602
112	0x3dba485b	0.09095832
113	0x3d7e775c	0.06212555
114	0xbdcbf6d0	-0.09959185
115	0x3e370661	0.17873527
116	0xbd5ae05c	-0.053436622
117	0x3d5d9781	0.054099564
118	0xbc49541e	-0.0122881215
119	0x3d181a92	0.037134714
120	0x3d15be32	0.036558338
121	0x3d26826a	0.040651716
122	0xbe669b52	-0.22520187
123	0xbd39b966	-0.045342825
124	0xbd57ff26	-0.052733563
125	0xbdc9a4e6	-0.09845905
126	0x3cd91f56	0.0265042
127	0xbe90b270	-0.28261137
