saved_models/mlp/MLP_backache.pth (torch, 22973 bytes, 7 tensors)

net.0.weight f4 [128, 32]
0	0x3d1cd595	0.038289625
1	0x3d07c409	0.033145938
2	0x3d889948	0.06669861
3	0xbd71355e	-0.058888786
4	0x3d1eeb2e	0.038798504
5	0xbc92bb32	-0.017911527
6	0xbdd5aff6	-0.104339525
7	0x3d9e2eea	0.07723792
8	0xbda514f4	-0.08060637
9	0xbe2f0202	-0.1709061
10	0x3e0c262a	0.13686433
11	0x3d12e520	0.035863042
12	0x3e0dc9a9	0.13846458
13	0xbe303e53	-0.17211275
14	0xbe0522b9	-0.13001527
15	0xbdad68b3	-0.084672354
16	0x3e1f11e9	0.15534176
17	0x3dbf317a	0.09335609
18	0xbe282e6c	-0.16423959
19	0xbdec8f08	-0.115507185
20	0xbda28dda	-0.07937212
21	0xbd2579e0	-0.040399432
22	0x3e25f743	0.16207604
23	0xbe2c0240	-0.16797733
24	0x3d908c2a	0.07057984
25	0xbdc007fc	-0.09376523
26	0x3e193ead	0.14965315
27	0x3dd7cf1a	0.10537548
28	0xbddbe74c	-0.10737476
29	0x3c2e9e20	0.010657817
30	0x3d8778a1	0.06614805
31	0x3dc884f6	0.09790985
32	0x3bdb3f40	0.0066908896
33	0x3db03ae6	0.08604984
34	0xbdf3aa54	-0.11897722
35	0xbe0db9f0	-0.13840461
36	0xbd3e42c0	-0.046450377
37	0xbe1e11c0	-0.15436459
38	0xbd96a452	-0.0735556
39	0xbdd6ddb7	-0.104915075
40	0xbd54b278	-0.051928014
41	0x3cef09a0	0.029179394
42	0xbcf62240	-0.030045629
43	0x3df6939a	0.120398715
44	0xbd4046c4	-0.046942487
45	0xbd0beb78	-0.034160107
46	0x3da56576	0.08075993
47	0x3e2dae7d	0.16961093
48	0x3cfbb0f0	0.030724019
49	0x3e078901	0.13235857
50	0xbd20a13c	-0.039216265
51	0xbdf13fd8	-0.11779755
52	0x3dd65a36	0.10466425
53	0x3d786120	0.0606395
54	0x3d88ef80	0.06686306
55	0xbdd6d962	-0.10490681
56	0x3da8d246	0.082432315
57	0xbe04d969	-0.1297356
58	0x3df387d6	0.11891143
59	0xbe15ddcc	-0.1463539
60	0x3c8020e8	0.01564069
61	0xbdf862ff	-0.12128257
62	0xbdee341e	-0.11631034
63	0x3c7bfe50	0.015380457
64	0x3b90c800	0.004418373
65	0xbdf0383c	-0.11729476
66	0xbda57b57	-0.08080166
67	0xbe13ecfb	-0.1444587
68	0x3d2a0ec8	0.041518003
69	0xbd8c72b6	-0.06857817
70	0xbd6c1e0c	-0.057645842
71	0xbca2d1f8	-0.019875512
72	0x3dedf3b2	0.11618747
73	0x3dd8868e	0.10572539
74	0xbc5dcc90	-0.013537541
75	0xbd99c0c1	-0.07507468
76	0x3e08d9d7	0.1336435
77	0xbc7aaad0	-0.015299514
78	0x3df0149e	0.117226824
79	0xbe1543a4	-0.14576584
80	0x3d94ad5e	0.0725963
81	0x3e260b8f	0.16215347
82	0xbe24db14	-0.16099197
83	0xbdd2a7ad	-0.10285888
84	0x3caf4780	0.021396399
85	0x3d38c100	0.045105934
86	0xbc281530	-0.010258958
87	0x3d933a8e	0.07188903
88	0xbe200af1	-0.15629174
89	0xbe086842	-0.13321021
90	0xbdc4e15e	-0.09613298
91	0xbc7be0b0	-0.015373394
92	0x3ccc14b8	0.024912223
93	0x3bbf2e60	0.0058343858
94	0x3e336ae5	0.17521246
95	0x3d7d0f7c	0.061782345
96	0x3d74fdc4	0.059812322
97	0x3df93d39	0.121698804
98	0xbe259227	-0.16169034
99	0xbdd2c564	-0.102915555
100	0xbe0144bf	-0.12623881
101	0xbd1bafd3	-0.038009476
102	0x3d571f53	0.052520107
103	0xbe05aae5	-0.13053472
104	0xbd034a23	-0.032053124
105	0x3e1e1bd9	0.1544031
106	0x3c12e583	0.008965853
107	0xbb8fa1c9	-0.0043833
108	0xbd1795e7	-0.037008192
109	0x3dc8b2d0	0.09799731
110	0xbe5fa04f	-0.21838497
111	0xbdc368b4	-0.09541455
112	0x3dcaad86	0.09896378
113	0x3cf93e1b	0.030425122
114	0xbb979eee	-0.0046271
115	0x3e38d445	0.18049724
116	0x3e349938	0.17636573
117	0x3e7f9bd5	0.24961789
118	0xbd7d84b7	-0.061894145
119	0xbd10428a	-0.035219707
120	0xbe283f43	-0.16430382
121	0xbe42843e	-0.18995759
122	0xbdef75a9	-0.11692364
123	0xbe68bd97	-0.22728573
124	0xbdd9415a	-0.10608168
125	0x3e7af072	0.24505785
126	0xbd9a45c6	-0.075328395
127	0x3d52f472	0.051502652
128	0xbe2912bf	-0.16511057
129	0x3d29ac5c	0.04142414
130	0x3d277334	0.04088135
131	0xbd65781c	-0.05602275
132	0x3d4a703c	0.04942344
133	0xbe0f78ab	-0.14010875
134	0x3c7daf70	0.015483722
135	0xbd321fe8	-0.04348746
136	0x3daf69b2	0.08565082
137	0xbdad54d7	-0.084634475
138	0x3e19c989	0.15018286
139	0x3dd8a316	0.10577981
140	0x3e0d38f5	0.13791259
141	0x3d940e78	0.07229322
142	0xbd61777e	-0.055045597
143	0xbe2bc7ea	-0.1677548
144	0xbc807e00	-0.015685081
145	0x3daecad2	0.08534779
146	0x3db7098e	0.08937369
147	0x3df6836a	0.12036784
148	0xbe324ffd	-0.17413326
149	0x3ce24b00	0.027623653
150	0x3d7e2d08	0.062054664
151	0xbbdac040	-0.00667575
152	0x3dbd5f8e	0.09246741
153	0x3ca1e0e8	0.019760564
154	0xbd35c05c	-0.0443729
155	0x3db18b46	0.086691424
156	0x3c8c09d0	0.017094523
157	0x3db0bde2	0.08629967
158	0x3cdfd7c0	0.027324557
159	0xbde3dbe9	-0.11125929
160	0x3cd845e0	0.026400506
161	0xbda78f27	-0.08181601
162	0x3c1ff500	0.009763002
163	0xbd3260b0	-0.04354924
164	0x3e116df7	0.14202105
165	0xbe077cbf	-0.1323118
166	0xbd16c17c	-0.036805615
167	0x3e26d84d	0.1629345
168	0xbdbca406	-0.092109725
169	0x3d3254a0	0.043537736
170	0xbba57360	-0.005049154
171	0xbe33ac43	-0.17546181
172	0xbd656cc6	-0.056011938
173	0xbd98f631	-0.07468832
174	0x3ce2dd60	0.02769345
175	0xbe125d0c	-0.14293307
176	0xbcc6d3c0	-0.024270892
177	0xbdf30cbe	-0.11867665
178	0x3d923934	0.07139817
179	0x3e0b00a3	0.13574462
180	0xbdf3d686	-0.119061515
181	0x3e1d3563	0.15352397
182	0xbe205830	-0.15658641
183	0x3dfe64fe	0.124216065
184	0xbcf97798	-0.030452535
185	0xbcf7d508	-0.030252948
186	0x3db0ffea	0.08642562
187	0x3d9a426a	0.07532199
188	0xbe0061ac	-0.12537259
189	0xbe116ae7	-0.14200936
190	0xbc5f6ec0	-0.013637245
191	0x3bc00040	0.005859405
192	0x3e1510c1	0.14557172
193	0xbd50c436	-0.05096837
194	0xbc343c24	-0.011000667
195	0x3e27fb5a	0.16404477
196	0x3db05de4	0.08611658
197	0xbd092c0f	-0.033489283
198	0xbda8b13c	-0.0823693
199	0x3e1a36c0	0.15059948
200	0xbd83eb6a	-0.06441386
201	0xbd71b158	-0.05900702
202	0xbd8e87db	-0.06959506
203	0x3d66650a	0.056248702
204	0x3d119340	0.03554082
205	0x3e213749	0.15743746
206	0xbd0a713a	-0.033799388
207	0x3da6a0ef	0.081361644
208	0xbe24034d	-0.16016884
209	0x3e62e10b	0.2215616
210	0xbe379095	-0.17926247
211	0x3ccab2ce	0.024743464
212	0xbe8631de	-0.2620992
213	0xbe4de9e4	-0.20108753
214	0x3d28a5cf	0.041173752
215	0x3dbbebd4	0.0917584
216	0x3dd4e14a	0.10394533
217	0xbd940260	-0.072270155
218	0xbd99a503	-0.075021766
219	0x3e5d226c	0.21595162
220	0xbe23961a	-0.15975228
221	0xbe013380	-0.12617302
222	0x3ddd698f	0.10811149
223	0x3cae03fd	0.021242136
224	0x3dd4f6c8	0.10398632
225	0xbcb4c2dc	-0.022065572
226	0x3d048955	0.032357533
227	0xbe08142a	-0.13288942
228	0xbe11ac18	-0.14225805
229	0xbe1b653e	-0.1517534
230	0xbe34bc19	-0.17649879
231	0x3e271950	0.1631825
232	0xbd8f4f21	-0.069975145
233	0x3cee2588	0.02907063
234	0x3d8c1c69	0.06841356
235	0xbe0b330e	-0.13593695
236	0xbe01889e	-0.12649772
237	0x3e1a73fb	0.15083306
238	0xbe042c61	-0.12907554
239	0x3dbfa565	0.093577184
240	0xbb839c00	-0.0040163994
241	0xbdf02f02	-0.11727716
242	0xbe0210ae	-0.12701675
243	0xbe0f439c	-0.13990635
244	0x3e10288d	0.14077969
245	0x3cb483d8	0.022035524
246	0x3bf9d6c0	0.007624477
247	0xbe2f7a6d	-0.17136545
248	0x3cbd4150	0.023102432
249	0x3bb2c8c0	0.00545606
250	0x3d8add52	0.06780495
251	0x3c34c5b0	0.0110334605
252	0xbd79fed2	-0.06103403
253	0xbd3cda20	-0.046106458
254	0x3e1a22df	0.15052365
255	0x3de25d5e	0.11052965

net.0.bias f4 [128]
0	0x3c3b5c34	0.011435557
1	0xbd691f5e	-0.05691468
2	0xbc6ef0b0	-0.014583752
3	0x3dca90ac	0.09890875
4	0x3e0165e9	0.12636532
5	0x3e1700c9	0.14746393
6	0xbcca3afc	-0.024686329
7	0xbd668228	-0.05627647
8	0x3ada8790	0.0016672481
9	0x3e382326	0.17982158
10	0xbe32e317	-0.1746944
11	0xbe1e0ce5	-0.15434606
12	0x3d8af8b8	0.067857206
13	0x3e0a2cf9	0.13493718
14	0xbd9378c5	-0.07200769
15	0xbdbf75b9	-0.09348626
16	0x3d9b5657	0.075848274
17	0x3d9e0bf3	0.07717123
18	0xbc3b7940	-0.0114424825
19	0xbdacbf2d	-0.084349014
20	0x3df08d5a	0.11745711
21	0xbc257774	-0.010099281
22	0x3d1da444	0.038486734
23	0x3d8bd351	0.06827415
24	0x3dd40f5e	0.103544936
25	0xbe1f804e	-0.15576288
26	0x3d9f8231	0.07788504
27	0x3be2b08b	0.006918018
28	0x3e13c801	0.14431764
29	0x3c4c4568	0.01246772
30	0xbd939d66	-0.07207756
31	0xbe19e077	-0.15027033
32	0x3dfee44f	0.1244589
33	0xbca5fade	-0.020261224
34	0xb9893dce	-0.00026176724
35	0x3e0bc177	0.1364802
36	0xbdff8766	-0.12476997
37	0x3da68859	0.08131475
38	0xbdaa801c	-0.08325216
39	0xbdaebff5	-0.08532707
40	0x3e07c749	0.13259615
41	0xbd0284ff	-0.031865116
42	0x3e13f149	0.14447512
43	0xbd537bc4	-0.051631704
44	0xbe21f040	-0.15814304
45	0xbda0812f	-0.0783714
46	0x3d01046d	0.03149836
47	0xbd6ab05e	-0.057297103
48	0xbccacfc0	-0.024757266
49	0xbcbbfd10	-0.022947818
50	0x3dbb5d0f	0.09148609
51	0xbdecc843	-0.115616344
52	0xbe18e6cd	-0.14931794
53	0x3de1e7a6	0.110305116
54	0xbdc0f520	-0.09421754
55	0xbdb29d93	-0.08721461
56	0x3e1a8dbe	0.15093133
57	0xbd083d9a	-0.033261873
58	0xbe271450	-0.16316342
59	0x3dbf3b6a	0.09337504
60	0xbda322c4	-0.079656154
61	0xbdcbeec0	-0.09957647
62	0xbe12ef7e	-0.14349172
63	0x3e17f41f	0.14839219
64	0x3e2648f8	0.16238773
65	0xb80a1746	-3.292344e-05
66	0x3abb7c5d	0.0014304031
67	0xbd0834a0	-0.033253312
68	0xbc576570	-0.013146743
69	0xbdf1160e	-0.11771785
70	0x3d560a39	0.052255843
71	0xbe136721	-0.1439481
72	0xbdee8acf	-0.116475694
73	0xbd9007b3	-0.070327185
74	0xbbf42580	-0.0074507594
75	0x3d4bda76	0.049768887
76	0x3d447a9c	0.047968492
77	0xbddb2051	-0.10699523
78	0xbcf6637f	-0.03007674
79	0x3e2930b5	0.16522487
80	0xbd88438d	-0.06653509
81	0xbe39f4e8	-0.1815983
82	0xbcc9c00a	-0.024627704
83	0xbdd1e524	-0.10248783
84	0x3ddd8a81	0.10817433
85	0xbe07eb44	-0.1327334
86	0x3d54c7ce	0.05194836
87	0x3d9aa649	0.075512476
88	0xbda7b871	-0.08189476
89	0x3e26e851	0.16299559
90	0x3c850608	0.016238227
91	0xbde082ae	-0.10962425
92	0x3ddf9b5a	0.10918303
93	0x3e19ef65	0.15032728
94	0x3dce935b	0.100866996
95	0x3d660eb5	0.05616637
96	0xbc157350	-0.009121731
97	0xbdd56b6f	-0.10420882
98	0x3e21353c	0.15742964
99	0xbe2ae4b3	-0.16688804
100	0xbe334cd2	-0.17509773
101	0x3d59296b	0.053018015
102	0x3e1dd213	0.15412168
103	0xbd8c3b91	-0.06847299
104	0x3d2b80bf	0.04187083
105	0x3e07ff1c	0.1328091
106	0x3e139d8a	0.14415565
107	0x3db42089	0.08795268
108	0xbd9db06b	-0.07699665
109	0x3deb2e62	0.11483456
110	0x3dfbcd78	0.122950494
111	0x3c8b91c8	0.017037287
112	0x3daf092a	0.0854667
113	0x3c2751b0	0.010212347
114	0xbe41cdaa	-0.18926111
115	0x3dab0b30	0.08351743
116	0xbdca7359	-0.09885282
117	0x3dcfb34e	0.101416215
118	0x3cec13d8	0.028818056
119	0x3dcb2834	0.099197775
120	0x3d037b66	0.032100104
121	0x3e282d0c	0.16423434
122	0xbe233801	-0.15939333
123	0x3d7d9792	0.061912127
124	0xbe06bdab	-0.1315829
125	0xbd9a2d5b	-0.07528182
126	0x3dc71fea	0.09722884
127	0xbd3afc8a	-0.045650996

net.2.weight f4 [128]
0	0x3f7f06fa	0.9962002
1	0x3f800000	1.0
2	0x3f800000	1.0
3	0x3f7ad709	0.9798437
4	0x3f800000	1.0
5	0x3f800000	1.0
6	0x3f7fb66c	0.9988773
7	0x3f7bfdf5	0.9843438
8	0x3f7cb1d9	0.98708874
9	0x3f84398c	1.0330062
10	0x3f81d7df	1.0144004
11	0x3f82c5cc	1.0216613
12	0x3f7f0207	0.9961247
13	0x3f800000	1.0
14	0x3f803a99	1.0017883
15	0x3f800000	1.0
16	0x3f7f9b71	0.9984656
17	0x3f799b9b	0.9750306
18	0x3f800000	1.0
19	0x3f7bb81f	0.9832782
20	0x3f811711	1.0085164
21	0x3f7ab2b3	0.97928923
22	0x3f800000	1.0
23	0x3f7eb055	0.9948781
24	0x3f800000	1.0
25	0x3f7e73b8	0.9939532
26	0x3f846722	1.0343974
27	0x3f808bc4	1.0042653
28	0x3f7e2e87	0.99289745
29	0x3f7e3c1d	0.99310476
30	0x3f800000	1.0
31	0x3f800000	1.0
32	0x3f7d02af	0.9883222
33	0x3f7f76a0	0.9979038
34	0x3f7f9c3f	0.9984779
35	0x3f803f8c	1.0019393
36	0x3f800000	1.0
37	0x3f7c37f9	0.9852291
38	0x3f800000	1.0
39	0x3f7e3af7	0.99308723
40	0x3f800fb1	1.0004789
41	0x3f80ad7b	1.0052942
42	0x3f82dc9f	1.0223578
43	0x3f800000	1.0
44	0x3f800000	1.0
45	0x3f7c7b3d	0.98625547
46	0x3f7c64da	0.9859139
47	0x3f800000	1.0
48	0x3f82476b	1.0178045
49	0x3f7e0565	0.9922698
50	0x3f81dbc2	1.014519
51	0x3f7b44af	0.9815168
52	0x3f7cc3c3	0.9873621
53	0x3f800000	1.0
54	0x3f7e5971	0.99355227
55	0x3f8374b4	1.026999
56	0x3f7ee6fd	0.9957121
57	0x3f7d87a4	0.99035096
58	0x3f804e5d	1.0023915
59	0x3f800000	1.0
60	0x3f800000	1.0
61	0x3f80bc1b	1.0057405
62	0x3f82192b	1.0163931
63	0x3f80c008	1.0058603
64	0x3f7ef29c	0.9958894
65	0x3f8315aa	1.0240986
66	0x3f778496	0.96686685
67	0x3f800000	1.0
68	0x3f800000	1.0
69	0x3f81ba54	1.0134988
70	0x3f80339b	1.0015749
71	0x3f83754e	1.0270174
72	0x3f805874	1.0026994
73	0x3f817242	1.0112994
74	0x3f79db16	0.97599924
75	0x3f838e3e	1.0277784
76	0x3f800000	1.0
77	0x3f78881c	0.97082686
78	0x3f7c9115	0.9865888
79	0x3f7e5b08	0.9935765
80	0x3f82848d	1.0196701
81	0x3f7fd540	0.9993477
82	0x3f7f160b	0.9964301
83	0x3f7f3535	0.9969056
84	0x3f7e4173	0.9931862
85	0x3f7efa39	0.9960056
86	0x3f80f97c	1.0076137
87	0x3f808984	1.0041966
88	0x3f800000	1.0
89	0x3f800000	1.0
90	0x3f800000	1.0
91	0x3f80de3e	1.0067823
92	0x3f800000	1.0
93	0x3f800000	1.0
94	0x3f847188	1.0347147
95	0x3f81149e	1.0084417
96	0x3f800000	1.0
97	0x3f800000	1.0
98	0x3f869fcf	1.051752
99	0x3f7ae353	0.9800312
100	0x3f800000	1.0
101	0x3f761a21	0.9613362
102	0x3f7c1320	0.9846668
103	0x3f801620	1.0006752
104	0x3f7f2ee9	0.99680954
105	0x3f7ac3dd	0.97955114
106	0x3f809a4b	1.0047086
107	0x3f80bdc5	1.0057913
108	0x3f800000	1.0
109	0x3f81483a	1.0100167
110	0x3f7ca821	0.98694044
111	0x3f7f1aa2	0.99650013
112	0x3f800000	1.0
113	0x3f800000	1.0
114	0x3f7fc411	0.9990855
115	0x3f77cc61	0.9679623
116	0x3f7e2170	0.9926977
117	0x3f7ea4d7	0.99470276
118	0x3f800000	1.0
119	0x3f80b046	1.0053794
120	0x3f8118e4	1.0085721
121	0x3f860fe7	1.0473603
122	0x3f7efcb0	0.9960432
123	0x3f7c9a03	0.98672503
124	0x3f70b6c4	0.9402888
125	0x3f7fb3a2	0.9988347
126	0x3f800000	1.0
127	0x3f7b68b1	0.9820662

net.2.bias f4 [128]
0	0xbd33a834	-0.043861583
1	0x3d3445ee	0.044012003
2	0xbd3bdc4d	-0.045864392
3	0xbd2971c8	-0.041368276
4	0x3d3acfba	0.04560826
5	0xbd36f92f	-0.044671234
6	0x3d2e9e16	0.04263123
7	0x3d355bba	0.04427693
8	0x3d27b975	0.04094835
9	0x3d34aee2	0.044112094
10	0xbd31637d	-0.04330777
11	0xbd308c93	-0.043102812
12	0xbd2f4f59	-0.04280028
13	0xbd348618	-0.044073194
14	0x3d2d1565	0.04225673
15	0xbd3d8991	-0.04627377
16	0x3d2e6ae2	0.0425824
17	0x3d2abbcd	0.041683007
18	0xbd368fc6	-0.044570707
19	0xbd2850a2	-0.041092522
20	0x3d2d6a84	0.04233791
21	0x3d1eed4f	0.038800534
22	0x3d396ee9	0.045271788
23	0x3d2af108	0.04173377
24	0xbd3bd2cf	-0.04585534
25	0xbd2c2d33	-0.042035293
26	0x3d30f821	0.043205384
27	0xbd2ed1f9	-0.042680714
28	0x3d2a9be0	0.04165256
29	0x3d2df7d5	0.04247268
30	0xbd346ea0	-0.044050813
31	0xbd409209	-0.04701427
32	0x3d2d1231	0.042253677
33	0x3cc9a5c6	0.02461518
34	0xbd299c7f	-0.041409012
35	0x3d30fa86	0.043207668
36	0x3d35571c	0.044272527
37	0x3d2b808c	0.04187064
38	0x3d3a1de8	0.045438677
39	0xbd1989e2	-0.03748501
40	0xbd2c6982	-0.042092808
41	0xbd3c9e51	-0.04604942
42	0xbd2e9f83	-0.04263259
43	0x3d3bbf5f	0.045836803
44	0xbd36fef4	-0.044676736
45	0x3d28db90	0.041225016
46	0x3d3007c7	0.042976167
47	0x3d356a62	0.044290908
48	0x3d30b0b5	0.04313727
49	0xbd22b629	-0.039724503
50	0x3d3335ac	0.043752357
51	0xbd2fb292	-0.042894907
52	0xbd2f2226	-0.042757176
53	0x3d3867e8	0.045020968
54	0xbd2b4ab1	-0.04181928
55	0x3d2e704c	0.042587563
56	0xbd2fc8ef	-0.042916235
57	0xbd1bc387	-0.038028266
58	0xbd2ee7f1	-0.042701665
59	0xbd36c2d1	-0.044619385
60	0xbd3668cd	-0.04453354
61	0x3d304d7e	0.043042652
62	0xbd2d55ac	-0.04231803
63	0x3d307583	0.043080818
64	0xbd2fce42	-0.042921312
65	0x3d2f2610	0.04276091
66	0x3d2ca377	0.04214808
67	0x3d354ee2	0.04426468
68	0x3d351534	0.044209674
69	0x3d38a126	0.045075558
70	0xbd2dc3a0	-0.04242289
71	0xbd2e7f63	-0.042601954
72	0xbd343414	-0.043994978
73	0xbd2cf125	-0.04222216
74	0xbc84a99b	-0.016194155
75	0xbd31ad24	-0.04337801
76	0x3d34d695	0.044149954
77	0x3d1fe08c	0.039032504
78	0xbcc38ee6	-0.02387185
79	0x3d2e702e	0.04258745
80	0x3d13bd41	0.03606916
81	0xbd26a2bf	-0.04068255
82	0xbd2ab9ac	-0.041680977
83	0x3d25ed62	0.04050959
84	0x3d2deb78	0.04246089
85	0xbd319063	-0.04335059
86	0xbd2bea83	-0.041971695
87	0xbd2b724a	-0.04185704
88	0xbd351f40	-0.044219255
89	0xbd39d835	-0.045372207
90	0xbd351176	-0.044206105
91	0xbd2df72d	-0.042472053
92	0xbd3978b1	-0.045281116
93	0x3d423eaf	0.04742306
94	0x3d3df3ee	0.046375208
95	0xbd2c314d	-0.042039204
96	0xbd3c7fe6	-0.04602041
97	0x3d36f6a4	0.04466881
98	0x3d37d195	0.044877607
99	0xbd1c0bbd	-0.038097132
100	0x3d3806de	0.044928424
101	0x3d1777a6	0.03697934
102	0xbd1d865b	-0.03845821
103	0x3d31bcb2	0.043392844
104	0xbd2efe46	-0.042722963
105	0xbd2f5ca4	-0.04281296
106	0xbd2d9e50	-0.042387307
107	0xbd2e650a	-0.042576827
108	0x3d37abbb	0.04484151
109	0xbd318c49	-0.043346677
110	0x3d1b2e57	0.03788599
111	0x3d301110	0.042985022
112	0xbd3d9bdf	-0.04629123
113	0x3d3eed62	0.046613105
114	0xbd2cccc9	-0.042187486
115	0x3d25c6b1	0.04047269
116	0xbd279428	-0.040912777
117	0xbd2edc17	-0.042690363
118	0x3d343377	0.043994393
119	0x3d3264ca	0.04355315
120	0xbd2f4c20	-0.042797208
121	0x3d3446fb	0.044013005
122	0x3d2ce6eb	0.042212408
123	0x3d296257	0.04135355
124	0x3d09d91a	0.03365431
125	0x3d34276b	0.043982904
126	0x3d380d23	0.044934403
127	0xbcca4531	-0.024691196

net.2.running_mean f4 [128]
0	0x3c7fe99c	0.015619662
1	0x00000000	0.0
2	0x00000000	0.0
3	0x404bb44a	3.182879
4	0x00000000	0.0
5	0x00000000	0.0
6	0x40fb36cc	7.850439
7	0x3b54f981	0.0032497349
8	0x40088541	2.1331332
9	0x3e94f34b	0.29091868
10	0x3f30ca73	0.69058913
11	0x4048335f	3.1281354
12	0x3a40e93e	0.00073589745
13	0x00000000	0.0
14	0x418d2800	17.644531
15	0x00000000	0.0
16	0x41a1465b	20.159353
17	0x4187aad1	16.958406
18	0x00000000	0.0
19	0x410ab71d	8.669705
20	0x411d3a46	9.826727
21	0x41c0dd6b	24.108114
22	0x00000000	0.0
23	0x409de75f	4.9344935
24	0x00000000	0.0
25	0x4118f789	9.560433
26	0x40818e55	4.0486245
27	0x3d52bc1d	0.05144893
28	0x3f1914f0	0.59797573
29	0x3ffe9fa6	1.9892471
30	0x00000000	0.0
31	0x00000000	0.0
32	0x417debe4	15.8700905
33	0x403bb119	2.9326842
34	0x40ff78b4	7.9834843
35	0x3fa5167d	1.2897488
36	0x00000000	0.0
37	0x41a1e78e	20.238064
38	0x00000000	0.0
39	0x3b7409bf	0.0037237254
40	0x3cb4e80b	0.022083303
41	0x402f1742	2.7357945
42	0x401294a8	2.2903233
43	0x00000000	0.0
44	0x00000000	0.0
45	0x4193b438	18.462997
46	0x3e5a0382	0.212904
47	0x00000000	0.0
48	0x400a8a27	2.1646821
49	0x3d7fe016	0.062469564
50	0x409cdeac	4.9021816
51	0x3f252609	0.6451116
52	0x3fd76dee	1.6830423
53	0x00000000	0.0
54	0x412ba4c0	10.727722
55	0x41539a24	13.225132
56	0x39423a54	0.0001852301
57	0x3a3ed280	0.0007279292
58	0x3a915b5f	0.0011089853
59	0x00000000	0.0
60	0x00000000	0.0
61	0x407c2899	3.939978
62	0x4112a5c7	9.165473
63	0x40160dcd	2.3445923
64	0x40f0e0d0	7.527443
65	0x3f9924e1	1.196438
66	0x3e42e47b	0.19032471
67	0x00000000	0.0
68	0x00000000	0.0
69	0x3e368711	0.17824961
70	0x413a931e	11.660917
71	0x40d90e31	6.7829823
72	0x3ee23581	0.44181445
73	0x411e004f	9.875075
74	0x40d22047	6.56644
75	0x3f2fc0c1	0.68653494
76	0x00000000	0.0
77	0x3fd48410	1.6602802
78	0x3c81eb5b	0.015859297
79	0x418fe74d	17.98794
80	0x3f9e8834	1.2385316
81	0x3eb50cee	0.35361427
82	0x3ea01b8f	0.31271026
83	0x40668b08	3.6022358
84	0x3f47d903	0.7806551
85	0x3fd7a174	1.6846147
86	0x403231c8	2.7842884
87	0x41322a99	11.1354
88	0x00000000	0.0
89	0x00000000	0.0
90	0x00000000	0.0
91	0x418ac136	17.344341
92	0x00000000	0.0
93	0x00000000	0.0
94	0x3e86153c	0.26188076
95	0x40e79cd6	7.237895
96	0x00000000	0.0
97	0x00000000	0.0
98	0x3f3086b8	0.68955564
99	0x3dbe4af7	0.09291642
100	0x00000000	0.0
101	0x41c58433	24.68955
102	0x3c5c2e68	0.0134387985
103	0x3d25e467	0.040501025
104	0x40be9561	5.9557347
105	0x3f999d68	1.2001162
106	0x41ba6fdc	23.304619
107	0x4169d6db	14.614955
108	0x00000000	0.0
109	0x40050e68	2.0790043
110	0x4052d319	3.2941344
111	0x40dbfa14	6.874277
112	0x00000000	0.0
113	0x00000000	0.0
114	0x3c9b7da5	0.01898081
115	0x41a1803c	20.187614
116	0x3dd1144e	0.10208951
117	0x409b0e58	4.845501
118	0x00000000	0.0
119	0x41132238	9.195854
120	0x410d6450	8.83699
121	0x3faa21b9	1.3291541
122	0x41c5bebd	24.718134
123	0x41ae2b72	21.771214
124	0x41acf8fc	21.621574
125	0x3f1fe2a4	0.624552
126	0x00000000	0.0
127	0x3ca45b5c	0.020063095

net.2.running_var f4 [128]
0	0x3d42457f	0.047429558
1	0x3d0ca4c1	0.03433681
2	0x3d0ca4c1	0.03433681
3	0x40ca1d5b	6.3160834
4	0x3d0ca4c1	0.03433681
5	0x3d0ca4c1	0.03433681
6	0x4205c585	33.44289
7	0x3d0f47e1	0.03498066
8	0x401168a8	2.2720127
9	0x3f44345b	0.7664239
10	0x3fa61b01	1.2976991
11	0x412a1604	10.630375
12	0x3d0d5f93	0.034514975
13	0x3d0ca4c1	0.03433681
14	0x410e6631	8.899949
15	0x3d0ca4c1	0.03433681
16	0x424df9d7	51.493984
17	0x41912c9d	18.146784
18	0x3d0ca4c1	0.03433681
19	0x41446c6f	12.276473
20	0x4114465e	9.2671795
21	0x41fbcc71	31.474825
22	0x3d0ca4c1	0.03433681
23	0x418e742a	17.80672
24	0x3d0ca4c1	0.03433681
25	0x4150788c	13.02943
26	0x3f7383b6	0.9512285
27	0x3df9c499	0.12195701
28	0x3f5bc505	0.858475
29	0x410f62fd	8.961667
30	0x3d0ca4c1	0.03433681
31	0x3d0ca4c1	0.03433681
32	0x42451406	49.269554
33	0x3fb0d505	1.3815008
34	0x4202b0b5	32.672565
35	0x400ce66a	2.2015634
36	0x3d0ca4c1	0.03433681
37	0x421c8f43	39.139904
38	0x3d0ca4c1	0.03433681
39	0x3d196c50	0.03745681
40	0x3d5b919c	0.05360566
41	0x40990f68	4.7831306
42	0x410594d0	8.348831
43	0x3d0ca4c1	0.03433681
44	0x3d0ca4c1	0.03433681
45	0x41f7d4cd	30.978907
46	0x3ea33ccf	0.3188233
47	0x3d0ca4c1	0.03433681
48	0x412bb0d2	10.730669
49	0x3de6b1d8	0.1126439
50	0x4189520f	17.165068
51	0x40307b14	2.757512
52	0x4110032d	9.000775
53	0x3d0ca4c1	0.03433681
54	0x41c8d75d	25.105158
55	0x40eaf7c9	7.342747
56	0x3d0cbb07	0.03435805
57	0x3d0d1adb	0.03444944
58	0x3d0ddd39	0.034634802
59	0x3d0ca4c1	0.03433681
60	0x3d0ca4c1	0.03433681
61	0x4196eed8	18.866623
62	0x40010a33	2.0162475
63	0x40d1d6db	6.5574775
64	0x41c19927	24.199781
65	0x4099c22e	4.8049536
66	0x3e594501	0.21217729
67	0x3d0ca4c1	0.03433681
68	0x3d0ca4c1	0.03433681
69	0x3e5ab1e9	0.2135693
70	0x422fc381	43.94092
71	0x4035b76d	2.8393204
72	0x3eef392e	0.46723312
73	0x41158de7	9.347144
74	0x40ff4fa8	7.9784737
75	0x3f7378a4	0.9510596
76	0x3d0ca4c1	0.03433681
77	0x3fdb88d4	1.7151132
78	0x3d660f8b	0.056167167
79	0x423cfd66	47.24746
80	0x3f843315	1.0328089
81	0x3f43a01a	0.7641617
82	0x3f2956d8	0.6614814
83	0x4030af43	2.7606971
84	0x4029ae36	2.651258
85	0x40bd242c	5.9106655
86	0x41150877	9.314567
87	0x408cab4a	4.3959093
88	0x3d0ca4c1	0.03433681
89	0x3d0ca4c1	0.03433681
90	0x3d0ca4c1	0.03433681
91	0x4243b3c0	48.925537
92	0x3d0ca4c1	0.03433681
93	0x3d0ca4c1	0.03433681
94	0x3eb98a07	0.3623812
95	0x3fc9932b	1.5748037
96	0x3d0ca4c1	0.03433681
97	0x3d0ca4c1	0.03433681
98	0x3f3c4bb8	0.7355304
99	0x3e34f567	0.17671739
100	0x3d0ca4c1	0.03433681
101	0x41fb4418	31.408249
102	0x3d3ae74e	0.045630746
103	0x3db47e96	0.08813207
104	0x421e162f	39.521664
105	0x40b899ba	5.7687654
106	0x41e69ffb	28.828115
107	0x425df331	55.48749
108	0x3d0ca4c1	0.03433681
109	0x40bc0a9a	5.876294
110	0x40cd82da	6.422223
111	0x4217dec8	37.96756
112	0x3d0ca4c1	0.03433681
113	0x3d0ca4c1	0.03433681
114	0x3d360eaf	0.044447597
115	0x42881228	68.03546
116	0x3e7fa4ce	0.24965212
117	0x41dc066c	27.503136
118	0x3d0ca4c1	0.03433681
119	0x422b93b2	42.894234
120	0x4265b4d3	57.426586
121	0x4082ddc8	4.089573
122	0x42325c4d	44.590137
123	0x419116bb	18.136099
124	0x42727b66	60.620506
125	0x3ffcf318	1.9761686
126	0x3d0ca4c1	0.03433681
127	0x3d560954	0.05225499

net.3.weight f4 [1, 128]
0	0x3d30cc3c	0.043163523
1	0xbe06fd7c	-0.13182634
2	0x3d89b46c	0.06723866
3	0x3cbf50d7	0.023353977
4	0xbd91b094	-0.07113758
5	0x3dc0d6f3	0.09415998
6	0xbd7be56b	-0.061498087
7	0xbdd70071	-0.10498131
8	0xbcc6f59e	-0.024287041
9	0xbdaf91e6	-0.0857275
10	0x3dbf85aa	0.09351666
11	0x3dbbb160	0.09164691
12	0x3db24181	0.087039
13	0x3e01b01d	0.12664838
14	0xbda40a84	-0.08009818
15	0x3d7e6e06	0.062116645
16	0xbd268091	-0.040649954
17	0xbd6afe49	-0.05737141
18	0x3dc8d6ee	0.098066196
19	0x3d24195a	0.04006324
20	0xbd8eba8b	-0.06969174
21	0xbb8850f2	-0.00416004
22	0xbd9e921d	-0.07742713
23	0xbcd2cb60	-0.025731742
24	0x3d89f77c	0.06736657
25	0x3dabdee7	0.083921246
26	0xbda9e287	-0.0829516
27	0x3d7a119c	0.06105195
28	0xbd26a658	-0.04068598
29	0xbcb4fa62	-0.022092048
30	0x3e039133	0.12848358
31	0x3d612ea8	0.054976135
32	0xbd593694	-0.053030565
33	0x3cbaa9ea	0.0227861
34	0x3d11116b	0.035417
35	0xbd5efa94	-0.05443819
36	0xbde71737	-0.11283725
37	0xbd217b86	-0.03942444
38	0xbd97c89e	-0.074113116
39	0x3c20abc7	0.00980658
40	0x3d8e44f7	0.06946748
41	0x3cf7ec84	0.030264147
42	0x3d969e59	0.07354421
43	0xbd8a8150	-0.06762946
44	0x3dc06c01	0.093956
45	0xbc914b45	-0.017736087
46	0xbd0b5145	-0.03401305
47	0xbde4def3	-0.11175337
48	0xbd522055	-0.051300365
49	0x3caf4001	0.021392824
50	0xbd6f9a8c	-0.058496997
51	0x3d80b935	0.062853254
52	0x3d287ebf	0.0411365
53	0xbdaaa4fe	-0.08332251
54	0x3d49df5a	0.04928527
55	0xbda55f52	-0.080748215
56	0x3de21fa3	0.110411905
57	0x3cc4edf9	0.024039255
58	0x3d49b8fa	0.049248673
59	0x3dc4da18	0.096119106
60	0x3dcc08f8	0.09962648
61	0xbdadbd37	-0.084833555
62	0x3d5e55ec	0.05428116
63	0xbd4f3125	-0.050583977
64	0x3d121a6f	0.03566974
65	0xbdc269ba	-0.09492822
66	0xbcfc56dd	-0.030803138
67	0xbde80c93	-0.11330523
68	0xbdef20b9	-0.11676163
69	0xbd36465c	-0.044500694
70	0x3d8a86b6	0.06763975
71	0x3da45e51	0.08025802
72	0x3da3839d	0.079840876
73	0x3da42979	0.08015723
74	0xbbe829b7	-0.007085051
75	0x3de9e5db	0.114207946
76	0xbdf7795f	-0.120836966
77	0xbce7b2af	-0.028283445
78	0x3ba01aed	0.0048860223
79	0xbd9cff3b	-0.07665869
80	0xbd0139fc	-0.03154944
81	0x3cf413e7	0.029794646
82	0x3d6d27f1	0.05789942
83	0xbcc6a47f	-0.02424836
84	0xbd6923e1	-0.056918982
85	0x3d2dacff	0.04240131
86	0x3d87974b	0.06620654
87	0x3d236827	0.03989425
88	0x3dedda98	0.11613959
89	0x3d9a628f	0.0753833
90	0x3def9a7d	0.11699388
91	0x3dac9f4c	0.08428821
92	0x3d9e2b12	0.07723059
93	0xbd52d442	-0.051471956
94	0xbd30afe6	-0.0431365
95	0x3da6a5e6	0.08137111
96	0x3d856cc8	0.06514889
97	0xbdc104a8	-0.09424716
98	0xbd8956a5	-0.06705979
99	0x3cf238d0	0.029568106
100	0xbdafce99	-0.08584327
101	0x3a844b4b	0.001009324
102	0x3cd81385	0.026376495
103	0xbcb39b2e	-0.021924581
104	0x3d084e4c	0.033277795
105	0x3d451a44	0.048120752
106	0x3daf1286	0.08548455
107	0x3dac93dd	0.0842664
108	0xbdb51535	-0.088419355
109	0x3d74cde9	0.059766684
110	0xbc3ba82f	-0.011453672
111	0xbcf06d4b	-0.02934899
112	0x3d7da246	0.061922334
113	0xbd7004d3	-0.05859835
114	0x3cd27e30	0.025694937
115	0xbba60874	-0.0050669257
116	0x3d2de247	0.042452123
117	0x3d9603d0	0.07324946
118	0xbe089e4e	-0.13341638
119	0xbd324ab9	-0.043528292
120	0x3d172e46	0.036909364
121	0xbdaa54d2	-0.083169594
122	0xbcf4400a	-0.029815692
123	0xbd04acd2	-0.032391377
124	0x3b0797db	0.0020689878
125	0xbd223dbb	-0.039609652
126	0xbdaf7689	-0.08567531
127	0x3b92c88c	0.0044794735
