saved_models/mlp/MLP__deprecated_heart_statlog.pth (torch, 13530 bytes, 7 tensors)

net.0.weight f4 [128, 13]
0	0x3e1ba5b0	0.15199924
1	0x3e412eda	0.18865529
2	0x3e23183c	0.15927213
3	0x3da8245c	0.0821006
4	0xbe198296	-0.14991221
5	0x3cdbebd0	0.026845843
6	0x3e8c6519	0.2742088
7	0xbe783966	-0.24240646
8	0xbe4f01d4	-0.20215541
9	0xbe624b06	-0.22098932
10	0xbe8238c4	-0.25433934
11	0x3e21a28c	0.15784663
12	0x3e2a4e80	0.16631508
13	0xbe64832d	-0.22315665
14	0xbc845650	-0.016154438
15	0xbd54ec50	-0.051983178
16	0x3e1f9470	0.15583968
17	0x3bbf2b00	0.0058339834
18	0xbe6ddcdd	-0.23228784
19	0xbe3fbbee	-0.18724033
20	0xbe721e22	-0.23644307
21	0xbe15fbb9	-0.14646806
22	0x3d50b188	0.050950557
23	0xbd0f329c	-0.034960374
24	0x3d8f941c	0.070106715
25	0x3de4d978	0.11174291
26	0xbe399c38	-0.18125999
27	0xbde734c8	-0.11289364
28	0xbd89ff22	-0.06738116
29	0x3d85abbc	0.06526896
30	0x3de15500	0.110025406
31	0xbe89e7bb	-0.2693461
32	0x3ea3af21	0.3196955
33	0xbdcb8ea3	-0.09939315
34	0x3de93fe7	0.113891415
35	0x3ede18d5	0.4337832
36	0x3e4e9af8	0.20176303
37	0x3dc84098	0.09777945
38	0x3e990689	0.29887798
39	0xbe1efa72	-0.15525225
40	0x3d3b0d9e	0.045667283
41	0xbe3e2b93	-0.1857131
42	0x3e32e99b	0.17471926
43	0x3d36480e	0.04450231
44	0xbd43822f	-0.047731575
45	0xbe8ae742	-0.2712956
46	0x3e0969a0	0.13419199
47	0x3d471783	0.048606407
48	0xbd4602ff	-0.0483427
49	0xbd3eb0b2	-0.04655523
50	0xbeddaa02	-0.43293768
51	0xbdfee6b2	-0.124463454
52	0xbe79709a	-0.2435936
53	0xbd80b7cb	-0.06285056
54	0xbe1ce1c6	-0.153205
55	0xbcdd367a	-0.027003516
56	0x3e0594f2	0.130451
57	0xbe8842bb	-0.2661341
58	0xbe461203	-0.19342808
59	0x3b824ba1	0.003976301
60	0xbd836613	-0.064159535
61	0xbe0bfa2f	-0.13669656
62	0x3d323e52	0.043516465
63	0x3cc986ff	0.024600504
64	0x3c420bfb	0.011843677
65	0xbd726970	-0.059182584
66	0x3e8d1844	0.27557576
67	0x3e28f6ce	0.16500399
68	0xbc3ec304	-0.011643175
69	0x3d9d4cbc	0.076806515
70	0xbd86c85d	-0.06581185
71	0xbe1102da	-0.14161244
72	0xbe0f58fa	-0.13998786
73	0x3e959ff9	0.29223612
74	0x3d3a5fd9	0.045501564
75	0xbe1ac401	-0.15113832
76	0xbe398e95	-0.18120797
77	0x3c8155f8	0.015788063
78	0xbe28c93e	-0.16483018
79	0xbd6ffb6d	-0.058589388
80	0xbd0019fc	-0.03127478
81	0x3d8a3ad4	0.06749502
82	0xbe3b66d3	-0.18300943
83	0x3e5adb9e	0.2137284
84	0x3e882124	0.26587784
85	0x3e41360c	0.18868273
86	0xbe6d1cca	-0.23155513
87	0xbd477a39	-0.048700545
88	0x3e274165	0.1633354
89	0xbe90ba41	-0.282671
90	0x3d841e91	0.064511426
91	0x3e8f0224	0.2793132
92	0x3e40b2d3	0.18818216
93	0x3e640fca	0.22271648
94	0x3e910d6c	0.28330553
95	0xbe5b31ee	-0.21405765
96	0x3d4d9862	0.05019415
97	0xbd97295c	-0.073809355
98	0x3df12fd7	0.11776703
99	0x3eba0d20	0.3633814
100	0x3da1a6c2	0.07893135
101	0x3e0def01	0.13860704
102	0x3c208218	0.009796642
103	0x3ecd12bc	0.40053356
104	0x3d8dd530	0.06925428
105	0x3e5deb22	0.21671727
106	0x3c861551	0.016367586
107	0x3d9640c3	0.07336571
108	0x3e2cd4f7	0.16878115
109	0xbde1f622	-0.11033274
110	0x3e8b3c42	0.2719441
111	0xbd392314	-0.04519947
112	0x3d215dfd	0.039396275
113	0x3ec64ec7	0.38731977
114	0x3e752a54	0.23941928
115	0x3ed2a07a	0.4113806
116	0x3e3b0430	0.18263316
117	0xbdd17333	-0.10227051
118	0xbdb0774c	-0.08616504
119	0xbe34ea0b	-0.17667405
120	0x3e7e511f	0.24835633
121	0x3d8f6fa7	0.07003718
122	0xbe40cbc5	-0.18827732
123	0xbc7b53ff	-0.01533985
124	0x3e18bf1a	0.1491665
125	0x3de86265	0.11346892
126	0x3ec935fc	0.39299
127	0x3c449c86	0.012000209
128	0x3ed400a3	0.41406736
129	0x3d1eddba	0.038785674
130	0x3e83982a	0.2570203
131	0x3e13fb0b	0.14451234
132	0xbd18354b	-0.0371602
133	0xbe185995	-0.14877923
134	0x3cf59dee	0.029982533
135	0xbdb5cc02	-0.08876802
136	0x3ce91832	0.02845392
137	0xbe0b4b11	-0.13602854
138	0xbcabbd5e	-0.02096432
139	0x3dbe9734	0.093061835
140	0x3e240865	0.16018827
141	0x3db22e52	0.08700241
142	0x3de73464	0.112892896
143	0xbdc100d7	-0.09423988
144	0x3e3b0b80	0.18266106
145	0x3de4cc95	0.111718334
146	0xbdae2dc0	-0.0850482
147	0x3e216e3f	0.15764712
148	0x3e776e23	0.24163108
149	0xbe1e3bcf	-0.15452503
150	0xbe1f1d38	-0.1553849
151	0xbdc92742	-0.09821941
152	0x3e9a6041	0.3015156
153	0x3e3df983	0.18552212
154	0x3e9ab4d4	0.30216086
155	0xbc73878d	-0.014863861
156	0xbd9c052f	-0.07618176
157	0x3e328b28	0.17435896
158	0x3ca11aaa	0.019666035
159	0xbe53b052	-0.2067273
160	0x3dc02047	0.093811564
161	0xbdef28be	-0.11677693
162	0x3da007e8	0.07814008
163	0x3d2843b6	0.0410802
164	0xbd0ce37d	-0.034396637
165	0xbe664de7	-0.22490655
166	0xbdb1d8e2	-0.08683945
167	0x3d51ce05	0.051221866
168	0xbe8448f0	-0.25836897
169	0x3e0126a6	0.126124
170	0x3de43f14	0.11144844
171	0xbe87fc10	-0.26559496
172	0xbe613596	-0.21993098
173	0x3c99bf30	0.018767923
174	0xbe6351c8	-0.22199166
175	0x3dea59e8	0.114429295
176	0x3d78db20	0.06075585
177	0x3dfb365c	0.122662276
178	0xbd260084	-0.040527835
179	0xbe635f5f	-0.2220435
180	0x3e5bd4ce	0.21467897
181	0xbe046758	-0.12930048
182	0xbdd0c49a	-0.10193749
183	0xbe235e3f	-0.15953921
184	0x3d8a3bc8	0.067496836
185	0xbe8cb56a	-0.27482158
186	0xbe23d1d4	-0.15998012
187	0xbd545990	-0.051843226
188	0xbe7f4d32	-0.24931791
189	0xbe0140c5	-0.12622364
190	0xbe00a4dd	-0.1256289
191	0xbe5d6711	-0.21621348
192	0xbdfc18fa	-0.123094514
193	0xbe15105e	-0.14557025
194	0x3db25524	0.087076455
195	0x3e5e0d26	0.21684703
196	0xbe240b24	-0.16019875
197	0xbe0698d2	-0.13144234
198	0xbc8d73a0	-0.017267048
199	0x3e1f5a3b	0.15561764
200	0xbe36bc69	-0.1784531
201	0xbe82aad8	-0.25520968
202	0x3dffc6df	0.124891035
203	0xbe74bdbe	-0.23900506
204	0xbec57687	-0.38566992
205	0xbd4ced43	-0.050030958
206	0xbd8e95a3	-0.06962135
207	0x3da35dba	0.07976861
208	0x3e95c4d4	0.2925173
209	0x3e8df3af	0.27724978
210	0x3e269273	0.16266803
211	0x3e8d9352	0.2765146
212	0xbe22adb5	-0.15886576
213	0x3e566768	0.20937884
214	0xbe1227d4	-0.14273006
215	0x3ca34e77	0.019934876
216	0x3e047bbf	0.1293783
217	0x3e8de5c7	0.2771437
218	0x3e7efc4b	0.2490093
219	0x3e8708f0	0.26374006
220	0xbd25bf21	-0.040465478
221	0xbde10906	-0.10988049
222	0x3dcce668	0.10004884
223	0x3e045065	0.12921293
224	0x3dba7918	0.09105128
225	0x3d1370a1	0.035996083
226	0xbdca040a	-0.09864052
227	0xbe8d0046	-0.2753927
228	0x3cf66be2	0.03008074
229	0xbe7ee207	-0.2489091
230	0xbe9bbd40	-0.30417824
231	0x3cd39d56	0.02583186
232	0xbeaad81e	-0.3336801
233	0xbd7376a0	-0.0594393
234	0xbe408f23	-0.18804602
235	0xbd6a47ec	-0.057197496
236	0x3d8e2889	0.06941325
237	0x3e06400f	0.13110374
238	0x3dc33c6e	0.095330104
239	0xbd8eaf26	-0.06967001
240	0xbe0e9835	-0.1392525
241	0xbd87575c	-0.06608459
242	0xbcdc049f	-0.026857672
243	0xbe8544db	-0.26029095
244	0xbe953ce0	-0.29148006
245	0x3d7dcda4	0.061963692
246	0x3e233841	0.15939428
247	0x3cb330b0	0.021873802
248	0x3dc55aac	0.09636435
249	0xbe8246f7	-0.25444767
250	0xbe1c47f8	-0.15261829
251	0xbe876c41	-0.2644978
252	0x3e22abde	0.15885875
253	0xbe1df108	-0.15423977
254	0xbe2000d2	-0.15625313
255	0x3e189a94	0.14902717

net.0.bias f4 [128]
0	0xbe467846	-0.19381818
1	0x3d2ff930	0.042962253
2	0x3e8c3d25	0.273904
3	0xbe63a49a	-0.2223076
4	0x3d95b98d	0.07310782
5	0xbe6e3712	-0.23263195
6	0xbe608917	-0.21927296
7	0xbe352016	-0.17688021
8	0x3ccf949c	0.025339417
9	0x3e3d8fd3	0.18511896
10	0xbe015d83	-0.12633328
11	0x3e82efa2	0.2557345
12	0xbe8f0a63	-0.27937612
13	0xbd09c860	-0.033638358
14	0xbe26c057	-0.1628431
15	0xbe218e3c	-0.15776914
16	0xbe512936	-0.20425877
17	0x3e7a27b3	0.24429207
18	0x3e8b6edf	0.27233025
19	0xbdf83078	-0.1211862
20	0xbe3ba4aa	-0.18324533
21	0x3e494243	0.19654183
22	0x3db5e4a8	0.08881503
23	0x3e7f13f2	0.24909952
24	0x3e7202c2	0.23633865
25	0x3e88e315	0.2673575
26	0x3e6ea002	0.23303226
27	0xbe30c7a5	-0.17263658
28	0xbda1deeb	-0.07903846
29	0x3e26f200	0.16303253
30	0x3e797333	0.24360351
31	0xbe13a530	-0.14418483
32	0xbe88c410	-0.26712084
33	0xbdc52bdc	-0.09627506
34	0x3d04b6eb	0.032401007
35	0x3e11ee9e	0.14251181
36	0x3e470e84	0.19439131
37	0xbe395568	-0.18098986
38	0xbe051ed7	-0.13000046
39	0x3dc91890	0.09819138
40	0x3e4414c8	0.19148552
41	0x3d605958	0.054772705
42	0xbe75b630	-0.2399528
43	0x3ce4c2ee	0.027924981
44	0xbe588209	-0.21143354
45	0x3e21f566	0.15816268
46	0x3e23820a	0.15967575
47	0xbe88af96	-0.2669646
48	0x3e1c58b4	0.15268213
49	0xbd8797e8	-0.06620771
50	0xbe887a88	-0.26655984
51	0xbe61207c	-0.21985048
52	0x3e7f30b0	0.24920917
53	0xbe1ebdd2	-0.15502098
54	0xbe54b711	-0.2077296
55	0x3e467c78	0.19383419
56	0xbe4ad114	-0.1980632
57	0xbdc78282	-0.09741689
58	0xbe7b5d56	-0.24547324
59	0x3d9753f8	0.07389063
60	0xbd27dd0c	-0.04098229
61	0x3d2f7182	0.04283286
62	0xbd196eac	-0.03745906
63	0xbdf034f4	-0.1172885
64	0x3b795300	0.0038043857
65	0x3ddfc253	0.10925736
66	0x3e0dbd42	0.13841727
67	0x3cd9a20d	0.02656653
68	0x3d31fe00	0.043455124
69	0xbe2e67e3	-0.17031817
70	0x3c590680	0.013246179
71	0xbd810b3f	-0.06300973
72	0x3e85c279	0.26124933
73	0xbdba6bd2	-0.09102596
74	0xbc895a61	-0.016766729
75	0xbdc1e983	-0.09468367
76	0xbe70d273	-0.2351778
77	0xbe215fa7	-0.15759145
78	0xbe34c96f	-0.17654966
79	0x3e376e64	0.17913204
80	0x3e4f97c7	0.20272742
81	0xbe02c7a2	-0.12771466
82	0x3d85b165	0.06527976
83	0xbdeccb70	-0.1156224
84	0x3d055917	0.032555666
85	0xbe2e71ee	-0.17035648
86	0x3e62d4d1	0.22151496
87	0x3e1cd4c6	0.15315542
88	0xbe8bb32c	-0.27285135
89	0x3e607ffd	0.21923824
90	0x3e637b4f	0.22215007
91	0xbe6e0bc4	-0.23246676
92	0x3e525d6f	0.20543455
93	0xbe0fab51	-0.14030196
94	0xbe44e0dc	-0.19226402
95	0xbe61f0e4	-0.22064549
96	0x3ca649d0	0.020298868
97	0x3de0da28	0.1097911
98	0x3d6383b7	0.055545535
99	0x3e744f57	0.23858391
100	0x3cbfda3b	0.02341949
101	0x3d6ba7f8	0.057533234
102	0xbe309281	-0.17243387
103	0xbe3a3792	-0.18185261
104	0xbd8e8902	-0.06959726
105	0xbdce131b	-0.10062238
106	0x3e87f472	0.26553684
107	0x3bef54be	0.007303803
108	0xbe07c7d3	-0.1325982
109	0xbd180c9c	-0.0371214
110	0x3d817ed9	0.063230224
111	0xbba18680	-0.0049293637
112	0xbdb962ba	-0.09052034
113	0xbe536f4a	-0.20647922
114	0x3d799ec0	0.06094241
115	0x3da9c7c6	0.08290057
116	0x3d7a56f0	0.061118066
117	0x3de51ed9	0.11187524
118	0xbd97e4c2	-0.07416679
119	0xbd84f564	-0.06492117
120	0x3e5fd2bd	0.21857734
121	0xbe1ef2a8	-0.15522254
122	0x3db3c888	0.08778483
123	0x3e6e2d14	0.23259383
124	0xbd7ca450	-0.061680138
125	0x3e0374ad	0.12837477
126	0x3e7cf7e7	0.24703942
127	0x3e041d60	0.1290183

net.2.weight f4 [128]
0	0x3f800000	1.0
1	0x3f800000	1.0
2	0x3f8400d5	1.0312754
3	0x3f842984	1.032517
4	0x3f74d32d	0.9563473
5	0x3f817219	1.0112945
6	0x3f80b208	1.0054331
7	0x3f8186ea	1.0119298
8	0x3f833725	1.0251204
9	0x3f7842d9	0.96977
10	0x3f7a754c	0.9783523
11	0x3f7ff18f	0.99977964
12	0x3f82b4bb	1.0211405
13	0x3f800000	1.0
14	0x3f800000	1.0
15	0x3f7cf08b	0.9880454
16	0x3f7e5bb8	0.993587
17	0x3f7f2a51	0.99673945
18	0x3f76bd66	0.9638275
19	0x3f800000	1.0
20	0x3f800000	1.0
21	0x3f7b13bb	0.9807698
22	0x3f800000	1.0
23	0x3f800000	1.0
24	0x3f7d8f28	0.99046564
25	0x3f77b247	0.96756405
26	0x3f800000	1.0
27	0x3f80dcf6	1.0067432
28	0x3f819eb0	1.0126553
29	0x3f80c8ab	1.0061239
30	0x3f7b617e	0.98195636
31	0x3f7eebde	0.99578655
32	0x3f749a9a	0.95548403
33	0x3f812756	1.0090129
34	0x3f7714c1	0.9651604
35	0x3f7c7cb7	0.986278
36	0x3f800000	1.0
37	0x3f75fbf8	0.960876
38	0x3f800000	1.0
39	0x3f800000	1.0
40	0x3f7c5530	0.98567486
41	0x3f881364	1.0630918
42	0x3f800000	1.0
43	0x3f82f7aa	1.0231831
44	0x3f7c85f3	0.9864189
45	0x3f800000	1.0
46	0x3f800000	1.0
47	0x3f7ffa85	0.9999164
48	0x3f800000	1.0
49	0x3f863683	1.0485386
50	0x3f7bd5b2	0.9837295
51	0x3f800000	1.0
52	0x3f8918eb	1.0710729
53	0x3f800000	1.0
54	0x3f800000	1.0
55	0x3f800000	1.0
56	0x3f7bc4fb	0.98347443
57	0x3f800000	1.0
58	0x3f7fa4ad	0.9986065
59	0x3f800000	1.0
60	0x3f7a6e73	0.9782478
61	0x3f80b641	1.005562
62	0x3f800000	1.0
63	0x3f800000	1.0
64	0x3f800000	1.0
65	0x3f7e1270	0.99246883
66	0x3f853880	1.0407867
67	0x3f7e7f9c	0.99413466
68	0x3f800000	1.0
69	0x3f773839	0.96570164
70	0x3f800000	1.0
71	0x3f814d7a	1.0101769
72	0x3f7ad28e	0.9797753
73	0x3f828241	1.0196
74	0x3f822cc0	1.0169907
75	0x3f83e703	1.0304874
76	0x3f8157dc	1.0104938
77	0x3f800000	1.0
78	0x3f782b4a	0.96941054
79	0x3f800000	1.0
80	0x3f79bd2b	0.9755427
81	0x3f800000	1.0
82	0x3f78ce1b	0.9718949
83	0x3f800000	1.0
84	0x3f7f8d7f	0.9982528
85	0x3f82e343	1.0225605
86	0x3f884f7d	1.0649258
87	0x3f800000	1.0
88	0x3f800000	1.0
89	0x3f83de31	1.0302182
90	0x3f8b25ad	1.0870873
91	0x3f7599d7	0.95937866
92	0x3f7da075	0.99072963
93	0x3f82b822	1.0212443
94	0x3f800000	1.0
95	0x3f7d5c5e	0.98969066
96	0x3f800000	1.0
97	0x3f800000	1.0
98	0x3f85a475	1.0440813
99	0x3f8168a9	1.0110065
100	0x3f7c8457	0.98639435
101	0x3f7e9588	0.99446917
102	0x3f84b97a	1.0369103
103	0x3f7e40e9	0.99317795
104	0x3f800000	1.0
105	0x3f7778cb	0.9666869
106	0x3f7fcb08	0.99919176
107	0x3f7c6db4	0.98604894
108	0x3f82393f	1.017372
109	0x3f7e675a	0.9937645
110	0x3f7abafc	0.97941566
111	0x3f800000	1.0
112	0x3f800000	1.0
113	0x3f800000	1.0
114	0x3f800000	1.0
115	0x3f83488a	1.0256512
116	0x3f800000	1.0
117	0x3f7c07ba	0.9844929
118	0x3f800000	1.0
119	0x3f79b45d	0.9754084
120	0x3f7e66f5	0.9937585
121	0x3f800000	1.0
122	0x3f800000	1.0
123	0x3f7e56e5	0.9935134
124	0x3f813c58	1.009654
125	0x3f7b669e	0.98203456
126	0x3f809113	1.0044273
127	0x3f82d448	1.0221033

net.2.bias f4 [128]
0	0xbc4df839	-0.012571388
1	0x3a6ce729	0.0009037131
2	0xbc73feac	-0.0148922615
3	0x3c75a78d	0.0149935605
4	0xbc758e03	-0.0149874715
5	0xbc741332	-0.014897155
6	0x3c7b3710	0.015332952
7	0xbc7d29f2	-0.015451895
8	0xbc792f9b	-0.015209104
9	0xbc71f076	-0.014766803
10	0x3cd0500d	0.025428796
11	0xbc901e92	-0.017592702
12	0x3c900f27	0.01758535
13	0x3c127e7e	0.008941291
14	0xbc55c500	-0.013047457
15	0x3c40b2a2	0.011761339
16	0xbc80bc1d	-0.0157147
17	0x3c77b484	0.015118722
18	0x3c3f37a3	0.01167098
19	0x3ba5f585	0.0050646686
20	0xbc521532	-0.012822436
21	0x3cab56d6	0.02091543
22	0x3c4c76ad	0.012479466
23	0xbc46d691	-0.012136118
24	0x3c8ab647	0.01693262
25	0x3b81fc04	0.00396681
26	0x3c49747a	0.012295837
27	0xbc821c3d	-0.015882606
28	0xbc803548	-0.015650406
29	0xbc70f840	-0.014707625
30	0x3c5b13c1	0.013371409
31	0xbc6eb654	-0.014569838
32	0x3c76c915	0.01506259
33	0x3c69be8e	0.014266623
34	0x3c099394	0.008397002
35	0x3c6944a5	0.014237558
36	0xbc5247a6	-0.012834465
37	0xbc5e3345	-0.013562028
38	0xbc08a695	-0.0083404975
39	0x3c0ff583	0.008786562
40	0xbc7cadd0	-0.0154222995
41	0x3c815cee	0.015791383
42	0x3c563105	0.013073211
43	0xbc7187af	-0.014741822
44	0xbc7147f4	-0.014726628
45	0xbc45c1c4	-0.012070123
46	0xbc4aedbe	-0.012385784
47	0xbc75fa34	-0.015013266
48	0xbc239c8a	-0.009986052
49	0x3c7ebbaa	0.015547672
50	0x3c6de860	0.014520735
51	0xbbe80ec3	-0.007081838
52	0xbc74599d	-0.014913944
53	0xbb750fc9	-0.0037393442
54	0xbc3ba79e	-0.011453537
55	0x3c29d161	0.010364861
56	0xbc300fa1	-0.010745914
57	0x3c510da3	0.012759599
58	0xbc8a1e84	-0.016860254
59	0xbc43e9a4	-0.01195756
60	0xbc7bf3f9	-0.015377992
61	0x3c8b40a7	0.016998602
62	0x3c47ea3d	0.012201843
63	0xbc4e5771	-0.01259409
64	0xbb645322	-0.003483959
65	0x3c64dd64	0.013968799
66	0xbc80d734	-0.015727617
67	0xbc677e2a	-0.014129201
68	0xbc54434b	-0.012955497
69	0x3c5fb4e9	0.013653972
70	0xbc201c8e	-0.009772433
71	0xbc681db7	-0.014167241
72	0xbc727890	-0.014799252
73	0x3c6b3ac6	0.014357274
74	0x3c788327	0.015167988
75	0x3c838d5b	0.016058614
76	0x3c6c2483	0.014413002
77	0x3a8c8519	0.0010720819
78	0xbc6ef288	-0.014584191
79	0xbbd5c0fd	-0.00652325
80	0xbc5d7f71	-0.013519154
81	0xbc44ebdc	-0.012019124
82	0x3c39c84a	0.011339257
83	0xbc56e8fc	-0.013117071
84	0x3c6f7432	0.014615105
85	0xbc7123c2	-0.014717998
86	0x3c7c70d7	0.0154077625
87	0xbc3899c3	-0.011267128
88	0x3c5002d9	0.012695991
89	0xbca4dd19	-0.020124959
90	0xbc8e46b2	-0.017367695
91	0xbc53ed03	-0.012934926
92	0x3c710e49	0.0147128785
93	0xbc70ea68	-0.014704324
94	0x3c2e27aa	0.010629574
95	0x3c6384b8	0.013886623
96	0xbc35ad6e	-0.011088712
97	0xbc44fd23	-0.012023243
98	0xbc72e0c1	-0.014824093
99	0x3c6dc2e0	0.014511794
100	0x3c80e3ae	0.015733566
101	0xbc5bedaf	-0.013423367
102	0xbc79651b	-0.015221859
103	0x3c6bd96b	0.014395098
104	0xbc20d59a	-0.009816552
105	0x3c5f1a65	0.013617133
106	0x3c66f69e	0.014096884
107	0xbc77c61b	-0.015122916
108	0xbc2f65ba	-0.010705406
109	0x3c6cbc3d	0.014449176
110	0xbc5fe4e4	-0.013665412
111	0xbc5589cd	-0.013033343
112	0xbbd9d7b0	-0.0066480264
113	0x3c3a8054	0.011383135
114	0xbc4e0af7	-0.012575856
115	0xbc7e080a	-0.015504846
116	0xbc2e9744	-0.010656182
117	0xbc1776dd	-0.009244648
118	0xbc4ef98a	-0.012632737
119	0xbc5d5472	-0.013508903
120	0xbc6b3f39	-0.014358335
121	0x3c544d4d	0.012957883
122	0x3bd9ed41	0.0066505973
123	0xbc6818fb	-0.014166112
124	0x3c6d8b63	0.014498564
125	0x3c982e66	0.018576812
126	0xbbffc2b3	-0.0078051924
127	0x3c7377e7	0.01486013

net.2.running_mean f4 [128]
0	0x00000000	0.0
1	0x00000000	0.0
2	0x4170e69b	15.0563
3	0x4226d126	41.704247
4	0x415de8b4	13.869312
5	0x3f17a4e2	0.59235966
6	0x3d72acfb	0.059247
7	0x418c286c	17.519737
8	0x4252b59e	52.67736
9	0x4285323f	66.59814
10	0x3d466e1f	0.048444863
11	0x4048f312	3.1398358
12	0x3fd99480	1.6998444
13	0x00000000	0.0
14	0x00000000	0.0
15	0x4282ee40	65.46533
16	0x4149716f	12.590194
17	0x4191dd8b	18.233175
18	0x41a2ae41	20.335085
19	0x00000000	0.0
20	0x00000000	0.0
21	0x3e05f3da	0.13081303
22	0x00000000	0.0
23	0x00000000	0.0
24	0x3b61fc19	0.0034482537
25	0x41012b78	8.0731125
26	0x00000000	0.0
27	0x42927107	73.22076
28	0x42bd8504	94.759796
29	0x4067c73f	3.621536
30	0x4247bc17	49.93368
31	0x42691ee4	58.280167
32	0x4108ab55	8.541829
33	0x418351af	16.414885
34	0x3fc679d5	1.550593
35	0x3fbe6492	1.4874442
36	0x00000000	0.0
37	0x41b26f78	22.304428
38	0x00000000	0.0
39	0x00000000	0.0
40	0x416910a2	14.566561
41	0x413c1b1a	11.756617
42	0x00000000	0.0
43	0x41965ee5	18.796335
44	0x41df26b6	27.893902
45	0x00000000	0.0
46	0x00000000	0.0
47	0x422cb2d5	43.17464
48	0x00000000	0.0
49	0x4235a727	45.413235
50	0x3e78564e	0.24251673
51	0x00000000	0.0
52	0x41a3253e	20.393185
53	0x00000000	0.0
54	0x00000000	0.0
55	0x00000000	0.0
56	0x3e1c3369	0.15253986
57	0x00000000	0.0
58	0x40cce12f	6.402488
59	0x00000000	0.0
60	0x423ae8fe	46.72753
61	0x40a092b0	5.017906
62	0x00000000	0.0
63	0x00000000	0.0
64	0x00000000	0.0
65	0x42c99faa	100.811844
66	0x4179fcb2	15.624193
67	0x3a325ffd	0.00068044645
68	0x00000000	0.0
69	0x41318470	11.094833
70	0x00000000	0.0
71	0x41ec55e0	29.541931
72	0x41df0c6c	27.881065
73	0x41699b52	14.60042
74	0x428a369c	69.10666
75	0x3de95e8a	0.11394985
76	0x41df293a	27.89513
77	0x00000000	0.0
78	0x4058227f	3.3771055
79	0x00000000	0.0
80	0x409431b0	4.6310654
81	0x00000000	0.0
82	0x4264ddda	57.216652
83	0x00000000	0.0
84	0x423b2ed9	46.79575
85	0x3f43a5d9	0.7642494
86	0x41e6fc00	28.873047
87	0x00000000	0.0
88	0x00000000	0.0
89	0x40531514	3.2981615
90	0x40617498	3.5227413
91	0x4198489d	19.035456
92	0x3f940c47	1.1566247
93	0x41f5e955	30.738932
94	0x00000000	0.0
95	0x42814ea1	64.65357
96	0x00000000	0.0
97	0x00000000	0.0
98	0x41c6cde2	24.850529
99	0x418b9e36	17.452251
100	0x3d784841	0.06061578
101	0x42520c8a	52.512245
102	0x3ccfc0f5	0.025360564
103	0x3f9b3a27	1.2127122
104	0x00000000	0.0
105	0x410958b4	8.584156
106	0x38e974fc	0.00011132096
107	0x41c904f3	25.127417
108	0x41d16273	26.17307
109	0x3a2dd287	0.0006630797
110	0x411bbdd3	9.733844
111	0x00000000	0.0
112	0x00000000	0.0
113	0x00000000	0.0
114	0x00000000	0.0
115	0x3e1e27c7	0.15444861
116	0x00000000	0.0
117	0x420deb8a	35.48002
118	0x00000000	0.0
119	0x408c6ef6	4.388545
120	0x425da9ee	55.415947
121	0x00000000	0.0
122	0x00000000	0.0
123	0x415d74a7	13.84098
124	0x420e238a	35.534706
125	0x3d8dd611	0.069255956
126	0x4272b440	60.676025
127	0x4206ab06	33.667015

net.2.running_var f4 [128]
0	0x3bd07e01	0.006362677
1	0x3bd07e01	0.006362677
2	0x4202085c	32.508163
3	0x41c47997	24.55937
4	0x42018c34	32.386917
5	0x3ffb033f	1.9610366
6	0x3e8b9586	0.27262515
7	0x42afffac	87.99936
8	0x428db0db	70.84542
9	0x42362df9	45.544895
10	0x3ddb1c58	0.106987655
11	0x418c3afe	17.528805
12	0x40ce678a	6.450139
13	0x3bd07e01	0.006362677
14	0x3bd07e01	0.006362677
15	0x424ec3ae	51.691093
16	0x4256b20d	53.673878
17	0x40d3e11b	6.6212287
18	0x41dd9602	27.698246
19	0x3bd07e01	0.006362677
20	0x3bd07e01	0.006362677
21	0x3f1ba014	0.60791135
22	0x3bd07e01	0.006362677
23	0x3bd07e01	0.006362677
24	0x3c6e410e	0.014541877
25	0x42027276	32.61178
26	0x3bd07e01	0.006362677
27	0x4238c4f4	46.192337
28	0x42d3b99d	105.862526
29	0x41a878ee	21.059048
30	0x428db12e	70.846054
31	0x42518951	52.384098
32	0x423c1182	47.017097
33	0x42932d87	73.58892
34	0x4144122b	12.254436
35	0x4121a242	10.102114
36	0x3bd07e01	0.006362677
37	0x420af066	34.734764
38	0x3bd07e01	0.006362677
39	0x3bd07e01	0.006362677
40	0x42417fe6	48.3749
41	0x40c3a2bb	6.1136146
42	0x3bd07e01	0.006362677
43	0x42369410	45.644592
44	0x4201d200	32.45508
45	0x3bd07e01	0.006362677
46	0x3bd07e01	0.006362677
47	0x41bf7bff	23.935545
48	0x3bd07e01	0.006362677
49	0x42039636	32.89669
50	0x3f116a4b	0.56802815
51	0x3bd07e01	0.006362677
52	0x429e47f4	79.14053
53	0x3bd07e01	0.006362677
54	0x3bd07e01	0.006362677
55	0x3bd07e01	0.006362677
56	0x3f2f5840	0.68494034
57	0x3bd07e01	0.006362677
58	0x423b2837	46.789272
59	0x3bd07e01	0.006362677
60	0x42e2f451	113.47718
61	0x41b0b4a4	22.088203
62	0x3bd07e01	0.006362677
63	0x3bd07e01	0.006362677
64	0x3bd07e01	0.006362677
65	0x42e2d1ab	113.40951
66	0x4274c527	61.19253
67	0x3c132acb	0.008982371
68	0x3bd07e01	0.006362677
69	0x429839b2	76.112686
70	0x3bd07e01	0.006362677
71	0x42f4d294	122.411285
72	0x4257c572	53.942818
73	0x425487c4	53.132584
74	0x42914e99	72.65351
75	0x3ef36b3b	0.47542748
76	0x42074930	33.821472
77	0x3bd07e01	0.006362677
78	0x422a74ec	42.61418
79	0x3bd07e01	0.006362677
80	0x4256e7ee	53.726494
81	0x3bd07e01	0.006362677
82	0x427e4172	63.56391
83	0x3bd07e01	0.006362677
84	0x41a41d7e	20.5144
85	0x408155eb	4.041738
86	0x41e5ab76	28.708721
87	0x3bd07e01	0.006362677
88	0x3bd07e01	0.006362677
89	0x414241f3	12.141101
90	0x41121da8	9.13224
91	0x41f2bb2f	30.341398
92	0x40e4bccf	7.148048
93	0x42ba1524	93.04129
94	0x3bd07e01	0.006362677
95	0x4248ff8d	50.24956
96	0x3bd07e01	0.006362677
97	0x3bd07e01	0.006362677
98	0x42099ad1	34.401188
99	0x429ddcf4	78.93155
100	0x3e1ef276	0.15522179
101	0x430bcc46	139.79794
102	0x3e650049	0.2236339
103	0x40d99607	6.799564
104	0x3bd07e01	0.006362677
105	0x428859fa	68.175735
106	0x3bd2ca2f	0.0064327936
107	0x4208852e	34.13006
108	0x422792f0	41.893494
109	0x3c110112	0.008850353
110	0x4190a0c9	18.078508
111	0x3bd07e01	0.006362677
112	0x3bd07e01	0.006362677
113	0x3bd07e01	0.006362677
114	0x3bd07e01	0.006362677
115	0x3f02b059	0.51050335
116	0x3bd07e01	0.006362677
117	0x420ac585	34.69289
118	0x3bd07e01	0.006362677
119	0x410d373a	8.825983
120	0x42ff1a12	127.55092
121	0x3bd07e01	0.006362677
122	0x3bd07e01	0.006362677
123	0x420e8b27	35.63589
124	0x425ebb17	55.682705
125	0x3f2166f8	0.6304774
126	0x41fcea55	31.61442
127	0x42845591	66.16712

net.3.weight f4 [1, 128]
0	0x3d863544	0.06553128
1	0xba735f85	-0.0009283948
2	0x3decd772	0.115645304
3	0xbdf68c3e	-0.12038468
4	0x3c8e28cf	0.017353443
5	0x3da6843d	0.08130691
6	0xbda7a046	-0.081848666
7	0x3da2856c	0.079356045
8	0x3d99ff4e	0.07519399
9	0x3cffc084	0.031219728
10	0xbc0a9474	-0.008458246
11	0x3ca6930b	0.020333787
12	0xbd1fff8d	-0.03906207
13	0xbca1d37e	-0.019754168
14	0x3dabcb20	0.083883524
15	0xbc29da9f	-0.010367065
16	0x3d9e3538	0.077249944
17	0xbcb5af1c	-0.022178225
18	0xbafc3c24	-0.0019243998
19	0xbbea5888	-0.007151667
20	0x3d97ffcd	0.07421837
21	0xbbd3df3c	-0.0064658206
22	0xbd809241	-0.06277896
23	0x3d5d5d31	0.054043952
24	0xbd0c9d64	-0.034329787
25	0x3afd9650	0.0019347165
26	0xbd6ce3ff	-0.05783462
27	0x3d272140	0.040803194
28	0x3d54c65b	0.05194698
29	0x3dafbb42	0.085806385
30	0xbcdc3861	-0.026882352
31	0x3c65c89b	0.014024879
32	0x3affa83e	0.0019505096
33	0xbd58159a	-0.052754976
34	0xba635722	-0.00086723466
35	0xbd87227f	-0.065983765
36	0x3d98f441	0.07468463
37	0x3d055988	0.032556087
38	0x3c8a76b1	0.0169023
39	0xbc9b65d0	-0.018969446
40	0x3cb7bf63	0.022430127
41	0xbe08bd7a	-0.1335353
42	0xbdae5a24	-0.08513287
43	0x3de40e5e	0.11135553
44	0x3d1cbd35	0.03826638
45	0x3d576fa7	0.052596714
46	0x3d767566	0.060170554
47	0x3d6ecfb5	0.058303554
48	0x3cd72991	0.026264938
49	0xbd982264	-0.074284345
50	0xbd8b8bb7	-0.06813758
51	0x3c48fb5e	0.012266962
52	0x3d8dcc47	0.069237284
53	0x3b9a84b7	0.004715528
54	0x3d2a957c	0.041646466
55	0xbcf038b2	-0.02932391
56	0x3cf4ba9a	0.029874135
57	0xbd932d38	-0.07186359
58	0x3c067167	0.008205748
59	0x3d4de96f	0.050271448
60	0x3c84f664	0.01623077
61	0xbd6fbbc5	-0.05852868
62	0xbd638a78	-0.055551976
63	0x3d87aa5f	0.066242926
64	0x3b8d0f46	0.0043047993
65	0xbd13396e	-0.03594344
66	0x3d8abfb8	0.06774849
67	0x3d6c1c91	0.05764443
68	0x3da32ef2	0.079679385
69	0xbc0f272f	-0.008737369
70	0x3cca95cf	0.024729637
71	0x3c9e91e6	0.01935668
72	0x3c53c898	0.012926243
73	0xbdc85956	-0.097826645
74	0xbd46f5f0	-0.048574388
75	0xbdd02c9f	-0.10164761
76	0xbd1b028a	-0.03784422
77	0xba91dd7e	-0.0011128632
78	0x3d44f724	0.048087254
79	0x3c2e17dc	0.010625806
80	0x3d7f6a29	0.0623571
81	0x3d5308a7	0.051521923
82	0xbc31ce44	-0.0108524
83	0x3db2dd6e	0.087336406
84	0xbd8dd529	-0.06925423
85	0x3d4cadd0	0.049970448
86	0xbde2ee0c	-0.1108056
87	0x3d1fe5dd	0.039037574
88	0xbd8e8ef8	-0.06960863
89	0x3d0c67c1	0.034278635
90	0x3e02f85e	0.12790057
91	0x3b6c015c	0.0036011552
92	0xbd3be77b	-0.045875054
93	0x3d761f8c	0.06008868
94	0xbd021e7b	-0.03176735
95	0xbd011506	-0.03151419
96	0x3d169b88	0.03676942
97	0x3d536210	0.05160719
98	0x3db47bfc	0.08812711
99	0xbdae4d1f	-0.085108034
100	0xbd6c25d5	-0.057653267
101	0x3bbe1e1d	0.0058019296
102	0x3dd385d3	0.10328259
103	0xbd390b60	-0.045176864
104	0x3ccd1998	0.025036618
105	0xbcc263f9	-0.023729311
106	0xbcbe0ab8	-0.02319847
107	0x3d9550db	0.072908126
108	0xbd01e8d8	-0.031716198
109	0xbd8356a0	-0.06413007
110	0x3d7bbc9d	0.061459173
111	0x3daa6b72	0.08321275
112	0x3c33cf2b	0.010974686
113	0xbd266bcd	-0.04063015
114	0x3d867e0b	0.065670095
115	0x3d5f6ca5	0.05454697
116	0x3d0330ba	0.03202889
117	0xbc752e7c	-0.014964696
118	0x3d8a35e4	0.0674856
119	0x3c2d8ab4	0.010592151
120	0x3bd3f84c	0.0064688083
121	0xbda36597	-0.07978361
122	0xbc33edb0	-0.010981962
123	0x3d96bc7a	0.07360168
124	0xbd70aa01	-0.05875588
125	0xbbdffcc7	-0.0068355533
126	0xbcc594c9	-0.024118798
127	0xbd5b365b	-0.053518634
