saved_models/mlp/MLP_spect.pth (torch, 17814 bytes, 7 tensors)

net.0.weight f4 [128, 22]
00000000: f5b6 b8bb e3f6 0a3d e405 21bd a639 01be
00000010: d002 483e 3143 b53d 9d49 a13d 3092 2ebe
00000020: afbd 1ebd 3bb7 483e b586 043e 8c73 fc3d
00000030: e6a3 01bd 56ce bfbd 40c1 f3b9 3574 21be
00000040: 12f2 283e 221c 5f3d 0a40 f4bd ef4b afbc
00000050: 4a28 9bbd 814d 13be a4fb 2a3e 5878 b0bd
00000060: cb99 6b3e 54b7 3dbe 29ee 1d3d f2f9 70bd
00000070: 97f6 9fbd 76ea 6f3e daba 173e 83af 6b3d
00000080: 9e0a 9a3c a984 debd f5e6 e6bc 9e98 ecbc
00000090: 5d4a 353e eb73 5dbd c728 ccbd e153 18be
000000a0: b429 b7ba 55b0 2e3d e108 31be 0c33 0c3e
000000b0: 2380 34be c5ca 89bc e021 493d 296a 0bbc
000000c0: c511 d8bc 482d 4a3e d98a 34bc 9d88 13be
000000d0: 9725 43bd a9ab 9c3d 49e5 b13d 8403 9dbd
000000e0: 57b4 bdbd 618a f33d 8118 81bd d9f7 a1bd
000000f0: c252 573e ef97 a03d 2908 93bd 7666 47be
00000100: 04bd 333d f1f2 0f3e 32b3 c33d 567e afbd
00000110: fb39 b63d d465 e33d b975 39bd fa57 203e
00000120: 1eef a4bd d31f 5fbe 1d92 4d3d 6a90 f3bc
00000130: a352 893c e8cb 5ebe 898e adbd 910c 1f3e
00000140: 5059 a7bd b00a fe3c 72bb 643d bf2f 29be
00000150: f378 45bd a6fb 423e 6b3c 343e e83f f13d
00000160: 6cfb 223e 6e32 c8bc 8d6f 1b3e e40d 053e
00000170: da77 2fbc 7237 2dbe b70c 0dbc 0b8a 95bd
00000180: 2d89 0ebe 2ec9 11be cb31 99bd 1a96 283d
00000190: b0f4 23be 08b4 c13d 758a 09bd a8eb c7bd
000001a0: 5cc1 35bd 17ce 50be f7cd f13d ecd6 cd3b
000001b0: b71a bf3c 466f d6bd abc6 853d 619b 253e
000001c0: 0445 eb3d 6320 e3bc d89e 5cbc 87eb f6bd
000001d0: c779 10be 6f39 573d 81d0 bcbd 698f 513d
000001e0: f216 b9bd 84c0 8ebd b833 76bb fa68 66be
000001f0: c9c6 0e3e 6980 cc3d 70d4 8cbd 33e4 0abe
00000200: 6dc1 f83c a715 0a3e 645e 67be befb 0e3e
00000210: 1c24 0abc b92c 333c 4fe8 b2bc dfc3 36be
00000220: 3f17 b8bd b07d eebd da2c 423e 3c7c 1c3c
00000230: 8665 053e 66f7 ea3c 5e73 2f3e 8efa 6f3e
00000240: 0697 4a3e 2b08 21be a43e 553d da01 343e
00000250: e9c1 a43c 381b 36be 7c8a 8bbd cbd5 37be
00000260: 1429 f23c 24dc 003e 2247 55be 0d0c c7bd
00000270: daa6 4f3e 2a0a 133d f147 a7bd 4c3c 92bd
00000280: a8af 83bc c869 5ebe 5fd2 d83d 3574 61bd
00000290: db64 0abe d47e 13be 71dd 13be f8b1 e5bd
000002a0: d0f6 843c b1a9 34be 94c4 5abd 00b7 223e
000002b0: 90fb 12be 35cd b1bd 20ba e33d 0a6a 213d
000002c0: 4e6e 95bd 4e2d 203d b064 39be 1a51 5fbe
000002d0: 64f1 84bd 56b0 64bd 341e a3bd 9e91 d43d
000002e0: 73fb 4dbd 1465 13be 1a80 463d 4a92 7abd
000002f0: ba38 be3c 9b3d bcbd 33c5 983d dc63 41bc
00000300: 33cd 32be d5d1 093c 2892 033e 3647 353e
00000310: e319 4f3d 4597 763d ef48 1b3e f7a0 2dbe
00000320: 4678 2cbd 6cc6 33be 1425 523d 2254 0e3e
00000330: 2999 dabd 3a79 ea3d 1aae fabd 5d21 883d
00000340: 2d7d 123e 95e5 e23d f9e9 dfbd 23a0 bc3a
00000350: 7c34 a3bb 4fcc 073e b294 8f3d 8f2b 38bd
00000360: dbf0 14be b7b1 583d e7fc 04be 698e 50be
00000370: cfee 893c a888 593e ebad c93d 39ea bbbb
00000380: ff70 ccbc 8804 45be 6d5b debd f774 4f3e
00000390: 9aed a73d 1f10 5e3e ec84 3dbe 20a1 393e
000003a0: ecae cebd 8df7 3abe 2f17 bebd 7d60 383e
000003b0: e7e4 113e 4d8f 05be 705e 2a3e 8dcb a33d
000003c0: a37a d23d 9f0a 16be 76a3 9ebd c357 2abc
000003d0: b875 00be 0294 1abe e47a 5e3e 2be5 d8bd
000003e0: b714 d53d 4f20 5e3e b3fc eabd 73aa 913d
000003f0: bca9 203d cc94 49bd 3044 2c3e 2561 80bd
-0.0056370446 0.033926856 -0.03931226 -0.12619647 0.19532323 0.08850706 0.07875369 -0.17047954
-0.038755115 0.19601147 0.12942012 0.12326726 -0.031650446 -0.09365527 -0.00046492554 -0.15766986
0.16498592 0.05447019 -0.11926277 -0.021398513 -0.07576044 -0.14385034 0.16697556 -0.08616704
0.23007886 -0.18526965 0.038557205 -0.058832116 -0.07810705 0.23429283 0.14817372 0.057540428
0.01880389 -0.10865147 -0.0281863 -0.028881367 0.17704149 -0.054065626 -0.09968715 -0.14875747
-0.001397422 0.042648632 -0.17288543 0.13691348 -0.17627005 -0.01682032 0.04910457 -0.008509197
-0.02637566 0.19743836 -0.011019432 -0.14407583 -0.04764327 0.07649929 0.08686311 -0.07666686
-0.09262913 0.11891628 -0.06303502 -0.07908601 0.21027663 0.07841479 -0.07179291 -0.1947268
0.04388143 0.14057519 0.09555663 -0.085690185 0.08897778 0.111034065 -0.045278285 0.1565856
-0.080534205 -0.21789484 0.050188173 -0.029731948 0.016763037 -0.21757472 -0.08474452 0.15532137
-0.08171332 0.031010956 0.055842824 -0.1652212 -0.04821105 0.19041309 0.17601173 0.11779767
0.15916222 -0.02443811 0.15179272 0.1299358 -0.010709727 -0.16915682 -0.0086089885 -0.0730172
-0.13919516 -0.142369 -0.074802004 0.041158773 -0.1601131 0.09458166 -0.03357931 -0.09761745
-0.044373855 -0.20391117 0.11806863 0.006281724 0.023328168 -0.104704425 0.065320335 0.16172554
0.11487773 -0.027725404 -0.013465606 -0.12056642 -0.14108954 0.052545007 -0.092194565 0.051162157
-0.090375796 -0.06970313 -0.0037567448 -0.22500983 0.13943018 0.0998543 -0.06876457 -0.13563614
0.03036567 0.13484822 -0.22594601 0.1396322 -0.008431461 0.010935956 -0.021839289 -0.17848156
-0.08988809 -0.11645067 0.18962422 0.009551104 0.1302701 0.028682422 0.17133853 0.23435423
0.19784173 -0.15725772 0.052061692 0.17578831 0.020111995 -0.1778382 -0.06813523 -0.1795265
0.029560603 0.12583977 -0.20827916 -0.097190954 0.20278493 0.035898365 -0.081680186 -0.07140407
-0.01607497 -0.2172004 0.10587 -0.055042464 -0.13515036 -0.1440385 -0.14439942 -0.112155855
0.01623097 -0.17642857 -0.053410128 0.15890121 -0.14353776 -0.08681718 0.11119485 0.039407767
-0.072964296 0.039105706 -0.18104815 -0.21808282 -0.06491354 -0.05583223 -0.07964745 0.10379337
-0.05028863 -0.14394027 0.04846201 -0.06117467 0.023220409 -0.09191438 0.07459488 -0.0118035935
-0.1746109 0.008411844 0.12848723 0.17702946 0.050561797 0.060202856 0.1516454 -0.16955934
-0.04210689 -0.1755616 0.05130489 0.13899282 -0.10673744 0.114489034 -0.122402385 0.066469885
0.14305563 0.110789455 -0.109332986 0.0014390986 -0.004980622 0.13261531 0.07010783 -0.044963416
-0.14545004 0.052903857 -0.129871 -0.20366825 0.016837506 0.21243536 0.09847625 -0.0057347086
-0.024956224 -0.1924001 -0.10857282 0.20259462 0.08199616 0.21685837 -0.18507737 0.1812787
-0.100919574 -0.18258496 -0.09281766 0.18005557 0.14247476 -0.13042946 0.16637588 0.079978086
0.10277297 -0.14652489 -0.077460214 -0.010396901 -0.12544906 -0.15095523 0.21726567 -0.10590585
0.10404342 0.21692012 -0.1147398 0.07112589 0.03922437 -0.04921417 0.16822886 -0.06268529

net.0.bias f4 [128]
00000000: c168 9cbd c6d3 bb3c d588 15be 5b1a 5bbe
00000010: 94cc 44bd 025b 273e fd47 fa3d e95e 86bd
00000020: 993b 083e 1443 c03d 3a25 693d dfc1 27be
00000030: c2af 853c 698f 23bc cc9f 5cbd cc8b 30bd
00000040: abc5 143e 5d8f 573d 2320 c53c b50d a5bc
00000050: 68ac 03bd aa64 733c f785 073e 8429 38be
00000060: 3cc6 e13b 8cd3 203e 48e5 273c a6c2 b63d
00000070: 6431 afbd efc4 32be b94b 4bbe 53a1 cbbb
00000080: 6c5d f6bd c038 de3b 151b d13d 64b8 3e3e
00000090: 1d27 703d d2c8 b03d 30ed 073e d4d3 5a3e
000000a0: 0f79 a53d 349d a2bd dab1 0fbe d6ae b7bd
000000b0: a64e 4bbe 77f6 c23d 861e 973d 981c 64be
000000c0: 41e8 763c d2b2 563d 4a72 37be b689 35bd
000000d0: 7b7f 3bbe 9291 1dbd a3c2 ddbd 9b6f d03d
000000e0: 9096 113e e855 20be d6fb 8fbd 55ed efbd
000000f0: d744 e4bd ac9b 653d f3c7 ae3b 55f6 4fbd
00000100: 07b3 393e 7020 12be 7c65 05bd a36c a7bd
00000110: 3ade 273e 6709 823d 58b4 f2bc 0e9d 573e
00000120: 7635 39be 584d 523b 1e4c b03d ee40 12be
00000130: 02fe 103e 422f bb3d 8806 ebba 93be ccbd
00000140: 1ea7 893d bb11 283e 201b 53be 31a2 7ebd
00000150: d005 b73c 5589 033e d3f5 073e 6aa6 33be
00000160: 9fab b7bb eba0 f7bd 5506 9a3d c50f 99bd
00000170: a8ae d53d cce1 593d 510c 21be e548 1d3e
00000180: d09d b1bd 49e9 993d a9a9 0e3c a77e 09bd
00000190: 69cc d53d 511a d4bd 7c4a d83d 07c0 41be
000001a0: 755d 553e 2fa0 89bb 90cc e2bd c5ab 3b3d
000001b0: 4661 d83d ef5c e7bc 66df 74bd 2c7d febd
000001c0: 9072 4bbd 7ec7 d3bc bcd5 0b3e 07a6 7b3c
000001d0: a9a4 06be 76a2 563c 1cd1 0bbe f3c9 003e
000001e0: ea60 153e 9d72 a63d 25d5 933d de11 9e3d
000001f0: 5446 143e a732 50bd 97b3 8dbb ffc2 c23b
-0.07637168 0.02292813 -0.14602979 -0.21396773 -0.048046663 0.1634331 0.12220762 -0.065610714
0.13303985 0.09387794 0.056920268 -0.1638255 0.01631916 -0.009982922 -0.05386333 -0.04310207
0.1452853 0.052626956 0.024063176 -0.020148138 -0.03214684 0.014855543 0.13234697 -0.17984587
0.0068900865 0.15705699 0.010247536 0.08923845 -0.085543424 -0.17457937 -0.19853105 -0.0062142997
-0.120295376 0.0067816675 0.102102436 0.18625027 0.05863105 0.086320534 0.13274074 0.21369869
0.08079731 -0.0794014 -0.14032689 -0.08968894 -0.19854221 0.09519666 0.07378869 -0.22276533
0.015070022 0.05241663 -0.17914692 -0.044320785 -0.18310349 -0.038468905 -0.1082814 0.10177537
0.14217591 -0.1565777 -0.07030456 -0.11715189 -0.11145943 0.056056663 0.0053338944 -0.05077203
0.181347 -0.14270186 -0.032567486 -0.08175018 0.16393366 0.063494496 -0.02962701 0.21056005
-0.180868 0.0032089557 0.08608268 -0.14282581 0.14159396 0.09139873 -0.0017931024 -0.09997287
0.06721328 0.16413014 -0.20615816 -0.062166397 0.022341639 0.12845357 0.13277368 -0.1754395
-0.0056051756 -0.120912395 0.07520739 -0.07473711 0.10433704 0.053193852 -0.15727355 0.15359838
-0.086726785 0.07515199 0.008707442 -0.03356805 0.10439379 -0.10356582 0.10561082 -0.18920909
0.20836432 -0.0042000036 -0.110741735 0.04581811 0.105654284 -0.028242556 -0.05978336 -0.124262184
-0.049669802 -0.025851961 0.13655752 0.015359408 -0.1314875 0.013100257 -0.13653988 0.12577038
0.14587751 0.081273295 0.072183885 0.07718252 0.14479953 -0.050829556 -0.0043243873 0.0059436555

net.2.weight f4 [128]
00000000: d1ec 7f3f 5c88 7f3f dae2 813f 08aa 7a3f
00000010: 5a9d 7e3f 6393 7e3f 8463 803f c9f5 7f3f
00000020: 1be1 7b3f dafa 7b3f 98c2 813f ea07 803f
00000030: 692a 823f 3e39 803f 7aa9 7f3f e4d8 7b3f
00000040: 6ac6 793f dbb2 813f 1a51 823f 3ffd 843f
00000050: e086 803f d36d 803f 8972 7d3f bfc0 7c3f
00000060: d929 803f 0465 7d3f 112c 7e3f 773d 813f
00000070: f90a 813f 84c7 7e3f db5f 803f 6b82 833f
00000080: 43b8 7d3f d003 7f3f 539e 813f e5ed 7d3f
00000090: 0f33 803f f650 7e3f c437 803f 47cf 833f
000000a0: 9ce3 813f 6b77 7b3f 9b0c 7a3f fcc8 7d3f
000000b0: 3086 7f3f 26f1 823f da21 823f c194 7e3f
000000c0: fd13 803f 7766 7a3f 17ed 793f 8cc8 7d3f
000000d0: aefd 813f be5b 843f 744c 813f b0b2 7e3f
000000e0: 7c2b 843f 22de 803f 8f63 813f 755f 7d3f
000000f0: a83c 7d3f d544 7d3f c507 833f 964f 813f
00000100: 90ae 7e3f 9567 7c3f 568a 803f 363d 803f
00000110: 0d0d 7b3f b218 7d3f 63d5 803f d13f 823f
00000120: 9b21 843f d00a 823f 7861 823f 378b 813f
00000130: 1d6c 803f 015a 813f 9a63 7c3f 2bad 823f
00000140: 5117 823f 0e2b 803f 6ea6 813f 6281 7f3f
00000150: 7d7a 7e3f c633 7f3f 785b 803f c1b6 803f
00000160: 6d0d 813f b44a 813f 0aa0 813f 3b49 7f3f
00000170: 225b 803f 2335 803f c24f 7f3f 2132 823f
00000180: 50ec 7b3f fc57 823f 29e9 823f 0ef5 7c3f
00000190: ff15 823f b02f 7d3f 3edf 7d3f 6ca7 7f3f
000001a0: 2a40 823f 0aaf 813f 542a 7c3f 64bf 833f
000001b0: 1f95 7c3f 9b66 793f 311b 803f 4430 793f
000001c0: 494d 803f 8f33 7e3f c148 823f 0381 843f
000001d0: a28d 803f b114 833f e21f 803f 101c 7e3f
000001e0: 2ced 7e3f eaba 813f 596b 7e3f 9cff 803f
000001f0: 7c1d 7d3f f46e 833f cf58 813f 30d4 803f
0.9997073 0.9981744 1.0147355 0.979157 0.9945885 0.99443644 1.003037 0.99984413
0.9839036 0.98429644 1.013751 1.0002415 1.0169193 1.0017469 0.99867976 0.98377824
0.9756838 1.0132707 1.0181 1.0389785 1.004116 1.0033516 0.9900289 0.9873161
1.0012771 0.9898226 0.9928599 1.0096883 1.0081474 0.99523187 1.0029253 1.0274175
0.99109286 0.9961519 1.0126442 0.99191123 1.0015582 0.99342287 1.0017018 1.0297631
1.0147586 0.9822909 0.97675484 0.991348 0.9981413 1.0229843 1.0166581 0.9944573
1.00061 0.978126 0.97627395 0.99134135 1.0155542 1.0340497 1.0101457 0.99491405
1.032577 1.006779 1.0108508 0.9897378 0.9892068 0.98933154 1.0236746 1.0102413
0.9948511 0.98595554 1.0042217 1.001868 0.9806679 0.9886581 1.006512 1.0175725
1.0322756 1.015955 1.0185995 1.012061 1.0032994 1.0105592 0.9858948 1.0209097
1.0163366 1.0013139 1.0128915 0.998068 0.9940565 0.99688375 1.0027914 1.0055772
1.0082222 1.0100923 1.0126965 0.99721116 1.0027812 1.0016216 0.99731076 1.0171548
0.9840746 1.0183101 1.0227405 0.98811424 1.0162963 0.9890089 0.99168766 0.9986484
1.0175831 1.0131543 0.9850209 1.0292783 0.9866504 0.9742219 1.0008298 0.9733927
1.0023586 0.9929742 1.0178453 1.0351871 1.0043223 1.024069 1.000973 0.9926157
0.99580646 1.0135167 0.9938255 1.0078006 0.98873115 1.0268235 1.0105227 1.0064754

net.2.bias f4 [128]
00000000: b601 693d 1620 713d 70ef 793d 0e5e 5dbd
00000010: 6eb8 633d 346d 65bd 938c 673d 0a92 6c3d
00000020: cdeb 233d e954 5cbd aaf6 703d 689c 6c3d
00000030: 2f78 74bd 2f1a 703d df74 67bd ccd9 63bd
00000040: bdb1 56bd 8105 783d 088c 793d c1fd 8b3d
00000050: 49ee 653d e973 683d de5b 633d 6acf 5cbd
00000060: 8a0d 67bd be6d 69bd a2e8 66bd 9754 7dbd
00000070: 5f33 703d a16d 6a3d 2c6c 6f3d d6af 763d
00000080: d8ec 613d 1f26 6d3d 87c2 813d a5c5 4ebd
00000090: ed6b 6bbd d875 68bd 914d 653d 1397 833d
000000a0: f3f4 483d 7792 57bd c0e5 4ebd bc97 5cbd
000000b0: 7dc0 693d 1cc6 75bd edd7 7a3d 7e8f 5abd
000000c0: 98a5 663d 9231 5fbd 606e 4bbd 6bbb 5cbd
000000d0: ce14 8c3d 7ef4 753d bad9 6c3d 8bf5 483d
000000e0: 7a83 873d 2727 87bd 45ec 723d 0579 25bd
000000f0: f384 62bd 07e9 62bd 8bc0 6f3d 22d6 6d3d
00000100: 3e1b 403d fee0 663d f19b 6d3d 1228 6ebd
00000110: 6dac 543d 05a4 5a3d e6fd 803d 685b 783d
00000120: 52f0 813d ee8e 753d f7c8 8ebd 92df 773d
00000130: 6bf3 6cbd 8275 6fbd a2ea 5f3d e91e 783d
00000140: 3414 75bd c71c 6a3d 3f5b 793d d753 68bd
00000150: ca61 5fbd 6ef8 6abd 3f3e 6abd b13c bb3c
00000160: 4d55 733d 75e7 803d fb02 81bd 55f3 663d
00000170: a9da 71bd 3e51 70bd b3a3 51bd cccf 7bbd
00000180: 5234 4cbd 7c42 743d 3b92 843d 10ef 5ebd
00000190: 8965 793d d281 63bd fa70 3d3d 028a 6c3d
000001a0: 2345 713d 3df7 6b3d f6ca 60bd e935 923d
000001b0: 9871 5a3d 09c0 47bd f330 6cbd f869 56bd
000001c0: 8402 6d3d 0ebb 653d afe0 70bd 03d7 7c3d
000001d0: 0341 6e3d a59b 783d c53f 783d 5945 653d
000001e0: 5f7b 65bd 62a2 6dbd 1faf 64bd 1ca3 8bbd
000001f0: beda 62bd ee1a 763d d9f0 6b3d ff45 863d
0.056886397 0.05886849 0.06101936 -0.054044776 0.055595808 -0.056012347 0.056530546 0.05775646
0.0400198 -0.053791914 0.058828987 0.057766348 -0.05968493 0.05861872 -0.05650794 -0.05562763
-0.0524156 0.060552124 0.06092456 0.06835509 0.05613545 0.056751166 0.055507533 -0.053908743
-0.056409396 -0.056989424 -0.0563742 -0.06184825 0.05864274 0.057233457 0.05845277 0.060226284
0.055157512 0.057897683 0.06335931 -0.050481457 -0.057475973 -0.05675301 0.055982176 0.064252995
0.049061727 -0.052629914 -0.050512075 -0.053855643 0.057068337 -0.060003385 0.06124108 -0.0533595
0.056310266 -0.054490633 -0.04966581 -0.053889673 0.06839906 0.06004762 0.057824828 0.049062293
0.06616874 -0.065992646 0.059307355 -0.040398616 -0.05530257 -0.055398013 0.058533233 0.05806554
0.04690098 0.056366913 0.058010045 -0.058143683 0.05192225 0.053379077 0.06298427 0.060634047
0.063446656 0.05995076 -0.06971925 0.060515948 -0.05784933 -0.058461674 0.054667123 0.060576353
-0.05983372 0.05715635 0.060878035 -0.05672058 -0.05453662 -0.057365827 -0.05718827 0.022856088
0.05940752 0.06294147 -0.062993966 0.056384403 -0.05904642 -0.05867123 -0.051181506 -0.061477467
-0.049854584 0.059633717 0.06473204 -0.054427207 0.060887847 -0.05554373 0.04625032 0.057748802
0.058903825 0.05760883 -0.05488106 0.07139189 0.053330988 -0.048767123 -0.05766387 -0.052347153
0.057863727 0.056086592 -0.058808025 0.06172849 0.05816747 0.06069531 0.06060769 0.05597434
-0.05602586 -0.05801619 -0.05583107 -0.0681822 -0.05538439 0.060084276 0.057602737 0.065563194

net.2.running_mean f4 [128]
00000000: be90 4f3d 7a27 1b3e 8c6b 5d3c 5459 903d
00000010: 1701 0a3c 9017 8d3e 24d7 583e 7e22 e33a
00000020: 5e77 3f3d 09a3 283e 49a7 413e 3d8e 643c
00000030: c6fa 753c 1a72 ab3d be1d 2d3d 7b0f 113d
00000040: 18b0 093f 0236 1a3e 7a2c 9c3e ad33 8a3e
00000050: ed87 853c 3a9e 763d 923d 163e 53ff 553d
00000060: cdb7 f43d 8e72 603e 0765 ea3d 13f5 363d
00000070: f80d 593c 9b72 333c 2e3e c83c cd3b be3d
00000080: 9b4b 273d 1dda 323d 91d4 573e a4d7 023e
00000090: 6bdf 263e 6e75 333e 0eed 2b3e 3e87 ad3e
000000a0: 6254 6d3e d68a 233e dc52 083e 3efe 8e3d
000000b0: f934 7e3c 4dc4 5d3d 9c7d a53e acf2 123c
000000c0: 6ddb b63d cf3c 403e 2b78 c43e 9f7c c73d
000000d0: 65bd 363a 4161 1c3e 4ff5 de3d dea1 783d
000000e0: 866e 9e3e 0f00 ec3b 016b df3d a432 013e
000000f0: bc3d 153d 4aed db3e 89e4 683e 8ccb 513d
00000100: 10e2 e73d 7771 d63c de69 7c3d 344f 7f3d
00000110: 48cd ad3d 0b02 743d 6eef 213e c0e4 d23e
00000120: 4829 df3c 7de0 343d a825 053d 761f a13b
00000130: 30f6 c03d 27e4 c03d 9a6d 293b 511d e23d
00000140: f956 6f3c 5f4b ef3d 3f0e 783b 2f83 113c
00000150: 9fd0 6c3e 0869 873e 3c63 5a3d 35f3 0e3d
00000160: d801 983d 7360 883a 1f2a 7d3d d1ba 413c
00000170: 05dd b23d 7008 393e 1d3a 993d 9ec1 093e
00000180: 8780 ba3d ec78 b93e 587d 0b3e fe93 3e3d
00000190: cebf dd3e f06c 5b3d 2a28 9e3d cdb8 d83a
000001a0: 9af4 003f 2275 e13c 2053 c33d 081b b23e
000001b0: 40ec b93d cecf 3f3e 7ca6 ae3c 9b77 033e
000001c0: 8640 bb3b 5381 713c 8256 ae3d 5646 b63e
000001d0: af57 e63d 2ba7 9c3e be6e 953c 582b 763e
000001e0: 1731 833e b519 8d3d 1509 213d c6d8 e43c
000001f0: 99fa 843e 8130 353e 41b7 b83d aca6 913d
0.050675146 0.15151778 0.013514411 0.07048288 0.008423111 0.2755704 0.2117582 0.0017329005
0.046744697 0.16468443 0.1891147 0.013949928 0.015013402 0.083713725 0.042264692 0.035415154
0.5378432 0.15059665 0.30502683 0.2699255 0.016300166 0.06020949 0.14671925 0.05224545
0.1194912 0.21918699 0.11445051 0.044667315 0.013247959 0.010952617 0.024443712 0.0928875
0.040843587 0.04366504 0.21077181 0.12777573 0.16296165 0.17525265 0.16789648 0.33892244
0.2317672 0.1597093 0.13312858 0.069820866 0.015515559 0.054142285 0.32322395 0.00896899
0.08928571 0.18773197 0.3837293 0.097405665 0.0006970971 0.15271474 0.10886633 0.060701244
0.30943698 0.0072021554 0.10909081 0.12616974 0.036435828 0.42954475 0.22743429 0.051219508
0.11322415 0.026177151 0.0616244 0.062331393 0.0848642 0.05957226 0.15813991 0.41190147
0.027241364 0.0441594 0.032506615 0.0049170805 0.094219565 0.094185166 0.002585268 0.11040748
0.014608138 0.11684298 0.0037850288 0.008881374 0.23126458 0.2644732 0.053317294 0.03489991
0.07422227 0.0010404721 0.061807748 0.011824326 0.087335624 0.18069625 0.07481787 0.13452765
0.09106546 0.3622507 0.13622034 0.046527855 0.43310398 0.053570688 0.077225044 0.0016534567
0.5037323 0.027521674 0.09537339 0.34786248 0.09078264 0.18731615 0.02131962 0.12838595
0.005714479 0.014740306 0.08512594 0.35600537 0.11247193 0.3059629 0.018241283 0.24039972
0.2562339 0.06889669 0.039315302 0.027935397 0.2597244 0.17694284 0.09019328 0.07111868

net.2.running_var f4 [128]
00000000: 37de af3c 52aa 1e3d 6a76 1e3c a647 c13c
00000010: 816e f83b 8822 193d c15d 473d 82da ea3b
00000020: 3576 553c 1800 323d 52e5 6e3d 7739 183c
00000030: 915b 113c 820d a03c 8230 903c de11 573c
00000040: b164 d33d 327a 233d 7cfa 8b3d 3ddd 7f3d
00000050: a685 153c cff4 653c 6ec1 da3c a43a a43c
00000060: 6dfa cb3c 3967 113d 7237 013d 3dcf 303c
00000070: 27bf 1a3c 5ff1 123c 9034 433c e127 c33c
00000080: 5754 623c a3f2 783c 2676 783d e0fd d43c
00000090: 433e 2a3d 919b fb3c 260c 0c3d e421 c13d
000000a0: ba89 853d a9da 763d 64f5 143d 6dbe c33c
000000b0: 906a 373c b956 6f3c 3bd2 933d 0c72 093c
000000c0: 9efe db3c 0457 2c3d f0e6 c63d a665 c53c
000000d0: e048 e83b 6706 4d3d c79d 153d 8959 683c
000000e0: 4053 843d a642 023c 0433 143d 7664 1a3d
000000f0: 69c4 5b3c 5d46 063e e0f9 3b3d 33db 733c
00000100: fa06 f73c e8e6 3d3c c385 9d3c a132 893c
00000110: 9a1e 903c dd1a a03c e5c4 143d 6c49 953d
00000120: 5bb7 5c3c 3554 6d3c 0eeb 273c da3c fc3b
00000130: ffa2 883c b495 b23c a41f ec3b 5f66 f73c
00000140: 006d 043c c2e4 9e3c 2493 f43b 7238 033c
00000150: 7d4f 463d 1c04 543d 1a16 703c 48e2 4e3c
00000160: d3fc f03c 03e5 e93b 4b9e d43c b079 113c
00000170: 0080 e13c 8a5a 463d ed98 0d3d d7d0 d43c
00000180: 8af6 f83c 0004 b43d f776 e73c d8ea 7f3c
00000190: 3550 cd3d 7b69 a33c e6fe a93c 6d86 ef3b
000001a0: ab7b aa3d 1157 313c 1645 d03c 1cf6 7c3d
000001b0: 5e42 b13c b0a9 4f3d 419a 263c af0e 363d
000001c0: 7803 023c 475c 2e3c f183 b53c f888 b13d
000001d0: d04c e33c 470f f43d 5d68 263c e626 2a3d
000001e0: 78f8 3c3d 0756 8b3c 8172 383c 9cd1 3d3c
000001f0: 89c0 f23c a3e4 543d 4a95 d13c ff63 bc3c
0.021468265 0.03873665 0.009671787 0.023593735 0.0075815325 0.037386447 0.048673395 0.0071671614
0.013028671 0.04345712 0.058324166 0.009291044 0.008871929 0.019537691 0.017601255 0.013126818
0.1032194 0.039911456 0.068348855 0.06246685 0.009126103 0.014035418 0.026703563 0.020047493
0.024899686 0.03549883 0.031547017 0.010791597 0.009444988 0.00896868 0.011914387 0.023822727
0.0138140535 0.015194568 0.06065955 0.025999963 0.041563284 0.030713828 0.034191273 0.09430292
0.0652041 0.060267124 0.036366835 0.023894513 0.01119484 0.014608079 0.07217833 0.008389007
0.02685481 0.042075172 0.097120166 0.024096321 0.0070887655 0.050054934 0.03652742 0.014181503
0.06461191 0.007950461 0.036181465 0.037693463 0.013413527 0.13112779 0.045892596 0.014883804
0.030154694 0.011590697 0.019228822 0.016747775 0.017592717 0.01954406 0.036320586 0.07289395
0.01347145 0.014485409 0.0102489125 0.0076976838 0.016679285 0.0217999 0.0072059203 0.030200182
0.008082628 0.01939619 0.0074638296 0.008009063 0.04841565 0.05176173 0.014653707 0.012627192
0.029417431 0.007137896 0.025954386 0.00887911 0.027526855 0.04842619 0.03456967 0.025978489
0.030390996 0.087898254 0.028254969 0.015619956 0.10025064 0.019947758 0.020751428 0.007309726
0.08324369 0.010823981 0.025423568 0.061758146 0.021638092 0.050698936 0.010168613 0.044447597
0.007935397 0.010642118 0.022157641 0.08668703 0.027746588 0.119169764 0.010156718 0.041541003
0.046135396 0.017008794 0.011257769 0.011585619 0.029632824 0.051975857 0.025583882 0.0229969

net.3.weight f4 [1, 128]
00000000: a51b a13d fb62 283d 34ed 4c3d 03f0 6ebd
00000010: 5b96 f93c ce56 a2bd b5f6 573d 8ab5 ba3d
00000020: ba10 f63b f3f0 10bd 2821 723d d897 7f3d
00000030: 9329 99bd a1d2 1a3d c74e 16bd 88b3 75bd
00000040: 185b 03bd def6 0d3d c43d 4b3d e826 1e3d
00000050: 1b06 953c d6ac 6b3d 3679 0c3d a24b febc
00000060: 8736 b2bd a01c 80bd 511e 9bbd 3325 c2bc
00000070: 1e02 cc3d edf9 a93d d589 7c3d 82d7 ac3d
00000080: 4d10 0a3d 5f5e 893d 9e8a bf3c 9762 d8bb
00000090: 9e30 8ebd afe4 e9bc 6cac ee3c 7a8e 343d
000000a0: 084e aa3c 300f 95bc b238 cbbc 8c91 e9bc
000000b0: 4257 bb3d 4104 72bd e7be 143d 4c66 84bc
000000c0: 5081 fc3c b95e 36bd 0862 68bc d639 2ebd
000000d0: 665f 663d f58c d13d 6879 4c3d 2421 783c
000000e0: cf26 063d 168d a5bc f611 2f3d 62ad 89bb
000000f0: 5831 08bd b9f0 9abd ec77 c53d 6e6a 083d
00000100: 3311 ed3b 7a64 913d 4596 a73d dd58 00bd
00000110: 32c8 003d afd2 993c 4c26 e33c 114c 873d
00000120: 6e8a 5b3d e403 853d 240f b1bc 12d8 573d
00000130: d59a 8cbd 961a b0bd d263 333d b455 8f3d
00000140: a32b 8abd 82af 443d d4fb 0b3d 3aac dcbc
00000150: b58a 1bbd 3e9d 2dbd 4990 a5bd 97af 9a3c
00000160: e014 243d 107f 253d 22eb 06bd a102 9d3d
00000170: 11c6 4fbd 5a34 9bbc 0fd3 88bc 97ae 30bd
00000180: 77e2 3abc 53e7 723d b7e5 183d 66a0 12bd
00000190: e433 5d3d 5370 6cbd 6689 a93b 46eb 173d
000001a0: b294 c93d 27f5 9b3d 4d26 46bd ec8f f33c
000001b0: 6482 9f3c 9cc7 85bc a500 24bd c25f d6bc
000001c0: cc28 8d3d 82e1 8a3d ea4c aebd b5ed 973d
000001d0: 8f7c b53d 933f 9a3d b99a de3c 1124 c83c
000001e0: b07a a2bd 59db 8abd 39bb 12bd 6caa 6cbc
000001f0: 73e3 24bd 1b39 a63d e611 cc3d 4871 883c
0.07866601 0.04111002 0.050030902 -0.05833436 0.030467203 -0.07926713 0.052725513 0.09116657
0.007509318 -0.035386037 0.05911365 0.06240067 -0.07478633 0.037798528 -0.03669622 -0.059985667
-0.032069296 0.03465926 0.04961945 0.038611323 0.018191388 0.057537876 0.034295283 -0.031041924
-0.087018065 -0.0625546 -0.07574142 -0.023699379 0.09961341 0.08299623 0.061654884 0.08439542
0.033706952 0.06707453 0.023381528 -0.0066035497 -0.06942867 -0.028551428 0.029134952 0.04408119
0.020789161 -0.018195719 -0.024807308 -0.028511785 0.091475025 -0.059086088 0.03631487 -0.01616206
0.03082338 -0.04452393 -0.014183529 -0.042535625 0.056243323 0.102319635 0.04992047 0.01514462
0.032751855 -0.020208877 0.04274174 -0.004201577 -0.033250183 -0.075654455 0.09642014 0.033304624
0.0072347163 0.070992425 0.081829585 -0.031334747 0.03144092 0.01877722 0.027728222 0.066063054
0.053598814 0.06494883 -0.021613665 0.052696295 -0.06865469 -0.08598821 0.043796368 0.069987684
-0.06746604 0.04801894 0.03417571 -0.026937593 -0.03797408 -0.042386286 -0.08084161 0.018882556
0.04005897 0.04040438 -0.032939084 0.07666517 -0.050726 -0.018945862 -0.016702203 -0.04313525
-0.0114065325 0.05930264 0.03732845 -0.0357975 0.054004565 -0.05772431 0.00517385 0.03708961
0.098428145 0.076151185 -0.04837637 0.029731713 0.019471355 -0.016330533 -0.040039677 -0.026168708
0.06892547 0.067812935 -0.08510764 0.07418386 0.08861648 0.07531657 0.027173387 0.02443126
-0.07933557 -0.067801185 -0.03582308 -0.014444929 -0.040255975 0.08116361 0.09964351 0.01665558
