saved_models/mlp/MLP_breast_cancer.pth (torch, 11262 bytes, 7 tensors)

net.0.weight f4 [128, 9]
0	0xbdc42f3c	-0.09579322
1	0xbe4b473b	-0.19851391
2	0xbdf679bb	-0.12034937
3	0x3e5867f7	0.2113341
4	0xbc661b60	-0.014044613
5	0x3e509c2e	0.20372078
6	0xbe81db07	-0.25362417
7	0xbe99cc74	-0.30038798
8	0xbea8669f	-0.32890794
9	0xbca8d0f6	-0.020607453
10	0xbe2d6d67	-0.16936265
11	0x3e8a2151	0.26978543
12	0xbe9aa3fd	-0.30203238
13	0xbd09f44c	-0.033680245
14	0x3e6a34f6	0.22871765
15	0x3e119416	0.14216647
16	0xbe993043	-0.29919633
17	0xbdc8bea9	-0.098019905
18	0x3e776882	0.2416096
19	0xbe116836	-0.1419991
20	0x3e58a428	0.2115637
21	0x3df9e56b	0.12201961
22	0xbda10292	-0.078618184
23	0x3dd1e645	0.102489986
24	0x3e72fba8	0.23728812
25	0x3e853c84	0.26022732
26	0xbd9be803	-0.07612612
27	0xbdd7b2f7	-0.10532182
28	0xbe4a69c1	-0.19766904
29	0x3d8302a2	0.063969865
30	0xbbf4a6fd	-0.0074661956
31	0xbe601222	-0.21881917
32	0x3e9699b9	0.29414156
33	0x3e3d8576	0.18507943
34	0x3d02a7b1	0.031898204
35	0x3e93cf5d	0.28869143
36	0x3d06a1e4	0.032869235
37	0x3eab34d4	0.33438742
38	0x3d3328ce	0.043740086
39	0xbe03b09c	-0.1286034
40	0xbb88b659	-0.004172128
41	0x3dd77cf6	0.10521881
42	0xbe3e8549	-0.18605532
43	0xbe74b33b	-0.23896496
44	0x3c34fc24	0.011046443
45	0x3e3a603a	0.1820077
46	0xbe3d39cf	-0.18479083
47	0x3e89fbcf	0.26949927
48	0x3de4a9cd	0.111651994
49	0xbd95139e	-0.07279132
50	0xbc8fca07	-0.017552389
51	0x3e9e6dfe	0.30943292
52	0xbe9a2797	-0.3010833
53	0x3d845a43	0.064625286
54	0x3e033947	0.12814818
55	0x3e7b3a91	0.2453406
56	0xbe3e99f5	-0.18613417
57	0xbcfc9353	-0.030831968
58	0x3e3828b5	0.17984279
59	0x3d621023	0.05519117
60	0x3da3f853	0.080063485
61	0x3ea72ffc	0.32653797
62	0x3e1e9e68	0.15490115
63	0xbd60f8de	-0.05492484
64	0x3b34e69d	0.0027603277
65	0xbe12ce06	-0.14336404
66	0x3e18a0a2	0.14905027
67	0xbdb1c1b5	-0.08679525
68	0x3e377733	0.17916565
69	0xbe95abf3	-0.2923275
70	0x3d634d05	0.055493373
71	0x3dd09d2f	0.101862304
72	0xbc8f4957	-0.017491026
73	0xbe70f9a1	-0.23532726
74	0x3e5abee0	0.21361876
75	0xbe96ecd3	-0.29477558
76	0x3ca59e06	0.020216953
77	0xbe4d5680	-0.20052528
78	0xbdf482a8	-0.11938983
79	0xbe999f9f	-0.30004594
80	0x3dde3492	0.10849871
81	0x3e4a831b	0.19776575
82	0xbe6d729b	-0.2318825
83	0xbd497341	-0.04918218
84	0xbe408c6a	-0.18803564
85	0xbe99d1c0	-0.3004284
86	0xbe3d9bb9	-0.18516435
87	0xbdc92bed	-0.09822831
88	0x3e24f862	0.16110376
89	0xbe2be5d9	-0.16786899
90	0xbe6e28ab	-0.23257701
91	0xbe32360b	-0.17403428
92	0xbe610be6	-0.21977195
93	0xbe47a0d0	-0.19494939
94	0xbe871d9a	-0.26389772
95	0xbe091630	-0.1338737
96	0x3d6254b8	0.055256575
97	0x3d9649bc	0.073382825
98	0x3cae5fb0	0.021285862
99	0x3e7e4b65	0.24833448
100	0xbe94c100	-0.29053497
101	0x3ddd0852	0.107926026
102	0xbe34ffc3	-0.1767569
103	0x3cd9c9d6	0.0265855
104	0x3c27007c	0.010192987
105	0x3d450202	0.048097618
106	0xbe1aef43	-0.15130334
107	0x3d16a55c	0.036778793
108	0x3e8a595b	0.27021298
109	0x3e8b2bcc	0.27181852
110	0x3dcb7020	0.099334955
111	0xbe456576	-0.19276986
112	0x3ea037e5	0.31292644
113	0xbe151ae1	-0.14561035
114	0xbea32b2a	-0.3186887
115	0x3ddeb644	0.10874608
116	0x3d591f7a	0.053008534
117	0xbe851802	-0.2599488
118	0x3e38ec32	0.18058851
119	0x3d15e1c3	0.036592256
120	0x3ea3b36e	0.3197283
121	0x3eaf6a9f	0.34261033
122	0xbe97762e	-0.2958235
123	0x3c44e29b	0.012016918
124	0x3e87bce7	0.2651131
125	0x3e0059ca	0.12534252
126	0xbeaa987a	-0.33319455
127	0xbd18c8a0	-0.037300706
128	0x3da5d15c	0.08096573
129	0x3e7bc77a	0.24587813
130	0xbe997744	-0.29973805
131	0xbde7b756	-0.113142654
132	0xbd0c3b28	-0.034236103
133	0xbe781bdb	-0.24229376
134	0xbc1d0920	-0.009584695
135	0xbb184000	-0.0023231506
136	0xbdc829dc	-0.09773609
137	0xbd46bdb8	-0.048520774
138	0xbc8c9500	-0.017160892
139	0x3e83b06d	0.2572054
140	0x3a747e00	0.0009326637
141	0xbe69da38	-0.2283715
142	0xbe129200	-0.14313507
143	0x3bd86a00	0.006604433
144	0xbe564b03	-0.20927052
145	0x3e82a359	0.2551525
146	0x3e38e14b	0.18054692
147	0xbeab0402	-0.33401495
148	0x3ddafdc6	0.10692935
149	0x3d687328	0.056750447
150	0x3d12a76e	0.035804205
151	0x3e38f27a	0.18061247
152	0xbe493f20	-0.19652987
153	0xbe0a64ed	-0.13515063
154	0xbea8d297	-0.32973167
155	0xbce1020d	-0.027466798
156	0xbea17147	-0.31531736
157	0x3ca67aa8	0.020322159
158	0xbebc17ec	-0.36737
159	0x3e14b63c	0.14522642
160	0x3e0b3252	0.13593414
161	0xbea2b134	-0.3177582
162	0xbdef2ab7	-0.11678069
163	0xbd757d0a	-0.0599337
164	0x3e9a87f7	0.30181858
165	0xbe8bec9b	-0.27328953
166	0x3e4f9627	0.20272122
167	0xbe682f1c	-0.22674221
168	0xbe936bcb	-0.28793177
169	0xbd66ad47	-0.056317594
170	0x3d578007	0.05261233
171	0xbda473b2	-0.0802988
172	0xbd1d30ce	-0.038376622
173	0x3dea39ca	0.11436804
174	0x3e19650e	0.14979956
175	0x3d5acf00	0.053420067
176	0xbe0b35ee	-0.13594791
177	0xbe5a5e1b	-0.21324961
178	0xbe50f1f5	-0.204048
179	0x3e95433f	0.29152867
180	0x3e8bf18c	0.27332723
181	0xbd8f4516	-0.06995599
182	0x3e27b8fc	0.1637916
183	0xbe605b15	-0.21909745
184	0xbe29a6da	-0.16567555
185	0x3dfd0c40	0.12355852
186	0x3e070d65	0.13188703
187	0xbea2c37a	-0.31789762
188	0xbe80ea68	-0.25178838
189	0xbea0cfb4	-0.31408465
190	0x3e3ae1d4	0.18250209
191	0xbe14d240	-0.14533329
192	0x3db4b68a	0.08823879
193	0xbddc1634	-0.107464224
194	0x3e67dff5	0.22644027
195	0x3e41d8d3	0.18930368
196	0x3dd892f9	0.10574908
197	0xbd9258fe	-0.0714588
198	0x3c8721ad	0.01649555
199	0xbda8981c	-0.082321376
200	0xbdffb7f0	-0.12486255
201	0x3e326610	0.17421746
202	0x3d9eba90	0.07750428
203	0x3cde3f8e	0.027129915
204	0xbea273a2	-0.31728846
205	0x3e457984	0.19284636
206	0xbddaa93c	-0.1067681
207	0x3c761ae3	0.015021059
208	0x3d90c8d3	0.07069554
209	0x3e007407	0.12544261
210	0xbe3faddb	-0.18718664
211	0xbcdaa7df	-0.026691375
212	0xbe21395a	-0.15744534
213	0x3e7277f7	0.23678575
214	0xbe372b9f	-0.17887734
215	0xbe333d92	-0.17503956
216	0xbe7277e7	-0.23678552
217	0x3d43cd2d	0.047803093
218	0x3e9ecddb	0.3101643
219	0x3d2ade79	0.041716073
220	0xbc431ad0	-0.011908248
221	0x3e38c989	0.1804563
222	0xbe0325ba	-0.1280736
223	0xbe8ea066	-0.2785675
224	0xbd81522f	-0.063145034
225	0x3da109f0	0.078632236
226	0x3d5e8f7c	0.054336056
227	0x3e81d7ae	0.25359863
228	0x3e9d435c	0.30715454
229	0xbcf1b18e	-0.02950361
230	0x3e8f5d35	0.280008
231	0xbd55de7c	-0.05221413
232	0x3e4ad850	0.19809079
233	0xbce0786a	-0.027401168
234	0x3e3ec02e	0.18627998
235	0x3ddcfbca	0.107902125
236	0xbe75aa0e	-0.23990652
237	0xbe2cc649	-0.16872515
238	0x3e913226	0.28358573
239	0xbe6a23dc	-0.22865242
240	0x3e700344	0.23438746
241	0x3e397b08	0.18113339
242	0xbe7d7e8e	-0.24755308
243	0x3e986393	0.2976347
244	0x3d39140a	0.045185126
245	0xbdbfd09b	-0.0936596
246	0x3dcb9285	0.09940056
247	0x3cb79bda	0.022413183
248	0xbdf7ff69	-0.121092625
249	0x3e8c7296	0.27431172
250	0xbe5851b2	-0.21124914
251	0xbd54a40d	-0.051914264
252	0xbe99bed8	-0.30028415
253	0x3e0ad809	0.13558973
254	0x3dae5819	0.08512897
255	0x3e819b25	0.25313678

net.0.bias f4 [128]
0	0xbdee4d48	-0.11635834
1	0xbe3f1fcc	-0.18664473
2	0x3e7efd54	0.24901325
3	0x3ea1fb6e	0.31637138
4	0x3e4631bd	0.19354911
5	0x3e955e31	0.29173425
6	0x3d17fb40	0.037104845
7	0xbd15d7ac	-0.036582634
8	0x3e35dafc	0.17759317
9	0x3e8673e3	0.2626029
10	0x3dc2919c	0.09500429
11	0xbdd786c9	-0.10523755
12	0xbdf82ae9	-0.121175595
13	0x3e81a77d	0.25323096
14	0xbe4aa776	-0.19790444
15	0xbe902ad2	-0.2815767
16	0xbdaa88b4	-0.08326855
17	0x3d81927d	0.063267685
18	0xbe5d8f62	-0.21636727
19	0x3e9ad5d2	0.30241257
20	0x3cc92138	0.024551973
21	0xbe4f00e3	-0.20215182
22	0xbe76409c	-0.24048084
23	0x3d7b9cda	0.061428882
24	0xbe5a062c	-0.21291417
25	0xbeae183a	-0.34002858
26	0xbd9cea85	-0.076619186
27	0x3e9f4be2	0.31112581
28	0xbea55c94	-0.32297194
29	0xbe902f95	-0.28161302
30	0x3e72d5e1	0.23714401
31	0xbcce8297	-0.025208754
32	0x3ea93289	0.33046368
33	0x3e2fa679	0.17153348
34	0xbe6e73dd	-0.23286386
35	0xbe47294a	-0.19449344
36	0x3e6aa0e8	0.22912943
37	0xbe86c733	-0.26323852
38	0xbdf4e69b	-0.11958047
39	0x3ab94b00	0.0014136732
40	0xbcf05170	-0.029335707
41	0xbe7d0863	-0.2471023
42	0x3e41a652	0.18911102
43	0x3e391f6b	0.18078391
44	0x3e49038a	0.19630256
45	0xbd140c9c	-0.036144838
46	0x3e4fa1db	0.20276587
47	0x3dc3d57b	0.095622025
48	0x3c68878e	0.014192475
49	0x3e67ecd5	0.22648938
50	0xbe195a82	-0.14975932
51	0x3dd1c9ac	0.10243544
52	0x3c1e388c	0.0096570365
53	0xbd0834e5	-0.03325357
54	0xbd90451f	-0.07044434
55	0xbeb78589	-0.35844067
56	0xbc3c300c	-0.011486065
57	0x3d7879f8	0.060663193
58	0x3e0c12df	0.13679074
59	0x3e4a24c0	0.19740582
60	0x3e45c85f	0.19314717
61	0xbe679f40	-0.22619343
62	0x3cbeecd2	0.023306284
63	0xbea0c662	-0.31401354
64	0xbeab91b3	-0.33509597
65	0xbe38caba	-0.18046084
66	0xbe2fdeef	-0.17174886
67	0x3e10be79	0.1413516
68	0xbc61738e	-0.013760461
69	0x3dfd8d83	0.12380507
70	0xbe798447	-0.24366866
71	0xbd132232	-0.035921283
72	0xbe2d855d	-0.16945405
73	0x3e940b76	0.28914994
74	0x3c8be4bd	0.017076844
75	0x3e505e5b	0.20348494
76	0x3e3811e1	0.1797557
77	0x3d80528b	0.06265744
78	0xbe54b746	-0.20773038
79	0xbe861274	-0.26185954
80	0x3e11ecd4	0.14250499
81	0x3e51b271	0.20478226
82	0x3e6313f7	0.22175585
83	0xbe846275	-0.25856367
84	0x3ddc29aa	0.10750134
85	0x3dfc75e4	0.12327173
86	0xbd97de60	-0.074154615
87	0xbdadd988	-0.084887564
88	0xbe599d16	-0.2125133
89	0xbd84c67c	-0.064831704
90	0x3d6a9437	0.057270255
91	0x3d0c3fe8	0.034240633
92	0xbe9e020e	-0.30860943
93	0xbdb889d6	-0.09010665
94	0x3e510843	0.20413308
95	0x3c38760c	0.011258613
96	0xbe878ab9	-0.26473024
97	0xbe277262	-0.16352227
98	0xbd4a6e14	-0.049421385
99	0x3e8818c4	0.26581395
100	0x3e5f503b	0.21807949
101	0xbe7f930a	-0.24958435
102	0xbe36aace	-0.17838594
103	0x3da28bff	0.079368584
104	0x3e85318d	0.26014367
105	0xbe3166a6	-0.17324314
106	0x3e3e09a6	0.18558368
107	0x3d00fa0e	0.03148847
108	0x3e25c67d	0.16188999
109	0x3d2a2069	0.041534815
110	0x3e43034d	0.19044228
111	0x3d391b78	0.045192212
112	0xbe555283	-0.20832257
113	0x3e475897	0.19467388
114	0xbe6d1555	-0.23152669
115	0xbe8f7084	-0.2801553
116	0xbe03b59d	-0.12862249
117	0xbe4b3c6b	-0.19847266
118	0xbd68b458	-0.056812614
119	0xbe600b3b	-0.21879284
120	0x3e0d6ef0	0.1381185
121	0x3e806d08	0.25083184
122	0x3e04ddcc	0.12975234
123	0x3e3aaa74	0.18229085
124	0xbe7278ee	-0.23678944
125	0xbe8a79d6	-0.27046078
126	0xbe57ccfc	-0.21074289
127	0x3c844506	0.016146194

net.2.weight f4 [128]
0	0x3f7d4b65	0.9894317
1	0x3f7d833b	0.99028367
2	0x3f82de21	1.0224038
3	0x3f755889	0.9583822
4	0x3f823f70	1.017561
5	0x3f7a31d1	0.97732264
6	0x3f7eb579	0.99495655
7	0x3f899708	1.0749216
8	0x3f8005a6	1.0001724
9	0x3f76174b	0.9612929
10	0x3f800000	1.0
11	0x3f8212bc	1.0161967
12	0x3f7c49a7	0.98549885
13	0x3f829067	1.0200318
14	0x3f800000	1.0
15	0x3f800000	1.0
16	0x3f7e9b83	0.9945604
17	0x3f79c13d	0.97560483
18	0x3f8195a3	1.012379
19	0x3f79dcd2	0.9760257
20	0x3f7ffd35	0.9999574
21	0x3f803415	1.0015894
22	0x3f758e9d	0.95920736
23	0x3f815977	1.0105428
24	0x3f835535	1.0260378
25	0x3f86b050	1.0522556
26	0x3f87b2e1	1.0601465
27	0x3f81026c	1.0078864
28	0x3f7c57ec	0.9857166
29	0x3f7cafa1	0.9870549
30	0x3f7da0d1	0.9907351
31	0x3f7d19b1	0.98867327
32	0x3f800000	1.0
33	0x3f817d0f	1.011629
34	0x3f83c580	1.0294647
35	0x3f849401	1.0357667
36	0x3f7c3e2b	0.9853236
37	0x3f800000	1.0
38	0x3f7ab0c6	0.97925985
39	0x3f800000	1.0
40	0x3f800000	1.0
41	0x3f800000	1.0
42	0x3f7cb9e7	0.98721164
43	0x3f808b6d	1.0042549
44	0x3f7b817d	0.9824446
45	0x3f7d034b	0.9883315
46	0x3f76f635	0.9646943
47	0x3f77ad2d	0.9674862
48	0x3f858542	1.0431292
49	0x3f865e30	1.0497494
50	0x3f78c3be	0.9717368
51	0x3f76d61c	0.96420455
52	0x3f7d9ce9	0.9906755
53	0x3f82d079	1.0219871
54	0x3f83912e	1.027868
55	0x3f7bc43d	0.9834631
56	0x3f85210b	1.0400709
57	0x3f800000	1.0
58	0x3f79f15e	0.9763392
59	0x3f7dcc07	0.99139446
60	0x3f8233ed	1.0172096
61	0x3f800000	1.0
62	0x3f804363	1.0020565
63	0x3f76da3e	0.9642676
64	0x3f804106	1.0019844
65	0x3f83ad52	1.0287268
66	0x3f8086af	1.0041102
67	0x3f81279f	1.0090216
68	0x3f7b472f	0.9815549
69	0x3f780adb	0.96891564
70	0x3f7f7ffc	0.99804664
71	0x3f78a031	0.9711943
72	0x3f84b56e	1.0367868
73	0x3f78aec9	0.971417
74	0x3f7e3fec	0.9931629
75	0x3f821e99	1.0165588
76	0x3f80d882	1.0066073
77	0x3f788bac	0.9708812
78	0x3f80b0ae	1.0053918
79	0x3f800000	1.0
80	0x3f8177a1	1.0114633
81	0x3f832886	1.0246742
82	0x3f86cf52	1.0532019
83	0x3f834cbc	1.0257792
84	0x3f811bdb	1.0086626
85	0x3f785418	0.97003317
86	0x3f800000	1.0
87	0x3f847cf0	1.0350628
88	0x3f7575b3	0.9588272
89	0x3f800000	1.0
90	0x3f828570	1.0196972
91	0x3f799cd4	0.97504926
92	0x3f73fdb5	0.95309
93	0x3f800000	1.0
94	0x3f7e09a3	0.99233454
95	0x3f7cee34	0.9880097
96	0x3f78df28	0.9721551
97	0x3f7fefeb	0.9997546
98	0x3f847a13	1.0349754
99	0x3f85f08e	1.0464036
100	0x3f88351c	1.0641208
101	0x3f80f099	1.0073425
102	0x3f854cbb	1.0414041
103	0x3f7bd32d	0.98369104
104	0x3f800000	1.0
105	0x3f7ee8f1	0.9957419
106	0x3f7b88de	0.9825572
107	0x3f7f51c4	0.9973414
108	0x3f75b463	0.95978373
109	0x3f81fe13	1.0155662
110	0x3f7b6b56	0.98210657
111	0x3f7f8878	0.9981761
112	0x3f798488	0.9746785
113	0x3f840d75	1.0316607
114	0x3f7e74ce	0.9939698
115	0x3f86d0a1	1.0532418
116	0x3f79009b	0.9726655
117	0x3f800000	1.0
118	0x3f800000	1.0
119	0x3f7cc59b	0.9873902
120	0x3f7d3380	0.9890671
121	0x3f7b49a0	0.9815922
122	0x3f7a2ca6	0.9772438
123	0x3f81a293	1.0127739
124	0x3f800000	1.0
125	0x3f7e8792	0.99425614
126	0x3f79f6c9	0.9764219
127	0x3f7c4bb4	0.98553014

net.2.bias f4 [128]
0	0x3d40d870	0.04708141
1	0x3d3b7bd2	0.04577238
2	0xbd47562e	-0.04866617
3	0x3d3beb58	0.04587874
4	0xbd4c71e1	-0.04991329
5	0x3d34f0c1	0.044174913
6	0x3d5e6651	0.054296795
7	0xbd56bcc4	-0.052426115
8	0xbd3ee304	-0.046603218
9	0xbd2c7d82	-0.04211188
10	0xbd6ca532	-0.05777473
11	0x3d501db6	0.050809585
12	0xbd374e18	-0.04475221
13	0xbd4dbccf	-0.05022889
14	0x3d69c322	0.05707086
15	0x3d515f97	0.051116552
16	0x3d44647a	0.047947384
17	0xbd3b2704	-0.045691505
18	0x3d4c053d	0.049809683
19	0xbd0e0646	-0.03467395
20	0x3d47c756	0.048774086
21	0xbd423001	-0.04740906
22	0x3d357467	0.044300463
23	0xbd46f2f9	-0.04857156
24	0xbd52ba5f	-0.05144727
25	0xbd5be0c2	-0.053681143
26	0x3d567ac0	0.052363157
27	0x3d488a93	0.04896028
28	0xbd7d58b0	-0.061852157
29	0x3d3dfbbb	0.046382647
30	0xbd518f57	-0.05116209
31	0x3d420aca	0.04737357
32	0xbd7fcb2a	-0.06244961
33	0x3c0e80e2	0.00869772
34	0x3d4992e6	0.04921236
35	0x3d709a9c	0.058741197
36	0x3d441833	0.04787464
37	0x3d545db8	0.05184719
38	0xbd361ad9	-0.044459198
39	0xbd5ab1bb	-0.053392153
40	0x3d738ae3	0.059458625
41	0x3d538d89	0.05164865
42	0xbd725da0	-0.05917132
43	0xbd4552aa	-0.048174538
44	0x3d3514cd	0.04420929
45	0x3d4213f8	0.047382325
46	0xbd357eb1	-0.044310275
47	0x3d34410e	0.044007353
48	0xbd4c4efd	-0.049880017
49	0x3c8ea27e	0.017411467
50	0x3d3225ff	0.043493267
51	0x3d361f82	0.044463642
52	0x3d3ed701	0.046591762
53	0x3d50840c	0.05090718
54	0xbd531506	-0.05153372
55	0xbd3d9e49	-0.04629353
56	0x3d4add0d	0.049527217
57	0x3d52c496	0.05145701
58	0x3d02acf3	0.03190322
59	0xbd380e37	-0.04493543
60	0xbd4829f2	-0.048868127
61	0x3d542583	0.051793586
62	0xbd34c08a	-0.044128932
63	0x3d388315	0.045046885
64	0xbd42d4ca	-0.047566213
65	0xbd545b13	-0.051844668
66	0xbd4720f3	-0.048615407
67	0xbd4fdb11	-0.050746027
68	0xbd3a2714	-0.045447424
69	0xbd307105	-0.043076534
70	0xbd46cf39	-0.048537467
71	0x3d29c499	0.041447256
72	0x3d4ae0dd	0.049530853
73	0x3d375a53	0.044763874
74	0xbd4478e1	-0.04796684
75	0xbd450434	-0.04809971
76	0xbd482a29	-0.048868332
77	0x3d38d644	0.045126215
78	0x3d4b10f7	0.049576726
79	0x3d5cb926	0.05388751
80	0xbd4b2bf6	-0.04960247
81	0x3d4a8546	0.049443506
82	0x3d4b1ce6	0.049588107
83	0x3d57fe54	0.05273278
84	0x3d51c699	0.051214788
85	0x3d391608	0.045187026
86	0x3d653ca9	0.055966053
87	0xbd5047ee	-0.050849847
88	0x3d35788b	0.04430441
89	0xbd51fd03	-0.05126668
90	0x3d42a90f	0.047524508
91	0xbd066561	-0.032811526
92	0x3d3539a0	0.04424441
93	0x3d669a6c	0.056299612
94	0x3d4070a6	0.04698243
95	0xbd38af20	-0.045088887
96	0x3d367dc8	0.044553548
97	0x3d44d14e	0.04805117
98	0x3d50f447	0.05101421
99	0xbd50d012	-0.05097968
100	0xbd647c62	-0.055782683
101	0x3d73339d	0.059375394
102	0xbd48812a	-0.048951305
103	0xbd3d3ed5	-0.0462025
104	0xbd5691bb	-0.052385073
105	0xbd41f138	-0.047349185
106	0x3d1e593f	0.03865933
107	0xbd44babc	-0.048029646
108	0xbd31d2ba	-0.043413855
109	0xbd45cd07	-0.048291232
110	0x3c3879d2	0.011259513
111	0x3d44dca5	0.048061986
112	0x3d46bfe2	0.048522837
113	0xbd4f4aa6	-0.0506083
114	0x3d442254	0.0478843
115	0x3d6e7824	0.058220044
116	0xbd3790bf	-0.044815775
117	0xbd52b516	-0.05144223
118	0xbd5c5106	-0.053788207
119	0x3d41737f	0.047229286
120	0x3d413446	0.047168992
121	0x3d2388e9	0.03992549
122	0x3d3e4e40	0.046461344
123	0x3d5495c7	0.05190065
124	0x3d5669c8	0.052346975
125	0xbd414f96	-0.04719504
126	0x3d36699a	0.044534303
127	0xbc5dee7b	-0.013545628

net.2.running_mean f4 [128]
0	0x39230f77	0.00015550652
1	0x3eb8a3d1	0.36062482
2	0x4030e3b9	2.763899
3	0x3f0b7d0c	0.5448768
4	0x3e88f74d	0.26751176
5	0x3f858dff	1.0433959
6	0x3f86db42	1.0535662
7	0x3cb1aff6	0.02169035
8	0x3d48b5a4	0.04900135
9	0x3e85d04a	0.26135474
10	0x00000000	0.0
11	0x3e2a5d24	0.16637093
12	0x3fa82b8e	1.3138292
13	0x3f719c94	0.94379544
14	0x00000000	0.0
15	0x00000000	0.0
16	0x3f4ffd94	0.81246305
17	0x3c39eb83	0.011347654
18	0x3dcaad6c	0.09896359
19	0x3e1a84f6	0.15089783
20	0x3ef739fd	0.4828643
21	0x3d021e3b	0.03176711
22	0x3e226a95	0.1586097
23	0x3d1babbd	0.03800558
24	0x3eea9694	0.45818007
25	0x401f8ef3	2.4931
26	0x3e313db6	0.17308697
27	0x3eb230a0	0.34802723
28	0x3c8b2d50	0.01698938
29	0x3ef848be	0.48492998
30	0x3896e245	7.194703e-05
31	0x3d2ccc52	0.042187043
32	0x00000000	0.0
33	0x3f405ab3	0.75138396
34	0x3d4961ae	0.04916542
35	0x3ba18e80	0.0049303174
36	0x3eea2510	0.457314
37	0x00000000	0.0
38	0x3d61b0a8	0.055100113
39	0x00000000	0.0
40	0x00000000	0.0
41	0x00000000	0.0
42	0x3f1d02a2	0.6133214
43	0x3f4e7fc0	0.8066368
44	0x3e4b44ad	0.19850416
45	0x3faad816	1.3347194
46	0x3d7e3c30	0.062069118
47	0x3f73e4c6	0.95270956
48	0x3ee5d422	0.44888407
49	0x3954d8a9	0.00020298608
50	0x3c11a04a	0.008888314
51	0x401402c5	2.312669
52	0x3f407e3d	0.75192624
53	0x3f89c86c	1.0764289
54	0x3f939ce6	1.1532257
55	0x3c428ca5	0.011874353
56	0x3cc8640d	0.02446177
57	0x00000000	0.0
58	0x3f01f226	0.50760114
59	0x3fcaf3cd	1.5855652
60	0x3ef54eb0	0.47911596
61	0x00000000	0.0
62	0x3d39a4cb	0.045323174
63	0x3ed37189	0.41297558
64	0x3ee0ce91	0.43907598
65	0x3c96c079	0.018402325
66	0x3f903bbb	1.1268228
67	0x3f33204f	0.69971174
68	0x3b02ead7	0.0019976401
69	0x3fba6eaf	1.4565028
70	0x3f34c4d7	0.70612854
71	0x3f0a69f2	0.5406791
72	0x3ca4b68e	0.02010658
73	0x3f8c37eb	1.0954565
74	0x3c0721f8	0.008247845
75	0x3a1b28cd	0.00059188606
76	0x3e97acd8	0.29624057
77	0x3fc17c34	1.5116029
78	0x3beed6ed	0.0072888047
79	0x00000000	0.0
80	0x3ea51977	0.3224599
81	0x3f8eb9ee	1.1150491
82	0x3dd97f1c	0.10619947
83	0x3f16230c	0.5864723
84	0x3f8e228d	1.1104294
85	0x3f8649b3	1.0491241
86	0x00000000	0.0
87	0x391e7d9b	0.00015114846
88	0x3fce4f95	1.6118037
89	0x00000000	0.0
90	0x3e5d9261	0.2163787
91	0x3e0e2183	0.13879971
92	0x3cf83a94	0.03030137
93	0x00000000	0.0
94	0x3897f0a6	7.245065e-05
95	0x3da2d8c7	0.07951503
96	0x3e0dc25a	0.1384367
97	0x3e5c5979	0.21518506
98	0x3e82d438	0.25552535
99	0x3fdfe94c	1.7493072
100	0x3ffa8c6b	1.9574102
101	0x3fd5545c	1.666637
102	0x3fbad670	1.4596691
103	0x3f8d9b6c	1.1063056
104	0x00000000	0.0
105	0x3f058ba7	0.5216622
106	0x3e6e1f84	0.2325421
107	0x3f0067ce	0.50158393
108	0x3e96f35a	0.29482538
109	0x40068087	2.1015947
110	0x3f8fbb8b	1.1229109
111	0x3fdb5396	1.7134883
112	0x3f425151	0.7590533
113	0x3f581dd2	0.844205
114	0x3f309818	0.68982077
115	0x3ba4f7b4	0.0050344113
116	0x3dc7b2dd	0.09750912
117	0x00000000	0.0
118	0x00000000	0.0
119	0x3f1447b2	0.579219
120	0x390948e1	0.00013092488
121	0x3dd5349c	0.10410425
122	0x3fc68d69	1.5511905
123	0x3f77dbcf	0.96819776
124	0x00000000	0.0
125	0x3f61b42b	0.8816554
126	0x3fb1b4d6	1.3883312
127	0x3f52c3e8	0.8233018

net.2.running_var f4 [128]
0	0x3b985352	0.0046486044
1	0x3e8615f2	0.26188618
2	0x3f4d227d	0.8013075
3	0x3ddef8b8	0.10887283
4	0x3dedbcf0	0.116083026
5	0x3f47a158	0.77980566
6	0x3eb288bb	0.34869942
7	0x3c3c4395	0.011490722
8	0x3d0c45ed	0.034246374
9	0x3dfa355c	0.12217209
10	0x3b97fda5	0.004638391
11	0x3dc20a24	0.094745904
12	0x3e6d68f2	0.23184565
13	0x3f2979ee	0.66201675
14	0x3b97fda5	0.004638391
15	0x3b97fda5	0.004638391
16	0x3ee523bd	0.4475383
17	0x3c097209	0.0083890045
18	0x3d8f341c	0.06992361
19	0x3db030fd	0.08603094
20	0x3ea727cb	0.32647547
21	0x3c6b02cd	0.0143439295
22	0x3d90b849	0.070663996
23	0x3c83a4ca	0.016069788
24	0x3eba67da	0.36407357
25	0x3fa0a64a	1.2550747
26	0x3df14983	0.117815994
27	0x3df9075a	0.12159605
28	0x3c423a04	0.011854652
29	0x3e8ea83a	0.27862722
30	0x3b985cd0	0.004649736
31	0x3cca3eb0	0.024688095
32	0x3b97fda5	0.004638391
33	0x3dfc00ce	0.12304841
34	0x3cd60763	0.02612657
35	0x3bba6c3d	0.0056891725
36	0x3e71263c	0.23549742
37	0x3b97fda5	0.004638391
38	0x3cbb1e4b	0.022841593
39	0x3b97fda5	0.004638391
40	0x3b97fda5	0.004638391
41	0x3b97fda5	0.004638391
42	0x3f16a8f9	0.5885158
43	0x3e33d025	0.1755987
44	0x3e0d81f0	0.13819098
45	0x3ebf357a	0.37345487
46	0x3d09d5ea	0.03365127
47	0x3eab987d	0.33514777
48	0x3eb1bba4	0.3471347
49	0x3b982133	0.0046426295
50	0x3bbe4470	0.005806498
51	0x3f13c060	0.57715416
52	0x3e81468c	0.25249135
53	0x3ece0dad	0.4024481
54	0x3f3a9bd2	0.7289401
55	0x3be6720e	0.0070326393
56	0x3c332021	0.010932953
57	0x3b97fda5	0.004638391
58	0x3eb9eeee	0.363151
59	0x3e91e8a6	0.2849781
60	0x3de754ae	0.11295448
61	0x3b97fda5	0.004638391
62	0x3c8b3701	0.016994001
63	0x3e43847d	0.19093509
64	0x3e5b8f4d	0.21441384
65	0x3c101ec0	0.008796394
66	0x3f5f5ab6	0.8724779
67	0x3eea92cf	0.4581513
68	0x3babcfa3	0.005243258
69	0x3e856910	0.2605672
70	0x3f028659	0.5098625
71	0x3e13d546	0.14436826
72	0x3c7ef454	0.015561182
73	0x3ec10ded	0.37705937
74	0x3beb635d	0.007183476
75	0x3b99ae5a	0.004689974
76	0x3e1fb3f5	0.15595992
77	0x3f7ef1e8	0.9958787
78	0x3bc32a34	0.0059559587
79	0x3b97fda5	0.004638391
80	0x3e87cd86	0.2652399
81	0x3ee6552b	0.44986853
82	0x3d703367	0.05864277
83	0x3e5f8dfe	0.2183151
84	0x3d9bde19	0.07610721
85	0x3ede63ff	0.43435666
86	0x3b97fda5	0.004638391
87	0x3b98a069	0.0046577943
88	0x3f90e0d7	1.1318616
89	0x3b97fda5	0.004638391
90	0x3e2b9996	0.16757807
91	0x3dd049db	0.10170337
92	0x3c801700	0.015635967
93	0x3b97fda5	0.004638391
94	0x3b984761	0.004647181
95	0x3d1aa9a0	0.037759423
96	0x3df1707f	0.11789035
97	0x3da575eb	0.08079132
98	0x3e3ff80b	0.18746965
99	0x3f51d02c	0.8195827
100	0x3ef48b42	0.47762495
101	0x3f0e2549	0.5552564
102	0x3ec6a278	0.3879583
103	0x3e1a1ad7	0.15049301
104	0x3b97fda5	0.004638391
105	0x3e780f5f	0.24224614
106	0x3e1b1db5	0.15148051
107	0x3e58e847	0.21182357
108	0x3e18e2ca	0.14930263
109	0x3f4ebdad	0.8075817
110	0x3e54cceb	0.20781295
111	0x3ec2f831	0.3807998
112	0x3ef8fa53	0.48628482
113	0x3eedc1ba	0.46436864
114	0x3ee4ca2a	0.4468549
115	0x3bd29a5e	0.0064270934
116	0x3d3216b3	0.04347868
117	0x3b97fda5	0.004638391
118	0x3b97fda5	0.004638391
119	0x3e84eef9	0.25963572
120	0x3b9877c1	0.0046529477
121	0x3d6d1935	0.057885367
122	0x3f5081ef	0.8144826
123	0x3e87a294	0.26491225
124	0x3b97fda5	0.004638391
125	0x3f0e408e	0.5556725
126	0x3eb24b67	0.34823152
127	0x3ea36ead	0.31920376

net.3.weight f4 [1, 128]
0	0xbd9f9081	-0.07791234
1	0xbc660b6c	-0.014040809
2	0x3da4e41f	0.08051323
3	0xbd3780a9	-0.044800434
4	0x3d4b46ab	0.04962794
5	0xbcac85cd	-0.021059895
6	0xbabcc37b	-0.001440152
7	0x3dc3d6a5	0.095624246
8	0x3d294e54	0.041334465
9	0x3c0db408	0.00864888
10	0x3d85aad4	0.065267235
11	0xbd32c77f	-0.043647286
12	0x3d1193d1	0.03554136
13	0x3d69507e	0.05696153
14	0xbd8b333d	-0.06796882
15	0xbe0a5f51	-0.13512923
16	0xbd413d3d	-0.047177542
17	0x3d740e0b	0.059583705
18	0xbcd94885	-0.026523838
19	0xb90e80a0	-0.00013590092
20	0xbca6b129	-0.020348148
21	0x3ca40587	0.020022167
22	0xbbf36c3b	-0.0074286736
23	0x3d846d26	0.06466131
24	0x3d4f7493	0.050648283
25	0x3d602d3d	0.054730643
26	0xbdb2890c	-0.08717546
27	0xbd4d97c0	-0.05019355
28	0x3b2c6132	0.002630305
29	0xbcde3a6f	-0.027127473
30	0x3d52deec	0.051482126
31	0xbb60cd36	-0.0034302003
32	0x3d7bfb21	0.061518792
33	0x3ccb79f7	0.02483843
34	0xbddbc0d2	-0.10730137
35	0xbd614818	-0.055000395
36	0xbd35be3a	-0.044370867
37	0xbded7c6c	-0.11595997
38	0x3cbffe9d	0.023436839
39	0x3dbd0c0c	0.092308134
40	0xbd70db0e	-0.058802657
41	0xbdf6a02f	-0.12042271
42	0x398f5af5	0.00027342854
43	0x3db4fd03	0.08837321
44	0xbd4e7fc1	-0.050414804
45	0xbd1f4d94	-0.038892344
46	0x3cfdad65	0.03096647
47	0xbc937a9a	-0.018002797
48	0x3dc6123f	0.09671449
49	0xbd24a49e	-0.040196054
50	0xbbcdef5d	-0.006284638
51	0xbcca8b45	-0.024724612
52	0xbd130c92	-0.03590066
53	0xbd2aaefa	-0.041670777
54	0x3d37d7a4	0.044883385
55	0x3d922a7d	0.0713701
56	0xbdd829ea	-0.105548695
57	0xbe003681	-0.12520792
58	0x3b0ca82b	0.002146254
59	0x3d4d48b7	0.050118174
60	0x3db04ce5	0.086084165
61	0xbdefdc1d	-0.11711905
62	0x3c999960	0.018749893
63	0xbd46f9a5	-0.048577923
64	0x3d779243	0.06044222
65	0x3d509d41	0.05093122
66	0x3d2faa71	0.042887155
67	0x3d152ab5	0.03641768
68	0x3cf96987	0.030445827
69	0x3cf3b237	0.029748065
70	0x3d5545cd	0.05206852
71	0x3abc4d0d	0.0014366225
72	0xbdfd8652	-0.12379135
73	0xbce948a2	-0.028477017
74	0x3c193f10	0.009353414
75	0x3dc0d311	0.09415258
76	0x3d74b72d	0.059745003
77	0xbd3380b2	-0.043823905
78	0xbdaf0dfd	-0.0854759
79	0xbdb2d2f8	-0.08731645
80	0x3d2b6abe	0.041849844
81	0xbdb4fa2a	-0.088367775
82	0xbdedbe04	-0.11608508
83	0xbd34af2c	-0.04411237
84	0xbd08e237	-0.03341886
85	0xbcb3d571	-0.021952363
86	0xbd95882d	-0.07301364
87	0x3dabbb59	0.08385343
88	0xbd1b8593	-0.037969183
89	0x3e05a2e7	0.13050424
90	0xbd936882	-0.07197668
91	0x3b467a5b	0.0030285332
92	0xbba51982	-0.005038441
93	0xbd922641	-0.071362026
94	0xbd81026d	-0.06299291
95	0x3c850eab	0.016242346
96	0xbcd1ae01	-0.025595667
97	0xbca2220d	-0.019791627
98	0xbd9a099e	-0.075213656
99	0x3da445f9	0.08021159
100	0x3d6a9978	0.057275265
101	0xbcaea4d0	-0.021318823
102	0x3e0215f7	0.12703691
103	0x3d5989d3	0.053109955
104	0x3dd8d099	0.10586662
105	0x3da2d48f	0.079506986
106	0xbb5b06b3	-0.003342074
107	0x3d6700c2	0.056397207
108	0x3bff2870	0.007786803
109	0x3d8d1cca	0.06890257
110	0xbc16809b	-0.009185935
111	0xbd0aba94	-0.03386934
112	0x37bdc678	2.2622975e-05
113	0x3d706682	0.05869151
114	0xbc923798	-0.017848775
115	0xbd2413ce	-0.04005795
116	0x3c01ebd8	0.007929765
117	0x3e009cd5	0.12559827
118	0x3db4bc5d	0.0882499
119	0xbd3d920f	-0.04628187
120	0xbccff139	-0.025383579
121	0xbc872f41	-0.016502025
122	0xbd2e8445	-0.04260661
123	0xbce14081	-0.027496578
124	0xbdda1cb8	-0.10650009
125	0x3d5813f1	0.052753393
126	0xbba8399a	-0.0051338198
127	0xbc588a68	-0.013216592
