saved_models/mlp/MLP_analcatdata_asbestos.pth (torch, 8345 bytes, 7 tensors)

net.0.weight f4 [128, 3]
0.22671668 0.21576077 -0.20956846 -0.45926732 0.3575168 -0.4667489 -0.367975 -0.5582154
0.027817845 0.24848938 0.10033574 0.32641962 0.48947826 0.11274587 -0.3005163 -0.44856966
-0.5285421 0.20997167 -0.16944654 0.269317 0.4217641 0.42033422 0.45279604 -0.503276
-0.13667315 -0.22867677 -0.099030405 -0.20863436 0.08803725 -0.44150636 0.04289467 0.18982232
0.27550203 -0.25015086 -0.49481222 0.31708926 0.027511561 0.18743889 0.14164351 -0.49303406
-0.14358407 0.54519355 0.5356029 -0.38041776 0.246252 -0.5301548 -0.15283936 -0.21761939
-0.5555118 -0.4592207 -0.195463 0.41983944 -0.535628 -0.43564734 0.45575237 -0.23731458
-0.3309338 0.13079587 0.20114422 -0.24519806 0.35494763 -0.30569905 -0.4659415 0.2998092
0.32094508 0.6145076 0.13370442 -0.27291313 0.2920332 0.4789313 0.06518289 0.29068676
0.3657002 -0.2212193 -0.4143176 0.20805836 -0.46851832 -0.49202934 -0.16322494 0.4111001
0.5076044 0.1184188 0.16101255 0.06945171 0.5254065 -0.48086295 -0.16513589 0.2588765
-0.08180386 -0.34760338 -0.28027648 -0.04107362 -0.36310977 -0.35106614 -0.42741126 0.5427346
-0.25568035 0.38723448 -0.3010173 -0.42611423 0.5527582 0.1701549 0.09505163 -0.028271554
0.36034808 -0.40139607 0.23237711 -0.256046 -0.45263416 -0.31487116 -0.23819932 0.067027986
-0.18274847 0.5686723 -0.35930943 -0.08535561 0.4297328 -0.31856558 -0.57233113 0.21373159
-0.37352335 0.27917722 -0.23027727 0.31785354 0.26044598 0.03989407 -0.046597604 0.12030625
0.63683444 -0.5151512 0.46856827 0.25203034 0.43020982 0.38556343 -0.083415985 0.08415264
-0.5628223 -0.4270752 -0.25100094 -0.4702965 0.015331447 0.34020543 -0.30586982 0.4725386
0.06725168 -0.57597727 0.2519896 -0.29419804 -0.3521068 0.26848495 -0.10251098 0.55022407
-0.5072012 0.41872007 -0.24284407 0.50663936 0.20719166 0.42950165 -0.2862781 0.48395586
-0.49618867 0.47297132 -0.082778454 -0.35006928 -0.48844415 0.084052086 -0.526852 -0.041401863
-0.0031230457 0.039086536 0.010451879 0.059002697 -0.41304636 0.2615909 -0.40573674 -0.46984768
-0.47129592 -0.04132975 0.42617175 0.010985325 -0.48669887 0.016948937 0.03763155 -0.51714325
0.15793504 -0.56524515 -0.4352544 -0.41131717 0.21741831 0.15268902 0.5506172 0.5063426
-0.42773885 0.33272043 -0.29788202 0.49501076 0.21045536 0.30074403 -0.020429833 0.4222595
0.04006056 0.11477389 0.46542397 0.3123744 0.10445566 0.038133025 0.16565119 -0.07082963
-0.07017225 0.4649892 0.07661215 0.20162581 0.29671532 -0.041683853 -0.07191819 -0.27079177
-0.1553973 0.1650648 -0.33526284 -0.18356392 -0.23047057 -0.2146292 0.31983602 -0.032027245
-0.10306895 0.3916303 -0.3111315 -0.009195507 -0.4588593 -0.39843124 -0.10826695 0.11488926
0.29219443 -0.4198305 0.49536836 -0.5103032 -0.054878533 0.47894305 0.19751072 -0.5247928
0.57372636 0.19844346 -0.46427804 -0.11497137 -0.23195279 0.52464867 -0.3851242 0.083213545
-0.15045696 -0.0059393104 0.052168984 0.55608225 -0.234667 -0.5458504 -0.06819606 0.28587097
00000000: 6b28 683e 64f0 5c3e 1d99 56be 1625 ebbe
00000010: 710c b73e b6f9 eebe 3867 bcbe 34e7 0ebf
00000020: 40e2 e33c 0074 7e3e d37c cd3d 7920 a73e
00000030: e59c fa3e 4fe7 e63d 46dd 99be ecaa e5be
00000040: 894e 07bf d002 573e 6583 2dbe ebe3 893e
00000050: 77f1 d73e 0c36 d73e e2d4 e73e b2d6 00bf
00000060: 0cf4 0bbe 3e2a 6abe 74d0 cabd 3fa4 55be
00000070: e04c b43d 1f0d e2be 52b2 2f3d c860 423e
00000080: 9a0e 8d3e c613 80be 0758 fdbe 8659 a23e
00000090: ed5f e13c fbef 3f3e ff0a 113e f66e fcbe
000000a0: b407 13be ce91 0b3f 461d 093f 1ec6 c2be
000000b0: 7c29 7c3e 3ab8 07bf ec81 1cbe 9ed7 5ebe
000000c0: 0536 0ebf fa1e ebbe 7427 48be 32f5 d63e
000000d0: eb1e 09bf 2b0d dfbe 6058 e93e 9802 73be
000000e0: 2870 a9be 5aef 053e c0f8 4d3e 3315 7bbe
000000f0: b2bb b53e 9684 9cbe e28f eebe 9780 993e
00000100: ea52 a43e 5f50 1d3f d0e9 083e 45bb 8bbe
00000110: 6085 953e 7c36 f53e 9b7e 853d e5d4 943e
00000120: 0e3d bb3e 5087 62be 7021 d4be 400d 553e
00000130: a2e1 efbe 45eb fbbe 7024 27be b67b d23e
00000140: 5df2 013f 8e85 f23d 79e0 243e b33c 8e3d
00000150: 0a81 063f ab33 f6be 6219 29be 768b 843e
00000160: c888 a7bd 12f9 b1be 6680 8fbe d03c 28bd
00000170: 86e9 b9be f1be b3be a6d5 dabe a8f0 0a3f
00000180: 89e8 82be 9943 c63e f11e 9abe a52b dabe
00000190: 9081 0d3f 163d 2e3e 6eaa c23d bf99 e7bc
000001a0: 8b7f b83e c983 cdbe 44f4 6d3e 7618 83be
000001b0: aabf e7be cb36 a1be 86ea 73be f845 893d
000001c0: 6a22 3bbe 8294 113f 68f7 b7be ecce aebd
000001d0: f005 dc3e 071b a3be 4b84 12bf 74dc 5a3e
000001e0: 743e bfbe 51f0 8e3e cecd 6bbe b3bd a23e
000001f0: 2d59 853e f767 233d 21dd 3ebd 2063 f63d
00000200: 9507 233f f3e0 03bf 2ee8 ef3e 1f0a 813e
00000210: 7644 dc3e 9268 c53e 00d6 aabd 3858 ac3d
00000220: 1f15 10bf 9aa9 dabe 3283 80be b4ca f0be
00000230: c030 7b3c 682f ae3e f89a 9cbe 94f0 f13e
00000240: 40bb 893d 3f73 13bf c804 813e 20a1 96be
00000250: 5847 b4be dc76 893e 47f1 d1bd 7cdb 0c3f
00000260: f0d7 01bf 7a62 d63e 1eac 78be 1eb3 013f
00000270: 0d2a 543e a4e7 db3e 0b93 92be 10c9 f73e
00000280: 710c febe 4c29 f23e c087 a9bd 483c b3be
00000290: 5a15 fabe 8023 ac3d c6df 06bf 0095 29bd
000002a0: 03ac 4cbb 3419 203d 5c3e 2b3c d0ac 713d
000002b0: d07a d3be 3eef 853e babc cfbe e08f f0be
000002c0: b34d f1be 6249 29bd 2f33 da3e cbfb 333c
000002d0: 9830 f9be 7fd8 8a3c 8a23 1a3d 8063 04bf
000002e0: b9b9 213e e8b3 10bf aad9 debe 2a98 d2be
000002f0: e8a2 5e3e 835a 1c3e 40f5 0c3f ab9f 013f
00000300: 9600 dbbe 555a aa3e fe83 98be 0d72 fd3e
00000310: 9c81 573e 1ffb 993e 775c a7bc 6632 d83e
00000320: 8b16 243d 930e eb3d 0d4c ee3e 8aef 9f3e
00000330: d9ec d53d 6031 1c3d 77a0 293e 200f 91bd
00000340: 78b6 8fbd 1013 ee3e d5e6 9c3d ff76 4e3e
00000350: 12eb 973e b0bc 2abd d849 93bd 38a5 8abe
00000360: 7820 1fbe bf06 293e 92a7 abbe 2ef8 3bbe
00000370: 7a00 6cbe c2c7 5bbe 8cc1 a33e 002f 03bd
00000380: d015 d3bd c483 c83e a14c 9fbe c0a8 16bc
00000390: 9bef eabe 2eff cbbe 10bb ddbd 0f4b eb3d
000003a0: 829a 953e 06f4 d6be eca0 fd3e 3ba3 02bf
000003b0: 50c8 60bd 0638 f53e 4040 4a3e d258 06bf
000003c0: bbdf 123f c334 4b3e dab5 edbe 1c76 ebbd
000003d0: 0885 6dbe 604f 063f 002f c5be dd6b aa3d
000003e0: 6411 1abe 8c9e c2bb 25af 553d 685b 0e3f
000003f0: 8c4c 70be dabc 0bbf 60aa 8bbd ae5d 923e

net.0.bias f4 [128]
-0.31483778 0.08172325 0.105278134 0.06265942 -0.29125753 -0.55966246 -0.12295032 -0.22192103
0.42796683 0.19513467 -0.51800805 -0.13925982 0.36427358 0.31131136 -0.5131589 -0.5433751
-0.09953126 0.1999262 0.41227555 -0.07699696 -0.14209267 -0.21845664 0.31347394 0.17983818
-0.30533263 0.30580682 0.2074963 0.42984307 0.37520808 0.015572965 -0.2402817 -0.05339825
0.5178055 -0.30699983 0.59140223 0.479215 0.35484266 0.35562015 -0.038888574 -0.4926375
-0.43468776 0.071245894 0.29505852 0.16299142 0.01422121 0.5751424 0.29236877 -0.23761946
0.009628475 0.21793431 -0.15753634 0.24860793 -0.5088965 -0.46873218 -0.37557167 0.07131702
-0.14723417 -0.18516451 -0.3763376 0.37076873 0.17308973 0.070673205 0.5127351 0.26831847
0.53792447 -0.23489247 -0.43093103 0.17030232 0.22270578 -0.3569919 -0.5601598 -0.44141757
0.16033924 0.27401686 0.043447018 0.39666134 0.39411873 -0.15449315 0.14475334 -0.46354216
-0.20997377 -0.27684528 -0.13526511 0.09793548 -0.24113247 0.054030783 0.3510676 0.15012515
-0.13876244 -0.07420099 -0.05532759 -0.37232077 -0.0006690865 0.05275575 0.22879244 0.06914181
-0.1204671 0.031674683 -0.29239908 0.23281606 0.3163663 -0.26233324 -0.33950442 -0.40344828
0.40579337 0.105191134 0.49483478 0.33875537 -0.47237596 0.34266672 -0.57502496 -0.21366154
-0.50705665 -0.3402613 0.42139012 0.43961346 -0.31683746 -0.565412 -0.46945667 -0.23657876
-0.39787674 0.07725171 -0.18551031 0.43488428 -0.38590214 -0.38858378 -0.22189684 0.44056094
00000000: 6b32 a1be 855e a73d 109c d73d 9553 803d
00000010: b51f 95be 0a46 0fbf 61cd fbbd 443f 63be
00000020: 781e db3e 62d1 473e 2d9c 04bf 209a 0ebe
00000030: 1182 ba3e 3464 9f3e 625e 03bf a11a 0bbf
00000040: 0cd7 cbbd 74b9 4c3e c815 d33e 95b0 9dbd
00000050: be80 11be 19b3 5fbe a87f a03e 8027 383e
00000060: 8f54 9cbe b692 9c3e e979 543e 6414 dc3e
00000070: 461b c03e c025 7f3c 680c 76be 20b8 5abd
00000080: e78e 043f 152f 9dbe 2366 173f ab5b f53e
00000090: f0ad b53e d813 b63e a049 1fbd fb3a fcbe
000000a0: 658f debe 5ee9 913d e911 973e 39e7 263e
000000b0: 1400 693c 883c 133f 5cb1 953e 8452 73be
000000c0: c0c0 1d3c 2c2a 5f3e 3551 21be 1493 7e3e
000000d0: 0b47 02bf aafd efbe ee4a c0be a80e 923d
000000e0: 8ec4 16be c49b 3dbe 52af c0be 66d5 bd3e
000000f0: 6f3e 313e 1dbd 903d 9c42 033f 0a61 893e
00000100: 6bb5 093f a787 70be fea2 dcbe bb63 2e3e
00000110: fc0c 643e a4c7 b6be a266 0fbf 7c01 e2be
00000120: f82f 243e f04b 8c3e 80f5 313d 3217 cb3e
00000130: eec9 c93e 7433 1ebe 383a 143e 6655 edbe
00000140: 5d03 57be aabe 8dbe f082 0abe 6692 c83d
00000150: 6eeb 76be 624f 5d3d 22bf b33e 68ba 193e
00000160: be17 0ebe b0f6 97bd 2f9f 62bd d4a0 bebe
00000170: a365 2fba 6a16 583d 9148 6a3e 399a 8d3d
00000180: 74b7 f6bd 50bd 013d 55b5 95be 5567 6e3e
00000190: c4fa a13e 8b50 86be 86d3 adbe c690 cebe
000001a0: 26c4 cf3e 736e d73d fc5a fd3e 5871 ad3e
000001b0: 43db f1be 0372 af3e d634 13bf 17ca 5abe
000001c0: 77ce 01bf bb36 aebe 72c0 d73e 0415 e13e
000001d0: 8538 a2be d7be 10bf a05c f0be b441 72be
000001e0: 80b6 cbbe 2536 9e3d 6af6 3dbe 27a9 de3e
000001f0: f794 c5be 74f4 c6be ed38 63be 3491 e13e

net.2.weight f4 [128]
0.99042225 1.0036992 1.0 0.9930199 1.011536 1.0 0.9917317 0.98770577
1.0 0.985929 0.9913969 1.0 1.0061935 1.0 1.0 1.0
1.0 1.0 1.0 1.0056741 1.0 0.99274296 1.0 1.0006262
1.0 1.0 0.99264026 0.99138767 1.0 1.0 1.0 1.0
1.006993 0.9911904 1.0192231 0.99122614 1.0 1.0 1.0 1.0
1.0078005 0.99071693 0.99606067 1.0063902 1.0080695 1.0 1.0 1.0
1.0 1.0 1.0084918 1.0 0.98981375 1.0 1.0 1.0
1.0050474 1.0 1.0 0.9874709 0.9937205 1.0100763 1.0 0.9765015
0.9911754 1.0064845 1.0067644 1.006615 1.0021225 1.0 1.0024186 1.0
1.009429 1.0 1.0 1.0 1.0 1.0091605 1.0 1.0111482
1.0109426 1.0 1.0070448 1.0006146 1.0 0.9922036 1.0 1.0
1.0085241 1.0 0.9899472 1.0 1.0082997 0.99408287 1.0466925 0.9760354
1.0 0.9924235 1.0 0.98665744 1.0 1.0058128 1.0 0.99024767
1.0 1.0073715 1.0 0.9905865 0.9904977 1.0109237 1.0042812 0.99977213
1.0059744 1.0061738 1.0 1.0 0.99096346 1.0 0.99613047 1.0
1.0 0.99149555 1.0 0.99101514 0.9888945 1.0 1.0083194 1.0
00000000: 508c 7d3f 3779 803f 0000 803f 8d36 7e3f
00000010: 037a 813f 0000 803f 21e2 7d3f 49da 7c3f
00000020: 0000 803f d865 7c3f 30cc 7d3f 0000 803f
00000030: f3ca 803f 0000 803f 0000 803f 0000 803f
00000040: 0000 803f 0000 803f 0000 803f eeb9 803f
00000050: 0000 803f 6724 7e3f 0000 803f 8514 803f
00000060: 0000 803f 0000 803f ac1d 7e3f 95cb 7d3f
00000070: 0000 803f 0000 803f 0000 803f 0000 803f
00000080: 26e5 803f a7be 7d3f e775 823f ffc0 7d3f
00000090: 0000 803f 0000 803f 0000 803f 0000 803f
000000a0: 9bff 803f a09f 7d3f d5fd 7e3f 65d1 803f
000000b0: 6c08 813f 0000 803f 0000 803f 0000 803f
000000c0: 0000 803f 0000 803f 4216 813f 0000 803f
000000d0: 6f64 7d3f 0000 803f 0000 803f 0000 803f
000000e0: 65a5 803f 0000 803f 0000 803f e5ca 7c3f
000000f0: 7764 7e3f 2e4a 813f 0000 803f 01fc 793f
00000100: acbd 7d3f 7cd4 803f a8dd 803f c3d8 803f
00000110: 8d45 803f 0000 803f 414f 803f 0000 803f
00000120: f834 813f 0000 803f 0000 803f 0000 803f
00000130: 0000 803f 2c2c 813f 0000 803f 4e6d 813f
00000140: 9166 813f 0000 803f d8e6 803f 2414 803f
00000150: 0000 803f 0e01 7e3f 0000 803f 0000 803f
00000160: 5117 813f 0000 803f 2e6d 7d3f 0000 803f
00000170: f70f 813f 377c 7e3f 05fa 853f 75dd 793f
00000180: 0000 803f 770f 7e3f 0000 803f 9595 7c3f
00000190: 0000 803f 79be 803f 0000 803f df80 7d3f
000001a0: 0000 803f 8df1 803f 0000 803f 1497 7d3f
000001b0: 4291 7d3f f365 813f 498c 803f 11f1 7f3f
000001c0: c5c3 803f 4eca 803f 0000 803f 0000 803f
000001d0: c8af 7d3f 0000 803f 6802 7f3f 0000 803f
000001e0: 0000 803f a7d2 7d3f 0000 803f 2bb3 7d3f
000001f0: 3128 7d3f 0000 803f 9c10 813f 0000 803f

net.2.bias f4 [128]
0.01498155 -0.016715221 -0.015162383 -0.017835585 -0.015881823 0.015188129 0.01439126 0.01313077
-0.0151729435 0.012971077 0.014520521 -0.015136384 -0.01552037 0.015163818 0.015131131 0.015160215
-0.013552268 0.015070367 -0.015127077 -0.016694142 0.0151580665 0.015015512 0.015185582 -0.016130123
0.0151566705 -0.015141775 0.015040107 0.014674503 -0.015163531 -0.014904652 0.0151836425 0.015161268
-0.016018018 0.014634583 0.016446896 0.015009984 0.014165843 0.015132646 0.015190175 -0.0150810415
-0.015598145 0.014547454 0.015022458 -0.015504338 -0.015593177 0.014995965 0.014986179 -0.015119402
0.015129405 -0.014181226 -0.015509611 0.015015299 0.0143684205 0.015128503 0.015183231 -0.015161602
-0.015466234 0.015003814 0.015176487 0.011959642 0.012490054 -0.015605379 0.015150192 -0.013152642
0.014981248 -0.015508342 -0.015697828 -0.015548041 -0.015467006 0.014643015 -0.016371176 0.015188972
-0.015527941 0.015032556 0.013396695 0.015097808 -0.015063638 -0.01557708 0.01263961 -0.015618455
-0.015616594 -0.01203944 -0.015612908 0.015123215 0.014765608 0.015051234 -0.015173862 0.014179925
-0.015612034 0.014446512 0.014368302 -0.015031078 -0.015582429 0.01498582 0.016431147 -0.010051405
-0.014232596 0.015254412 0.015155961 0.011460986 0.0052088527 -0.016010964 0.01518833 0.013463994
-0.014032803 -0.015541807 0.015147392 0.014644592 0.013999444 -0.015504291 -0.015762195 -0.0155876735
-0.015635066 -0.015567288 0.0139663005 0.014776655 0.014874195 -0.0062581827 -0.01513976 0.002057848
0.015124854 0.014877617 0.0149952695 0.014097029 0.0143140955 0.015164215 -0.0157406 0.015015353
00000000: 2d75 753c 5cee 88bc a56b 78bc ef1b 92bc
00000010: 991a 82bc a1d7 783c 52c9 6b3c 7122 573c
00000020: f097 78bc a484 543c 7be7 6d3c 99fe 77bc
00000030: 2649 7ebc aa71 783c 90e8 773c 8d62 783c
00000040: 550a 5ebc b3e9 763c 8fd7 77bc 27c2 88bc
00000050: 8a59 783c 9f03 763c f3cc 783c 5223 84bc
00000060: af53 783c 3515 78bc c86a 763c 546d 703c
00000070: 7570 78bc a432 74bc d0c4 783c f866 783c
00000080: 3838 83bc e4c5 6f3c a4bb 863c 70ec 753c
00000090: da17 683c ebee 773c 36e0 783c 7916 77bc
000000a0: 5d8f 7fbc 7258 6e3c c120 763c e805 7ebc
000000b0: 867a 7fbc a3b1 753c 9788 753c 5eb7 77bc
000000c0: 53e1 773c 5f58 68bc 061c 7ebc bb02 763c
000000d0: 8669 6b3c 8add 773c 16c3 783c 5e68 78bc
000000e0: 1666 7dbc 8fd2 753c cda6 783c 60f2 433c
000000f0: 15a3 4c3c b4ad 7fbc 8338 783c 2e7e 57bc
00000100: e973 753c b316 7ebc bb98 80bc 36bd 7ebc
00000110: 5369 7dbc 42e9 6f3c d81c 86bc 2adb 783c
00000120: e868 7ebc 1c4b 763c d07d 5b3c cc5c 773c
00000130: 7acd 76bc 0237 7fbc 5e16 4f3c 8ce4 7fbc
00000140: bedc 7fbc 1241 45bc 48cd 7fbc 5cc7 773c
00000150: 73eb 713c 7399 763c ca9b 78bc eb52 683c
00000160: 9ec9 7fbc 10b1 6c3c 0769 6b3c e944 76bc
00000170: 724d 7fbc 1687 753c 9d9a 863c a6ae 24bc
00000180: d62f 69bc a4ed 793c b550 783c dcc6 3b3c
00000190: 06af aa3b 6d29 83bc 79d8 783c 1598 5c3c
000001a0: d7e9 65bc 10a3 7ebc c42c 783c dfef 6f3c
000001b0: ed5d 653c b605 7ebc b81f 81bc 7163 7fbc
000001c0: 1c15 80bc f00d 7fbc e9d2 643c c819 723c
000001d0: e5b2 733c 7111 cdbb c20c 78bc f6dc 063b
000001e0: 3cce 773c 40c1 733c b8ae 753c 3af7 663c
000001f0: ab85 6a3c 5473 783c 6ef2 80bc f502 763c

net.2.running_mean f4 [128]
23.360601 43.22774 0.0 12.986133 14.8244915 0.0 31.168232 51.26964
0.0 8.518568 21.504694 0.0 22.97042 0.0 0.0 0.0
0.0 0.0 0.0 25.24373 0.0 37.419693 0.0 8.973128
0.0 0.0 48.085068 17.836662 0.0 0.0 0.0 0.0
47.193874 64.024734 0.006024005 25.71673 0.0 0.0 0.0 0.0
33.53953 29.152727 14.191192 55.575462 47.129036 0.0 0.0 0.0
0.0 0.0 65.78659 0.0 48.288036 0.0 0.0 0.0
5.064831 0.0 0.0 48.836815 1.4856204 19.644016 0.0 66.845764
37.496292 25.6335 49.824127 55.602905 5.4055915 0.0 24.1169 0.0
20.889685 0.0 0.0 0.0 0.0 35.69499 0.0 24.4847
24.875774 0.0 10.429766 6.0579953 0.0 47.008125 0.0 0.0
50.93517 0.0 58.08109 0.0 49.515816 25.513235 0.8961542 65.9091
0.0 0.10180021 0.0 43.680893 0.0 43.34273 0.0 55.724144
0.0 60.638412 0.0 59.978596 55.476917 9.062009 9.103973 2.605336
49.653873 29.783445 0.0 0.0 44.431545 0.0 0.012756141 0.0
0.0 47.19094 0.0 23.053757 4.6617265 0.0 52.347103 0.0
00000000: 83e2 ba41 35e9 2c42 0000 0000 33c7 4f41
00000010: 1e31 6d41 0000 0000 8a58 f941 1d14 4d42
00000020: 0000 0000 0e4c 0841 9d09 ac41 0000 0000
00000030: 6cc3 b741 0000 0000 0000 0000 0000 0000
00000040: 0000 0000 0000 0000 0000 0000 29f3 c941
00000050: 0000 0000 c4ad 1542 0000 0000 ef91 0f41
00000060: 0000 0000 0000 0000 1c57 4042 7cb1 8e41
00000070: 0000 0000 0000 0000 0000 0000 0000 0000
00000080: 87c6 3c42 aa0c 8042 0465 c53b ddbb cd41
00000090: 0000 0000 0000 0000 0000 0000 0000 0000
000000a0: 7b28 0642 c938 e941 1f0f 6341 464d 5e42
000000b0: 2284 3c42 0000 0000 0000 0000 0000 0000
000000c0: 0000 0000 0000 0000 bc92 8342 0000 0000
000000d0: f326 4142 0000 0000 0000 0000 0000 0000
000000e0: 1813 a240 0000 0000 0000 0000 e658 4342
000000f0: cf28 be3f f226 9d41 0000 0000 08b1 8542
00000100: 34fc 1542 6811 cd41 e84b 4742 6069 5e42
00000110: 9bfa ac40 0000 0000 69ef c041 0000 0000
00000120: 131e a741 0000 0000 0000 0000 0000 0000
00000130: 0000 0000 abc7 0e42 0000 0000 aae0 c341
00000140: 9601 c741 0000 0000 52e0 2641 19db c140
00000150: 0000 0000 5208 3c42 0000 0000 0000 0000
00000160: 9dbd 4b42 0000 0000 0953 6842 0000 0000
00000170: 3210 4642 1b1b cc41 5d6a 653f 76d1 8342
00000180: 0000 0000 a17c d03d 0000 0000 3cb9 2e42
00000190: 0000 0000 f55e 2d42 0000 0000 86e5 5e42
000001a0: 0000 0000 bc8d 7242 0000 0000 15ea 6f42
000001b0: 5de8 5d42 fdfd 1041 e0a9 1141 d3bd 2640
000001c0: 919d 4642 7f44 ee41 0000 0000 0000 0000
000001d0: e7b9 3142 0000 0000 22ff 503c 0000 0000
000001e0: 0000 0000 86c3 3c42 0000 0000 186e b841
000001f0: dd2c 9540 0000 0000 6f63 5142 0000 0000

net.2.running_var f4 [128]
178.98932 602.9199 0.22876783 48.995667 72.982765 0.22876783 300.6147 849.3173
0.22876783 25.819632 147.60393 0.22876783 158.82591 0.22876783 0.22876783 0.22876783
0.22876783 0.22876783 0.22876783 204.61156 0.22876783 427.78503 0.22876783 21.998604
0.22876783 0.22876783 708.7357 95.921364 0.22876783 0.22876783 0.22876783 0.22876783
699.4015 1298.747 0.22958504 209.87877 0.22876783 0.22876783 0.22876783 0.22876783
367.64227 265.05707 56.29036 960.1874 695.7885 0.22876783 0.22876783 0.22876783
0.22876783 0.22876783 1389.0874 0.22876783 755.54553 0.22876783 0.22876783 0.22876783
8.45258 0.22876783 0.22876783 743.34186 1.0002987 130.23734 0.22876783 1370.0739
445.00745 200.98193 787.9529 952.0718 7.9941463 0.22876783 183.40813 0.22876783
140.7335 0.22876783 0.22876783 0.22876783 0.22876783 412.4441 0.22876783 200.94408
202.50716 0.22876783 36.562603 9.665968 0.22876783 678.3556 0.22876783 0.22876783
843.4434 0.22876783 1087.3794 0.22876783 788.448 195.07083 0.59979266 1377.2954
0.22876783 0.24054234 0.22876783 603.0891 0.22876783 599.6 0.22876783 969.5454
0.22876783 1156.6521 0.22876783 1143.2677 974.8426 25.6246 28.924454 2.4936244
777.79803 281.2382 0.22876783 0.22876783 628.46155 0.22876783 0.23294815 0.22876783
0.22876783 692.9203 0.22876783 155.50366 8.316489 0.22876783 891.8289 0.22876783
00000000: 44fd 3243 e0ba 1644 1d42 6a3e 90fb 4342
00000010: 2df7 9142 1d42 6a3e ae4e 9643 4f54 5444
00000020: 1d42 6a3e 9b8e ce41 9b9a 1343 1d42 6a3e
00000030: 6fd3 1e43 1d42 6a3e 1d42 6a3e 1d42 6a3e
00000040: 1d42 6a3e 1d42 6a3e 1d42 6a3e 8f9c 4c43
00000050: 1d42 6a3e 7ce4 d543 1d42 6a3e 24fd af41
00000060: 1d42 6a3e 1d42 6a3e 162f 3144 bdd7 bf42
00000070: 1d42 6a3e 1d42 6a3e 1d42 6a3e 1d42 6a3e
00000080: b2d9 2e44 e757 a244 5718 6b3e f7e0 5143
00000090: 1d42 6a3e 1d42 6a3e 1d42 6a3e 1d42 6a3e
000000a0: 36d2 b743 4e87 8443 5429 6142 fe0b 7044
000000b0: 77f2 2d44 1d42 6a3e 1d42 6a3e 1d42 6a3e
000000c0: 1d42 6a3e 1d42 6a3e cca2 ad44 1d42 6a3e
000000d0: eae2 3c44 1d42 6a3e 1d42 6a3e 1d42 6a3e
000000e0: c53d 0741 1d42 6a3e 1d42 6a3e e1d5 3944
000000f0: ca09 803f c23c 0243 1d42 6a3e 5d42 ab44
00000100: f480 de43 60fb 4843 fcfc 4444 9804 6e44
00000110: 0cd0 ff40 1d42 6a3e 7b68 3743 1d42 6a3e
00000120: c7bb 0c43 1d42 6a3e 1d42 6a3e 1d42 6a3e
00000130: 1d42 6a3e d838 ce43 1d42 6a3e aff1 4843
00000140: d581 4a43 1d42 6a3e 1b40 1242 cea7 1a41
00000150: 1d42 6a3e c296 2944 1d42 6a3e 1d42 6a3e
00000160: 61dc 5244 1d42 6a3e 24ec 8744 1d42 6a3e
00000170: ac1c 4544 2212 4343 038c 193f 7429 ac44
00000180: 1d42 6a3e bb50 763e 1d42 6a3e b4c5 1644
00000190: 1d42 6a3e 66e6 1544 1d42 6a3e e862 7244
000001a0: 1d42 6a3e de94 9044 1d42 6a3e 91e8 8e44
000001b0: edb5 7344 2eff cc41 4865 e741 8b97 1f40
000001c0: 1373 4244 7d9e 8c43 1d42 6a3e 1d42 6a3e
000001d0: 8a1d 1d44 1d42 6a3e f689 6e3e 1d42 6a3e
000001e0: 1d42 6a3e e63a 2d44 1d42 6a3e f080 1b43
000001f0: 5710 0541 1d42 6a3e 0df5 5e44 1d42 6a3e

net.3.weight f4 [1, 128]
-0.06224101 0.009468813 0.08146724 0.0045284466 0.038534492 -0.09584045 -0.02125025 -0.008529278
0.08671913 -0.0076465374 -0.024751034 0.071232505 0.07649545 -0.08213753 -0.06952082 -0.080478184
0.01429365 -0.055134133 0.0682672 0.011712435 -0.07953051 -0.061973233 -0.09415762 0.007431971
-0.078924164 0.07309704 -0.06755567 -0.031630326 0.08200228 0.037696082 -0.09292112 -0.08095788
0.024783207 -0.028420907 -0.02600385 -0.06609728 -0.021218386 -0.07000291 -0.09724181 0.05711437
0.06197676 -0.026162649 -0.05718395 0.08570382 0.06477046 -0.045047294 -0.04406262 0.066037655
-0.068979844 0.021343756 0.094654284 -0.047182593 -0.021007651 -0.068699926 -0.09266231 0.08110791
0.082608655 -0.045881968 -0.08866597 -0.005968617 -0.0117401965 0.0674137 -0.0762572 0.0020478317
-0.059624873 0.0827446 0.043928944 0.07093713 0.061763722 -0.027726347 0.009704427 -0.09641398
0.087645225 -0.049337756 -0.01743024 -0.06062086 0.053973652 0.07261259 -0.01567828 0.06934238
0.06908821 0.012524734 0.052281868 -0.070931755 -0.031213177 -0.071709305 0.08721435 -0.021333018
0.06270619 -0.024188345 -0.02091934 0.04914293 0.06839007 -0.05407771 -0.07805828 0.00262707
0.02178751 -0.078195915 -0.078621924 -0.004922129 -0.006783891 0.022666115 -0.09598079 -0.011216142
0.020256368 0.07654015 -0.07516987 -0.029460356 -0.01511789 0.09620994 0.02755858 0.007293335
0.04929987 0.06265826 -0.019844271 -0.031605408 -0.04498269 0.0054913047 0.06578299 -0.0022923155
-0.06760258 -0.04413277 -0.04497489 -0.016638665 -0.023307247 -0.08232479 0.04390847 -0.047189202
00000000: 6ef0 7ebd 1523 1b3c 4cd8 a63d 5d63 943b
00000010: 58d6 1d3d ff47 c4bd 0115 aebc 63be 0bbc
00000020: cd99 b13d ce8f fabb aec2 cabc 59e2 913d
00000030: a6a9 9c3d b937 a8bd ef60 8ebd bfd1 a4bd
00000040: ea2f 6a3c 54d4 61bd accf 8b3d 83e5 3f3c
00000050: e4e0 a2bd a5d7 7dbd b6d5 c0bd e487 f33b
00000060: fea2 a1bd e7b3 953d a15a 8abd cd8e 01bd
00000070: d0f0 a73d 3567 1a3d 6e4d bebd 3fcd a5bd
00000080: 2706 cb3c f6d2 e8bc 0706 d5bc 035e 87bd
00000090: 2ed2 adbc b05d 8fbd b726 c7bd c2f0 693d
000000a0: 58db 7d3d 0d53 d6bc b839 6abd 7c85 af3d
000000b0: 60a6 843d 8383 38bd 017b 34bd c03e 873d
000000c0: 4e45 8dbd 1ad9 ae3c 1bda c13d 8942 41bd
000000d0: 3d18 acbc 8cb2 8cbd bdc5 bdbd e71b a63d
000000e0: ba2e a93d bbee 3bbd 8196 b5bd 6394 c3bb
000000f0: f459 40bc 3210 8a3d bc2c 9cbd ea34 063b
00000100: 3639 74bd 0076 a93d d6ee 333d 7c47 913d
00000110: f5fb 7c3d 5d22 e3bc 51ff 1e3c b174 c5bd
00000120: 577f b33d 6316 4abd ddc9 8ebc 944d 78bd
00000130: 7a13 5d3d e9b5 943d bc6f 80bc 6103 8e3d
00000140: 1f7e 8d3d 8b34 4d3c 8325 563d ab44 91bd
00000150: c7b2 ffbc 54dc 92bd 709d b23d 95c2 aebc
00000160: 1a6c 803d a326 c6bc 095f abbc 194a 493d
00000170: 1810 8c3d 9780 5dbd 05dd 9fbd ec2a 2c3b
00000180: b87b b23c 2e25 a0bd 8804 a1bd d049 a1bb
00000190: 674b debb 4aae b93c 9491 c4bd e9c3 37bc
000001a0: aff0 a53c 15c1 9c3d a9f2 99bd d856 f1bc
000001b0: 07b1 77bc b809 c53d 88c2 e13c eefc ee3b
000001c0: a9ee 493d f952 803d 7490 a2bc ac74 01bd
000001d0: c53f 38bd 67f0 b33b 3bb9 863d ac3a 16bb
000001e0: 3973 8abd 90c4 34bd 9737 38bd cf4d 88bc
000001f0: d7ee bebc e699 a8bd 5ed9 333d 7749 41bd
