saved_models/mlp/MLP_haberman.pth (torch, 8125 bytes, 7 tensors)

net.0.weight f4 [128, 3]
00000000: 08a1 893e 3092 b13e cdd6 503e bb6f 87bc
00000010: 5997 ec3e 1199 f3be fead f13e 454a 08bf
00000020: 76a1 e33e e6e5 23be eb6a 913e 81c6 59bc
00000030: d0d5 da3c 54a0 133f 866c 69be ca46 053f
00000040: 6f8c 983e 2b8b acbd 2725 e1bd 1c44 a43e
00000050: 2371 b3be 61b8 0c3f 9d5e cc3e 0a27 ed3e
00000060: a268 1a3e 198d a53e 43bc e7bd 16a2 82be
00000070: 0491 29be 9bf2 093f 5462 533e 9689 2c3e
00000080: 805f e63d bc81 4fbe 5081 d33e 7e7f d03e
00000090: f46e 7cbe f77d 243c 6566 c43e 13ee 783e
000000a0: 2698 373d fc7a e63e f0d8 d1be 59df 10bf
000000b0: f819 afbe 5b4b 013f 8f2d e5bd 7152 09bf
000000c0: d14c 1ebd 6401 213e 1a14 113f 15a3 673e
000000d0: 3d8f 003f 4e28 043e 777c 0abf 1771 b73e
000000e0: ebcb ce3e b0f1 4ebd 70f7 743e d752 123f
000000f0: 2008 05bf 6753 3c3e 971c 0b3f ba55 0b3f
00000100: 7107 90be d3bd fcbd cbd5 c0be 3e9f 03bf
00000110: acba e5be 5c27 fdbe eade 84be f0e9 213d
00000120: 4745 a6be cad5 5b3e e42b fe3e 0cd5 93be
00000130: 9924 fdbe b265 0a3f ba3e b13e b84c f63e
00000140: 2ec9 14be 7a82 8d3e 7c63 0bbf 4a7e 9abe
00000150: 5e1e 113f 3301 cb3e 6ae1 883e 6c27 0cbe
00000160: 82f9 ad3e 75c5 2d3d 47d0 c0bd b32d 293e
00000170: aa50 80be 4974 3d3e 1dcd e73e c225 0cbf
00000180: 0d69 053f 3909 08bf d6f0 52be fcb9 9dbe
00000190: 3a24 43be 8054 d8bb 4527 c53e e3aa cb3e
000001a0: 9602 d2be c073 90bc 3253 01bf c3e0 a5be
000001b0: 4980 90be 0055 dc3b c0e1 b33d 250a 2f3e
000001c0: 88b3 c83e f966 533e 1805 aabe a9f4 963e
000001d0: 0519 77be 1e25 f53e 9edc 193d e6dd bf3e
000001e0: 7cc1 cdbe 1d97 0f3f b55f 0dbf da77 4a3e
000001f0: eadd 5a3e 7f4b babc a6c1 73be bd42 c93d
00000200: d0b6 e5be cfbe fe3e 3223 093f 792a 063f
00000210: b608 a33e 4151 febe 620e 00bf 908f 2ebd
00000220: 70e5 77be bc16 383e e092 453e 9a93 e5be
00000230: e464 0b3e eed2 eebe b9ca bfbe 32cc 013f
00000240: cabd 0abf ccb7 9bbe 20cb 873c 5bb5 1c3e
00000250: 5d35 e03d 9299 463d 8bb9 b4bd fa97 7d3e
00000260: 9cf6 45be 0fca 86bc 6cbd 5cbe 27cb d93e
00000270: 8aaa bc3e e7a8 45be c99b 34bf 2bdc 123f
00000280: a333 c3be f096 57be f00d d83d 6082 38be
00000290: 20be 993c 2ea3 933e 75f8 edbe 6063 703d
000002a0: b63c c5be 2d5b fb3e d0d5 8c3e f0dd 27bd
000002b0: 2623 073f e905 dbbe dcad 04bf 9742 013f
000002c0: c976 2f3e 1709 c2be 5d18 e63e 9365 d6be
000002d0: 0610 71bd 98a4 c53e d6da 9a3d 3d5e 0bbf
000002e0: 3a1d 63be 8656 d23e b3b7 073e 7946 0c3f
000002f0: 0b1d 92be 47ed 663d 97eb e4bc fd74 dfbe
00000300: c5f8 09bf 7e15 773e 62fa 82be c0c8 b2be
00000310: ed1c dcbe 30aa e23e b38b 323d 7cb7 ff3e
00000320: 8851 ecbe 705c 033e 57b9 05bf 028d d23e
00000330: d00c 62be 2a1f a8be 34b5 cd3e f3cb 513e
00000340: e117 c53e acbf fcbe a60e 19be 6a9f abbe
00000350: d4bc 913e f9ca 933e 1f3f ae3e 50ae 9ebe
00000360: 69c3 8f3e 7dd2 413e c8c5 c9bd 1ed8 9cbe
00000370: b90d 183e 2fe3 e2bd 2ff6 ccbe a563 a53e
00000380: e1df 15bf 7088 e5bd a491 07bf 447e b63e
00000390: be43 e33e 8d35 b1be 0e4b c6bc cbcc f6be
000003a0: 4053 32be a080 f93e 902a a53e a4a9 0b3f
000003b0: fecf a53e 44c4 1e3e c34d 223e 3c81 09bd
000003c0: 4307 9fbe 6f31 983e 87b7 5dbd 13d4 a7be
000003d0: 7e09 ff3b 0e2b 0d3f 61db 893e 9500 66be
000003e0: 4ea4 2e3e 6aa6 ef3e bdd8 d03e baab 8d3e
000003f0: a445 47be e50f 97be a37b b5be deed f43e
0.2688067 0.34681845 0.2039444 -0.01653277 0.4620922 -0.47577718 0.47203058 -0.53238326
0.44459122 -0.16005668 0.28401884 -0.013291956 0.026713282 0.57666516 -0.22795305 0.5206114
0.29794642 -0.08424982 -0.10993414 0.32083213 -0.35047254 0.5496884 0.39915934 0.46318847
0.15078977 0.3233421 -0.11315205 -0.25514287 -0.16559225 0.5388581 0.20642978 0.1684936
0.11248684 -0.20264333 0.41309595 0.4072227 -0.246517 0.010039798 0.3835937 0.24309568
0.044822834 0.45015705 -0.40985823 -0.565908 -0.341995 0.5050561 -0.1119033 -0.5364142
-0.038647477 0.15723187 0.566713 0.22620805 0.50218564 0.12906 -0.5409617 0.35828468
0.40389952 -0.05052346 0.23922515 0.57157654 -0.5196552 0.1839119 0.543405 0.54427683
-0.28130677 -0.123408936 -0.3766311 -0.5141486 -0.44868982 -0.4944409 -0.2595132 0.03952974
-0.3247473 0.21468273 0.4964286 -0.2887348 -0.49441984 0.54061425 0.3461817 0.48105407
-0.14529869 0.27638608 -0.54448676 -0.30174476 0.5668696 0.39649352 0.26734477 -0.13686913
0.33979422 0.042424638 -0.09414726 0.16521339 -0.25061542 0.1850139 0.45273677 -0.54745114
0.5211342 -0.5313907 -0.20599684 -0.30805957 -0.19056788 -0.00660187 0.38506523 0.39778814
-0.41017598 -0.017633319 -0.5051757 -0.32398042 -0.28222874 0.006724 0.08783293 0.17093714
0.3919947 0.2064475 -0.3320701 0.29483536 -0.24130638 0.4787988 0.037563913 0.37473983
-0.4018668 0.56089956 -0.5522416 0.19772282 0.21373716 -0.022741077 -0.2380434 0.098271824
-0.44866037 0.4975495 0.5356933 0.5240856 0.31842583 -0.49671367 -0.50021946 -0.04261738
-0.24208617 0.17977422 0.1929431 -0.44839174 0.13612705 -0.46645302 -0.37459353 0.507022
-0.54195845 -0.30413663 0.01657635 0.15303557 0.10947678 0.0484863 -0.08824452 0.24765006
-0.19332355 -0.01645377 -0.21556634 0.42537805 0.3684886 -0.19302712 -0.7055021 0.573672
-0.38125333 -0.21053672 0.10549533 -0.18018484 0.018767416 0.28835434 -0.4647862 0.05868852
-0.3852288 0.49093 0.27506876 -0.04098314 0.5278801 -0.42777947 -0.5182779 0.50492233
0.17135157 -0.3789756 0.44940463 -0.4187437 -0.05885317 0.38602138 0.07561271 -0.5444067
-0.22179118 0.41081637 0.1325367 0.5479503 -0.28537783 0.05637863 -0.02794437 -0.43643942
-0.5389522 0.24129292 -0.25581652 -0.34918785 -0.4299082 0.44270468 0.04359026 0.49944675
-0.46155953 0.12828231 -0.5223593 0.41123205 -0.220752 -0.32836276 0.4017731 0.20487957
0.3849478 -0.49364984 -0.14946994 -0.3352006 0.28464377 0.28865793 0.34032533 -0.30992365
0.28078774 0.18927951 -0.09852177 -0.30633634 0.14848985 -0.11078488 -0.40031573 0.32302585
-0.5854474 -0.11207664 -0.52956605 0.35643208 0.4438762 -0.34611169 -0.02420571 -0.4820312
-0.1741457 0.48730946 0.32259035 0.54555726 0.32385248 0.15504557 0.15849976 -0.033570513
-0.31060228 0.29725215 -0.054130103 -0.32778987 0.007783114 0.5514382 0.26925185 -0.2246116
0.17054865 0.4680665 0.40790358 0.2767008 -0.1946016 -0.29504314 -0.3544589 0.47837728

net.0.bias f4 [128]
00000000: b7b9 0ebf 8ec0 35be 025e b33e f4aa d7be
00000010: f502 1dbe 707a b03e f1b8 ab3e e996 0f3f
00000020: 94fe 60bb a7d9 cbbe 418f 53be 4813 963e
00000030: d63c 123f 47ea 5abe cc5e bfbd 66f6 e1bd
00000040: 5fdd f5be 8fe9 1e3e e14f 4dbe 50d2 d03e
00000050: b03e f1bd 6733 89be 68b4 e93e ca85 bbbe
00000060: 89e4 0bbf e087 b0be 6195 083f 3a87 0f3f
00000070: 1587 a8be a14c dfbe b70b ae3d 20df b3be
00000080: 9b87 cd3e 34cd dd3e 31cf bcbe dce3 073e
00000090: f0a6 033f bd75 963d 46d7 af3e f8f5 463c
000000a0: 578b 733e 9379 fd3e 9590 ee3e 536d 003f
000000b0: bc7f 113f 700b e5bd 92e8 3cbe 44fd c4bd
000000c0: 612c cfbe aa4b b33e 21d6 153e ffad cc3d
000000d0: 7ff8 923c e729 b5be f249 c7be 280d 723e
000000e0: 130b c33e 305a 893e b2f9 083e ed81 bebe
000000f0: 503c 0bbf b61d e0be 8938 a83d cb17 bc3d
00000100: 69c7 7a3e d473 033e ab90 66be 5c4e 053f
00000110: ccfc 5d3e ae23 65be 2854 01bf c932 e13e
00000120: 0b14 90be 1278 05bf 542c 9fbe 785f 52be
00000130: be75 e93c 80ee 043f 463d bd3e dd8f ae3e
00000140: 8529 ad3e 9987 af3e a0c7 0d3f 5f37 5a3e
00000150: 300f dd3d 3304 ffbe 06b5 d33e d2c4 d03e
00000160: c480 043f 00c2 c33e 409f bf3d ab3b 08bf
00000170: 58ec 7a3e bac7 d03e 44f6 863e 962d 3dbe
00000180: 626e 01be a2c0 b13e 4cf3 fd3e 23a4 fabe
00000190: 6c27 793e e71a c9be f2ed 65be 22db 013f
000001a0: d3f6 de3e 1fdd 493e be80 c4be 0099 5b3b
000001b0: 0d91 df3e d001 e4be ecf2 1fbe 2735 f2be
000001c0: 10d5 2c3e 3f36 883e ee6c 953e 5c78 0a3f
000001d0: 0253 8bbe a3c6 473d 0b56 953e 3fe3 e53e
000001e0: 6360 eabe 04ec 913e ceb1 ac3e 8289 5c3e
000001f0: a165 15bf 84a2 f13d 4857 7a3e 7a9b 24be
-0.5575213 -0.17749235 0.3503266 -0.42122614 -0.1533316 0.34468412 0.33539537 0.56089646
-0.0034331428 -0.39814493 -0.20660116 0.29311585 0.5712408 -0.21378432 -0.09344253 -0.11033325
-0.48020455 0.15518783 -0.20050003 0.40785456 -0.11779535 -0.2679703 0.45645452 -0.3662551
-0.5464559 -0.34478664 0.53352934 0.56065714 -0.3291556 -0.4361315 0.08498328 -0.35131168
0.4014252 0.4332062 -0.36876824 0.13270515 0.514266 0.073466755 0.34343928 0.012143604
0.23783623 0.49506816 0.46594682 0.50166816 0.5683553 -0.11183822 -0.18448094 -0.09618619
-0.40463546 0.35018665 0.14632465 0.099941246 0.017940758 -0.3538353 -0.38923603 0.23637831
0.38094386 0.2682662 0.13376501 -0.372085 -0.54388905 -0.43772668 0.08213908 0.09184226
0.24490131 0.12837154 -0.22516124 0.5207269 0.21678466 -0.22376892 -0.5051904 0.43984058
-0.28140292 -0.5213634 -0.31088507 -0.20544231 0.028498527 0.5192642 0.3696081 0.34094134
0.3382074 0.3428314 0.5538273 0.21310185 0.107939124 -0.4980789 0.41349047 0.40775162
0.5175898 0.38233948 0.093565464 -0.53216046 0.2450422 0.4077738 0.2635976 -0.18474421
-0.12639764 0.3471728 0.49599683 -0.4895335 0.24331445 -0.39278337 -0.2245405 0.50724995
0.43547687 0.19713257 -0.38379472 0.0033507943 0.43665352 -0.44532633 -0.15620011 -0.47306177
0.16878152 0.26603886 0.2918467 0.54089904 -0.27211767 0.04877342 0.29167208 0.44899938
-0.45776662 0.28500378 0.33729404 0.2153683 -0.583582 0.117985755 0.24447358 -0.16074935

net.2.weight f4 [128]
00000000: 5a68 793f 28dd 7d3f bea0 773f 1015 773f
00000010: 224c 7c3f 9c01 7c3f ac81 783f 87de 773f
00000020: 889b 6a3f 33cc 893f fd65 773f bcfb 7c3f
00000030: 0111 7f3f 48e4 653f 0000 803f f944 783f
00000040: 5692 7e3f 4353 7d3f 6ef3 863f 23ea 7d3f
00000050: 5389 813f 4f73 6a3f 0000 803f 0000 803f
00000060: f843 843f 0000 803f a8a7 6d3f 0000 803f
00000070: dca6 733f 0b92 763f 770b 803f b4dc 7d3f
00000080: 0c78 833f 0000 803f 27ba 7c3f 0000 803f
00000090: 0000 803f 2e7a 7d3f cfa4 813f 9e00 7a3f
000000a0: afe1 813f 881b 7b3f 9a6a 7d3f 1e2e 803f
000000b0: 0000 803f 0000 803f 0000 803f 0000 803f
000000c0: 0000 803f b38a 763f 2028 7e3f 2cc0 7a3f
000000d0: 6e82 823f a869 7b3f 0000 803f 0000 803f
000000e0: c806 7e3f 00e8 793f 503e 7d3f fe1e 753f
000000f0: ec97 753f 0000 803f 2e7e 7a3f 7565 8a3f
00000100: 1ded 7a3f 0000 803f 892d 7d3f 0000 803f
00000110: 0000 803f 50a3 7b3f 0000 803f 6dca 683f
00000120: 0284 783f 10ff 7c3f 28bd 7e3f 0000 803f
00000130: 6917 7e3f 0000 803f 1e9c 7d3f 77e1 793f
00000140: 91ff 7b3f 6346 7f3f f166 7e3f 1150 7a3f
00000150: 0000 803f 7b41 673f 86a4 8a3f 0000 803f
00000160: bb06 7b3f 1c3a 753f 0000 803f d547 823f
00000170: f1c6 793f d665 7a3f a44e 7a3f d362 7c3f
00000180: 9b3b 7e3f 0000 803f c758 843f 0000 803f
00000190: 0000 803f 4d93 823f 0000 803f 290f 7b3f
000001a0: 6ff5 7b3f 0a75 793f 0000 803f 0000 803f
000001b0: 68ce 7d3f 0000 803f 0f99 803f 8594 7e3f
000001c0: 0000 803f fc40 853f 0000 803f 0000 803f
000001d0: aac2 763f 9751 803f 423a 733f 971c 7e3f
000001e0: 0000 803f 0000 803f 0000 803f 9d32 793f
000001f0: ac17 8a3f 345c 673f 0000 803f 0000 803f
0.9742485 0.9916558 0.9672965 0.96516514 0.9855367 0.98439956 0.97072864 0.96823925
0.9164357 1.0765442 0.96639997 0.98821616 0.9963532 0.89801455 1.0 0.96980244
0.9944204 0.9895517 1.0543039 0.9918539 1.0120033 0.91582197 1.0 1.0
1.0333242 1.0 0.9283395 1.0 0.9517648 0.96316594 1.0003499 0.9916489
1.027101 1.0 0.98721546 1.0 1.0 0.99014556 1.012842 0.9765719
1.0146998 0.98088884 0.98990786 1.0014074 1.0 1.0 1.0 1.0
1.0 0.9630539 0.99279976 0.9794948 1.0196054 0.98208094 1.0 1.0
0.992291 0.9761963 0.98923206 0.95750415 0.9593494 1.0 0.97848785 1.0812212
0.98018056 1.0 0.98897606 1.0 1.0 0.9829607 1.0 0.9093388
0.9707643 0.98826694 0.9950738 1.0 0.9925447 1.0 0.9906634 0.9760966
0.9843684 0.99716777 0.99375826 0.9777842 1.0 0.9033429 1.0831459 1.0
0.98057145 0.9579179 1.0 1.0178171 0.97569185 0.9781164 0.97776246 0.98588294
0.993097 1.0 1.0339593 1.0 1.0 1.0201203 1.0 0.9807001
0.98421377 0.9744421 1.0 1.0 0.99143076 1.0 1.004671 0.9944537
1.0 1.0410457 1.0 1.0 0.96390784 1.0024899 0.9501077 0.99262375
1.0 1.0 1.0 0.97342855 1.0788474 0.90375066 1.0 1.0

net.2.bias f4 [128]
00000000: ef90 1d3d e1b3 3e3d 7ed5 3dbd eafd 18bd
00000010: 1cb2 353d 41ad 29bd 2c54 1fbd 554e 043d
00000020: 3967 1bbd 38a5 3ebd 9e04 013d 3b7f 263d
00000030: 6b5d 2e3d 1f09 ba3c a541 343d 452c 2c3d
00000040: c93e 3bbd 8c2b 30bd e4d0 393d 15e2 36bd
00000050: 6b54 3bbd 1008 493c 0e76 32bd 3772 32bd
00000060: 72dc 2d3d 299c 323d ed98 1fbd 2d62 32bd
00000070: 0897 b53c 0712 fcbc dfe2 3d3d ba36 393d
00000080: f2da 3abd 3a1c 333d e214 333d 48e3 323d
00000090: fba7 333d 7ba8 31bd e593 3b3d 717a 213d
000000a0: 414a 3f3d c11b 2cbd 3b27 1cbd 9afb 36bd
000000b0: e7d1 3c3d 18ad 3dbd 9798 333d a5de 333d
000000c0: 8dbc 39bd 561b 28bd d0a4 383d c7d3 36bd
000000d0: 1db9 3b3d 3266 193d 51dc 32bd ea80 363d
000000e0: 817b 2c3d a605 22bd 5f8a 2fbd 2aef 1dbd
000000f0: 3ee0 1fbd aecb 32bd 03d8 3d3d 5135 363d
00000100: 5a65 24bd d8c7 37bd 1fbb 3d3d 2676 323d
00000110: e4f6 32bd 0e2c 27bd ca57 333d 3e25 15bd
00000120: 7413 1c3d cf47 323d 146e 27bd 8872 323d
00000130: 2902 2bbd a176 323d 3cbb 37bd 9ee5 20bd
00000140: caed 23bd 54b5 253d a0a3 33bd 0824 3cbd
00000150: 5890 323d 4f9f 47b8 fd8f 373d 4370 323d
00000160: 3649 1ebd 540e 33bd d488 3dbd 8bb9 3d3d
00000170: 6c6d 11bd affe 2b3d 3ddb 24bd fb36 293d
00000180: 021a 35bd 9aeb 3b3d d3e7 253d 58b0 3dbd
00000190: eeed 393d 0861 263d 1088 3abd f793 253d
000001a0: e82f 213d 9df4 1b3d e255 32bd 6170 34bd
000001b0: 1ca4 3a3d e221 39bd fa33 3cbd c90d 2bbd
000001c0: 18d6 323d be13 493d 43fb 32bd a5c2 36bd
000001d0: 41c8 f93c a9c4 38bd 9b07 15bd e6ec 2abd
000001e0: 7e3a 3d3d f722 3a3d b326 363d 1f9e 24bd
000001f0: 0f38 603d e4d1 03bd 804a 333d 315b 323d
0.038468298 0.046558265 -0.04634618 -0.037351526 0.04435931 -0.041424993 -0.038898632 0.032301266
-0.037940238 -0.046544284 0.031498544 0.04064868 0.04256956 0.022709427 0.044007916 0.042034406
-0.045714173 -0.04301028 0.04536523 -0.044649202 -0.045734804 0.012269989 -0.043569617 -0.043565955
0.04244656 0.043605957 -0.0389642 -0.04355066 0.022166744 -0.030770315 0.04635894 0.045218207
-0.04561896 0.04372809 0.043721087 0.043673784 0.04386137 -0.043373566 0.04579534 0.03942341
0.046701673 -0.042018656 -0.03812335 -0.04467354 0.046098616 -0.046307653 0.043846693 0.043913502
-0.04534583 -0.041041695 0.045079052 -0.04463556 0.045830835 0.037450977 -0.04366714 0.044556536
0.04210997 -0.039556168 -0.04285657 -0.038558163 -0.039032213 -0.043651275 0.046348583 0.04448444
-0.04013572 -0.04486832 0.04632103 0.043569706 -0.043692484 -0.0408135 0.043784894 -0.03641247
0.03810449 0.043525513 -0.040876463 0.043566257 -0.041750107 0.043570165 -0.044856295 -0.03928148
-0.040021695 0.04045613 -0.043857217 -0.0459328 0.04359469 -4.7593665e-05 0.044815052 0.043564092
-0.03864404 -0.043714836 -0.046273068 0.046319526 -0.035504743 0.041990932 -0.040248144 0.0413122
-0.044214256 0.045878984 0.040504288 -0.046310753 0.045392923 0.04061988 -0.045539916 0.040424313
0.039352328 0.03807508 -0.043538935 -0.044052485 0.045566663 -0.04519833 -0.045948006 -0.041761193
0.043661207 0.049091093 -0.043696653 -0.04461922 0.030490996 -0.045109425 -0.036384206 -0.04172983
0.04619836 0.0454435 0.0444705 -0.04018986 0.05474096 -0.03218259 0.04377222 0.043544

net.2.running_mean f4 [128]
00000000: 77bf 0e42 206e c941 8444 5c3e 5c1b 1a41
00000010: 228a 0e42 aee3 3a42 4fcb 5a41 745b 6142
00000020: eba2 de41 bcb8 a53b 23f6 ae41 9201 8641
00000030: 9ca8 9a3b 5661 9941 0000 0000 2b2e 8741
00000040: 8954 2b41 89d7 3442 45e1 963f 34a2 8141
00000050: a4be 9c3c a8b1 3141 0000 0000 0000 0000
00000060: e69f 1d40 0000 0000 e5bd 4142 0000 0000
00000070: 7263 6042 af9a 5c41 3315 ac40 eed9 0a42
00000080: 2af6 b53e 0000 0000 6c87 2942 0000 0000
00000090: 0000 0000 6676 0e42 e7f0 0140 f237 e141
000000a0: 3948 5341 43c3 c741 392e 1c3b 862a 7f42
000000b0: 0000 0000 0000 0000 0000 0000 0000 0000
000000c0: 0000 0000 1893 7f41 6427 1541 00fd e73c
000000d0: ff4f 0141 d1f6 9440 0000 0000 0000 0000
000000e0: 6fa3 3741 4c6e f241 7c2d ab40 87de ef40
000000f0: b47d ad41 0000 0000 a495 1d42 0d83 903e
00000100: 9e58 113d 0000 0000 6fcd f541 0000 0000
00000110: 0000 0000 30d0 0542 0000 0000 511d 0d42
00000120: 2fc8 cd41 74af 103b 80d2 ba3e 0000 0000
00000130: f478 8240 0000 0000 d46c 5842 7bdf 9441
00000140: 564a 2e40 4761 173c 0887 6f40 2ad0 5242
00000150: 0000 0000 332a f641 7093 9c3f 0000 0000
00000160: ddcf 1542 10d4 e13f 0000 0000 7805 7e3f
00000170: 9fbe a740 d5be 0e42 21f3 0342 9a27 0f3e
00000180: 3c08 1642 0000 0000 64fe 073d 0000 0000
00000190: 0000 0000 8b21 dd3b 0000 0000 69e3 3c41
000001a0: 97da b63e 2a81 e941 0000 0000 0000 0000
000001b0: 642f d041 0000 0000 3da7 e33e a079 b241
000001c0: 0000 0000 5c1b 6840 0000 0000 0000 0000
000001d0: 4d3d ad40 d2bc a041 5780 0041 5353 c440
000001e0: 0000 0000 0000 0000 0000 0000 5a80 6641
000001f0: 59da 763f 3ace af41 0000 0000 0000 0000
35.686977 25.178772 0.21510512 9.63168 35.634895 46.722343 13.674636 56.33931
27.82955 0.0050574224 21.870184 16.750767 0.004719807 19.172527 0.0 16.897543
10.708138 45.210484 1.1787497 16.2042 0.019133873 11.105873 0.0 0.0
2.4628844 0.0 48.435444 0.0 56.097115 13.787765 5.377588 34.712822
0.3553937 0.0 42.382248 0.0 0.0 35.615623 2.0303285 28.152317
13.2051325 24.970343 0.0023831262 63.791527 0.0 0.0 0.0 0.0
0.0 15.973412 9.322117 0.028318882 8.08203 4.655129 0.0 0.0
11.477401 30.303856 5.3493023 7.495914 21.686378 0.0 39.396133 0.28224984
0.035484903 0.0 30.72531 0.0 0.0 33.45331 0.0 35.27863
25.722746 0.0022077234 0.36488724 0.0 4.077265 0.0 54.106277 18.609121
2.723287 0.009239501 3.7426167 52.703285 0.0 30.770605 1.2232494 0.0
37.45299 1.7642841 0.0 0.99227095 5.242019 35.68636 32.98743 0.1397995
37.50804 0.0 0.03320159 0.0 0.0 0.0067483834 0.0 11.80552
0.35713646 29.188068 0.0 0.0 26.02314 0.0 0.4446353 22.309387
0.0 3.62667 0.0 0.0 5.413733 20.092197 8.031333 6.1351714
0.0 0.0 0.0 14.406336 0.9642692 21.975697 0.0 0.0

net.2.running_var f4 [128]
00000000: a528 4041 9c8f 1f41 a770 623f b220 4940
00000010: 52a1 a040 b6d7 1442 77a3 c240 b611 3e42
00000020: cddb b040 c085 243d 3203 ce40 c9e9 4b41
00000030: 6d90 093d 26e9 8b41 429a 5d3b d808 2b42
00000040: eb01 4e41 c871 3541 3452 a940 fc53 5941
00000050: 3d5d 233e 2c4d 1642 429a 5d3b 429a 5d3b
00000060: 0ab8 2141 429a 5d3b ebdb a941 429a 5d3b
00000070: 5b44 3a42 3d90 4040 afd3 1040 a6ee 9341
00000080: 74f3 a33f 429a 5d3b cb30 e141 429a 5d3b
00000090: 429a 5d3b 9373 fc40 7775 bc40 3293 f841
000000a0: b802 cd41 9175 c640 6330 8c3b 16cc 3a42
000000b0: 429a 5d3b 429a 5d3b 429a 5d3b 429a 5d3b
000000c0: 429a 5d3b f9c4 6340 0ef2 2540 d46a 503e
000000d0: 1fd2 d641 b821 bc41 429a 5d3b 429a 5d3b
000000e0: c4a9 b041 0648 0d41 3be1 b741 aa13 9641
000000f0: 7820 ec3f 429a 5d3b b2e7 0c41 6214 2e3e
00000100: af98 9a3d 429a 5d3b bcf4 2741 429a 5d3b
00000110: 429a 5d3b 2d81 8a41 429a 5d3b 340e 9341
00000120: eac3 3241 c7e1 8c3b 9fcb 873f 429a 5d3b
00000130: 7ead 8141 429a 5d3b 3377 b241 0d87 6f40
00000140: 6d08 dd40 09cc d93d ddf7 0641 badd 0942
00000150: 429a 5d3b 8755 1b42 4942 8d3f 429a 5d3b
00000160: 2166 5641 c9c7 f640 429a 5d3b d9c5 6e40
00000170: a25a bc41 6a82 7a40 4ef5 7241 aadb e13d
00000180: 7998 d441 429a 5d3b b947 b63d 429a 5d3b
00000190: 429a 5d3b d0e2 723d 429a 5d3b 9daa 4c41
000001a0: 386e 693f a549 3741 429a 5d3b 429a 5d3b
000001b0: 54f0 2541 429a 5d3b c248 b03f e7cf 0f42
000001c0: 429a 5d3b 06fb c140 429a 5d3b 429a 5d3b
000001d0: 26e0 8d41 11c1 a641 7ca7 4641 1081 d341
000001e0: 429a 5d3b 429a 5d3b 429a 5d3b 238a 9441
000001f0: 2b0b 6840 49ac 1442 429a 5d3b 429a 5d3b
12.009923 9.972561 0.88453144 3.1426206 5.0196924 37.210655 6.082454 47.517296
5.526831 0.040166616 6.43789 12.744576 0.033585 17.488842 0.0033813869 42.758636
12.875468 11.340279 5.2912846 13.583004 0.15953536 37.575363 0.0033813869 0.0033813869
10.107431 0.0033813869 21.232382 0.0033813869 46.566753 3.0088036 2.2629201 18.491528
1.2808671 0.0033813869 28.148825 0.0033813869 0.0033813869 7.889108 5.889339 31.071873
25.626328 6.2018514 0.004278229 46.699303 0.0033813869 0.0033813869 0.0033813869 0.0033813869
0.0033813869 3.5588973 2.5928988 0.20353252 26.852598 23.516464 0.0033813869 0.0033813869
22.082893 8.830084 22.984976 18.759602 1.8447409 0.0033813869 8.806566 0.16999963
0.07548653 0.0033813869 10.49725 0.0033813869 0.0033813869 17.313074 0.0033813869 18.381935
11.172831 0.0042993757 1.0609015 0.0033813869 16.209713 0.0033813869 22.308203 3.7426178
6.9072785 0.1063462 8.4355135 34.46653 0.0033813869 38.833523 1.1035854 0.0033813869
13.399934 7.711888 0.0033813869 3.7308257 23.544254 3.9142098 15.184889 0.11028226
26.57445 0.0033813869 0.08900399 0.0033813869 0.0033813869 0.059298337 0.0033813869 12.791654
0.91183805 11.45548 0.0033813869 0.0033813869 10.371174 0.0033813869 1.3772204 35.95303
0.0033813869 6.0618925 0.0033813869 0.0033813869 17.734447 20.84427 12.41589 26.438019
0.0033813869 0.0033813869 0.0033813869 18.56745 3.6256816 37.168247 0.0033813869 0.0033813869

net.3.weight f4 [1, 128]
00000000: 5303 d7bc 9b1c 2fbd c2c2 0d3d e31b c83c
00000010: cdc9 82bd c1b8 6b3c f2c0 453d 8169 1ebc
00000020: 8117 a139 1bfb 193e 2890 82bb 366c 02bd
00000030: c352 85bd e90a 4eba a923 abbd 6c92 51bb
00000040: 2e96 263d 5abc a03d 9554 61bd 2289 5c3d
00000050: 1863 b13d 1054 ae39 cd0f fd3d 3dbb fe3d
00000060: 218f 5dbd 2abf eebd 5353 233a db1a 033e
00000070: 88aa f8ba 2315 843a 1467 95bd 301b 73bd
00000080: 6497 863d 3352 cfbd 4af4 92bd f214 dbbd
00000090: 1a9c babd e582 543d f504 80bd d4c6 31bd
000000a0: c335 90bd 5263 6b3d eef9 103c 97db 8b3d
000000b0: 9f65 4dbd 91a2 423d b37e bcbd 1c77 b4bd
000000c0: 8fa1 693d 7484 84ba 1895 41bd d494 6d3d
000000d0: d1a5 9dbd 8150 89bc f1bc dc3d 1c31 8bbd
000000e0: dd5b adbc d026 6a3d e6c9 8b3d fdd3 0b3d
000000f0: 6348 103d 05d9 e03d 5027 56bc b4c4 f1bd
00000100: 0cb3 833d f89f 803d d218 21bd b701 fdbd
00000110: 5aba d63d 690f 893d 5b65 c5bd c6fe 8b3a
00000120: cb8a 8dbb 1e6f 35bd 734d 0a3d 5f93 febd
00000130: 38e8 943c e4d0 fcbd d3a7 803c c710 193c
00000140: bcc9 fc3c c9b8 8bbc 4aeb 923c 5973 8d3b
00000150: e4d0 f2bd ec4b 08b9 b980 03be f89a ffbd
00000160: 185c cf3c 0ff2 fc3c 6fb6 3d3d ac10 84bd
00000170: da4c 513c 0412 febc 7d75 bb3b e990 92bd
00000180: bb51 f03c 325b 55bd b159 a6bd 2417 423d
00000190: 61a8 67bd 44fe 32bd 3ecb 613d b381 49bd
000001a0: 7051 1abd 255b 0bbc 8952 063e 575a a73d
000001b0: 2fbc 71bd 1025 703d 94cb 9c3d 17da 613d
000001c0: 103c debd 11eb 60bd d4cf d53d 46cc 883d
000001d0: 3982 d8bb 45d1 8e3d 06f8 1e3c c919 7c3d
000001e0: be5c 49bd 6a98 65bd 4fbf 8ebd 2769 743d
000001f0: ef9d 81bd 0414 c33a 0c71 c7bd 3fe5 04be
-0.026246702 -0.04275189 0.034609564 0.02442736 -0.06386147 0.0143873105 0.04827971 -0.009668709
0.00030725825 0.15037195 -0.00398447 -0.03184148 -0.06509926 -0.0007859902 -0.08356411 -0.0031978143
0.040670566 0.07848425 -0.055012304 0.053841718 0.08661479 0.00033250498 0.123565294 0.124380566
-0.054091576 -0.116575554 0.0006230373 0.12803213 -0.0018971721 0.00100771 -0.07295051 -0.0593521
0.06571844 -0.101231 -0.07175501 -0.106973544 -0.09111805 0.051882643 -0.062509455 -0.043402508
-0.07041504 0.057467766 0.00884865 0.06828993 -0.05014574 0.047518317 -0.092038535 -0.08811781
0.05703884 -0.0010110275 -0.047261328 0.05800326 -0.076976426 -0.01676202 0.10778225 -0.06796476
-0.021161968 0.05716592 0.068256184 0.034137715 0.035225283 0.10978893 -0.013070896 -0.11805096
0.06430635 0.062805116 -0.03933031 -0.12353843 0.104847625 0.066923924 -0.09638473 0.0010680787
-0.004319524 -0.044295423 0.033765268 -0.124304526 0.018177137 -0.1234453 0.015705025 0.009342379
0.030857913 -0.017055886 0.01793446 0.004316729 -0.11856249 -0.00012998254 -0.12842073 -0.1248073
0.025312468 0.030877141 0.04631656 -0.064484924 0.0127746705 -0.03101445 0.005720793 -0.07156546
0.029335847 -0.052088924 -0.08122576 0.04738535 -0.056557063 -0.043699518 0.055125467 -0.049195956
-0.03767532 -0.008505617 0.13117422 0.08171528 -0.059017356 0.058629096 0.07656017 0.055139627
-0.108513 -0.054911677 0.10440031 0.06679587 -0.0066073206 0.06973509 0.009702688 0.06154803
-0.04916071 -0.056053557 -0.06970083 0.059670594 -0.063289516 0.0014883284 -0.09738359 -0.12978075
