saved_models/mlp/MLP_analcatdata_bankruptcy.pth (torch, 9907 bytes, 7 tensors)

net.0.weight f4 [128, 6]
00000000: b5b9 18be 3373 f3bd c73b 253e 09e8 8ebe
00000010: c8c1 c73e 4e2b 363e 7185 a2be d5a2 f8bc
00000020: ba75 c3be 64cc 8abe 5074 97be 0d6e ac3b
00000030: 700b 183e 0f54 933d 40fe c4be 7128 22be
00000040: 441d 163e 8276 d6be 33a1 983e f143 223e
00000050: af06 8bbe f8ac 003e b3be 703e 2c33 28be
00000060: fff8 6dbe 87b0 72be e1f5 a8be 0a10 77be
00000070: 011c 34be bdc1 2c3e 8411 653d a52f 4dbe
00000080: ea1e 8c3e cb46 ecbb 3365 d4be 01e2 913e
00000090: b8f0 d2be a4a8 b13e 85e3 3bbb eb4a a63e
000000a0: 9af6 b7bd 2104 b63e 27ca d2bd 5cc7 0fbe
000000b0: c772 de3e 887b f43d 828a 953e 2861 d13e
000000c0: b5cd cd3e 3d97 d73e 96aa 6e3e 0dea 853e
000000d0: a533 5ebd ad1c b8be 391a 033e f71c b63e
000000e0: fc2a 51ba a3f7 603e 07ce 1cbe 540e bfbe
000000f0: bfa9 3e3e 4bf3 b63e 16f4 4c3c 2c27 903e
00000100: 157c a13e 4cd0 8b3e 56e2 9cbd c02a babd
00000110: 705b 5abe 2529 a83e fb02 c83d 321f acbe
00000120: 306a bc3c e0b0 cdbe ecd6 a4be d93b 40be
00000130: b680 a23c f20e 283e 7fb9 99be 22e1 073e
00000140: 9381 b93e befa 523e 66b6 89bd 2235 08bd
00000150: 9232 37be fc07 633d e943 033e 2d5a 803e
00000160: e762 3a3e 8298 d83c 0640 b4be 7901 d0be
00000170: 92ad c5be afdd 7cbd 4608 a33e 00f1 8f3e
00000180: 0f7a a63e 0f4e b93d 252a c43e 0045 8dba
00000190: 6c5a b8be 33d6 c2bd 4e85 f2bd 6570 d4be
000001a0: e255 c73e 9d8b babe 1bff 003d 605e c43d
000001b0: 7f0a 0ebe 32a8 0b3e 30ab a0be 0f0d 753e
000001c0: afa6 58be 4ab6 603e 5d9b 8abe efac c5bd
000001d0: 3b2d a7be 2f0b 0e3d 69c7 863e 0494 b63e
000001e0: 2d16 cabe ba2f 63be babc 203e 3553 b13d
000001f0: 8dce 633e e470 81be 9ae7 bebe 601f 9ebe
00000200: 5612 df3e d556 c93e 0d1a 2bbd f236 973d
00000210: a56e f7bd 6af9 c83e 05d9 1bbe f431 563e
00000220: 11d4 8f3e d81a 02bd d253 1fbd 80f1 8cbc
00000230: 9e87 c7be 105f 963e c976 3d3e 3e02 d33d
00000240: 45ca bc3e d38c 083e 5eae b1bd 94eb 9f3e
00000250: d012 cabc d362 23be 1d50 a7be 19d3 d2be
00000260: 1737 2abe 2ba7 b2be 9eb1 013e ee50 8f3e
00000270: 9de5 1abc dbc9 21be 8346 cabd e1f3 a7bd
00000280: 408b fcbd ec95 05be 4eef 85be 4b32 023e
00000290: c283 83be ca44 58be b58e 5fbe dea7 2cbd
000002a0: 0404 363d 165b c63e b345 04be 7485 a93e
000002b0: a4bf c23d b38a 71be e4af db3e 415e bf3e
000002c0: c2ca c03e abd9 c03e 4965 803e 1bbf 74be
000002d0: 9107 f5bd c4dd b1be b866 f73d 3286 b1be
000002e0: 4eb3 d9bd 42ca 8cbe 6dd6 1d3e b8ce 42be
000002f0: d03d 963e 2fa4 cfbd 9a3b b63e 210f c13e
00000300: bfdc 31be 4928 603e 55a2 7bbd 4486 23be
00000310: aa7f a4be 2ea2 bd3e 45b9 a5be 666d edbd
00000320: 3fef 92bd ed57 febd 839c 903e 509d b8be
00000330: 989a 73bd a052 0a3c 0082 953e b0cf 723d
00000340: a314 bbbe 223e c83e 47b9 6e3c 0e51 203e
00000350: a79d 9d3e f0e7 d43e 8494 383d d833 3b3e
00000360: ebc3 bebe c68f 753e d2b8 b5be 62d8 bcbe
00000370: 323f 423e 033f 5d3c 4840 62be 7007 65bd
00000380: dc3c c03e 54ef 923d 743b b4be 4346 67be
00000390: 220f fb3d 1ec7 1b3e 0194 83be 11ba e3be
000003a0: 1524 9f3e 47cb 52be 0a5f 7bbe d0a7 ac3e
000003b0: a616 643e c88b bb3b b8a9 173e 928f 3cbd
000003c0: 9896 fb3c 8413 d2be 41e7 a8be b507 38bc
000003d0: 929e 6ebe 46dd 85be 5fa7 e0bd 70c2 ce3e
000003e0: 2cac 2d3e d2a1 e13d b959 b03d 8fba 47be
000003f0: a604 90be 503d 08bd ee11 653e 4565 b13e
-0.14914592 -0.11887207 0.16136084 -0.27911404 0.3901503 0.17789957 -0.31742433 -0.030351082
-0.38175756 -0.27109063 -0.29580927 0.0052621425 0.14848113 0.07193767 -0.38475227 -0.1583574
0.14659601 -0.4188729 0.29810485 0.1584623 -0.27153537 0.12565982 0.23510246 -0.1642577
-0.23239516 -0.23700152 -0.3300009 -0.24127212 -0.17588808 0.1687078 0.055924907 -0.20037706
0.27367336 -0.0072105876 -0.4148346 0.2849274 -0.4119928 0.34698975 -0.0028669548 0.32479033
-0.089825824 0.35550025 -0.10292464 -0.14040893 0.43446943 0.11937624 0.29207236 0.40894437
0.40196005 0.42107573 0.23307261 0.2615513 -0.05424847 -0.35959378 0.12802972 0.35568973
-0.00079791225 0.21969466 -0.15312968 -0.3731562 0.1861944 0.35732493 0.0125093665 0.28154886
0.3153998 0.27307355 -0.07660358 -0.09090185 -0.21323943 0.3284389 0.097661935 -0.3361755
0.022999853 -0.40174007 -0.32195222 -0.1877283 0.019836765 0.16411951 -0.30024335 0.13269475
0.3623167 0.20603463 -0.06724243 -0.033253796 -0.17890385 0.055427536 0.12818874 0.250688
0.18201791 0.026439909 -0.35205096 -0.40626124 -0.38608986 -0.06173485 0.3184225 0.28113556
0.32514998 0.090480916 0.38313404 -0.001077801 -0.36006486 -0.095135115 -0.11841832 -0.41492
0.3893271 -0.3643464 0.031493288 0.09588313 -0.13871191 0.1363838 -0.31380606 0.23930763
-0.21157335 0.21944538 -0.27071658 -0.09652125 -0.32651696 0.034678634 0.26324013 0.35659802
-0.39470044 -0.22186175 0.15696993 0.086584486 0.22246762 -0.2528144 -0.37286073 -0.30883312
0.43568677 0.3932406 -0.04177289 0.07383527 -0.12081651 0.39252788 -0.15219505 0.20917493
0.2809148 -0.03176388 -0.038898297 -0.017205 -0.38970655 0.29369402 0.18502344 0.10303162
0.3687307 0.1333497 -0.08675836 0.3123442 -0.024667174 -0.15955667 -0.3267831 -0.4117668
-0.16622578 -0.34893164 0.12665412 0.27991432 -0.009454158 -0.15799658 -0.0987673 -0.08200813
-0.12331247 -0.13045472 -0.26159137 0.12714498 -0.2568646 -0.21119991 -0.21831782 -0.042152278
0.044437423 0.38741368 -0.12917213 0.3310963 0.09509209 -0.23588066 0.4290763 0.37376598
0.37654692 0.37666067 0.25077274 -0.23901026 -0.11964334 -0.34739506 0.12080139 -0.34672695
-0.10629903 -0.2749806 0.15413828 -0.1902417 0.29344034 -0.101387374 0.35592347 0.37706855
-0.17369364 0.21890368 -0.06143411 -0.15969187 -0.3212865 0.37037796 -0.32367912 -0.11593132
-0.07174539 -0.12419114 0.2824441 -0.3605752 -0.059473604 0.008442551 0.29200745 0.059280097
-0.36539182 0.39109904 0.014570541 0.1565592 0.30784342 0.41583204 0.04506351 0.18281496
-0.3725885 0.23980626 -0.3549257 -0.36883837 0.1896942 0.013503793 -0.22094834 -0.055915296
0.37546432 0.071745545 -0.3520161 -0.22585396 0.12258746 0.15212676 -0.25698856 -0.44477895
0.31082216 -0.20585357 -0.24547973 0.3372178 0.22274265 0.0057234503 0.14810836 -0.046035357
0.030711457 -0.41030514 -0.32988933 -0.011232306 -0.23302677 -0.2614538 -0.109694235 0.4038272
0.1696021 0.11017193 0.08610863 -0.1950476 -0.28128546 -0.033261597 0.22370121 0.34647575

net.0.bias f4 [128]
00000000: b347 b73e 14b7 96be d56f cbbe aca7 6e3e
00000010: 20e8 d33c 67a7 2ebe fd47 4fbe a9d3 6c3e
00000020: 40b5 613e 894a 2abe fa7f cdbe 349e c7be
00000030: 0dbf 913c caa2 b2be ebc0 b93d 2815 533e
00000040: bbc3 14bd 4523 bdbd e3c9 b13c 153e 3abe
00000050: fbb2 353e 249c efbd b6a4 883d 1590 493e
00000060: 3ce6 293e d185 3abe 131c c7be db5e 8b3e
00000070: e6e0 fc3d e587 02bd 3063 a3be 35bf 41be
00000080: 808e 90be df9f b4be b4cb 8a3e bf6d 0a3e
00000090: 5588 993b 381e 843e 2726 833e 2063 8f3e
000000a0: c0c5 96be d641 d0be be3e 9e3e a866 c93d
000000b0: 4ca8 c23d 1a21 41be e2f7 9cbe 72be bebe
000000c0: 6706 c5bd c5fd 423e 4bc6 78bd 977b a93d
000000d0: 0338 483e ec6a 843e 2aaf bbbe fbcc 40be
000000e0: ff76 92bd 61e3 733e 6e36 e0bd 36fc 88be
000000f0: 49ac bd3c 33e1 21bd 0c07 b23c 2ad1 1dbe
00000100: cf2f b5be b6f9 ae3e e11f 9b3d f63a 9b3e
00000110: efba b3be aa5b 5cbe fbf5 e63e d8d6 eb3d
00000120: 4886 a33e 295c 833e c35a 47be f355 9fbe
00000130: 86d1 21be f538 c13e 1d9b cabc abc7 01be
00000140: 2526 7a3e 9ed0 983e e7e6 623d 7e71 2abe
00000150: 4152 95be 1c0f 573e 478b d83e 4a38 b2be
00000160: 0340 a7be 1158 66be a302 a93e 0a3e d03d
00000170: c862 94be 961e b2be 22a5 973e 5b99 bebe
00000180: ae77 b53e 16f6 e93d 6de6 a2be dab5 bebe
00000190: 40a0 92bd ddf0 58be 6e65 bc3e b0af 213e
000001a0: 9777 22bd 54b4 1dbe 33f1 e0be 6a0a 7bbd
000001b0: eb4c 8f3e 13f6 9abd 258e 98bd 10c6 573e
000001c0: b53a 62be f76b 04be 1f2c 873d 9ef0 5bbd
000001d0: 9e6c 853e 6673 983d fb2e b4be 2be6 1abb
000001e0: f48d a1be 8cb2 a23e 52bb 933e ee6a b1be
000001f0: 817f babe 43ab 8bbe 6dd2 ae3d 5790 94bc
0.3579689 -0.29436553 -0.3973376 0.23306149 0.025867522 -0.17056046 -0.20242305 0.23127617
0.22041798 -0.16629995 -0.401367 -0.38987887 0.017791295 -0.34889823 0.09069999 0.20613539
-0.036319476 -0.09235243 0.021702712 -0.18187745 0.17744057 -0.11699703 0.06672041 0.19683869
0.16591734 -0.1821511 -0.38888606 0.27220806 0.123475835 -0.03186788 -0.31911612 -0.18920596
-0.2823372 -0.35278222 0.27108538 0.13518427 0.0046854415 0.25804305 0.25615045 0.28005314
-0.29447746 -0.4067523 0.30907243 0.09834033 0.09504756 -0.18860283 -0.3065787 -0.37254673
-0.09620362 0.19042118 -0.060735982 0.08275526 0.19552617 0.25862825 -0.36657077 -0.18828194
-0.07151603 0.23817207 -0.10947882 -0.26754922 0.023153441 -0.039521407 0.021731876 -0.15411821
-0.35388038 0.3417489 0.0757444 0.3031842 -0.35103557 -0.21519342 0.45109543 0.115155876
0.31938386 0.2565625 -0.19468217 -0.31120262 -0.15802583 0.37738767 -0.024732167 -0.12673824
0.24428613 0.29846662 0.055395987 -0.16644856 -0.29164317 0.21001858 0.4229376 -0.3480857
-0.32666025 -0.22494532 0.33009824 0.10168083 -0.28981614 -0.3478896 0.29618174 -0.37226376
0.3544287 0.1142389 -0.31816426 -0.37248117 -0.071594715 -0.21185632 0.36796135 0.15789676
-0.03966483 -0.15400821 -0.4393402 -0.06128923 0.2798837 -0.07566466 -0.07448987 0.21071649
-0.22092707 -0.1293181 0.06600212 -0.053696267 0.2605943 0.074438855 -0.35192093 -0.0023635726
-0.31553614 0.31776845 0.28853852 -0.34651893 -0.36425403 -0.272791 0.08536229 -0.018135233

net.2.weight f4 [128]
00000000: 378b 7e3f 43e4 7c3f bd1c 863f 6110 843f
00000010: 4510 783f 1328 7d3f 4007 7a3f 226f 853f
00000020: 7d31 863f ce3f 7b3f fb35 763f bec3 833f
00000030: 848b 863f 51e6 813f 06c5 853f 5295 853f
00000040: 59d1 793f 7ab7 823f ef55 823f f27b 773f
00000050: bce9 7a3f 394b 813f bdb6 7d3f 5a19 7f3f
00000060: 150b 7a3f 266e 883f a111 843f b1ba 783f
00000070: 4b72 7c3f 601a 863f 30d7 793f 7103 793f
00000080: e0a3 813f 40a9 773f 0000 803f fdf5 853f
00000090: 4b2f 863f 0000 803f 5806 893f af1f 853f
000000a0: 4ce8 843f d88e 783f e261 783f 5835 783f
000000b0: 83f1 803f 0000 803f bf59 783f 7278 863f
000000c0: 0cc7 793f bd27 893f 87ac 7e3f bb7a 843f
000000d0: 355b 843f 00a4 7e3f 7ba8 7c3f acc3 763f
000000e0: d52c 7e3f d000 7b3f 42fe 803f e8ec 7f3f
000000f0: e368 7b3f 2182 7c3f 5da4 793f 7f62 773f
00000100: e63d 813f ecab 7c3f 85e8 833f 2690 7e3f
00000110: cc37 853f 53a4 793f f37e 873f 0000 803f
00000120: 0581 7b3f fc11 793f 5153 7c3f fa09 843f
00000130: 050d 863f a50f 7a3f 79d3 803f 124e 803f
00000140: 0657 823f a06d 7b3f 26d8 7b3f 725a 833f
00000150: c75b 773f ee7a 853f 7dc2 833f 7577 833f
00000160: 0000 803f d4df 823f 294a 783f 357f 843f
00000170: 8a41 873f bf29 7b3f 8042 823f f265 863f
00000180: 7584 7a3f e657 833f 6168 813f 7260 803f
00000190: f6b8 783f 787b 823f b827 7a3f 970a 793f
000001a0: 9e3d 853f 6783 833f e43a 7b3f 9790 773f
000001b0: 7cc0 773f 6ea0 793f e9d7 853f cb9e 813f
000001c0: ec87 863f 11df 863f c0ba 823f 8389 7b3f
000001d0: aa50 833f 456d 833f d29b 7c3f 18e0 843f
000001e0: bd80 843f d40a 853f 5d24 833f 55e7 853f
000001f0: cc22 843f 3a01 843f 7c50 853f 1eb8 7a3f
0.99431175 0.987858 1.047752 1.0317498 0.96899825 0.98889273 0.9766731 1.042454
1.0483853 0.98144233 0.9617612 1.0294111 1.0511327 1.0148412 1.0450752 1.0436194
0.97585064 1.0212243 1.0182475 0.966735 0.980129 1.0101081 0.9910696 0.9964806
0.9767316 1.0658615 1.031788 0.9715987 0.986119 1.0476799 0.97593975 0.97270876
1.0128136 0.9674263 1.0 1.0465695 1.0483183 1.0 1.0705061 1.0400294
1.0383391 0.9709296 0.9702436 0.96956396 1.0073704 1.0 0.9701194 1.0505507
0.97569346 1.0715252 0.99482006 1.0349954 1.0340334 0.99468994 0.9869458 0.9639232
0.9928716 0.98048115 1.0077593 0.99970865 0.9820692 0.9863606 0.97516423 0.9663467
1.0097015 0.9869983 1.0305334 0.99438703 1.0407653 0.97516364 1.0585617 1.0
0.98243743 0.97293067 0.9856463 1.0315545 1.0472723 0.9768012 1.0064536 1.0023825
1.0182807 0.9821415 0.9837669 1.0261977 0.96624416 1.042814 1.0293728 1.027083
1.0 1.0224557 0.9698816 1.035132 1.0566876 0.98110574 1.0176544 1.0499861
0.97858363 1.02612 1.0109979 1.0029433 0.9715723 1.019393 0.97716856 0.97281784
1.0409429 1.0274476 0.98136735 0.96705 0.9677808 0.9751042 1.0456516 1.0126585
1.051023 1.0536824 1.0213242 0.982567 1.0258992 1.0267721 0.9867526 1.0380888
1.0351788 1.039393 1.0245472 1.0461222 1.0323119 1.0312874 1.0415187 0.9793719

net.2.bias f4 [128]
00000000: 9b51 8bbc 839a e5bb af58 bebc 2219 c5bc
00000010: 9fbe 8e3c 37fa 7fbc d05b 95bc aa99 c43c
00000020: 7d0a de3c 0b64 98bc 0d6b 90bc 86f7 cebc
00000030: 6962 d5bc f183 b43c b97a bf3c 67f7 c7bc
00000040: 2958 98bc 3009 ba3c 8adc b8bc 4769 933c
00000050: b5ba 9dbc ff59 b63c 1167 a13c c49d 9cbc
00000060: 81f2 76bc 9bca 01bd 6617 f9bc 54d2 973c
00000070: 0a50 6ebc b5eb bd3c 1bec 873c 898b 83bc
00000080: ede5 b7bc 088f 833c 814c bc3c e953 c63c
00000090: d356 c9bc 2577 b6bc 356e fcbc 3f92 ca3c
000000a0: 0ae2 bbbc 52f2 8bbc 5914 7abc 3738 993c
000000b0: d845 b23c dcf9 133d 85ba 67bc fa35 c7bc
000000c0: 79cc 703c 58c2 f5bc 7056 a73c 6979 c13c
000000d0: 2bf3 e03c 887c a8bc 903d 08bc c155 8c3c
000000e0: 68a0 4dbc a8f4 95bc 0cc4 b73c 0446 adbc
000000f0: 28b6 22bc b05d 9fbc 4435 973c 3439 95bc
00000100: 14cc bc3c aa81 a4bc 2895 06bd 3677 9e3c
00000110: 0599 c5bc b5c8 893c 7719 e93c e665 b83c
00000120: 1a55 96bc 58e1 9a3c fd7f e8ba b503 c23c
00000130: 548f d4bc 14a8 423c caa5 c7bc ac21 93bc
00000140: 9f4b b53c 0b39 973c e958 5a3c e553 bbbc
00000150: 44e2 8e3c 6e3d cabc bac7 c2bc 369a e63c
00000160: 867e b5bc 46f8 c23c 8e0f 9a3c 2fd5 ba3c
00000170: 54a6 f8bc ed1a 9fbc 192e ee3c 1456 edbc
00000180: 1794 9ebc cf98 c63c c4eb b5bc 5cf6 1b3c
00000190: 8cfc 95bc ce2a e0bc 01d1 5abc 269e 953c
000001a0: ebd8 bdbc 29b4 ddbc cf34 96bc 5ae1 69bc
000001b0: 2fd4 97bc c3f6 9c3c c4ec bbbc 62c6 c9bc
000001c0: 346c cebc 25c5 d23c 4ec5 b6bc 5a3c 9abc
000001d0: aa02 bf3c 58ac cfbc 582b 6e3c a677 d1bc
000001e0: 6742 d23c 866c cebc ac13 babc f055 cbbc
000001f0: 7854 bcbc b87b bcbc 81ac d4bc 4d6b 93bc
-0.017006686 -0.0070069446 -0.023235647 -0.024059836 0.01742488 -0.015623621 -0.018232256 0.023999054
0.02710461 -0.018602392 -0.01762917 -0.025264513 -0.026047902 0.02203557 0.023373948 -0.024409963
-0.018596726 0.022709459 -0.022566099 0.017994536 -0.019254068 0.02225971 0.019702466 -0.019118197
-0.015072466 -0.03168736 -0.030406665 0.01853291 -0.01454545 0.023183683 0.016592076 -0.016057746
-0.022448504 0.016059414 0.022985699 0.024209933 -0.024577534 -0.02227361 -0.03081427 0.024727939
-0.022934932 -0.01708332 -0.01526364 0.018703563 0.02176182 0.036126956 -0.014143591 -0.02431773
0.014697188 -0.029999897 0.020426959 0.023617463 0.027459702 -0.020567194 -0.008315459 0.017130734
-0.012550451 -0.018305138 0.02243235 -0.02115155 -0.009931125 -0.019453853 0.018458016 -0.018215753
0.02304653 -0.02008136 -0.03285709 0.019343954 -0.024120817 0.016819337 0.028454525 0.022509526
-0.018351126 0.01890628 -0.0017738339 0.023683408 -0.02594725 0.011880893 -0.024371047 -0.017960392
0.022130786 0.018459817 0.013326862 -0.022867152 0.017441876 -0.024687495 -0.023776878 0.028149705
-0.022155058 0.023800027 0.018806245 0.022806732 -0.030352749 -0.019422019 0.029074715 -0.02897171
-0.019357724 0.024242787 -0.022207148 0.009519186 -0.0183089 -0.02736416 -0.0133554945 0.018263888
-0.023174724 -0.027063446 -0.018335728 -0.014274919 -0.018533794 0.019160634 -0.022940047 -0.02463073
-0.02519808 0.025728771 -0.02231088 -0.018827606 0.0233167 -0.025350735 0.014536701 -0.025569748
0.025666429 -0.025198232 -0.022714458 -0.024821252 -0.022989497 -0.023008212 -0.025961163 -0.017995501

net.2.running_mean f4 [128]
00000000: bce8 b840 507b 1a41 e508 9241 3e4b 9241
00000010: 9d44 3841 fc90 c03c d2e4 8e3f d96a 5440
00000020: 5ee8 2f40 101d c33f ac8a 2b41 4c85 c340
00000030: 5eb3 4c41 f8c4 de3e b4b3 aa3f 2c34 8141
00000040: 2798 f93e 46ec 8b3e e169 b840 3245 7441
00000050: 9bf6 b43f 62b7 523f c861 2941 48e9 8541
00000060: d881 c540 1f84 bd40 4108 933f d151 eb40
00000070: 0854 e640 0ba5 db40 6e34 593f 1422 ef40
00000080: 9efb eb3f 333e d440 0000 0000 aa39 f13f
00000090: 48f3 5141 0000 0000 c39c 9b41 0675 ac3f
000000a0: e1f0 e540 e6a6 1840 7032 9840 d730 1041
000000b0: 0acf cc3f 0000 0000 17d4 1940 0654 9441
000000c0: c277 6741 13ae 0741 1c8b 4c40 7ad9 3540
000000d0: 52a7 7d40 a232 c13c 847b 0e41 f262 8d41
000000e0: d800 9541 ce58 ab3f 7810 6d3e 9ca4 1b3f
000000f0: 4394 513f c9bf da3c 4e05 ea40 84d2 8e40
00000100: 3e74 e53e b62e 4841 75ef 2c3f 0715 a440
00000110: 4a1f 2441 a267 1b41 2bbb 7240 0000 0000
00000120: e035 0641 96ea c340 f7e2 f540 1bed 503f
00000130: 19d9 6b41 bc3d 9d41 4ee6 b140 5bb7 c13e
00000140: 8488 1a40 d4dc 2841 7cf4 fa40 2d3d 613e
00000150: d708 5041 a06c df40 ea7f ca3f 4633 5540
00000160: 0000 0000 2683 873f bcc9 a33f e732 2940
00000170: 4e00 0640 677d 1b3f 8f6f 3a3d 0f88 0a41
00000180: 07ce 0441 5cbb 233f 4f90 e840 8c93 c840
00000190: d6b2 c340 8d8a 7241 7318 ce3f 0167 4841
000001a0: ebb9 bb41 587b 983d 301b 9140 603d 2441
000001b0: 610e 8b40 162d 4840 06d9 7d40 f416 4041
000001c0: 63b5 6741 227b 2840 a0da f440 5875 ac3e
000001d0: d90d b53d 70d9 963f 8a7c 873f eb69 1f40
000001e0: 63f6 903f c2ec 1c41 645d 7440 1097 8940
000001f0: f987 0740 98f5 c140 b8e4 2941 5e8a 8d3e
5.77841 9.655106 18.254343 18.28674 11.516751 0.023506634 1.116358 3.3190215
2.7485576 1.5243244 10.721355 6.1100216 12.793791 0.4350965 1.3336091 16.150475
0.48748896 0.273287 5.7629247 15.266893 1.4137758 0.8231107 10.586372 16.738907
6.1721 5.922378 1.1486894 7.3537374 7.1977577 6.863897 0.84845626 7.47291
1.8436162 6.6325927 0.0 1.8845723 13.121895 0.0 19.451544 1.3473213
7.185654 2.3851867 4.756157 9.011924 1.6000683 0.0 2.40357 18.541027
14.466738 8.479999 3.1959906 2.8413987 3.9633374 0.023583714 8.905155 17.673313
18.625412 1.3386476 0.23150814 0.6079805 0.81866854 0.026702778 7.3131475 4.4631977
0.44815248 12.511404 0.6755288 5.127567 10.257639 9.712801 3.7926738 0.0
8.388153 6.122386 7.6839557 0.81611794 14.740502 19.655144 5.5593634 0.37835202
2.4145823 10.553913 7.8423443 0.21995993 13.002158 6.98201 1.5820286 3.3312545
0.0 1.0586898 1.279594 2.6437318 2.0937686 0.60738224 0.045516547 8.658217
8.3003 0.6395776 7.267616 6.268011 6.1155806 15.158826 1.6101211 12.525147
23.46578 0.07445401 4.534569 10.264984 4.345505 3.1277518 3.966371 12.005604
14.481784 2.6325154 7.6516876 0.33683276 0.08840532 1.1785107 1.0584881 2.4908397
1.1325191 9.807802 3.8182 4.2996902 2.117674 6.0612297 10.61834 0.27644628

net.2.running_var f4 [128]
00000000: ea73 9b42 2eb7 1e44 f767 0b44 56a2 4543
00000010: 8dd5 0c44 e7a5 e03e 3a25 1741 ec24 4a42
00000020: 8bd8 e941 0c75 1341 3f66 cd42 46c9 d142
00000030: 8d59 ec43 93b4 3f40 e27e 3b41 ae4e 1344
00000040: d4e5 8340 4653 d13f a4c9 9043 849f e843
00000050: fae0 9941 a656 4f41 02c9 f842 1bb1 ed43
00000060: f549 0642 97ca 0e43 3085 5b41 fd52 bb43
00000070: bffe 6842 ebde 0443 f7ad 6841 8c34 ba42
00000080: 9d1b b441 3acb b142 f85b c63e 18a9 8841
00000090: 79b5 0944 f85b c63e e411 b343 8a9f 6441
000000a0: e195 ac43 0495 e941 15ea 9c42 9805 c743
000000b0: d732 ed40 f85b c63e c84d 6841 09d6 3044
000000c0: 1988 9643 5f16 6143 2c32 1942 0a35 1942
000000d0: 78dc eb41 9647 d13e f2d6 2e43 55b4 0344
000000e0: 5ec3 3344 f4ae d640 3d5f c63f 8561 fc40
000000f0: 51b5 d140 3915 e73e 2154 7643 3df3 9942
00000100: b0c1 e13f 6b97 0143 79ba 5941 0731 4642
00000110: 4810 d343 3128 a543 61b5 7242 f85b c63e
00000120: 3066 b542 50f3 ad43 a15a 8443 fa14 2d41
00000130: 7c56 1e44 f19b ee43 530f 3443 13e1 da3f
00000140: d491 0441 5bf3 0543 d728 f042 9b95 f03f
00000150: c18a 3144 786d 8e43 13d2 3942 d15e f341
00000160: f85b c63e ea79 8241 f94c a741 8fe2 0c42
00000170: 93a6 2c42 8407 0541 e447 003f ac6f f143
00000180: 852a d542 ae16 ba40 8b77 0e43 24cd 7942
00000190: 56dd b642 fb31 0444 a139 9a41 75a6 a443
000001a0: 36a8 0044 acf1 1b3f 635c ac41 9bf0 2f43
000001b0: 1952 b342 2351 f742 bf4a b642 1844 6443
000001c0: 30fe 2444 9baa 6941 2243 3b43 6404 8140
000001d0: 4937 613f 8194 9d41 75fb 5441 3665 6f42
000001e0: cf7a 9b41 7679 8443 8802 7842 3a36 b542
000001f0: 413c 4a42 1b61 cd42 fbf3 f843 3da9 0a40
77.726395 634.8622 557.62445 197.63412 563.33673 0.43876573 9.4465885 50.536057
29.230734 9.216076 102.6997 104.89311 472.69962 2.9953964 11.718477 589.2294
4.121805 1.6353538 289.57532 465.24622 19.234852 12.958654 124.39259 475.38364
33.572224 142.79137 13.7200165 374.64835 58.248775 132.87077 14.542472 93.10263
22.513483 88.89693 0.38742042 17.082565 550.8355 0.38742042 358.13977 14.28895
345.17093 29.197762 78.45719 398.0437 7.412456 0.38742042 14.51899 707.3443
301.06326 225.08739 38.298996 38.301796 29.48265 0.40874928 174.83963 526.8177
719.0526 6.7088566 1.5497814 7.8869042 6.5533834 0.4513338 246.32863 76.975075
1.7637234 129.59148 13.608026 49.54788 422.1272 330.314 60.677128 0.38742042
90.699585 347.90088 264.70804 10.817621 633.3513 477.2183 180.05986 1.7099937
8.285603 133.9506 120.079765 1.8795656 710.168 284.85522 46.45515 30.421297
0.38742042 16.309528 20.912584 35.22125 43.16267 8.314335 0.50109696 482.87244
106.583046 5.8152685 142.46696 62.450333 91.4323 528.78094 19.27814 329.30045
514.6283 0.60915637 21.54511 175.93987 89.66035 123.65847 91.14599 228.26599
659.9717 14.604152 187.26224 4.031786 0.87974983 19.697512 13.311391 59.84884
19.434965 264.9489 62.002472 90.60591 50.55884 102.68966 497.9061 2.1665795

net.3.weight f4 [1, 128]
00000000: d8d9 653c 9954 713c 0658 fa3d 4a0f 7e3d
00000010: bdcd f4bc 41a8 d43b 0aa5 dd3c 7760 aabd
00000020: 5632 26bd a35c 263d 1453 0b3d 011c 473d
00000030: 3d0a 823d b009 ccbd 816b d8bd b325 af3d
00000040: 261e 1d3d 9621 98bd 6446 953d 6a10 29bd
00000050: 48f5 3e3d ed07 68bd 7a10 e8bc 9217 983c
00000060: 6f40 0e3b 5baf 333d 36f6 e63c b005 3fbd
00000070: 1935 c73a cddf 02be e8cc 93bc df73 6b3c
00000080: e4d4 803d e7c0 71bc 7203 9cbd 9ad8 b0bd
00000090: 0a7a a43d 407c da3d b2f5 3d3d 051b 87bd
000000a0: 6106 e73d 4ecc ba3c 1a19 233c dfd6 5bbd
000000b0: 4eba 9bbd 6cae 13bd 5e01 b53b 2e6d bb3d
000000c0: 391c 03bc 19ac 543d 10af 5ebd a0b6 9bbd
000000d0: a4fc 0bbd 10b1 783d 906a 2b3c 9426 d9bc
000000e0: dcd1 943c db6d 0c3d c798 2ebd ba20 b53d
000000f0: d151 24ba 3caa 1a3d ab0e 2dbd 1636 313d
00000100: af40 00bd 6c4e 983d e11d a33c e312 09bc
00000110: 6492 a13d 511d aabc d54d 5cbd 91f5 bebd
00000120: f46a 053d 65bc 63bd c6b2 943c 0001 92bd
00000130: e54f 723d 1080 a1ba 14d6 ab3c c918 203c
00000140: 5828 c6bd f7a7 cfbc 5418 b2bb d295 af3d
00000150: f878 fbbc 9925 8d3d ea96 853d 2f53 d9bc
00000160: 51d4 ec3d 565a 3ebd 060a 50bd 399a c0bd
00000170: fb0f 193d 2904 603d 8aca 82bc 14d7 183d
00000180: a410 5f3d 2bb0 49bd c4e4 893d 2eaa e5bc
00000190: 3fd2 283d d35c da3c e278 2f3b 62b3 28bd
000001a0: 7ce7 dc3d 50f9 d23c c8c0 043d 76c8 913b
000001b0: 51d7 473d 7eda 75bd 6d70 043e e589 e63c
000001c0: 2961 963d 33a8 9ebd 45ad ce3d 9be5 0e3d
000001d0: be3d 78bd 3ead 113d 1639 0cbc d5fc 473d
000001e0: 3dcb 42bd c63c 6d3d 77cc 923d 7d67 9d3d
000001f0: 52ef c43d 7d9a af3d 2412 513d f8f8 d43c
0.014028989 0.014729642 0.122238204 0.0620263 -0.02988326 0.006489784 0.027056236 -0.083191805
-0.040575348 0.04061569 0.034014776 0.04861069 0.06349609 -0.09962785 -0.1056738 0.085521124
0.03835883 -0.07428281 0.072888166 -0.04127542 0.046620637 -0.056648184 -0.02832817 0.018565927
0.0021705886 0.043868404 0.028193574 -0.046636283 0.001519832 -0.12780686 -0.018042043 0.014370888
0.06290606 -0.014755464 -0.07617845 -0.086350635 0.080310896 0.1066823 0.04637689 -0.065969504
0.112805136 0.022802498 0.009954715 -0.053671714 -0.07603894 -0.036055014 0.0055238446 0.09151684
-0.008002334 0.051921938 -0.05436617 -0.07603192 -0.034176484 0.060715735 0.010462418 -0.026507653
0.018166475 0.034284454 -0.04262617 0.08844133 -0.0006268295 0.037760004 -0.042250317 0.04326447
-0.031311687 0.07436833 0.019911708 -0.008366319 0.0788925 -0.020765932 -0.053785164 -0.09324182
0.0325727 -0.05559959 0.018151652 -0.07129097 0.059158225 -0.0012321491 0.020976104 0.009771534
-0.09675664 -0.025348647 -0.005435029 0.08573498 -0.03069733 0.06891937 0.06522925 -0.026528923
0.11563934 -0.04647287 -0.05079081 -0.09404416 0.037368756 0.054691467 -0.015965719 0.03731449
0.05445923 -0.049240272 0.06733087 -0.02803525 0.04121613 0.02665559 0.0026774933 -0.041186698
0.1078634 0.025753647 0.032410413 0.0044489456 0.048789326 -0.060022824 0.12933512 0.028141925
0.073427506 -0.07746925 0.10091642 0.034886938 -0.060605757 0.035565607 -0.008558532 0.048825104
-0.047557104 0.057919286 0.07167905 0.076857544 0.09615959 0.08574388 0.05104269 0.025997624
