saved_models/mlp/MLP_analcatdata_cyyoung9302.pth (torch, 11968 bytes, 7 tensors)

net.0.weight f4 [128, 10]
00000000: add4 c83d 42e7 afbe 1ccc 253e 826e 013e
00000010: 4245 2bbc 6671 273e 1e07 7a3e 4e5f 033e
00000020: 5ca0 c1bd 8244 573e aeca f73d 6e9f f03e
00000030: 34b5 30bf 01e7 673e 3304 93be c1b1 183e
00000040: 7836 67be dbc4 32bf 488d 993e 29fa c83d
00000050: 7827 26bd bfbf 823e 58e6 5dbe 9d56 843e
00000060: f119 70be 173b 15be d4d9 a1be ab2f 22be
00000070: 4034 2cbc 962f 383e 3613 68be e8ae 553d
00000080: 7439 953d 3331 00be aaff 5c3e ebaa 97be
00000090: d942 90be cc24 d73d e5ea 9bbe 0c83 c33d
000000a0: 7717 913c be35 b8bd cd03 b4be 88d5 18be
000000b0: dc5f 30be c8ed 173e b6dd 96bd 1e21 70be
000000c0: c4fd a33e 546f 633c b0c5 40bd 1c0e 27be
000000d0: 7013 2d3d 724a 2bbe d0e4 f13d c027 ea3b
000000e0: a6b7 653e 8800 eabd d8b3 ed3d 9477 d23d
000000f0: 41a8 4f3d c0c4 b73e 95dd a6bd df1c 9dbe
00000100: 3b71 4b3e a379 4a3e b2f2 99be 2a5c 01bf
00000110: 152f 193e 3f25 18be 1204 8abd 44a9 e83d
00000120: 20c3 e53c 50ad 733d b48f 243e c0ae 243c
00000130: 1c30 65be 9821 313d e020 09bd 306f e03c
00000140: 5284 4cbe a0dd 823d ae21 423e fabd 563e
00000150: c070 fd3c 8509 803e cd58 8c3e 6240 40be
00000160: b0aa 42be 0017 ad3a 608e 6ebc dc1e 8f3e
00000170: 07a1 52be af65 16be 2089 85bd 7519 a73e
00000180: 4d70 57be 57ef 25be 5e27 203e 0fdd a33d
00000190: 225e 6cbe 88ce f83d 7d0d 963e a01f 023c
000001a0: b030 743d 2889 3a3e f094 c0bd e001 813c
000001b0: 627b 84be 407c 033e 404c 12bd e4c6 72be
000001c0: 28b0 40bd a61b 6cbe 50af d83c 3db6 a03e
000001d0: e07b c13d 2098 043e a2aa 9ebe 7e4b 8abe
000001e0: 75aa 1b3e 68ef 153d a2a4 ba3e e13d 433d
000001f0: d6cd 9c3e 7c85 3abe 48cc 593e b0f4 4b3e
00000200: 96a3 453e a5eb 0fbd c406 b73c a692 ccbd
00000210: 848c fa3e ceb2 703e a8bd 80be cf86 723c
00000220: 1710 c83c 3e56 753c eba9 eebd 07da e83c
00000230: a48b ea3d 4bb3 d6be 415b 203f 0383 56be
00000240: a9ad 47bd c0af afbe e849 f23d 940b 1f3e
00000250: 0d3e 2a3e e962 e4bd e13a 973d 72fc 31bd
00000260: 5160 1bbd 076d 5bbe c7de e63d c164 b03e
00000270: 96f3 7fbd 8d9a 35be 86d3 973e 16d0 08ba
00000280: 9bae 31be 3cda 973d 7275 403e 0010 eb3c
00000290: 6060 9bbd 94df bc3d b0e9 383e 94e1 e93d
000002a0: e0e8 14bd 5627 173e 768f 46be 509d afbd
000002b0: e847 2e3d b85c 54be 2f9e 8e3e 902b 063d
000002c0: 8ead 603e 60a0 883d 0e7e 583e a1f2 0bbe
000002d0: a46f c63d ae08 323e 3f5f 99bd 181b 94be
000002e0: 240a 3d3e ee04 803e 0b57 20be 1028 44be
000002f0: 7919 cbbd b6f3 3dbd 5eff 143e 6ebb 1bbd
00000300: eba6 ee3e a774 ff3d 503a 2bbe 9157 83be
00000310: 466c 6f3e 5312 813e 9dda 19be adb6 6b3c
00000320: 597e 7a3d 9760 033c 223f f13d 49b2 c43d
00000330: 6008 793e 83c0 763e da18 8f3d 25ff 323e
00000340: a2f3 243e ed4b 5abe 10f2 ffbc f203 133f
00000350: 6742 6ebf cc6b 9bbe 3891 d73c c3e6 de3d
00000360: 0c9a 3d3d d415 5ebe 31d7 343e d0cd c63d
00000370: 87ef 663d 0860 263e 7845 983e cea3 16bd
00000380: 82ae 76bd 0de4 7e3e 7bea 74bd 0fce 75be
00000390: 7bbb c7bd ce8c eebd 49ed 90be 1553 62be
000003a0: cdef 04be ff13 963e b64b 523e 88d0 39bd
000003b0: ac3f 93be aef0 093e 846b 0f3e 56b9 4c3e
000003c0: 0b4d 48be 105c 49bd aa95 f3bd c064 313e
000003d0: d00d 0a3d dce8 2f3e 0309 843e a316 8a3e
000003e0: f043 133d 48ee 8fbe 8e7d 03be 0415 173e
000003f0: 3844 373d 4f8d 8dbe 16ee 253e 103c cc3c
0.0980619 -0.34356123 0.16191143 0.12639812 -0.010453524 0.16351852 0.24416777 0.12829325
-0.09454414 0.21022227 0.12099205 0.46996635 -0.69026494 0.22646715 -0.2871414 0.14911558
-0.22579372 -0.6983163 0.29990602 0.09813339 -0.040564984 0.25536916 -0.216699 0.2584733
-0.23447396 -0.14573322 -0.31611502 -0.15838496 -0.010510504 0.17986903 -0.22663578 0.052168757
0.07286349 -0.12518768 0.21581903 -0.29622588 -0.28176 0.10505065 -0.30452648 0.095464796
0.017711384 -0.089946255 -0.3515915 -0.14925206 -0.17224067 0.148368 -0.07366507 -0.23450133
0.32029545 0.013881523 -0.04706353 -0.16313976 0.042254865 -0.16727617 0.11811221 0.007145852
0.22433338 -0.114258826 0.11606568 0.10276714 0.05069757 0.35892296 -0.08147732 -0.3068609
0.19867413 0.19772963 -0.30067974 -0.50531256 0.14959367 -0.14857958 -0.067390576 0.1136041
0.028047144 0.059491456 0.16070443 0.010051429 -0.22381634 0.043244928 -0.033478618 0.027396768
-0.19972351 0.06389928 0.1895816 0.20970908 0.030937552 0.25007263 0.274115 -0.1877456
-0.19010425 0.0013205707 -0.014560312 0.2795323 -0.2056924 -0.14687227 -0.06520295 0.3263661
-0.21038933 -0.16204582 0.15640017 0.08001148 -0.23082784 0.12148768 0.29307166 0.00794211
0.059616745 0.18216383 -0.094034076 0.015747964 -0.25875384 0.12840366 -0.03571725 -0.23708683
-0.047042996 -0.23057422 0.026450783 0.31389037 0.094474554 0.12948656 -0.30989558 -0.2701072
0.15201743 0.03660527 0.3645373 0.047666434 0.3062579 -0.18214983 0.21269333 0.1991756
0.19300684 -0.035136838 0.022342093 -0.099889085 0.4893533 0.23505709 -0.25144696 0.014802649
0.024421735 0.014974175 -0.11653503 0.028424276 0.114524156 -0.41933665 0.6263924 -0.20948415
-0.0487496 -0.34313774 0.11830503 0.1553176 0.16625233 -0.11151678 0.07384277 -0.04345364
-0.03793365 -0.2142831 0.1127296 0.3445187 -0.06248816 -0.17734738 0.29653567 -0.00052189955
-0.17351763 0.07414672 0.18794802 0.028694153 -0.075867414 0.09222332 0.18057895 0.11419979
-0.0363549 0.14761099 -0.19390664 -0.08574927 0.042549044 -0.20738494 0.2785506 0.03275639
0.21941206 0.06671214 0.21141836 -0.13666774 0.096892625 0.17386124 -0.0748887 -0.2892692
0.184609 0.2500376 -0.15658204 -0.19155908 -0.09916968 -0.046375 0.1455054 -0.038020544
0.46611723 0.124734215 -0.16721463 -0.25652745 0.23381147 0.25209293 -0.150248 0.014386815
0.06115565 0.008018634 0.1177962 0.09604318 0.24319601 0.24096875 0.06987162 0.17480142
0.16108564 -0.21318026 -0.031243354 0.57427895 -0.9307007 -0.3035568 0.026314363 0.10883858
0.04628949 -0.21688014 0.17660214 0.09707224 0.056380775 0.1624757 0.297405 -0.03677731
-0.060225017 0.24891682 -0.05979393 -0.24004386 -0.09752556 -0.1164795 -0.28306034 -0.22102006
-0.12982102 0.2931213 0.20536694 -0.045364887 -0.28759515 0.13470718 0.14005858 0.19992575
-0.1956064 -0.049160063 -0.118937805 0.1732359 0.03370458 0.17178673 0.25788125 0.26970395
0.035953462 -0.28111482 -0.12840864 0.1475411 0.044742793 -0.27646872 0.16204104 0.024930984

net.0.bias f4 [128]
00000000: b5de 233e 68c0 40be 5ab6 433e f21b 95be
00000010: 9dcb 63bd e039 323e f0cb 853d 1c6a 83be
00000020: d88f ee3d 30cb 67bc 143b eb3d f0a6 413d
00000030: 5292 38be 23fb 003e 9096 74bd b276 103e
00000040: 0e9f 0d3e 083a 80be 1c0d f8bd 0bc9 513e
00000050: d830 1cbe 7618 1b3e 4171 783d c728 9d3e
00000060: dc7c e83d 80f9 71bd 2f05 873e 409e 4b3e
00000070: 49c3 b9bc 78b0 f73d 7d6a 993e 44ed 05be
00000080: 0459 1abe 202b 143e d1d5 a1be 1ead 0e3e
00000090: 0496 cf3d d540 763e 4a48 47be a98e 24bd
000000a0: b413 1e3e fabd fcbd 3a2c 1a3e 6a09 32be
000000b0: f02b 13be c473 a1be 0177 80bd b396 90be
000000c0: b8f1 30bd a04c 4a3c 221c 463e 808a 893e
000000d0: 6d18 91be 5e66 34be afdf 89be 8137 96be
000000e0: 802f c63c f273 ba3d ded5 1d3e 8832 90be
000000f0: f2d9 1b3e 20c1 97be 79e8 08be 8031 ac3c
00000100: 77ee 9e3e 48a9 933e 08d6 d03d bde8 20be
00000110: ee35 8e3c c435 07be 9cd0 203e 3748 913e
00000120: 6c5c c23d ca62 3fbe 2aa8 1bbd 82bb 18be
00000130: 0abb 7c3e 4036 a3bd 76f0 473e cbf4 293e
00000140: 22d3 49be ba0a 64be 9d65 9dbe 1bad 843e
00000150: 96a8 93bc de76 053e 2219 87be 5a05 0dbe
00000160: 54af 59bd 77b2 a5be 0c78 4cbe f081 b9bd
00000170: 53c7 a13e 6384 5cbe 153a edbd f8ff 3c3d
00000180: 662b 47bd ab89 9e3e 9ad7 25be d469 373e
00000190: 2243 3f3e 8643 483e 541e 9cbd be43 373d
000001a0: 79dc c3bd 014d 33be 67e6 7bbd 0006 4ebd
000001b0: c268 b2bd 5449 143e ce16 073e b8d2 b6bd
000001c0: e4fd 81bd 3dad 19bd b36f 3dbd 3d9b 2f3e
000001d0: b454 b0bd 99a7 603e cad9 4ebe f441 e13d
000001e0: 94a0 823d a0b2 ab3c 867c 7f3e b88a 573e
000001f0: 5873 213e 3856 45bd 7906 80be fe2d 88bd
0.16002925 -0.18823397 0.1911253 -0.29122883 -0.055614103 0.1740489 0.065330386 -0.25666893
0.1164853 -0.014147565 0.11485878 0.047278345 -0.18024567 0.12595801 -0.0597139 0.14107779
0.13830206 -0.25044274 -0.121118754 0.20486848 -0.15253007 0.1514605 0.060654882 0.30695173
0.1135194 -0.059075832 0.26371142 0.19884586 -0.022676127 0.120942056 0.29964057 -0.13078791
-0.1507302 0.14469576 -0.3160844 0.13933226 0.10136035 0.24048169 -0.1946117 -0.040175114
0.15437204 -0.12340923 0.15055934 -0.17386404 -0.1437223 -0.31533635 -0.06272698 -0.28239974
-0.04319927 0.01234737 0.1934667 0.2686348 -0.28338948 -0.17617175 -0.2692847 -0.2933922
0.024192572 0.09104146 0.15413615 -0.28163552 0.15219858 -0.2963953 -0.13369931 0.021019697
0.3104131 0.2884009 0.10197073 -0.15713783 0.0173597 -0.13204104 0.15704578 0.28375408
0.09490284 -0.18690029 -0.03800217 -0.14915279 0.24680725 -0.07969332 0.19525322 0.16597287
-0.19709447 -0.22269717 -0.30741587 0.2591332 -0.018024724 0.13033625 -0.26386362 -0.13771573
-0.05314572 -0.3236272 -0.19967669 -0.09057987 0.31597385 -0.21534877 -0.11583344 0.04614255
-0.048625372 0.30964407 -0.16195527 0.17911464 0.18677953 0.19557008 -0.07622972 0.04474234
-0.09563536 -0.17509843 -0.061499026 -0.05029869 -0.08711387 0.14481097 0.13192293 -0.0892691
-0.06347254 -0.03751873 -0.046249103 0.17149062 -0.08609906 0.21938933 -0.20200267 0.10998908
0.06378284 0.020959198 0.24949846 0.21049011 0.15766656 -0.048177928 -0.25004938 -0.06649397

net.2.weight f4 [128]
00000000: 0059 7a3f 50f4 823f 0000 803f 0000 803f
00000010: d02c 7b3f 0000 803f 2a8d 773f 0000 803f
00000020: 0000 803f c182 853f 0000 803f 0000 803f
00000030: 5b93 733f f6fe 733f 13a6 763f 5f45 7a3f
00000040: 0000 803f 0000 803f bf64 743f c2e3 7b3f
00000050: 0412 773f bd63 a63f cbbf 763f 0000 803f
00000060: 0000 803f 0000 803f 0000 803f 792b 663f
00000070: 216b 7b3f 836d 783f 0000 803f 0000 803f
00000080: 0000 803f 0000 803f f9c6 733f 0000 803f
00000090: 0000 803f 9b24 7c3f d94f 7e3f e49e 743f
000000a0: 0000 803f 0000 803f 0000 803f 0000 803f
000000b0: 0000 803f 0000 803f e7b8 823f 12d2 7e3f
000000c0: bb4a 803f 0000 803f 5ef5 7f3f b69b 703f
000000d0: 05f4 673f 4817 833f 0000 803f 0000 803f
000000e0: 0000 803f 651a 7b3f 93b8 803f 0000 803f
000000f0: 0000 803f 0000 803f 0000 803f 0000 803f
00000100: 5f7a 753f 5750 783f 0000 803f 9e3c 7b3f
00000110: ab96 733f 0000 803f f089 7d3f 285f 743f
00000120: 0000 803f 0000 803f 692f 6a3f 0000 803f
00000130: a506 813f f6fc 7f3f 0000 803f 3550 7a3f
00000140: 0000 803f 0000 803f 0000 803f 9df0 703f
00000150: d292 863f 8ee9 773f 0000 803f 0000 803f
00000160: 787d 773f cea7 783f 0000 803f 0000 803f
00000170: 0000 803f 0000 803f d657 853f 0000 803f
00000180: df33 6c3f 0000 803f 0000 803f 0000 803f
00000190: 0000 803f e692 823f 0000 803f 1c42 713f
000001a0: 2c2c 893f 0000 803f ed02 7f3f 0000 803f
000001b0: 0000 803f 1c3c 873f 0000 803f 0000 803f
000001c0: 0000 803f 76a3 783f 02ba 7d3f 734d 803f
000001d0: 0000 803f 2a24 7c3f 0000 803f 0000 803f
000001e0: 0000 803f b3b2 763f 0000 803f af0b 803f
000001f0: 0000 803f 0000 803f 0000 803f 7517 763f
0.97792053 1.0230808 1.0 1.0 0.98115253 1.0 0.96699774 1.0
1.0 1.0430528 1.0 1.0 0.9514672 0.95310915 0.9634716 0.977621
1.0 1.0 0.95466226 0.98394406 0.96511865 1.2999188 0.963864 1.0
1.0 1.0 1.0 0.89910084 0.9821034 0.970421 1.0 1.0
1.0 1.0 0.95225483 1.0 1.0 0.98493356 0.9934059 0.9555495
1.0 1.0 1.0 1.0 1.0 1.0 1.0212678 0.9953929
1.0022806 1.0 0.99983776 0.93987596 0.9060672 1.024148 1.0 1.0
1.0 0.9808715 1.0056328 1.0 1.0 1.0 1.0 1.0
0.9588985 0.9699759 1.0 0.9813937 0.95151776 1.0 0.990386 0.95457697
1.0 1.0 0.9147859 1.0 1.0080153 0.9999536 1.0 0.97778636
1.0 1.0 1.0 0.94117147 1.0513556 0.9684075 1.0 1.0
0.96675825 0.9713105 1.0 1.0 1.0 1.0 1.041743 1.0
0.9226665 1.0 1.0 1.0 1.0 1.020108 1.0 0.942415
1.0716605 1.0 0.9961384 1.0 1.0 1.0565219 1.0 1.0
1.0 0.9712442 0.9911195 1.0023636 1.0 0.9849268 1.0 1.0
1.0 0.96366423 1.0 1.0003566 1.0 1.0 1.0 0.9612954

net.2.bias f4 [128]
00000000: 1ac5 213c 2950 2cbd 4fec 4d3b c573 6b3c
00000010: 59a1 02bd fb92 f1bb e924 293b 443b 463c
00000020: 900c 913c 7a21 d3bc 8c6f ab39 de00 d8b8
00000030: 70de ad3b 230c a33c 5606 0d3c f99c 09bd
00000040: 06f3 8e3c 8857 86bc e140 15bd 2a71 443c
00000050: d901 05bd 261e c43c a687 9c3c 7f8b 863c
00000060: a3e0 7ebc b211 3739 f39b 5dbc e148 e9bc
00000070: 9906 d0bb faa9 ecbc e561 573c e002 8cbb
00000080: fca5 25bc 5728 553c 9749 0cbd 19d9 b237
00000090: 7630 75bc b357 333c 1f6f 443c c9df 0d3b
000000a0: 557e 0cbc 6e14 823c 12f9 5aba f8b1 663b
000000b0: b3f1 b0ba fd37 b83b 7a0d 973c 9ae9 353c
000000c0: 72e1 ab3c f704 6c3c d39d 2f3c 28aa 00bd
000000d0: 650d a83b b1ac a63c 2197 88bc eaed 0838
000000e0: 98f2 90bc e1a2 05bd d3ba 09bd 2e96 87bc
000000f0: a60a 323b 59c7 873c 9012 8fbc fc84 1f3c
00000100: a4d5 bc3c d51d 12bd 3272 e338 e216 823c
00000110: 09f6 b5bb fcf5 30bc 6ad5 edbc cba7 5a3b
00000120: dec7 743c f8ce 38bc 8eb6 09bd dc0b 37bc
00000130: 44b6 3b3c 6a37 2cbd 74b3 7bbc 8909 0fbd
00000140: 0209 70bb 0c96 7a3c 7427 5d3c af71 07bd
00000150: c79f cdbc cafb ab3b 6492 e33b e27b 76bb
00000160: 032d 5ebd f668 3ebd 448d 04bc f319 743c
00000170: 3b17 0aba 486f dd39 db0b 08bd 44ea 83bc
00000180: e42b cfbc 02e6 063c 91d2 3ebc 9612 8e3c
00000190: 2f2f 8f3c a221 293c 877b 87bc eee4 c7bb
000001a0: 2c37 b93c 6af6 7cbc f8c6 833c 4af7 7d3c
000001b0: 9cba 863c 2158 0abd 2f9f 52bc e2a3 053c
000001c0: 7390 25bc 6682 313c f727 b83c 8b88 29bd
000001d0: 6280 853c 71d8 4c3c af1a 8fbc 32eb 443c
000001e0: 4721 67bb 838f f8bc 31a6 87bc cdfd 1ebd
000001f0: e136 91bc de7a 26bc 147e 543c 4659 7e3c
0.009873653 -0.042068634 0.0031421368 0.014370863 -0.031892154 -0.0073722578 0.0025809354 0.012099091
0.017706186 -0.025772799 0.0003269877 -0.00010299844 0.0053060576 0.019903248 0.008607468 -0.033596966
0.017449867 -0.01639916 -0.036438826 0.011989871 -0.032472465 0.023940157 0.019107651 0.016423939
-0.015556487 0.00017458832 -0.013525951 -0.028477134 -0.0063484428 -0.028889645 0.0131458985 -0.0042728037
-0.010110375 0.013010106 -0.03424987 2.1320348e-05 -0.014965167 0.010946202 0.011989384 0.002164828
-0.008575042 0.015878882 -0.00083531544 0.0035201292 -0.0013499766 0.0056219087 0.018439043 0.011103058
0.020981524 0.014405481 0.010718781 -0.031412274 0.00512855 0.020346018 -0.016673626 3.26465e-05
-0.017693803 -0.032626037 -0.033625435 -0.016551103 0.0027166991 0.016574549 -0.017464906 0.009736296
0.02305109 -0.03567298 0.00010845474 0.015880052 -0.0055530113 -0.010800835 -0.029032428 0.0033364173
0.01494023 -0.011279814 -0.033621363 -0.011172261 0.01145703 -0.042045034 -0.015362609 -0.034921203
-0.0036626463 0.015294563 0.013498176 -0.0330674 -0.025100602 0.0052485215 0.0069449414 -0.003761046
-0.054242145 -0.046486817 -0.008090321 0.014898765 -0.0005267744 0.00042235316 -0.03321443 -0.016102917
-0.025289483 0.008233549 -0.011646883 0.017342847 0.017478554 0.01032296 -0.016538395 -0.0061002886
0.022609316 -0.015439609 0.016086087 0.015500853 0.016446404 -0.033775453 -0.012855335 0.0081567485
-0.01010524 0.010834312 0.022479994 -0.041389983 0.01629657 0.0125027755 -0.017468778 0.012018966
-0.0035267638 -0.03034187 -0.016558738 -0.038816262 -0.017726364 -0.01016113 0.0129695125 0.015524214

net.2.running_mean f4 [128]
00000000: b088 4543 d233 9143 0000 0000 0000 0000
00000010: ee0d a342 0000 0000 3ca0 e042 0000 0000
00000020: 0000 0000 fbee 0542 0000 0000 0000 0000
00000030: 2a62 9b43 9343 8c41 edf9 6143 2151 3043
00000040: 0000 0000 0000 0000 f481 2b43 c085 7543
00000050: 7cb8 e642 9ce3 7941 95b1 9342 0000 0000
00000060: 0000 0000 0000 0000 0000 0000 0cb8 e842
00000070: d4b0 e543 f063 2242 0000 0000 0000 0000
00000080: 0000 0000 0000 0000 0eba 9443 0000 0000
00000090: 0000 0000 84f9 8f43 ffb6 8643 aedc 6c43
000000a0: 0000 0000 0000 0000 0000 0000 0000 0000
000000b0: 0000 0000 0000 0000 0c52 8d43 b1d1 ac43
000000c0: b26e 6e43 0000 0000 1aa9 d343 87e1 ad43
000000d0: 0a6c ef43 9ef9 c241 0000 0000 0000 0000
000000e0: 0000 0000 314d f543 f88f 9443 0000 0000
000000f0: 0000 0000 0000 0000 0000 0000 0000 0000
00000100: e00e 7442 7f99 0244 0000 0000 d6cc 9743
00000110: 867d af43 0000 0000 c51e ad42 c4cb cf43
00000120: 0000 0000 0000 0000 2d62 5f43 0000 0000
00000130: 02a2 cf43 2930 5443 0000 0000 f7a8 4543
00000140: 0000 0000 0000 0000 0000 0000 0614 6743
00000150: 68ec e741 6713 4843 0000 0000 0000 0000
00000160: 2ea3 0a44 d474 9943 0000 0000 0000 0000
00000170: 0000 0000 0000 0000 f7ea b83f 0000 0000
00000180: 16fe 5942 0000 0000 0000 0000 0000 0000
00000190: 0000 0000 9d31 1343 0000 0000 24c6 d243
000001a0: bc8c 8742 0000 0000 af59 7343 0000 0000
000001b0: 0000 0000 bb2c ef40 0000 0000 0000 0000
000001c0: 0000 0000 1837 e643 0093 9242 c844 d743
000001d0: 0000 0000 4a8c b243 0000 0000 0000 0000
000001e0: 0000 0000 92ca aa42 0000 0000 0b1d 0743
000001f0: 0000 0000 0000 0000 0000 0000 66b9 a342
197.53394 290.40485 0.0 0.0 81.52721 0.0 112.31296 0.0
0.0 33.48338 0.0 0.0 310.7669 17.532995 225.97627 176.31691
0.0 0.0 171.50763 245.52246 115.36032 15.618069 73.84684 0.0
0.0 0.0 0.0 116.35947 459.38147 40.597595 0.0 0.0
0.0 0.0 297.45355 0.0 0.0 287.94934 269.42966 236.86203
0.0 0.0 0.0 0.0 0.0 0.0 282.641 345.6382
238.4324 0.0 423.3211 347.76193 478.84406 24.371883 0.0 0.0
0.0 490.60306 297.12476 0.0 0.0 0.0 0.0 0.0
61.014526 522.3984 0.0 303.60028 350.98065 0.0 86.5601 415.59192
0.0 0.0 223.3835 0.0 415.2657 212.18813 0.0 197.66002
0.0 0.0 0.0 231.07822 28.990433 200.07579 0.0 0.0
554.5497 306.91272 0.0 0.0 0.0 0.0 1.4446706 0.0
54.49813 0.0 0.0 0.0 0.0 147.1938 0.0 421.54797
67.77487 0.0 243.35033 0.0 0.0 7.4742103 0.0 0.0
0.0 460.43042 73.28711 430.53735 0.0 357.096 0.0 0.0
0.0 85.395645 0.0 135.11345 0.0 0.0 0.0 81.86211

net.2.running_var f4 [128]
00000000: e278 f442 9e51 9644 cabf 3d3e cabf 3d3e
00000010: 198d 3044 cabf 3d3e 4bd0 e142 cabf 3d3e
00000020: cabf 3d3e faa0 ab43 cabf 3d3e cabf 3d3e
00000030: 379d 9743 8306 8642 87e2 f342 7aa5 2044
00000040: cabf 3d3e cabf 3d3e 533f 8642 ee58 1f43
00000050: 5844 9742 6dfb bd42 9959 3d43 cabf 3d3e
00000060: cabf 3d3e cabf 3d3e cabf 3d3e c405 1944
00000070: 985e ee43 2514 6742 cabf 3d3e cabf 3d3e
00000080: cabf 3d3e cabf 3d3e d870 8843 cabf 3d3e
00000090: cabf 3d3e eaf8 a442 7072 2844 df1b 9443
000000a0: cabf 3d3e cabf 3d3e cabf 3d3e cabf 3d3e
000000b0: cabf 3d3e cabf 3d3e c2ea fc44 45de 9f43
000000c0: 5580 0f45 cabf 3d3e e25f fc42 d624 aa43
000000d0: 1dfa e044 d296 e043 cabf 3d3e cabf 3d3e
000000e0: cabf 3d3e fca5 8942 5652 9743 cabf 3d3e
000000f0: cabf 3d3e cabf 3d3e cabf 3d3e cabf 3d3e
00000100: 802a 0344 ac58 f642 cabf 3d3e 8e8b 6443
00000110: 8c8c d543 cabf 3d3e ceaa 3d43 da6f 4a43
00000120: cabf 3d3e cabf 3d3e b0b6 8143 cabf 3d3e
00000130: 4362 7943 d13d c544 cabf 3d3e 67be 8a43
00000140: cabf 3d3e cabf 3d3e cabf 3d3e c422 4d44
00000150: 4e78 a343 dcf7 0f43 cabf 3d3e cabf 3d3e
00000160: 824b 1f44 7133 8942 cabf 3d3e cabf 3d3e
00000170: cabf 3d3e cabf 3d3e abd8 5641 cabf 3d3e
00000180: 6df2 c543 cabf 3d3e cabf 3d3e cabf 3d3e
00000190: cabf 3d3e 1e0c e441 cabf 3d3e ac51 9e44
000001a0: 1cdc 9343 cabf 3d3e d812 9243 cabf 3d3e
000001b0: cabf 3d3e b435 8243 cabf 3d3e cabf 3d3e
000001c0: cabf 3d3e 28e0 1341 d797 b443 bff5 1c43
000001d0: cabf 3d3e fa57 5944 cabf 3d3e cabf 3d3e
000001e0: cabf 3d3e 8b7e ba40 cabf 3d3e 672f 1c44
000001f0: cabf 3d3e cabf 3d3e cabf 3d3e 8bde d742
122.2361 1202.5505 0.18530193 0.18530193 706.20465 0.18530193 112.90682 0.18530193
0.18530193 343.25763 0.18530193 0.18530193 303.22824 67.01272 121.94244 642.5856
0.18530193 0.18530193 67.12368 159.34738 75.633484 94.991066 189.34999 0.18530193
0.18530193 0.18530193 0.18530193 612.0901 476.739 57.769672 0.18530193 0.18530193
0.18530193 0.18530193 272.8816 0.18530193 0.18530193 82.48616 673.7881 296.21774
0.18530193 0.18530193 0.18530193 0.18530193 0.18530193 0.18530193 2023.3362 319.73648
2296.0208 0.18530193 126.18727 340.28778 1799.816 449.17828 0.18530193 0.18530193
0.18530193 68.82419 302.64325 0.18530193 0.18530193 0.18530193 0.18530193 0.18530193
524.66406 123.17319 0.18530193 228.54514 427.09802 0.18530193 189.6672 202.43692
0.18530193 0.18530193 259.42725 0.18530193 249.38383 1577.9318 0.18530193 277.48752
0.18530193 0.18530193 0.18530193 820.5432 326.93988 143.9682 0.18530193 0.18530193
637.1798 68.60047 0.18530193 0.18530193 0.18530193 0.18530193 13.427897 0.18530193
395.89395 0.18530193 0.18530193 0.18530193 0.18530193 28.505917 0.18530193 1266.5522
295.7196 0.18530193 292.14722 0.18530193 0.18530193 260.41956 0.18530193 0.18530193
0.18530193 9.242226 361.18625 156.95995 0.18530193 869.37463 0.18530193 0.18530193
0.18530193 5.827947 0.18530193 624.74066 0.18530193 0.18530193 0.18530193 107.934654

net.3.weight f4 [1, 128]
00000000: 6c82 dbbc f42b 213d 75d6 8ebb 348c 32bd
00000010: 7276 563c 80d8 593c 6e70 a93b fa1c f7bc
00000020: e2fc a1bd 96c4 ad3d 8f02 b5b9 d2ad d638
00000030: ea28 b1bc e2fd 05bc 570f 65bc 8e49 c73c
00000040: 20fd 99bd 42e8 7c3d d1a9 5d3b 18e3 bebc
00000050: d3f3 8bbc 4549 733e 0368 ea3b db0a 7ebd
00000060: 37fe 593d 3e40 3ab9 7285 1b3d df25 aeba
00000070: e506 4cbc 7a58 0d3d 2540 12bd dcf2 d03b
00000080: 906d b23c ed14 0fbd 9b9a 3c3d c9af acb7
00000090: 781e 453d 337a 49bd a22f 9fbc 3a6b d8bb
000000a0: 70a6 883c ea8d 66bd a720 7a3a 4c14 a4bb
000000b0: c495 d53a 7150 15bc 3288 82bd 8541 7cbd
000000c0: c62a a8bd b291 33bd 5e64 33bd 91fa 42bc
000000d0: 3470 bcbb 29af b8bd 83f0 843d 206c 04b8
000000e0: 8596 a13d 5c54 943d cb09 883d 50fd 813d
000000f0: 6cdb 6fbb ff8b 82bd 7a71 9a3d db7c a7bc
00000100: 3aec 63bc 5aa0 203d 2480 e2b8 2345 72bd
00000110: 9d07 4f39 f61c c83c 8108 843d ad5b 98bc
00000120: 374b 44bd 966c d83c c194 953a 01aa d43c
00000130: f94a 45bd e2ab aa3c 79db 523d b5f0 333d
00000140: 4d4f ac3b 776c 50bd 7bd2 1abd fbbf f43c
00000150: 466f bf3d 6c13 f03b b9e5 47bc fa0f b23b
00000160: bee3 cb3b bae3 8f3b 1205 7a3c b0ee 42bd
00000170: 4125 173a e823 eeb9 549e 463d 21d8 6f3d
00000180: 82e8 1cbb 5761 80bc bfb5 e53c 29d1 96bd
00000190: 76da 9abd d9d8 27bd faaf 813d 7a92 dabb
000001a0: 6ebe 07be f3a7 553d 10fb 56bd 18ea 57bd
000001b0: c813 7fbd aad4 b73d 908e 0b3d 0c22 7dbc
000001c0: 5546 b23c 9a5d 36bd d789 54bd fa15 e6bc
000001d0: f046 78bd 7dd9 7bbd 168f 9a3d faf0 f3bc
000001e0: ac75 a43b 0e31 ce3c 562b 823d 0663 973c
000001f0: b6a4 a23d 68f4 b33c b425 0ebd 1844 08bd
-0.026795588 0.039348558 -0.0043590614 -0.04359074 0.013089763 0.0132962465 0.0051708734 -0.030165184
-0.07909562 0.084847614 -0.00034524917 0.00010236692 -0.021625955 -0.008178206 -0.013980708 0.024327066
-0.07518983 0.061744936 0.0033823142 -0.023301646 -0.017084038 0.23758419 0.0071535124 -0.06202207
0.053220954 -0.00017762274 0.03796906 -0.0013286433 -0.012452816 0.034508206 -0.035705704 0.0063766073
0.02178076 -0.034932066 0.04604588 -2.0585854e-05 0.04812476 -0.049188804 -0.019431893 -0.0066045793
0.016680926 -0.056287684 0.0009541609 -0.0050073024 0.0016295244 -0.009113417 -0.063736334 -0.06158592
-0.082112834 -0.043840118 -0.04379689 -0.01190056 -0.0057506803 -0.09017784 0.064911865 -3.157195e-05
0.078900374 0.07242653 0.06642493 0.06347144 -0.0036599291 -0.063743584 0.07541175 -0.020445278
-0.013911301 0.039215423 -0.00010800388 -0.059147965 0.00019743895 0.024427872 0.064469345 -0.018598402
-0.047923293 0.026418965 0.001141213 0.02595997 -0.048167203 0.020833913 0.051478837 0.043930728
0.005258477 -0.05088469 -0.037798386 0.0298767 0.093473956 0.007326534 -0.012200766 0.0054340335
0.0062222173 0.004391161 0.015259998 -0.04759091 0.0005765744 -0.0004542165 0.048490837 0.058555726
-0.0023942296 -0.015671415 0.028040765 -0.07364113 -0.07561199 -0.040978286 0.06332393 -0.0066702934
-0.13256237 0.052162122 -0.052485526 -0.052713484 -0.062274724 0.08976109 0.034071505 -0.015450012
0.021762053 -0.04452286 -0.051889267 -0.028086651 -0.060614526 -0.06148671 0.07546823 -0.029777993
0.0050189104 0.025169875 0.06355922 0.018479835 0.07941572 0.021967128 -0.034703925 -0.033268064
