saved_models/mlp/MLP_analcatdata_lawsuit.pth (torch, 8844 bytes, 7 tensors)

net.0.weight f4 [128, 4]
0.53797996 0.25620225 -0.16504729 -0.08314082 0.3284069 0.25156653 -0.09861864 0.46693227
-0.07130617 -0.30789906 -0.26395422 -0.11712968 0.3382464 0.22952586 0.4081452 -0.35007286
-0.12455344 -0.26199484 -0.28737092 -0.42040014 0.10895075 0.44170836 -0.39643592 -0.4341918
0.44299716 0.42677823 -0.4252492 0.03765712 0.123898566 -0.2292155 -0.2764166 -0.2553503
0.35499176 0.1542389 -0.10849769 -0.08602356 -0.39820135 -0.060247004 -0.29417175 0.33864462
-0.30943567 0.09228911 -0.09409215 0.36912397 0.11373327 0.33069292 -0.36195198 -0.064833984
0.39114088 0.045429163 0.31686345 0.2741769 -0.24967329 0.4540348 -0.20113327 -0.23153369
-0.3726871 -0.44603056 -0.48469412 0.11512959 0.39989024 0.14793268 0.07117643 0.4968493
-0.123305276 0.24283989 0.004332637 -0.3088717 0.17171629 0.29874152 -0.026371403 -0.30453685
0.22908998 0.4292975 0.52883387 -0.014707892 -0.49641973 -0.23850805 -0.2908771 -0.16422522
0.2366659 -0.092139244 -0.48815662 -0.43733227 0.32263333 -0.4783934 0.30495954 -0.21370758
-0.37465262 -0.39599442 -0.35359097 0.03464669 0.18469122 0.5817609 0.22236118 -0.4515514
0.012758149 -0.45893583 0.27243376 -0.51345104 0.40725172 -0.1687821 0.3420391 -0.39881787
-0.0576061 -0.21877062 -0.34037971 0.25432646 -0.05007951 0.5503173 0.22486559 0.07902149
0.41349307 0.5578357 -0.22874944 -0.31750602 0.2929594 -0.061860565 0.46126696 0.0006432923
0.0858006 -0.055898223 0.41979223 -0.4430356 0.4083506 0.1685899 0.30478606 0.17422777
-0.37006837 0.24055819 0.42209947 -0.008773347 -0.30914778 -0.08657056 -0.30062568 0.21752614
0.32141426 0.1677242 0.25596422 -0.010480092 -0.4649262 0.457433 -0.22466734 0.42181528
-0.047798872 -0.48605186 -0.46617883 -0.34246773 0.4337609 -0.08002932 -0.11731097 -0.018207075
0.15822667 -0.255772 -0.49195534 -0.22277886 -0.4273762 -0.28925335 -0.19345444 -0.09350228
0.386482 -0.40825725 -0.06261003 -0.10167302 -0.067328595 -0.22036004 0.46366444 -0.4572805
0.1909488 -0.07160107 -0.25647584 -0.20688462 0.47305238 -0.20224538 -0.17416185 0.31837848
-0.23639694 0.2609407 0.110879645 0.099435166 -0.36212566 0.2565669 -0.52059966 -0.14798667
0.3998159 0.27579695 -0.43565622 -0.5257987 0.28337944 -0.13892719 0.19611722 0.20862447
-0.3515718 -0.16388893 0.04665172 -0.05416888 0.02551186 -0.2955386 -0.1127733 0.27215827
-0.09952016 0.06918519 -0.19393772 0.22341415 0.051761925 -0.41298348 -0.053981483 0.28350085
0.25785193 -0.31865546 0.40779722 -0.20421247 0.31091893 -0.38262105 -0.4453985 0.19077814
0.38089588 0.12933923 0.2841002 -0.45931885 -0.19898427 -0.45130882 0.35007596 -0.3286332
0.36605912 0.122636944 0.41378903 0.21638532 -0.18013449 -0.14452088 0.4047441 -0.49001938
0.4120281 0.050984405 -0.26916724 0.2087003 0.41532162 -0.32899708 0.03950482 -0.35289642
0.09924932 0.29394156 -0.23248534 -0.061828732 -0.28525427 0.31288934 0.5106597 0.44735894
0.13744213 0.20427965 0.23413877 0.2980261 0.25716916 -0.4405312 0.48136148 0.39074323
00000000: 0eb9 093f f12c 833e 2802 29be bc45 aabd
00000010: f324 a83e 54cd 803e 92f8 c9bd bf11 ef3e
00000020: f808 92bd f2a4 9dbe 0225 87be b0e1 efbd
00000030: a22e ad3e d408 6b3e 68f8 d03e c03c b3be
00000040: e015 ffbd 3024 86be 4822 93be b03e d7be
00000050: 9221 df3d 9927 e23e a6f9 cabe 634e debe
00000060: 86d0 e23e ad82 da3e 43ba d9be 5a3e 1a3d
00000070: 88be fd3d 78b7 6abe 7a86 8dbe 46bd 82be
00000080: 7bc1 b53e cdf0 1d3e 0934 debd 1f2d b0bd
00000090: 0ce1 cbbe 90c5 76bd ae9d 96be d462 ad3e
000000a0: 5a6e 9ebe 1302 bd3d 63b3 c0bd d1fd bc3e
000000b0: fdec e83d 9550 a93e c551 b9be aec7 84bd
000000c0: 9e43 c83e ee13 3a3d ed3b a23e ea60 8c3e
000000d0: 5baa 7fbe 4077 e83e e1f5 4dbe 2b17 6dbe
000000e0: d8d0 bebe 1e5e e4be d429 f8be 10c9 eb3d
000000f0: 6abe cc3e aa7b 173e f3c4 913d 0863 fe3e
00000100: 7a87 fcbd 05ab 783e cbf8 8d3b 6e24 9ebe
00000110: 65d6 2f3e a6f4 983e d708 d8bc 41ec 9bbe
00000120: 9096 6a3e e2cc db3e a861 073f 5ff9 70bc
00000130: ba2a febe 743b 74be d8ed 94be a82a 28be
00000140: 8c58 723e 80b3 bcbd aaef f9be 04ea dfbe
00000150: 3230 a53e fbef f4be a823 9c3e 29d6 5abe
00000160: 78d2 bfbe c8bf cabe e009 b5be b0e9 0d3d
00000170: b21f 3d3e 48ee 143f a6b2 633e bf31 e7be
00000180: 8e07 513c a3f9 eabe 707c 8b3e 8771 03bf
00000190: 4c83 d03e 37d5 2cbe c01f af3e db31 ccbe
000001a0: 60f4 6bbd 6805 60be 4046 aebe 1437 823e
000001b0: 2c20 4dbd 98e1 0c3f 2a43 663e 05d6 a13d
000001c0: 5db5 d33e 52ce 0e3f 4b3d 6abe 2690 a2be
000001d0: c6fe 953e 8161 7dbd 2f2b ec3e 9ea2 283a
000001e0: 3ab8 af3d 89f5 64bd 02ef d63e 90d5 e2be
000001f0: 5413 d13e d5a2 2c3e eb0c 9c3e c468 323e
00000200: 9a79 bdbe e354 763e 6c1d d83e 16be 0fbc
00000210: 9e48 9ebe e84b b1bd 9ceb 99be 2cbf 5e3e
00000220: 6990 a43e e5bf 2b3e be0d 833e b1b4 2bbc
00000230: cf0a eebe a834 ea3e 320f 66be 2cf8 d73e
00000240: c0c8 43bd cadb f8be feae eebe ee57 afbe
00000250: e915 de3e 6ae6 a3bd bc40 f0bd 0127 95bc
00000260: 2c06 223e 8cf4 82be 92e1 fbbe 2420 64be
00000270: 0ed1 dabe 0419 94be ec18 46be 207e bfbd
00000280: f8e0 c53e 1807 d1be b039 80bd f239 d0bd
00000290: 93e3 89bd 10a6 61be 6d65 ed3e ab20 eabe
000002a0: 1588 433e 95a3 92bd cd50 83be 90d9 53be
000002b0: ec33 f23e 6a19 4fbe 7c57 32be 8102 a33e
000002c0: 0a12 72be 059a 853e de14 e33d aaa4 cb3d
000002d0: 8968 b9be bd5c 833e 0546 05bf d189 17be
000002e0: abb4 cc3e 4235 8d3e 550e dfbe be9a 06bf
000002f0: 1c17 913e ee42 0ebe f4d2 483e a7a1 553e
00000300: 3801 b4be 80d2 27be e015 3f3d 30e0 5dbd
00000310: 40fe d03c d650 97be b0f5 e6bd 5458 8b3e
00000320: 3ad1 cbbd f7b0 8d3d 9c97 46be aec6 643e
00000330: 5004 543d 9272 d3be b01b 5dbd 0627 913e
00000340: 2b05 843e cf26 a3be ccca d03e 131d 51be
00000350: c430 9f3e e8e6 c3be 460b e4be 585b 433e
00000360: c904 c33e 8171 043e 9575 913e d72b ebbe
00000370: 88c2 4bbe f311 e7be 283d b33e 9c42 a8be
00000380: 1a6c bb3e 1429 fb3d 28dc d33e 1d94 5d3e
00000390: 2d75 38be 48fd 13be 9e3a cf3e d2e3 fabe
000003a0: 59f5 d23e 06d5 503d 4ad0 89be 88b5 553e
000003b0: 09a5 d43e 4e72 a8be cecf 213d d7ae b4be
000003c0: 3a43 cb3d 827f 963e a310 6ebe 2040 7dbd
000003d0: d90c 92be 0833 a03e 98ba 023f 3b0c e53e
000003e0: a1bd 0c3e af2e 513e 13c2 6f3e e196 983e
000003f0: adab 833e 4e8d e1be 0375 f63e 7f0f c83e

net.0.bias f4 [128]
0.039604854 -0.33007658 0.012240529 0.25692344 -0.16068417 -0.07427084 -0.17859778 0.35993648
-0.34190005 -0.046889663 0.35767385 -0.31774068 0.16855118 0.30998108 0.39890558 0.2668651
-0.30609542 0.19972554 -0.048150387 -0.14535224 -0.4103312 0.34793398 0.405003 -0.089957446
0.23359476 -0.1899471 -0.36028093 0.19220345 0.097462304 0.19746308 -0.082352206 0.21153595
-0.19906044 -0.44424582 0.23746245 -0.4872356 0.48460078 0.4576087 -0.4794075 0.40414715
-0.14103295 0.19453605 -0.2610774 0.069171526 -0.2503791 -0.29814577 0.066479884 0.20978954
-0.02681315 0.15881187 -0.431593 -0.45669794 -0.37204686 -0.30119509 -0.12795885 0.38850927
-0.18370503 0.36248046 -0.36574814 0.32106695 0.01861128 -0.4345606 0.07388411 -0.38475928
0.028393865 0.07940266 -0.0011283335 -0.50713176 0.1205283 0.26200688 -0.3184276 0.15274185
0.017704442 0.4430358 0.09747782 -0.1264674 0.27531326 -0.036659896 0.40594652 -0.50236106
0.34947687 -0.06357461 -0.36736816 0.21828084 0.14418557 -0.3766002 0.20288873 -0.05431187
-0.49092245 0.16553006 -0.42898995 -0.18059212 -0.10148721 0.3903253 -0.10060602 -0.13450237
0.16845322 0.3118841 -0.2000748 -0.055588417 -0.4105883 -0.27087075 -0.05934647 -0.23462462
-0.041752122 0.45087236 0.18057466 -0.31214434 -0.4961137 -0.168387 -0.018856246 0.059111927
0.41392797 0.40447146 0.03636531 -0.018736593 0.4381797 -0.18287444 -0.11344088 0.12507844
0.2229691 -0.13468838 0.34871945 -0.12396111 0.20532818 -0.5230174 0.12042879 -0.0013576495
00000000: b338 223d ccff a8be 808c 483c 788b 833e
00000010: 648a 24be 4f1b 98bd 56e2 36be 9849 b83e
00000020: 860d afbe 600f 40bd 0721 b73e e8ae a2be
00000030: ae98 2c3e d7b5 9e3e 5a3d cc3e 8ba2 883e
00000040: 8ab8 9cbe da84 4c3e 5739 45bd 38d7 14be
00000050: ee16 d2be 6724 b23e 8e5c cf3e 9c3b b8bd
00000060: 7733 6f3e 7e81 42be be76 b8be fbd0 443e
00000070: 519a c73d c333 4a3e 46a8 a8bd e19c 583e
00000080: 80d6 4bbe 3074 e3be 5b29 733e f276 f9be
00000090: 981d f83e b04b ea3e e674 f5be 60ec ce3e
000000a0: f16a 10be 7534 473e f0ab 85be cda9 8d3d
000000b0: b031 80be 90a6 98be 9b26 883d 12d3 563e
000000c0: 40a7 dbbc 949f 223e c2f9 dcbe 50d4 e9be
000000d0: ed7c bebe 3e36 9abe a507 03be b0ea c63e
000000e0: 2c1d 3cbe 0a97 b93e 5743 bbbe e362 a43e
000000f0: af76 983c ba7e debe 8d50 973d 2bff c4be
00000100: 409a e83c dd9d a23d 97e4 93ba 63d3 01bf
00000110: 8bd7 f63d c425 863e f108 a3be 5c68 1c3e
00000120: e808 913c 97d5 e23e 74a2 c73d ac80 01be
00000130: dcf5 8c3e b028 16bd 39d8 cf3e bc9a 00bf
00000140: a2ee b23e 6833 82bd ae17 bcbe 0385 5f3e
00000150: 62a5 133e bed1 c0be 10c2 4f3e 2076 5ebd
00000160: 305a fbbe b680 293e 92a4 dbbe 24ed 38be
00000170: 87d8 cfbd b8d8 c73e 870a cebd fdba 09be
00000180: 007f 2c3e 46af 9f3e 69e0 4cbe aeb0 63bd
00000190: a138 d2be 92af 8abe 4915 73bd 7041 70be
000001a0: 4604 2bbd bed8 e63e 90e8 383e 62d1 9fbe
000001b0: 9d02 febe a46d 2cbe 6a78 9abc 591f 723d
000001c0: 5eee d33e e216 cf3e cbf3 143d 7c7d 99bc
000001d0: 1759 e03e 7043 3bbe b153 e8bd 9014 003e
000001e0: 0352 643e c0eb 09be 5b8b b23e 53df fdbd
000001f0: 8d41 523e 78e4 05bf 5fa3 f63d 28f3 b1ba

net.2.weight f4 [128]
1.1721115 1.153483 1.0 1.1629906 1.0 0.95610046 0.95176387 1.0
1.1221938 1.0 0.9630785 0.9526736 1.1167834 1.1195266 1.0 1.1302904
1.1894825 1.1118653 1.095702 1.0 1.0 0.9975027 1.0 1.0825921
1.002027 0.9723378 1.0 1.0985717 1.1015503 0.99408966 1.0213348 1.146449
1.0750352 1.0 1.2146884 0.96461594 1.0 0.96694285 1.0 1.0
0.9878734 0.9601292 0.97794384 1.0099815 0.97672623 0.9717131 0.9487761 1.0001237
1.0 1.0 0.96913713 1.0 0.9782991 1.0 1.1569074 1.1045072
0.96777534 1.0101571 0.953665 0.9806839 1.2722027 1.082125 1.1491044 1.0163897
1.0 1.1723434 1.0129815 1.0294269 1.0712383 1.0 0.95363027 1.0
1.0227513 1.0010943 1.1526799 1.0549477 1.0287696 1.0 1.0753951 0.97874105
0.98866636 1.0 0.9676487 1.1254247 1.0882454 1.0 1.0940478 1.0
1.1462632 1.104695 1.1411787 0.98248947 1.1112893 1.1526769 1.1437948 1.040515
1.0 0.96297485 1.1393645 1.1040995 1.0088867 0.9753738 1.1723984 1.0
1.0313337 1.0 1.0 1.0 0.976763 0.9557402 0.97097826 1.0831419
1.0814823 1.1139727 1.1029423 0.96725696 1.1280447 1.0 1.0993375 1.0
0.9627549 1.0320582 0.9910976 1.1336287 0.97157943 0.9655167 1.1166302 0.9830676
00000000: c007 963f 55a5 933f 0000 803f e0dc 943f
00000010: 0000 803f 00c3 743f cca6 733f 0000 803f
00000020: 0ca4 8f3f 0000 803f 508c 763f 6be2 733f
00000030: c2f2 8e3f a64c 8f3f 0000 803f 5bad 903f
00000040: f640 983f 9a51 8e3f f73f 8c3f 0000 803f
00000050: 0000 803f 565c 7f3f 0000 803f 6192 8a3f
00000060: 6c42 803f 21eb 783f 0000 803f ff9d 8c3f
00000070: 9aff 8c3f a97c 7e3f 19bb 823f d7be 923f
00000080: c19a 893f 0000 803f e97a 9b3f 12f1 763f
00000090: 0000 803f 9189 773f 0000 803f 0000 803f
000000a0: 45e5 7c3f 07cb 753f 875a 7a3f 1347 813f
000000b0: bb0a 7a3f 31c2 783f fee2 723f 0e04 803f
000000c0: 0000 803f 0000 803f 5f19 783f 0000 803f
000000d0: cf71 7a3f 0000 803f 8b15 943f 7e60 8d3f
000000e0: 20c0 773f d44c 813f 6423 743f 1a0e 7b3f
000000f0: 8ad7 a23f 1283 8a3f da15 933f 0f19 823f
00000100: 0000 803f 590f 963f 61a9 813f 43c4 833f
00000110: 561e 893f 0000 803f 1d21 743f 0000 803f
00000120: 84e9 823f dc23 803f 048b 933f 8708 873f
00000130: b9ae 833f 0000 803f 8ca6 893f c68e 7a3f
00000140: 3d19 7d3f 0000 803f d3b7 773f eb0d 903f
00000150: a04b 8b3f 0000 803f c209 8c3f 0000 803f
00000160: c1b8 923f a566 8d3f 2512 923f 6e84 7b3f
00000170: ba3e 8e3f eb8a 933f de67 923f 982f 853f
00000180: 0000 803f 8585 763f b2d6 913f 2253 8d3f
00000190: 3323 813f 19b2 793f 2711 963f 0000 803f
000001a0: be02 843f 0000 803f 0000 803f 0000 803f
000001b0: 240d 7a3f 64ab 743f 0892 783f 65a4 8a3f
000001c0: 036e 8a3f a896 8e3f 372d 8d3f 279e 773f
000001d0: c563 903f 0000 803f 17b7 8c3f 0000 803f
000001e0: 1b77 763f 7c1a 843f 93b8 7d3f bf1a 913f
000001f0: 6eb9 783f 1a2c 773f bded 8e3f 51aa 7b3f

net.2.bias f4 [128]
0.05174724 0.05487302 -0.065455854 0.050807122 0.0639102 -0.057525273 -0.05855015 0.06362191
0.056437682 0.07529545 -0.053148627 -0.05710527 0.053387 0.069530904 -0.062894315 0.055509638
0.06304562 0.0555283 0.054266892 0.075594336 0.06320674 -0.062172502 -0.072542734 0.05543176
0.057335965 -0.059316747 0.06446302 0.052988395 0.05660048 -0.06439913 0.04758258 0.053927965
0.05621921 0.06641081 0.051216837 -0.05177861 0.06420022 -0.05811535 -0.06395554 0.06318863
-0.059614062 0.057331804 -0.062105443 0.058100257 -0.060263198 -0.048459463 -0.05698984 0.056217674
0.07262552 -0.06349039 -0.05106784 -0.06588301 0.0558409 -0.06865267 0.0533028 0.06094717
-0.061316535 -0.012541769 -0.056803923 -0.060009953 0.060216878 0.05534223 0.053484596 -0.05899557
0.063164376 0.064717695 0.055128124 -0.07026932 0.05226249 -0.0630446 -0.05730868 -0.06544418
0.054633077 -0.06370399 0.052607954 0.06823398 0.06621145 -0.06412488 -0.06349657 -0.058535997
0.05298457 0.06304068 -0.0566562 0.06296767 0.05540895 0.06310457 0.054428812 0.06292434
0.0582828 0.053384494 0.052510228 -0.05678114 -0.066144325 0.05710915 0.050311867 -0.060173333
0.06568085 -0.058087774 0.054199792 0.057022773 -0.059523653 -0.062442437 0.047245968 0.06286778
-0.059092958 -0.06449786 0.06548029 0.06605347 -0.05808189 -0.05749492 -0.057903428 0.05846657
0.059965283 0.05143566 0.054769866 -0.06161315 0.058631863 0.06284304 0.05417576 0.07403255
-0.053250812 0.058937803 -0.058020182 0.06565973 -0.059702225 -0.055612743 0.06523076 -0.07505619
00000000: eaf4 533d 88c2 603d b80d 86bd 211b 503d
00000010: 5ae3 823d 9f9f 6bbd 48d2 6fbd 344c 823d
00000020: 332b 673d 8034 9a3d 60b2 59bd 37e7 69bd
00000030: 54ac 5a3d 3866 8e3d bcce 80bd 135e 633d
00000040: 101e 813d a571 633d f646 5e3d 34d1 9a3d
00000050: 8972 813d 98a8 7ebd 4991 94bd 6a0c 633d
00000060: 1ed9 6a3d 1ef6 72bd 3005 843d 5c0a 593d
00000070: e8d5 673d b1e3 83bd f4e5 423d 92e3 5c3d
00000080: 1d46 663d 6402 883d bfc8 513d cf15 54bd
00000090: 687b 833d 5c0a 6ebd 1ffb 82bd 0a69 813d
000000a0: e02d 74bd c1d4 6a3d 4762 7ebd 89fa 6d3d
000000b0: 8bd6 76bd 6e7d 46bd 2e6e 69bd 8144 663d
000000c0: b0bc 943d 4007 82bd 832c 51bd aced 86bd
000000d0: 6db9 643d c599 8cbd 0954 5a3d bda3 793d
000000e0: 0c27 7bbd fe7b 4dbc 3bab 68bd ffcc 75bd
000000f0: f9a5 763d 89ae 623d aa12 5b3d 57a5 71bd
00000100: 535c 813d b68a 843d 07ce 613d 5ce9 8fbd
00000110: 3111 563d 871d 81bd 82bc 6abd 9907 86bd
00000120: efc6 5f3d 3d77 82bd 707b 573d 42be 8b3d
00000130: de99 873d e853 83bd 7d0a 82bd 71c3 6fbd
00000140: 5906 593d 791b 813d 5510 68bd 32f5 803d
00000150: 7ff4 623d f83c 813d bff0 5e3d 7ade 803d
00000160: f2b9 6e3d b3a9 5a3d f714 573d 5793 68bd
00000170: ad76 87bd 49eb 693d d113 4e3d 5078 76bd
00000180: ae83 863d 72ed 6dbd 9a00 5e3d b690 693d
00000190: 13cf 73bd a4c3 7fbd fd84 413d d3c0 803d
000001a0: 750b 72bd 7417 84bd 881a 863d 0b47 873d
000001b0: 47e7 6dbd cb7f 6bbd 252c 6dbd a47a 6f3d
000001c0: 289e 753d 33ae 523d 5e56 603d 125e 7cbd
000001d0: f727 703d dab3 803d 67e7 5d3d 619e 973d
000001e0: 861d 5abd c468 713d 92a6 6dbd 9c78 863d
000001f0: 528a 74bd 30ca 63bd b497 853d 0fb7 99bd

net.2.running_mean f4 [128]
6.480556 5.9671755 0.0 15.283136 0.0 11.968871 13.686958 0.0
3.328688 0.0 1.6400427 9.061499 8.933468 5.0017405 0.0 7.7228503
1.2724859 7.716008 23.648117 0.0 0.0 0.7886666 0.0 22.067707
0.120721586 8.950588 0.0 17.980515 14.940202 13.665016 3.6924512 12.676068
8.239252 0.0 9.815052 8.572294 0.0 2.2752166 0.0 0.0
0.30559444 0.57829875 0.025010396 0.3198481 10.666291 0.42085356 9.035475 1.1414335
0.0 0.0 0.04806207 0.0 1.2951089 0.0 9.867926 0.029100578
19.772886 5.5355163 4.8181915 0.7892978 0.2919954 13.3063345 9.228989 1.5102538
0.0 0.62132233 0.41590562 16.658176 6.703056 0.0 8.732789 0.0
0.102269106 0.013706063 8.143559 0.015861263 0.028359449 0.0 0.2779645 6.7240424
0.5338849 0.0 3.4151137 2.7570448 11.602227 0.0 0.04850418 0.0
8.267837 16.046612 5.880792 0.004903651 0.0011506322 1.9244543 4.799689 0.26398495
0.0 11.55394 12.803661 3.410913 0.12582634 20.327137 9.292564 0.0
2.7362309 0.0 0.0 0.0 0.13239527 9.561648 0.59705037 8.1822195
8.626686 17.3925 0.06709464 24.224384 7.5704 0.0 8.458235 0.0
0.5111468 0.15586232 0.1044244 2.5601075 17.621222 4.6433735 4.9355173 0.032211095
00000000: b760 cf40 1af3 be40 0000 0000 ba87 7441
00000010: 0000 0000 7f80 3f41 c8fd 5a41 0000 0000
00000020: 3909 5540 0000 0000 ebec d13f e6fb 1041
00000030: 7cef 0e41 420e a040 0000 0000 9721 f740
00000040: d1e0 a23f 8ae9 f640 582f bd41 0000 0000
00000050: 0000 0000 0ee6 493f 0000 0000 aa8a b041
00000060: e13c f73d 9c35 0f41 0000 0000 18d8 8f41
00000070: 110b 6f41 e8a3 5a41 1f51 6c40 2dd1 4a41
00000080: fad3 0341 0000 0000 740a 1d41 1e28 0941
00000090: 0000 0000 269d 1140 0000 0000 0000 0000
000000a0: e076 9c3e 630b 143f 9ae2 cc3c 21c3 a33e
000000b0: 21a9 2a41 1e7a d73e 4e91 1041 7e1a 923f
000000c0: 0000 0000 0000 0000 bcdc 443d 0000 0000
000000d0: 21c6 a53f 0000 0000 06e3 1d41 5664 ee3c
000000e0: df2e 9e41 f322 b140 a02e 9a40 6c0f 4a3f
000000f0: 6c80 953e bfe6 5441 f0a9 1341 ff4f c13f
00000100: 0000 0000 fb0e 1f3f 95f1 d43e f243 8541
00000110: 6f7f d640 0000 0000 81b9 0b41 0000 0000
00000120: 7772 d13d 658f 603c 054c 0241 7bef 813c
00000130: 1352 e83c 0000 0000 5d51 8e3e 5b2b d740
00000140: aeac 083f 0000 0000 3991 5a40 6c73 3040
00000150: b9a2 3941 0000 0000 52ac 463d 0000 0000
00000160: 0f49 0441 765f 8041 732f bc40 ceae a03b
00000170: cfd0 963a 8554 f63f 0d97 9940 0929 873e
00000180: 0000 0000 f0dc 3841 ccdb 4c41 664c 5a40
00000190: 9fd8 003e fa9d a241 58ae 1441 0000 0000
000001a0: 681e 2f40 0000 0000 0000 0000 0000 0000
000001b0: a092 073e 83fc 1841 4bd8 183f 5fea 0241
000001c0: e806 0a41 d723 8b41 ea68 893d 8acb c141
000001d0: b840 f240 0000 0000 ee54 0741 0000 0000
000001e0: 84da 023f 5f9a 1f3e 76dc d53d cdd8 2340
000001f0: 43f8 8c41 8496 9440 c2ef 9d40 c8ef 033d

net.2.running_var f4 [128]
11.271535 6.4308953 0.0070696413 22.097824 0.0070696413 38.20491 38.86946 0.0070696413
4.1797323 0.0070696413 2.8781152 22.371851 11.91522 17.540207 0.0070696413 7.971725
2.2980592 9.884961 51.461525 0.0070696413 0.0070696413 4.593517 0.0070696413 61.85577
0.16639896 23.278778 0.0070696413 45.747505 41.483807 21.949238 4.0287066 16.763086
13.635418 0.0070696413 9.913595 36.676273 0.0070696413 8.968353 0.0070696413 0.0070696413
1.9172258 1.4741613 0.08610202 1.9107306 21.161919 2.1559114 21.201797 3.7826679
0.0070696413 0.0070696413 0.073590994 0.0070696413 5.8065863 0.0070696413 13.4090185 0.044707138
37.39161 3.690942 9.23533 5.200388 0.77855754 22.616632 7.00551 8.531944
0.0070696413 0.9721538 1.3792317 26.910559 4.3097005 0.0070696413 21.438406 0.0070696413
0.32023054 0.03645133 5.1334147 0.03394533 0.1234782 0.0070696413 0.94785404 9.325028
2.1689572 0.0070696413 3.2018936 6.121543 25.029732 0.0070696413 0.10362524 0.0070696413
16.246965 27.107008 6.7708845 0.0107213175 0.007128484 1.7508947 3.4731576 0.5012315
0.0070696413 30.871138 17.860165 6.453736 0.17486176 41.889736 9.919419 0.0070696413
2.0428052 0.0070696413 0.0070696413 0.0070696413 0.70535463 26.791761 3.5292447 22.7762
35.153667 30.337801 0.192731 63.60362 17.230652 0.0070696413 14.333036 0.0070696413
1.8680377 0.8526153 0.37230572 13.520728 48.649864 9.308331 19.478352 0.05318318
00000000: 3558 3441 e5c9 cd40 73a8 e73b 58c8 b041
00000010: 73a8 e73b d4d1 1842 547a 1b42 73a8 e73b
00000020: 5ec0 8540 73a8 e73b 0a33 3840 8df9 b241
00000030: bea4 3e41 5852 8c41 73a8 e73b 5f18 ff40
00000040: 6713 1340 cd28 1e41 9ad8 4d42 73a8 e73b
00000050: 73a8 e73b 17fe 9240 73a8 e73b 4f6c 7742
00000060: 7d64 2a3e f03a ba41 73a8 e73b 72fd 3642
00000070: 6bef 2542 0a98 af41 2aeb 8040 cd1a 8641
00000080: ac2a 5a41 73a8 e73b 169e 1e41 81b4 1242
00000090: 73a8 e73b 607e 0f41 73a8 e73b 73a8 e73b
000000a0: a867 f53f 51b1 bc3f 4256 b03d d292 f43f
000000b0: 9c4b a941 74fa 0940 489d a941 3b17 7240
000000c0: 73a8 e73b 73a8 e73b e0b6 963d 73a8 e73b
000000d0: 8ecf b940 73a8 e73b 578b 5641 d51e 373d
000000e0: 0291 1542 6538 6c40 e9c3 1341 9469 a640
000000f0: 8c4f 473f ddee b441 232d e040 d882 0841
00000100: 73a8 e73b 12df 783f aa8a b03f d348 d741
00000110: 11e9 8940 73a8 e73b db81 ab41 73a8 e73b
00000120: 42f5 a33e fd4d 153d ef44 a440 420a 0b3d
00000130: 23e2 fc3d 73a8 e73b 90a6 723f 5133 1541
00000140: 32d0 0a40 73a8 e73b d3eb 4c40 aee3 c340
00000150: e43c c841 73a8 e73b 7839 d43d 73a8 e73b
00000160: c9f9 8141 27db d841 16ab d840 77a8 2f3c
00000170: 0f96 e93b 511d e03f 3748 5e40 b550 003f
00000180: 73a8 e73b 17f8 f641 9ee1 8e41 0185 ce40
00000190: f60e 333e 178f 2742 f1b5 1e41 73a8 e73b
000001a0: 52bd 0240 73a8 e73b 73a8 e73b 73a8 e73b
000001b0: 1f92 343f 8755 d641 25df 6140 a835 b641
000001c0: 5b9d 0c42 d1b3 f241 465b 453e 1b6a 7e42
000001d0: 60d8 8941 73a8 e73b 1e54 6541 73a8 e73b
000001e0: dc1b ef3f ff44 5a3f db9e be3e e754 5841
000001f0: 7699 4242 ecee 1441 aad3 9b41 9bd6 593d

net.3.weight f4 [1, 128]
-0.10025425 -0.14401236 0.12104188 -0.12221731 -0.14021738 1.1456439e-05 -0.0039826008 -0.14495614
-0.17811452 -0.07648778 0.03876693 0.03869926 -0.13387965 -0.095237955 0.15942523 -0.1831924
-0.13079663 -0.1640107 -0.14440909 -0.07488806 -0.15270911 0.031330768 0.08412925 -0.14268306
-0.07168589 0.05323131 -0.13231248 -0.09586586 -0.111102864 -0.021830149 -0.063883945 -0.14788234
-0.15494382 -0.11267446 -0.13051459 -0.013833436 -0.13589366 0.04230164 0.13951212 -0.15307751
0.038936812 -0.014671897 0.06339499 -0.05890984 -0.007251705 -0.007205026 0.0065754894 -0.074769266
-0.083888486 0.14728469 -0.0015269509 0.11705453 -0.01440215 0.09875563 -0.13300195 -0.22689308
-0.004287216 0.019081801 0.0173575 0.052894905 -0.2057822 -0.14177729 -0.19241288 0.09095149
-0.15357153 -0.115502656 -0.04251019 -0.036353804 -0.14240886 0.15609066 0.04493791 0.12115597
-0.08684516 0.06855738 -0.18217048 -0.0566422 -0.08466739 0.13697825 0.09170247 0.03881534
-0.018434994 -0.15617496 0.033231717 -0.10991016 -0.12022611 -0.15481499 -0.0999232 -0.15874188
-0.08497463 -0.13073461 -0.13038896 0.072479814 0.18509664 -0.17847805 -0.121063344 0.053907566
-0.11888729 0.01992839 -0.14544247 -0.1297889 0.081255086 -0.0018009301 -0.117363855 -0.16003293
0.057766665 0.13185742 -0.12080176 -0.115578815 0.06922144 0.047634304 0.01481071 -0.16464357
-0.1313881 -0.115917705 -0.12454301 -0.0016581817 -0.18048131 -0.16060701 -0.103310555 -0.080013685
0.012662934 -0.12846863 0.08103415 -0.11419202 0.017692352 0.05293717 -0.10512044 0.048972443
00000000: 1a52 cdbd fa77 13be cee4 f73d 124d fabd
00000010: 2595 0fbe 0835 4037 7a80 82bb 626f 14be
00000020: a763 36be a0a5 9cbd 13ca 1e3d 1e83 1e3d
00000030: bf17 09be 1e0c c3bd 5e40 233e ca96 3bbe
00000040: 8def 05be 6cf2 27be fadf 13be e95e 99bd
00000050: c75f 1cbe b154 003d f54b ac3d 821b 12be
00000060: 0dd0 92bd 1309 5a3d ec7c 07be 5255 c4bd
00000070: e689 e3bd 24d5 b2bc 96d5 82bd 786e 17be
00000080: 98a9 1ebe dec1 e6bd 9ea5 05be a3a5 62bc
00000090: b527 0bbe 7c44 2d3d 44dc 0e3e 5ac0 1cbe
000000a0: 357c 1f3d 6562 70bc 3cd5 813d 724b 71bd
000000b0: b69f edbb 2418 ecbb 3477 d73b a120 99bd
000000c0: bacd abbd ccd1 163e f823 c8ba 49ba ef3d
000000d0: fff6 6bbc 6440 ca3d aa31 08be a956 68be
000000e0: c67b 8cbb 7051 9c3c 5131 8e3c 54a8 583d
000000f0: 92b8 52be 112e 11be e207 45be c644 ba3d
00000100: db41 1dbe a88c ecbd 2a1f 2ebd bae7 14bd
00000110: a1d3 11be 3bd6 1f3e d010 383d 9f20 f83d
00000120: e0db b1bd d067 8c3d e68a 3abe a701 68bd
00000130: 1966 adbd 0744 0c3e 81ce bb3d d5fc 1e3d
00000140: fc04 97bc 54ec 1fbe fb1d 083d 9418 e1bd
00000150: 1b39 f6bd d287 1ebe 89a4 ccbd 3b8d 22be
00000160: 2e07 aebd 4bdf 05be af84 05be 4c70 943d
00000170: f989 3d3e f3c2 36be 0ff0 f7bd 2ece 5c3d
00000180: 2e7b f3bd dd40 a33c dfee 14be 62e7 04be
00000190: 1169 a63d 300d ecba 765c f0bd acdf 23be
000001a0: bd9c 6c3d a205 073e ea66 f7bd 96b4 ecbd
000001b0: f8c3 8d3d 301c 433d 9fa8 723c 5398 28be
000001c0: 9a8a 06be 4366 edbd 6810 ffbd 5857 d9ba
000001d0: 18d0 38be 2a76 24be 7c94 d3bd 37de a3bd
000001e0: 3278 4f3c 488d 03be 3cf5 a53d 81dd e9bd
000001f0: 8def 903c a5d4 583d 6349 d7bd 5497 483d
