saved_models/mlp/MLP_postoperative_patient_data.pth (torch, 10983 bytes, 7 tensors)

net.0.weight f4 [128, 8]
000000 0e 82 b6 3e 17 3a 03 be 9d 1a 21 3e ef 2d 36 be
       0.356461 -0.12815128 0.15732808 -0.1779096
000010 d7 b8 a8 bd fb cb a2 bd d1 95 9e bd 67 b5 26 3e
       -0.082383804 -0.079490624 -0.07743419 0.16280137
000020 38 44 ca be 9b f1 09 bd 52 03 9d 3e cb d2 43 be
       -0.39505172 -0.03367768 0.30666596 -0.1912338
000030 9e 6c 15 be 8c 8d 97 3e 96 e6 b5 bc 7c 11 70 3e
       -0.14592215 0.2960018 -0.022204679 0.2344417
000040 cb da 2d be cc 3d ea 3d 90 c1 0d bd 9b d9 6d be
       -0.16977994 0.11437568 -0.034608424 -0.23227541
000050 4e 2d 0a 3e 42 bc 3a 3e 50 4a b1 bd 3e 51 96 be
       0.13493845 0.18235877 -0.08656752 -0.29358858
000060 7a 7a 1f 3e cb 92 26 3e 47 a7 d1 3e 30 f4 80 bc
       0.15574065 0.16266935 0.40947935 -0.015741438
000070 0d 14 37 3c 20 1f 54 3e 40 5f 10 3e 33 66 af 3b
       0.011174214 0.20714998 0.14098835 0.0053527593
000080 1c e4 dc bd 8e 11 cf 3c 16 28 80 be eb fc 88 3e
       -0.10785696 0.025276925 -0.25030583 0.2675546
000090 04 dd 95 be ee 6e a2 3c 92 81 95 3e c9 b6 91 3e
       -0.29270184 0.019828286 0.29200417 0.28459767
0000a0 f3 a6 6e 3e 2f a0 1e 3e 55 9f 9f 3e a7 fb 8b 3e
       0.23305874 0.15490793 0.31176248 0.27340433
0000b0 98 95 45 3e 2d d0 03 be 33 38 9c be 68 c0 9e 3d
       0.19295347 -0.12872382 -0.30511627 0.07751542
0000c0 07 dd e9 3c c8 b6 a0 3e 02 16 96 be 47 3e 97 be
       0.028547777 0.3138945 -0.29313666 -0.295397
0000d0 aa 2c a1 3d 56 14 db bc 82 09 49 be af 46 85 bc
       0.07869847 -0.026743095 -0.19632533 -0.016269056
0000e0 ad 45 c6 be e5 5a 41 3a 2a 77 45 3e fc 51 18 3c
       -0.38725033 0.000737591 0.19283739 0.00929689
0000f0 c2 e5 ee be 22 6b 43 bd 96 e6 70 bd 16 40 95 3e
       -0.46659666 -0.04770959 -0.058813654 0.29150456
000100 33 ce d0 bd 1a a5 b7 bd 3f 50 27 3e 3a 78 9d 3e
       -0.101955794 -0.089670375 0.16339205 0.30755788
000110 cb 51 ad be 24 6a 84 3e e6 0e 7b 3e fc c5 81 be
       -0.33851466 0.2586223 0.24517402 -0.25346363
000120 e4 41 23 3e 71 b7 21 be 99 a1 31 3e 2e cd 87 3c
       0.15943104 -0.15792634 0.17346801 0.01657733
000130 15 72 8f 3c 8e 74 a3 3e 47 50 80 3e 5f 62 c8 3d
       0.017510453 0.31924862 0.25061247 0.09784388
000140 60 a8 10 be 14 31 33 be be 99 1e 3e 48 0c 23 be
       -0.1412673 -0.1749919 0.15488335 -0.15922654
000150 06 f8 4f be a4 09 60 be ac 4d cb 3d 80 e2 83 bc
       -0.20309457 -0.21878678 0.09926924 -0.016099215
000160 b6 e0 0e 3d 0f 52 9f bc e6 ba b7 3d 29 be 5b 3e
       0.03488227 -0.019448308 0.08971195 0.21459259
000170 e3 6d 66 3e 7c c5 85 be e0 47 67 3e 96 ad 32 be
       0.22502856 -0.2612723 0.22586012 -0.1744903
000180 7f 40 e7 bc 40 b6 eb 3d 70 77 47 be 82 32 bc 3e
       -0.028228996 0.11509371 -0.19479156 0.36757284
000190 ac 4f 90 bd fa 09 78 be 5e 2f 83 3e 1d 3c 0d 3c
       -0.07046446 -0.24222556 0.25622076 0.008620289
0001a0 2e fc b4 bc 9f c0 91 3e 84 13 bc bc c7 1a 89 3e
       -0.022092905 0.2846727 -0.022958525 0.26778242
0001b0 90 21 8b be 84 93 5d 3e 97 c7 d2 3d d6 58 32 3e
       -0.27174044 0.21638304 0.10291975 0.174167
0001c0 13 78 06 be f8 ef 42 be c3 3c cc bd 10 98 88 3e
       -0.13131742 -0.19036853 -0.09972527 0.26678514
0001d0 e4 d0 5f 3e 01 bd bc 3e 07 cc bd bd d9 bd b3 be
       0.21857029 0.3686295 -0.09267431 -0.3510578
0001e0 d7 98 1c be 89 0c af 3d 99 91 aa 3e cf 87 7f be
       -0.15292679 0.08547313 0.33314207 -0.2495415
0001f0 c9 fe 05 3e f7 40 3b 3d cd f8 05 be 21 f4 fa bd
       0.13085474 0.045716252 -0.13083191 -0.12253595
000200 7a 44 c0 3e 8e 82 90 bd 07 1d 27 be 02 93 80 be
       0.37552243 -0.07056151 -0.16319667 -0.25112158
000210 11 e3 73 bc dc 96 e1 bc 51 3b c4 bd 9e ef c6 be
       -0.01488568 -0.027537756 -0.09581626 -0.38854688
000220 a9 9b 84 be 66 38 aa 3d ed ab 4a 3e be 6f ec 3d
       -0.2590001 0.083115384 0.19792147 0.11544751
000230 fc 2f 4f 3e 27 0a 55 3e e4 ee 0f 3e 4d 64 75 be
       0.20233148 0.20804654 0.14055973 -0.23964043
000240 87 1e 9c be df 60 9f 3e 22 a4 b4 3d 50 70 95 be
       -0.3049204 0.31128594 0.08820368 -0.2918725
000250 7a 1a 5a be 68 b3 96 be df f3 26 3e 3e 33 11 3e
       -0.21299163 -0.2943375 0.16303967 0.14179704
000260 39 83 a4 be 09 5f 95 3d 27 51 d9 be b6 7c 8f 3e
       -0.32131365 0.07293517 -0.42444727 0.28024834
000270 51 d3 91 3e 7f 83 15 3e 91 34 27 3e 1a 87 82 be
       0.28481534 0.14600943 0.16328646 -0.254937
000280 97 33 59 3e e1 ae 13 be 5a e9 97 bd 35 f6 49 3e
       0.21211086 -0.1442218 -0.07417555 0.19722827
000290 11 ce 2f 3e 17 1b f6 bd c6 d2 de bd 47 eb 80 3e
       0.17168452 -0.12016886 -0.108800456 0.25179502
0002a0 82 7a ea 3d 20 fd 71 bd bf d4 87 3d d2 02 8c 3d
       0.11449148 -0.05907929 0.06632375 0.068364754
0002b0 c8 02 cf bd 09 21 d0 bd c0 61 76 bd 5f 27 52 bd
       -0.10107952 -0.10162551 -0.060151815 -0.05130708
0002c0 2b d8 f5 bd ad 81 89 be 8a ec b2 be b3 c3 04 3e
       -0.120041214 -0.26856747 -0.3494609 0.12965278
0002d0 98 03 4f bd 37 62 26 be 64 3e be bc 17 b6 8f 3e
       -0.050540537 -0.16248403 -0.02322311 0.2806861
0002e0 b0 37 8a bd 80 4e a8 3c 25 d1 8a 3e 14 69 ac 3d
       -0.06748903 0.020545244 0.2711269 0.084184796
0002f0 b0 b7 d9 bc 28 c3 01 bd 6c 05 c3 bd 0a 47 01 be
       -0.026576847 -0.031680256 -0.095225185 -0.12624756
000300 4f 08 86 3e 42 c3 fa bc 00 62 2e be 04 e2 4f be
       0.26178214 -0.030610684 -0.17029572 -0.20301062
000310 7a 40 ab 3e f0 1c 45 3e b0 15 6e be 24 48 c6 3e
       0.3344763 0.1924932 -0.2325046 0.38726914
000320 95 f9 94 3c 0d 99 29 be b2 fb ef 3c 66 45 96 3e
       0.018185416 -0.1656229 0.029294822 0.29349822
000330 39 0e a7 3e 0e a6 6f 3e 58 5a b8 bd 56 fb 2d be
       0.3262804 0.23403189 -0.09001607 -0.16990408
000340 19 d8 cb be bc 43 93 3e 0e eb 18 be 34 43 9c be
       -0.39813307 0.28762615 -0.14933416 -0.30520022
000350 8f 70 00 be e6 74 44 3e 62 20 94 be df 75 13 be
       -0.12542938 0.19185218 -0.28930956 -0.14400433
000360 47 37 b5 be b4 0f 1e 3e 78 8f 7a 3d a6 75 a1 3e
       -0.35393736 0.15435678 0.06117198 0.3153507
000370 da 22 9d 3e 3b 15 97 be 60 3d a3 be f5 aa eb 3d
       0.30690652 -0.29508385 -0.31882763 0.11507217
000380 41 be 28 be 8e 3c b4 be e5 b3 1d be 70 6e 79 3e
       -0.16478826 -0.3520245 -0.15400656 0.24358535
000390 52 9b f3 3d 7f e3 3e 3d 30 5f c0 3e 7c 7e 9b 3d
       0.118948594 0.046603676 0.37572622 0.07592484
0003a0 bb 96 e1 bd be 79 ab be a9 9d 65 3e d3 73 35 be
       -0.11015078 -0.3349132 0.22423424 -0.17719965
0003b0 7c 29 40 3e 6b 57 aa 3d a4 8b c2 3e dd 18 70 bd
       0.18765825 0.08317455 0.37997162 -0.05861746
0003c0 e0 62 5b bc 7f 0f 00 3e d2 b9 7f be 08 29 1c bd
       -0.013390273 0.12505911 -0.24973229 -0.038125068
0003d0 63 01 0b 3e c8 10 bf be b0 7e 80 3d d1 45 61 be
       0.13574748 -0.3731749 0.06274164 -0.21999289
0003e0 b9 64 73 3d b8 c0 9d be 6f 54 6c be 7b 52 7f 3e
       0.05942223 -0.30811095 -0.23079084 0.24933808
0003f0 f9 18 3b be 81 52 3a 3d 0b b4 f2 3c 7b 90 5b 3e
       -0.18271245 0.045488838 0.029626867 0.21441834

net.0.bias f4 [128]
000000 aa c3 c0 bd d3 14 be 3d 40 3e c1 bb 2d f6 80 be
       -0.0941232 0.09281316 -0.0058973134 -0.25187817
000010 d3 4f 28 3e 7a 27 2e 3b 7a 31 19 3e 02 20 67 be
       0.164367 0.0026573823 0.1496028 -0.22570804
000020 72 27 32 bd 03 78 83 3e 3f 44 9c be ab 42 a6 3e
       -0.04349465 0.256775 -0.30520818 0.3247274
000030 9d 11 85 be ac 5a 01 3e d2 bd a0 3e bb 08 12 3e
       -0.2599 0.12632245 0.3139482 0.14261143
000040 60 b1 5c 3e 11 29 c6 bd 08 fe a1 be 1a 48 92 3d
       0.21552038 -0.096758015 -0.31639123 0.071426585
000050 c2 19 68 be 97 7f 85 be 8b 6d 04 be 32 a8 8e be
       -0.22666076 -0.26073906 -0.12932412 -0.27862698
000060 1e b4 95 be e4 b9 2d be 7a e2 9c 3e e8 23 72 3e
       -0.2923898 -0.16965443 0.30641538 0.2364651
000070 79 92 87 bd 40 da 59 be 0c d3 90 bd dc 57 69 3e
       -0.06619734 -0.21274662 -0.07071504 0.22787422
000080 7b 8d 2a be 67 52 de bd 84 f9 19 bd 41 2c 56 be
       -0.16655533 -0.10855561 -0.037591472 -0.20915319
000090 c9 03 50 3d ce e3 ac 3e dc 5b 03 3e a3 e7 a9 be
       0.05078486 0.3376755 0.1282801 -0.33184537
0000a0 3e b2 8c be 56 bf 2d be 1b 0a bb bd 27 34 5e be
       -0.27479738 -0.1696752 -0.09132787 -0.21699582
0000b0 60 f3 1f 3d 59 63 9d 3e 40 e6 86 3c 08 e4 22 be
       0.03905046 0.3073986 0.016467214 -0.159073
0000c0 c3 4f b5 be 06 8a ca 3e 15 0b a4 3d cd 59 ff bd
       -0.35412416 0.3955843 0.08009926 -0.124683
0000d0 73 3c 65 3e 04 73 b1 3e 7d ea 89 3e 7c 6d a5 3e
       0.22386341 0.34658062 0.26936713 0.32310092
0000e0 87 2e 8d 3b 13 8a a9 3d 79 83 98 3e b0 ae 5c bd
       0.004308525 0.08278289 0.29787806 -0.053877532
0000f0 40 5e 34 3e 46 36 b6 3e 10 6d 9c 3c e3 55 80 3d
       0.17614079 0.35588282 0.019094974 0.062663816
000100 8c 41 a0 3e dd f0 c1 bd 8e 12 20 3e 9c c2 d2 bd
       0.31300008 -0.09469769 0.15632078 -0.10291025
000110 a9 54 da 3c c7 c0 7e 3e 77 c8 54 be 7b 5b 84 bd
       0.026651697 0.24878226 -0.20779596 -0.06462761
000120 9f a0 99 be 58 55 9b 3e a9 12 7a be 77 37 8a 3d
       -0.30005357 0.3033855 -0.24421181 0.0674886
000130 22 49 40 be fb ab d1 3e 4f 4b 09 3e 04 23 20 be
       -0.18777898 0.40951523 0.13407634 -0.15638357
000140 b2 8c e9 3d e5 26 a4 be 94 df 93 bd 4a e7 d8 bb
       0.114037886 -0.32060924 -0.072203785 -0.0066193687
000150 a9 7f a9 3d 27 33 84 be 2a 7d 4f be f6 7b 97 3d
       0.08276302 -0.25820276 -0.2026259 0.073966905
000160 5d 8e 52 3e e3 ef 77 3e 37 64 4e be 30 b1 ac 3e
       0.2056212 0.24212603 -0.20155416 0.33728933
000170 9e 6b ab 3d 75 93 c3 3e 5e 7c 91 3e 94 34 82 be
       0.08370136 0.38198438 0.28415197 -0.2543074
000180 7b 26 99 3e b6 db 78 bd bb b5 06 bd f2 84 74 3e
       0.2991217 -0.060756408 -0.032888155 0.2387884
000190 67 f2 dd 3d 45 40 94 3e 49 e6 b2 3d f7 83 90 3e
       0.1083725 0.28955284 0.0873533 0.2822568
0001a0 d7 5c 3e 3d 4b 35 8a be 4e a9 f1 bd 64 7a a9 be
       0.046475258 -0.26993784 -0.117998704 -0.3310119
0001b0 97 e5 91 be be 8e b5 be 7e 67 6f 3b 34 83 d0 3e
       -0.28495476 -0.35460466 0.0036530192 0.407251
0001c0 f8 43 be 3d c1 66 0b be 4c f3 06 3f 6e f7 a9 bd
       0.09290308 -0.13613416 0.5271499 -0.082991466
0001d0 35 c7 b5 3d 97 59 78 3e aa 63 3b 3e 12 24 bd 3e
       0.08875886 0.24252926 0.18299738 0.36941582
0001e0 b4 03 90 be 68 fa d9 bc 86 e3 19 be d2 2e 4b be
       -0.28127825 -0.02660866 -0.150282 -0.1984208
0001f0 c2 d7 a3 3e a1 2c 8e 3e 52 57 df 3d 0b 94 6e 3c
       0.32000548 0.27768424 0.10905327 0.014561663

net.2.weight f4 [128]
000000 ea a4 7d 3f f3 1a 8e 3f 00 00 80 3f df cb 8f 3f
       0.99079764 1.1101974 1.0 1.1234092
000010 e7 96 81 3f 99 fc 75 3f 9a b5 81 3f ca e7 8a 3f
       1.0124177 0.9608856 1.0133545 1.0851986
000020 51 9a 8d 3f 58 f7 85 3f 00 00 80 3f ce 3a 7f 3f
       1.1062719 1.0466108 1.0 0.99699104
000030 32 8a 7e 3f 08 0b 84 3f 19 10 82 3f f2 e4 81 3f
       0.9942962 1.0315866 1.0161163 1.0147994
000040 d1 fc a4 3f 95 39 8e 3f 24 80 9c 3f c6 ee 7e 3f
       1.2889653 1.1111323 1.2226605 0.9958309
000050 53 81 76 3f b9 a3 7e 3f 16 e1 7c 3f 00 00 80 3f
       0.96291083 0.9946857 0.98780954 1.0
000060 54 0e 82 3f fa 18 80 3f b0 1c 8b 3f ee df 8f 3f
       1.0160623 1.0007622 1.086813 1.1240213
000070 9d 7f 86 3f a7 b2 98 3f 6d f4 78 3f ae 95 85 3f
       1.0507694 1.192952 0.97247964 1.0436304
000080 00 00 80 3f 79 d0 7c 3f 3c 94 85 3f 00 00 80 3f
       1.0 0.98755604 1.0435863 1.0
000090 f3 69 8e 3f 9e 4e 7e 3f 86 32 84 3f 1b 43 80 3f
       1.1126083 0.9933871 1.0327919 1.0020479
0000a0 90 02 79 3f 2f 0d 78 3f 08 fe 84 3f 00 00 80 3f
       0.97269535 0.96895117 1.0390024 1.0
0000b0 b0 74 7c 3f 00 00 80 3f cb 98 9c 3f 00 00 80 3f
       0.9861555 1.0 1.2234129 1.0
0000c0 c5 e5 94 3f 13 fd 90 3f 68 aa 7f 3f 21 fb 81 3f
       1.163262 1.1327232 0.99869394 1.0154763
0000d0 9b ed 91 3f f1 e2 9d 3f a6 c1 78 3f e4 57 83 3f
       1.1400636 1.2334882 0.97170484 1.0261197
0000e0 3a f1 85 3f e0 d2 89 3f 1e fc 79 3f 00 00 80 3f
       1.0464242 1.0767479 0.97650325 1.0
0000f0 39 6b 7c 3f 48 d9 78 3f f4 5c af 3f 8a 21 82 3f
       0.9860111 0.97206545 1.3700242 1.0166485
000100 2f 0b 82 3f 71 73 76 3f 00 00 80 3f 00 00 80 3f
       1.0159663 0.962699 1.0 1.0
000110 91 8a 81 3f fb 04 7d 3f 14 64 82 3f 74 c7 8f 3f
       1.0120412 0.98835725 1.0186791 1.1232743
000120 6f 48 87 3f 98 68 81 3f 6d ea 7c 3f 0a 91 c0 3f
       1.056898 1.0110044 0.98795205 1.5044262
000130 77 f9 76 3f d6 fd a5 3f 85 d0 85 3f 5a 93 81 3f
       0.96474403 1.296809 1.045426 1.0123093
000140 0a 00 7b 3f f6 b5 8a 3f 82 8c 8d 3f d6 dc 83 3f
       0.98046935 1.083678 1.1058505 1.0301769
000150 bb 3b 81 3f bd d7 7b 3f 00 00 80 3f 72 15 7c 3f
       1.0096353 0.98376065 1.0 0.9847022
000160 e5 f6 7e 3f 8c 59 83 3f b6 d2 83 3f e0 d7 72 3f
       0.9959548 1.0261703 1.0298679 0.9486065
000170 cd f4 89 3f fa 30 83 3f 3b 98 81 3f a1 1c 83 3f
       1.0777832 1.0249321 1.0124582 1.0243112
000180 ae d8 77 3f 4f cf 9b 3f 6f b9 80 3f 28 9c 97 3f
       0.96815 1.217264 1.005659 1.184453
000190 a8 a7 8d 3f a4 3b 7a 3f 77 5a 90 3f 00 00 80 3f
       1.106679 0.97747254 1.1277608 1.0
0001a0 4e 97 b1 3f aa 01 89 3f a7 d0 75 3f 00 00 80 3f
       1.38743 1.0703633 0.96021503 1.0
0001b0 c7 13 84 3f c6 03 7c 3f d6 f5 8e 3f 16 02 9e 3f
       1.0318536 0.9844326 1.1168773 1.2344387
0001c0 00 00 80 3f e5 75 7f 3f 56 38 b0 3f 53 ad 91 3f
       1.0 0.9978927 1.3767192 1.1381019
0001d0 c1 e8 7a 3f aa 38 78 3f de 83 a9 3f 40 a1 7d 3f
       0.98011404 0.9696146 1.3243368 0.9907417
0001e0 00 00 80 3f b0 26 b7 3f 89 38 c9 3f df f0 80 3f
       1.0 1.4308681 1.5720378 1.0073508
0001f0 e8 18 96 3f 88 bb 7a 3f 72 d8 88 3f 22 5a 84 3f
       1.1726351 0.979424 1.0691054 1.0340006

net.2.bias f4 [128]
000000 56 95 f9 bc 88 15 1e bd ec 0a 24 3d 84 de 2e bd
       -0.030466717 -0.038594753 0.04004948 -0.042692676
000010 cd b7 17 3d e8 4e f9 3c 53 8c 05 bd 16 c3 19 bd
       0.03704052 0.030433133 -0.032604527 -0.037539564
000020 8b 44 24 bd a5 02 22 bd 7d 53 25 bd 4d 1b 2f bd
       -0.04010443 -0.039553303 -0.040362824 -0.042750645
000030 64 59 23 bd eb 7c 31 bd 21 2f 16 bd ea f3 17 3d
       -0.03988017 -0.04333202 -0.03666604 0.03709785
000040 85 24 22 bd 7e 14 2f bd ce 6c 22 3d 63 09 db bc
       -0.03958561 -0.042744152 0.039654545 -0.026737874
000050 66 a0 1d bd bf 70 0f bd 78 66 15 bd 9b 65 2d 3d
       -0.038483046 -0.035019632 -0.036474675 0.042333227
000060 0e b7 22 3d 52 e3 1c 3d bf 4e 1b 3d cc 58 54 3c
       0.039725356 0.038302727 0.037916895 0.012960624
000070 80 69 39 3d d4 a5 28 3d f3 b0 18 bd ee d8 22 3d
       0.04526663 0.04117377 -0.037278127 0.03975766
000080 28 a5 21 bd a1 30 18 bd 65 92 21 bd ca a5 21 bd
       -0.039464146 -0.03715575 -0.039446253 -0.03946475
000090 06 7e 23 3d f0 40 17 3d 2c 75 2c bd 0e 63 1d 3d
       0.039915107 0.036927164 -0.04210393 0.038424544
0000a0 cf 51 15 bd e4 8b 8a 3b 7f ec 3a bd 31 bc 23 3d
       -0.036454972 0.004228102 -0.045635697 0.039974395
0000b0 76 40 25 bd 94 f6 24 3d 1b bf 3e 3d d6 90 27 bd
       -0.040344678 0.040274218 0.04656897 -0.04090961
0000c0 44 1a 2b bd b1 f1 2b 3d 7e 54 15 3d 6e 87 1d 3d
       -0.041773096 0.04197854 0.03645753 0.038459234
0000d0 31 73 24 bd 6e 9f 23 3d 91 f1 0b 3d 44 cb 18 3d
       -0.040148918 0.039946966 0.034165923 0.037303224
0000e0 13 39 df 3c 30 15 1b bd 39 51 09 3d b7 51 22 3d
       0.027248895 -0.037862003 0.033524726 0.03962871
0000f0 c6 d3 05 bd b1 58 12 3d 3c 6f 20 3d f3 8c 22 bd
       -0.032672666 0.035729114 0.03916858 -0.0396852
000100 01 32 1c 3d f0 53 21 bd dc e6 22 3d 30 d0 21 3d
       0.038133625 -0.03938669 0.039770946 0.039505184
000110 82 df 06 bd 8d c9 05 3d 4f 4d 1e 3d 36 c2 1d 3d
       -0.032927997 0.032662917 0.038647946 0.038515292
000120 ae 64 10 bd ae 53 1c 3d 82 5d 1a bd 47 be 2d 3d
       -0.035252266 0.03816574 -0.037686832 0.04241779
000130 85 92 1a 3d dd 49 28 bd 02 15 18 bd 7e 45 0a bd
       0.03773739 -0.041086067 -0.03712941 -0.03375768
000140 4d a3 0c 3d 5a 63 37 bd c8 83 2c 3d 33 4a 17 3d
       0.034335423 -0.044772483 0.042117864 0.036935996
000150 cd 41 1c 3d 3b 07 15 bd 7c 16 2c 3d 0e 71 16 3d
       0.03814869 -0.03638385 0.04201363 0.03672891
000160 45 68 c3 3c 58 01 12 bd 25 9b 1f 3d de b6 f9 bc
       0.02385343 -0.035645813 0.038966317 -0.030482706
000170 ee c7 1e 3d 5a cc 1b 3d e3 5c 1c 3d d2 be 21 bd
       0.038764887 0.03803668 0.03817452 -0.03948862
000180 5a 11 13 bd b0 f9 23 3d 81 24 1c 3d c2 7e 13 bd
       -0.03590522 0.040033042 0.03812075 -0.036009558
000190 b3 02 b0 3c 71 30 14 3d f6 0e 19 3d f9 85 22 3d
       0.021485662 0.03617901 0.037367783 0.039678548
0001a0 4c 83 b8 bc 24 a9 3c bd ac f2 19 bd 3c c1 27 bd
       -0.022523545 -0.046059743 -0.037584946 -0.040955767
0001b0 6c 09 41 bd bd 93 1a bd 91 f0 10 bd f0 99 42 3b
       -0.047128126 -0.03773855 -0.035385672 0.0029693805
0001c0 2b d8 21 3d b5 70 23 bd ca 2f e5 bc 22 f4 e8 bc
       0.039512794 -0.039902408 -0.02797689 -0.028436724
0001d0 40 5f 0d 3d 28 69 01 3d 65 8a 31 3d 44 3e 18 3d
       0.034514666 0.031594425 0.043344874 0.037168756
0001e0 10 8e 21 bd 59 71 2c 3d 18 2a 48 3d 33 d3 18 3d
       -0.039442122 0.042100284 0.04886827 0.03731079
0001f0 eb 0c 1d bd f9 4b 11 3d 7b 0c bb 3b d5 29 24 3d
       -0.038342398 0.035472844 0.005708275 0.040078957

net.2.running_mean f4 [128]
000000 88 fa af 3e 6e 6f ee 3d 00 00 00 00 b8 92 28 3f
       0.34370828 0.11642347 0.0 0.65848875
000010 e3 a7 4e 3f 3c f3 2e 3f 42 0a 21 3e fa a1 3b 3d
       0.80724925 0.68339896 0.1572657 0.04580877
000020 25 e8 4f 3e 72 ac 86 3f 00 00 00 00 d8 4d e1 3e
       0.203034 1.0521376 0.0 0.44004703
000030 e6 3f a3 3e 15 88 9d 3f 3b d0 ce 3d 7b 26 0d 3d
       0.31884688 1.2307154 0.100983106 0.034460526
000040 a7 12 c6 3c c5 ed 29 3d fd 9e 1c 3c d3 2e 51 3e
       0.024178816 0.04148652 0.00955939 0.20428018
000050 1a f2 ef 3e 80 4b c9 39 f3 12 82 3d 00 00 00 00
       0.46864396 0.0003839396 0.063512705 0.0
000060 dc 5a bb 3e bf ef 59 3e 58 61 6e 3c 8d f3 82 3e
       0.36592758 0.21282862 0.014549576 0.2557644
000070 93 38 b6 3e 92 cd f7 3c 62 fe 8b 3b a0 0b c5 3e
       0.35590038 0.03024939 0.004272268 0.38485432
000080 00 00 00 00 59 1f db 3b 1d bc 46 3f 00 00 00 00
       0.0 0.0066870865 0.7763079 0.0
000090 12 1a 38 3e 5f b4 d4 3e b3 49 b8 3f c9 da 01 3c
       0.17978695 0.41543862 1.4397491 0.007925698
0000a0 2e e2 8c 3b d4 eb 48 3f 6a 42 32 3e 00 00 00 00
       0.0042994237 0.78484845 0.17408147 0.0
0000b0 15 7d 3d 3f 00 00 00 00 a9 30 f3 3c 00 00 00 00
       0.74018985 0.0 0.029686289 0.0
0000c0 b5 d3 8d 3e 44 97 92 3d 9b b8 63 3f 53 d7 bc 3e
       0.27700582 0.07157758 0.8895356 0.3688303
0000d0 38 a4 78 3d 31 79 39 3d 01 83 d1 3f 97 5d 0f 3f
       0.060703486 0.045281593 1.6368104 0.5600218
0000e0 d3 70 18 3f f1 58 3d 3e 91 11 c1 3c 00 00 00 00
       0.59547156 0.1849096 0.023567947 0.0
0000f0 79 0b 94 3b 9e af d3 3e 98 5e 68 3b dd af 89 3f
       0.004517969 0.41344923 0.0035456773 1.0756794
000100 40 b6 98 3f 57 a8 ed 3e 00 00 00 00 00 00 00 00
       1.1930618 0.46417496 0.0 0.0
000110 77 71 62 3e f5 c6 0e 3f 55 8f a1 3d c9 3a 0d 3e
       0.22113596 0.55772334 0.078886665 0.13791956
000120 af 52 e6 3b 9c d4 cd 3e aa 91 1c 3c 0d 2b 95 3c
       0.0070288996 0.4020127 0.009556213 0.018209005
000130 b6 51 d7 3e b1 00 26 3c 59 f4 bc 3d 3e 57 76 3e
       0.42054528 0.010132001 0.09226293 0.24056718
000140 e1 6c 4a 3f 91 b9 2e 3e ce a3 3c 3e 23 ba ca 3e
       0.79072386 0.17062975 0.18421862 0.39595136
000150 3e 7c df 3d 77 f8 c0 3b 00 00 00 00 b5 0a 8c 3f
       0.10912369 0.0058889943 0.0 1.0940768
000160 8e a5 86 3f 29 ec 42 3e 7d a4 cd 3d 14 2b 8c 3f
       1.0519273 0.190354 0.10041139 1.0950646
000170 cb 30 1a 3e a4 bd 28 3e 64 c6 f5 3e 4a 63 51 3f
       0.15057676 0.16478592 0.48002923 0.8179213
000180 9f 4d 6a 3f 5b 14 03 3b dc 28 64 3e 84 12 6d 3c
       0.9152469 0.0020001146 0.22281212 0.0144697465
000190 22 f2 9b 3e 61 cf b2 3f 5f 50 4f 3d 00 00 00 00
       0.3045817 1.3969537 0.050613757 0.0
0001a0 e7 15 ec 3b 5b cc fd 3e 2d 6a df 3e 00 00 00 00
       0.0072047594 0.49569973 0.43635693 0.0
0001b0 a3 b4 1f 3e ef b3 47 3d 01 b2 07 3c 14 ae 50 3c
       0.15596251 0.048755582 0.0082821855 0.012736816
0001c0 00 00 00 00 32 37 11 3f ec 68 17 3b 71 03 b2 3c
       0.0 0.56724846 0.002310331 0.021730157
0001d0 87 66 fb 3d 29 8e b9 3e b5 c2 c9 3d 37 7c 9e 3f
       0.12275415 0.36241272 0.098515905 1.2381657
0001e0 00 00 00 00 8d 76 9b 3c 25 d6 7e 3c 9e 5c 81 3c
       0.0 0.018977428 0.015553986 0.015791234
0001f0 8f 10 97 3c 40 04 86 3d b5 5a 04 3f d8 ab 90 3e
       0.018440513 0.065437794 0.5170091 0.28256106

net.2.running_var f4 [128]
000000 37 48 94 3e 26 d6 83 3e 1a d5 52 3e 1d 9a 89 3e
       0.28961346 0.2574932 0.20589104 0.26875392
000010 55 3e bd 3e 6e bd a5 3e 90 b2 8b 3e e4 2e 65 3e
       0.36961618 0.32371086 0.2728467 0.22381169
000020 da 9e 89 3e 04 4f 8d 3e 1a d5 52 3e 68 27 96 3e
       0.26879007 0.27599347 0.20589104 0.2932694
000030 5a 59 9c 3e fb c7 b5 3e 9c 67 77 3e 4f 05 5d 3e
       0.3053692 0.35504135 0.24160618 0.21584056
000040 f2 09 59 3e e6 ad 63 3e d6 2b 59 3e e5 3a a9 3e
       0.211952 0.22234306 0.21208128 0.33052745
000050 03 3a 92 3e a6 d6 52 3e 43 c8 65 3e 1a d5 52 3e
       0.28559884 0.20589694 0.22439675 0.20589104
000060 94 d1 a9 3e 07 73 80 3e 19 ba 56 3e f4 ef 93 3e
       0.33167708 0.2508776 0.20969428 0.28894007
000070 d5 e1 9d 3e b2 e7 5a 3e ff f9 54 3e 47 eb 95 3e
       0.3083636 0.21377447 0.20798491 0.29281065
000080 1a d5 52 3e 17 38 54 3e 39 da 9b 3e 1a d5 52 3e
       0.20589104 0.20724522 0.30439928 0.20589104
000090 6b d8 8b 3e e9 2f 9c 3e 62 88 aa 3e 30 d2 55 3e
       0.2731355 0.30505303 0.33307177 0.20880961
0000a0 ff 00 55 3e 9f 30 af 3e cf 19 84 3e 1a d5 52 3e
       0.20801161 0.34216782 0.2580094 0.20589104
0000b0 be 35 ba 3e 1a d5 52 3e aa 3d 5d 3e 1a d5 52 3e
       0.36369127 0.20589104 0.21605554 0.20589104
0000c0 01 8f 86 3e 9d 9b 72 3e 3f d2 b4 3e 21 83 9d 3e
       0.26280978 0.23692174 0.35316655 0.30764106
0000d0 f3 79 61 3e 94 87 60 3e b9 ff b4 3e 2a f2 9b 3e
       0.22019176 0.21926719 0.3535135 0.30458194
0000e0 25 bd b8 3e 03 b8 8e 3e 0f 1a 5c 3e 1a d5 52 3e
       0.36081806 0.27874765 0.21494316 0.20589104
0000f0 62 f1 53 3e f6 fc 96 3e 7c 09 54 3e 2b b7 b8 3e
       0.20697549 0.2948987 0.20706743 0.36077246
000100 09 f2 ad 3e 07 77 90 3e 1a d5 52 3e 1a d5 52 3e
       0.3397372 0.2821581 0.20589104 0.20589104
000110 bc 11 8f 3e a8 b7 a6 3e f6 17 74 3e a6 b6 6d 3e
       0.27943218 0.32561994 0.23837265 0.23214206
000120 3b b5 56 3e 03 75 98 3e 3b e4 53 3e 3b 44 5a 3e
       0.20967571 0.29776773 0.20692532 0.2131509
000130 c8 de b1 3e 5b 64 55 3e db 3b 6e 3e 94 47 88 3e
       0.3474028 0.20839064 0.2326502 0.2661711
000140 84 fc 93 3e 6f 6f 82 3e 27 5a 86 3e 6e b2 81 3e
       0.28903592 0.25475642 0.26240656 0.25331444
000150 97 8f 83 3e d4 32 54 3e 1a d5 52 3e 33 16 b9 3e
       0.25695488 0.20722514 0.20589104 0.3614975
000160 53 42 ac 3e 03 f7 8d 3e 82 c8 7f 3e 1f 6a d6 3e
       0.3364435 0.27727517 0.24978831 0.4187784
000170 78 c9 80 3e 4e b0 9f 3e d8 30 84 3e 7c de 9a 3e
       0.25153708 0.31189197 0.25818515 0.30247867
000180 d0 d3 ab 3e 68 4d 53 3e b9 0b 7e 3e b0 86 57 3e
       0.33560038 0.20634997 0.2480916 0.21047473
000190 71 5b 81 3e 36 74 ed 3e a5 ef 61 3e 1a d5 52 3e
       0.25265077 0.46377724 0.22064073 0.20589104
0001a0 ca 4c 56 3e 2e c4 c0 3e 41 25 a3 3e 1a d5 52 3e
       0.2092773 0.37649673 0.3186436 0.20589104
0001b0 68 e1 7b 3e 64 37 5a 3e 51 39 55 3e 2b d4 56 3e
       0.24597704 0.21310192 0.20822646 0.20979373
0001c0 1a d5 52 3e 8b 76 b5 3e eb 19 53 3e 70 7c 5a 3e
       0.20589104 0.35442004 0.20615356 0.21336532
0001d0 1d 5c 75 3e 5b c0 8c 3e fe 2c 80 3e 1b 7e b6 3e
       0.2396092 0.27490506 0.25034326 0.35643086
0001e0 1a d5 52 3e f2 20 5b 3e c5 a0 55 3e 8a 21 56 3e
       0.20589104 0.21399286 0.2086211 0.20911232
0001f0 69 9c 59 3e 9b eb 5e 3e 8a 5f 9a 3e 0d dd 9f 3e
       0.21251072 0.21769564 0.30151016 0.31223336

net.3.weight f4 [1, 128]
000000 05 c3 84 3c 4e 16 35 3e 6a 71 91 bd 31 5b 0d 3e
       0.016206274 0.1768429 -0.0710171 0.13804318
000010 b3 4e db bc c6 5e 5a bb 27 a8 07 bd ca 6b 1b 3e
       -0.026770925 -0.003332065 -0.033119347 0.15177837
000020 75 b6 2b 3e 09 0a 01 3e c0 13 81 3d 7c ed a0 bc
       0.1676882 0.12601484 0.06302595 -0.019644491
000030 60 fc aa 3d 91 25 41 3d b1 2a 9a 3d 85 b3 8f bd
       0.08348918 0.047154967 0.07527674 -0.070166625
000040 6e e8 3f 3e 5a f5 ce 3d 1f 63 7a be e6 9b 8d bc
       0.18741009 0.10105391 -0.24451874 -0.017286252
000050 63 88 61 3c ad a3 a3 3c 61 41 8a bd 14 a9 29 bd
       0.013765427 0.019975508 -0.06750751 -0.04142101
000060 2c a2 2e bd ce b9 9b bd dc ea e7 bd 2b e7 9e 3d
       -0.042635128 -0.07603799 -0.11324093 0.077589355
000070 a3 e9 49 bd 14 e5 ac bd 84 6e 68 3d a3 35 c0 bd
       -0.04929508 -0.08442131 0.05674602 -0.093852304
000080 15 16 de 3d 79 f5 8e 3d 3b 9e 99 3d 07 e8 dd 3d
       0.108440556 0.06980414 0.07500883 0.10835271
000090 2b a2 f9 bd 8f cb 20 3c 22 13 6e 3d f0 38 52 bd
       -0.12189134 0.009814157 0.058123715 -0.05132383
0000a0 79 7c 07 3d 8f a3 ca ba 52 c2 3e 3d 21 a5 96 bd
       0.03307769 -0.0015460121 0.046572037 -0.073557146
0000b0 1f 71 90 3d 80 05 85 bd 42 49 05 be 51 25 5f 3d
       0.07052826 -0.0649519 -0.13016227 0.054478947
0000c0 47 a7 0a 3e 64 fa fc bd cd 63 e8 bc 57 5c a5 bd
       0.13540374 -0.12352446 -0.028367901 -0.08074253
0000d0 98 f0 2d 3e 80 a0 74 be 81 3e f2 bb de 8e 71 bd
       0.1698631 -0.23889351 -0.007392705 -0.05897414
0000e0 d9 af 38 3d 76 1e ef 3d ae 3e ae bc e1 c6 bb bd
       0.045089576 0.11675732 -0.021270122 -0.091687925
0000f0 0a 6c 98 3c b4 dc de bc 5a 14 a6 be 2b a0 ab 3d
       0.018606205 -0.027204849 -0.32437402 0.08380159
000100 3c a0 91 bd aa 29 ac 3b a5 fa a8 bd 81 97 d3 bd
       -0.071106404 0.00525399 -0.08250932 -0.103316315
000110 2d 8a 3f 3d 99 ec af 3c 10 48 b3 bd 66 fc 1f be
       0.046762634 0.021475123 -0.08753979 -0.15623626
000120 2b 40 74 bd 5a c0 0c bd 9a 47 9a 3d 02 b5 c5 be
       -0.059631508 -0.03436313 0.07533188 -0.3861466
000130 af f1 3e bd c8 3c 82 3e 48 bd 9a 3d 6d 00 33 3d
       -0.046617206 0.25436997 0.07555634 0.043701578
000140 30 2f ab bb b2 4f b3 3d cb 4d ac bd 4f dc 45 bd
       -0.005224131 0.08755435 -0.08413275 -0.048305806
000150 bd 14 50 bd 3e 27 6c 3d d4 66 23 bd 30 96 6b bd
       -0.050801028 0.05765461 -0.039892986 -0.057516277
000160 70 66 b7 3c 54 b4 a1 3d 15 f8 bb bd 9c b6 9f bb
       0.022387713 0.07895723 -0.09178177 -0.0048740637
000170 26 2d 92 bd 30 2d 91 bd 73 e4 b1 bd c0 f4 e0 3d
       -0.07137518 -0.07088697 -0.08686151 0.10984182
000180 22 19 31 3c 93 b1 86 be a2 5d a6 bd 45 48 0d be
       0.010809215 -0.26307353 -0.08123328 -0.137971
000190 6c d3 a6 bd 04 95 54 bd 7c a9 02 be 40 68 b4 bd
       -0.08145794 -0.051899925 -0.12759966 -0.088089466
0001a0 ec d2 68 be fc 95 63 3d fe ba f8 3c 25 ea 5c 3d
       -0.2273671 0.055562958 0.030362602 0.053934235
0001b0 8e c9 f2 3c 5a e0 49 3d 51 e6 0b 3e b9 28 38 be
       0.029637124 0.049286224 0.13662077 -0.17984284
0001c0 03 db d1 bd ea 2e 69 3d ed 85 70 3e c7 86 ba bd
       -0.10246851 0.056929506 0.23488589 -0.09107738
0001d0 bc 10 9d bc f2 6e 0b bc d7 44 75 be 0d 04 19 bc
       -0.019173019 -0.008510338 -0.23952042 -0.009339345
0001e0 10 71 e4 3d ef 2e b4 be 98 26 b8 be 4e 24 c2 bd
       0.111543775 -0.35192057 -0.35966945 -0.09479581
0001f0 4a 68 32 3e 5d 06 62 bd eb b0 62 3d ff 03 83 bd
       0.17422596 -0.05518185 0.055344503 -0.063972466
