saved_models/mlp/MLP_spectf.pth (torch, 29091 bytes, 7 tensors)

net.0.weight f4 [128, 44]
000000 f3 f7 82 3d 6a 26 bb 3d c6 8a 0f 3e 12 42 9f bc
       0.06394949 0.09138186 0.14017782 -0.019440684
000010 f9 bb af 3c 8a 72 19 be 5c ca f4 3d 24 77 ba bd
       0.021451937 -0.149851 0.119526595 -0.091047555
000020 d1 7e 1d be 2c 32 42 3c 7b 97 ba bc 6a 45 a8 bb
       -0.15380408 0.011852782 -0.02277731 -0.005135228
000030 4f 27 df bd 65 fa ff bd cd ff d9 bd 5a 88 07 be
       -0.108961694 -0.12498931 -0.10644493 -0.13235608
000040 3c a1 01 3e af 60 06 3e 55 7b d0 bd 9d b8 c8 bd
       0.12659162 0.1312282 -0.10179774 -0.09800837
000050 c3 95 27 bd 3a 52 aa 3d 2a a4 ad 3d b0 0f 58 bd
       -0.04091431 0.08316465 0.084785774 -0.052749336
000060 86 60 1c bc c5 9b a7 bc d0 3c f4 3c c3 f9 82 3d
       -0.009544497 -0.020460019 0.029814154 0.063952945
000070 b7 1a dc bd a3 e6 9d 3d 96 47 1d be 3e 53 94 bd
       -0.10747283 0.07710006 -0.15359339 -0.0724244
000080 60 80 c7 3c dc b0 f1 3d 9d f8 70 3d 17 71 a1 3d
       0.024353206 0.118013114 0.058830846 0.07882898
000090 0b 93 e7 bd bf 21 11 3d 95 d2 06 be 9c 44 22 bd
       -0.11307343 0.035432573 -0.13166268 -0.039616212
0000a0 5a f1 aa 3d 28 57 8f bd 85 1e 95 3d a3 f9 9d bc
       0.083468154 -0.069990456 0.07281212 -0.019284075
0000b0 58 74 16 bd 68 95 f5 3d 7e d6 09 3e cc f7 33 3d
       -0.036732048 0.119913876 0.13460729 0.04393749
0000c0 88 5a c8 bd 8e 82 bd 3d e0 08 98 3d c8 fd 9e bd
       -0.097828925 0.09253417 0.07423568 -0.07763249
0000d0 89 dc ab bd ce 60 a1 3d 3c c4 cc 3d 71 be d1 bd
       -0.08391673 0.07879792 0.09998366 -0.10241402
0000e0 a0 79 dc 3b b2 ea a5 bd 90 b9 e4 3d d0 13 41 bc
       0.006728366 -0.08101405 0.11168206 -0.011784509
0000f0 0d 66 af bd 9d 1d 16 be b6 bb 99 bd 44 be db 3d
       -0.085643865 -0.14659734 -0.07506506 0.1072965
000100 be 4b 4a bd f6 48 01 bd 80 c3 9e 3c 22 5a 94 3d
       -0.04938864 -0.03156372 0.019380331 0.07243754
000110 dd f4 97 bd 94 ac ff 3d e7 d5 e9 bd c0 04 d8 3c
       -0.07419751 0.124840885 -0.11417752 0.026369452
000120 18 92 d7 bd f8 a5 af 3c ba 4a e3 bd 27 38 0b be
       -0.10525912 0.021441445 -0.11098237 -0.13595639
000130 c6 20 ac bd fa fb 55 bd 34 f1 ce bd 78 8e 68 bd
       -0.084046885 -0.052242257 -0.101045996 -0.056776494
000140 d8 78 0f be 80 02 54 bc 00 f0 75 3b 10 7b 2a bc
       -0.14010942 -0.012940049 0.0037527084 -0.010405317
000150 3c 9e 7c 3d 58 b4 68 3d c0 6c 50 bc 12 5a 00 be
       0.06167434 0.056812614 -0.0127212405 -0.12534359
000160 eb ac 0e be 08 c3 79 bd 76 85 92 3d 2e fe 6d bd
       -0.1393315 -0.060977012 0.07154362 -0.058103733
000170 91 c5 ae bd 14 ca 9d bd e6 c0 56 3c 3e 1a ad 3c
       -0.085337766 -0.07704559 0.013107514 0.021130677
000180 95 fa 3b 3d 33 46 19 3e 9b 5c b9 bd 84 ab eb 3b
       0.04589327 0.14968185 -0.09050866 0.007192077
000190 08 59 16 be 93 01 11 3e 27 37 1a 3e 9c cc 06 3e
       -0.146824 0.14160757 0.15060101 0.1316399
0001a0 56 97 de bd 1e 8e cb bc 64 2e 05 3c cf 9d d7 3d
       -0.10868709 -0.02484804 0.008128736 0.105281465
0001b0 43 d5 0a 3e dc c3 36 3d 9b 0d 26 bb 7e 44 cf 3d
       0.13557915 0.04462038 -0.00253377 0.10120486
0001c0 21 98 85 bd 83 f2 30 3e de f1 20 be bb 89 b5 bd
       -0.06523157 0.17280011 -0.15717265 -0.088641606
0001d0 4d ee c3 3d 96 91 13 3d 6b 3e 17 be 97 c3 63 bd
       0.09566937 0.036027513 -0.14769904 -0.05560645
0001e0 ba ac 0f 3d a0 5d 63 3d f6 4f 11 3b 5d 90 d8 bd
       0.035076834 0.05550921 0.0022172905 -0.1057441
0001f0 9f 00 f1 3d f4 33 92 bd 01 b2 84 3b e2 ee 89 3d
       0.117676966 -0.071388155 0.00404954 0.067350164
000200 39 78 90 bd 65 71 be bb d7 23 32 3e 18 48 01 3e
       -0.07054181 -0.0058118575 0.17396484 0.12625158
000210 bd 68 c6 3d fc 64 03 3e 85 c7 81 bd 32 db d1 3d
       0.09687946 0.12831491 -0.063368835 0.10246886
000220 3d fd 18 bc 41 86 cf 3d a4 22 47 bc c6 4d 52 3d
       -0.00933772 0.10133029 -0.012154255 0.0513437
000230 5d 2a 62 3c 3f f0 e5 3b 2e d2 aa bb 06 18 22 be
       0.0138040455 0.007017165 -0.0052130437 -0.15829477
000240 28 a3 0f 3e d1 2e 5a bd 05 15 11 3d d6 2b bc bd
       0.14027083 -0.053267304 0.035420436 -0.091880485
000250 39 cd 85 3c e8 67 a1 bd f3 7c f2 3b fb af ba bc
       0.01633321 -0.07881147 0.007400149 -0.022788992
000260 78 9e 0b 3e 8a 07 ae 3c b6 f4 88 3d e6 28 94 3d
       0.1363467 0.02124383 0.066873 0.07234363
000270 75 ec 97 3d cf 70 b8 3d d4 75 71 3c 2f 2f b3 bc
       0.074181475 0.090058915 0.014737565 -0.021873085
000280 86 38 0a 3e ee 0b 0b be e4 c0 1b 3d dc c6 b2 3c
       0.13498124 -0.1357877 0.03802575 0.02182334
000290 79 c8 28 bd 6b 4c 0c 3e eb a2 c1 3d 9d 29 d2 bd
       -0.04120681 0.13701026 0.09454902 -0.10261843
0002a0 22 dc db bd 4b 3b 20 3d 5e 8f a8 bd 82 75 cf bd
       -0.107353464 0.039119046 -0.0823047 -0.10129835
0002b0 80 a2 ac bd 55 1b fb bd 9f 65 2c bc a7 04 a0 3d
       -0.08429432 -0.122610725 -0.010522275 0.07813387
0002c0 a4 d4 38 3d 8c 95 ba 3d 8c 32 eb 3d 40 f9 0d bc
       0.045124665 0.09110555 0.114842504 -0.008665383
0002d0 a8 2b d6 bc 52 75 b8 bd 38 12 0b be 66 34 ba bd
       -0.026143864 -0.09006752 -0.13581169 -0.090920255
0002e0 74 ad df 3d a0 d8 46 3d 3e 1a a2 bd 1a 86 41 bd
       0.109217554 0.048546433 -0.079151616 -0.04724703
0002f0 df 01 03 be 5a 50 8e bd c4 31 6f 3d 64 8a e3 bd
       -0.12793683 -0.069489196 0.05839707 -0.1111038
000300 a0 b3 cf 3c 5c f9 d4 3d d8 eb 9e bc 0c 30 51 3d
       0.025354207 0.10399124 -0.019399568 0.05107121
000310 30 16 b5 bd 3d 23 db bd 98 d9 8b bc 80 09 c2 3b
       -0.088421226 -0.107000805 -0.01707153 0.0059215426
000320 c0 5c 03 3d 60 71 15 be 56 13 0d be 78 57 94 bd
       0.032070875 -0.1459403 -0.13776907 -0.07243246
000330 ac 09 a6 3d c8 f1 d5 bd 80 3a 0f bb c4 08 05 3d
       0.081073135 -0.10446507 -0.0021854937 0.032479063
000340 2c 1f 03 3d 12 ff 62 bd 5c a4 fa bc 0a 00 0a 3e
       0.03201215 -0.055419035 -0.03059595 0.13476577
000350 98 82 78 bd d6 1a b5 3d ec bd fd 3d ba eb 54 bd
       -0.06067142 0.08843009 0.1238974 -0.05198262
000360 d8 6d aa 3d e0 82 0b 3c 55 3f 9f bd 3c fb 63 bd
       0.08321732 0.00851509 -0.077757515 -0.055659518
000370 86 ef b7 3d c8 6a d8 bc c0 ab 02 bb 48 a3 b8 bc
       0.08981232 -0.026418105 -0.0019938797 -0.022538796
000380 f0 6e 4e bc b8 ba fb bd ae 52 19 be 00 a7 da 3d
       -0.012599692 -0.12291473 -0.14972946 0.10676384
000390 a0 01 c9 3d 50 87 0d be 9c 7f 02 3e ea 08 11 be
       0.09814763 -0.13821149 0.12743992 -0.14163557
0003a0 f0 3a e6 bd fe 22 9d 3d de 86 a6 bd 60 40 60 bc
       -0.1124171 0.0767269 -0.081311926 -0.013687223
0003b0 b4 eb 01 3d 0a fe 6c bd 00 6b d5 3b e4 cc e5 3d
       0.031718925 -0.057859458 0.0065129995 0.112207204
0003c0 b8 80 9e 3d e6 1f 86 3d f0 c3 39 bd 6a 1f 5d bd
       0.07739395 0.06549053 -0.045352876 -0.053985037
0003d0 ee 74 c4 3d 2d 4a 1a be c8 a7 85 bd 3c d3 61 3d
       0.09592615 -0.15067358 -0.06526142 0.05513309
0003e0 ee d3 14 be 0a 5c e6 bd c4 88 57 bd cc 43 58 3d
       -0.1453397 -0.11248024 -0.052620664 0.05279903
0003f0 18 2d 01 be 7a 48 02 3e f3 59 12 be 51 5b 14 be
       -0.12614858 0.1272296 -0.14292125 -0.1448796

net.0.bias f4 [128]
000000 ce 73 ca bd c0 7a 46 3b 10 08 d2 bd ee bc 0b be
       -0.09885369 0.0030285567 -0.10255444 -0.1364629
000010 b8 16 e5 bd 90 9a 01 3e 8a 21 22 be 59 f2 f1 3d
       -0.11185974 0.12656617 -0.15833107 0.11813802
000020 fc d5 30 bd 7e 1d c8 bd 98 45 d3 3d bc ef 84 3d
       -0.04317282 -0.0977125 0.10316008 0.06491038
000030 49 91 ca bd da 8b f3 bd 15 dc 8f 3d 01 9f 16 be
       -0.09890992 -0.11891909 0.07024399 -0.14709093
000040 a9 b7 e3 3d 46 e2 e3 bd 73 48 f2 bd f4 81 0d 3e
       0.11119015 -0.111271426 -0.11830225 0.13819104
000050 38 c2 72 bd 29 bb a2 bd 7d 69 21 bd ba 49 93 bd
       -0.059267253 -0.07945854 -0.039407242 -0.071917966
000060 9d 40 ae 3d f7 7e 7a 3d 50 50 db bd 40 bd 94 3c
       0.08508418 0.06115624 -0.10708678 0.018156648
000070 e2 cb 2f be 15 e0 19 be 24 73 7e bd 1b 6f a5 bd
       -0.17167619 -0.15026887 -0.062121525 -0.08077832
000080 25 bc 07 be eb 8c 55 bd f6 09 c8 bd fd 9d e7 bd
       -0.13255365 -0.052136343 -0.09767525 -0.11309431
000090 eb 4a 62 bd 06 b8 a2 3d eb 7b 1f be c8 ea 01 be
       -0.05524723 0.07945256 -0.15574615 -0.12687218
0000a0 08 f5 bf 3d 78 79 81 bc da 7d bb 3d 8f 2e e2 bd
       0.09372908 -0.015804991 0.09154864 -0.110440366
0000b0 59 62 e4 bd c6 cb 1a be 9d dc 25 3d 8a 53 f9 3c
       -0.11151571 -0.15116796 0.040493596 0.030435342
0000c0 9f 82 12 3e e1 a6 0f 3e c0 70 2d 3b fd 93 b2 bc
       0.1430764 0.14028503 0.002646491 -0.021799082
0000d0 93 22 72 bd 1b 9b cc 3c fc 31 ad 3b d5 46 af bc
       -0.059115004 0.024976304 0.0052854996 -0.02139608
0000e0 5e c2 ff bd aa 26 54 3d fe b1 4e bd 8d 16 fa 3d
       -0.124882445 0.051794685 -0.050462715 0.122113325
0000f0 30 c3 9c 3d 48 9a 5f bd 8a 4a 0f be 89 d7 5a 3d
       0.076544166 -0.054590493 -0.13993278 0.053428207
000100 68 59 fa bc 40 0f e5 3d f7 ea a5 3c 00 30 8e 3c
       -0.03056021 0.11184549 0.020253642 0.017356873
000110 69 63 20 3d 98 fa b7 3c f7 ce d5 bc b0 d4 e7 3c
       0.039157305 0.02245836 -0.026099665 0.02829966
000120 ce d6 07 be 4d 58 09 3e d8 16 be 3c a7 6d 81 3a
       -0.13265535 0.1341259 0.023204252 0.0009874598
000130 04 fb cd 3d 86 96 18 bd 93 b8 25 3e 72 cf 34 3d
       0.10057643 -0.037252925 0.1618369 0.044143148
000140 1b e3 06 bd 58 4e de 3d 8c 0a f8 3d 8c fb ab 3d
       -0.03293143 0.10854787 0.12111387 0.08397588
000150 12 21 14 3e 60 17 80 3d 5a b8 bc 3d 30 8b 29 bc
       0.1446574 0.062544584 0.0921485 -0.010348126
000160 7b 90 67 bc db e1 db bd a0 9f b6 3d 44 0f 40 3d
       -0.014133568 -0.10736438 0.08917165 0.04688956
000170 15 60 c3 bd 30 6f e4 3d b2 9a 0d 3e f9 d0 11 bd
       -0.095398106 0.1115402 0.13828543 -0.035599682
000180 f5 b7 20 be 4c 80 24 be 23 9e c8 bd 6d ff 68 3d
       -0.15695174 -0.16064566 -0.09795787 0.056884218
000190 39 ff 77 bd fd d3 c6 bd 2c fe b8 bd 47 34 58 3d
       -0.060546134 -0.09708402 -0.090328544 0.05278423
0001a0 98 10 06 be 00 56 95 3a 5b c6 d1 3d 40 5e 04 3e
       -0.13092268 0.0011393428 0.102429114 0.12926579
0001b0 79 66 d2 3d 20 00 54 3c e0 ef e9 3c ed 24 69 bd
       0.10273451 0.012939483 0.028556764 -0.05691998
0001c0 41 84 07 be ca fb 13 3e 5d fd bf 3d 7a 0d fc bd
       -0.13234045 0.14451519 0.09374497 -0.12307258
0001d0 12 77 9e bd 68 83 14 3e fd 6a 81 3d ef 44 ac bd
       -0.077375546 0.14503253 0.063192345 -0.084115855
0001e0 b7 a3 bc bd c6 17 95 3d 24 ce 50 3d 67 30 10 be
       -0.09210914 0.07279925 0.05097784 -0.14080964
0001f0 0c 0c 0a be 0c 99 be bd c3 b6 95 bd 36 1b 57 3d
       -0.13481158 -0.09306535 -0.0731025 0.052516185

net.2.weight f4 [128]
000000 cb 9d 7f 3f 00 00 80 3f 80 05 83 3f 68 1e 6c 3f
       0.9985015 1.0 1.0236053 0.92233896
000010 00 00 80 3f 00 00 80 3f 4d 8b 90 3f 9e c4 7e 3f
       1.0 1.0 1.1292511 0.99518764
000020 ae 31 7a 3f 00 00 80 3f 00 00 80 3f 00 00 80 3f
       0.97732055 1.0 1.0 1.0
000030 00 00 80 3f b5 08 82 3f 5d ee 80 3f 0d 60 48 3f
       1.0 1.0158907 1.0072743 0.7827156
000040 9a 4b 8f 3f 10 f4 8a 3f 09 3a 8a 3f 24 bb 71 3f
       1.1194947 1.0855732 1.0798961 0.9442618
000050 00 00 80 3f 56 58 79 3f 0a c4 7f 3f da 93 8c 3f
       1.0 0.97400415 0.99908507 1.0982621
000060 a4 71 80 3f 4a e4 78 3f 00 00 80 3f 00 00 80 3f
       1.003468 0.9722334 1.0 1.0
000070 41 85 8e 3f a0 7e 7c 3f fa 7e 78 3f 2c 77 80 3f
       1.1134416 0.98630714 0.9706875 1.0036368
000080 dd 6a 7a 3f fc cc 79 3f 1e a3 64 3f 98 81 75 3f
       0.9781931 0.97578406 0.893114 0.9590087
000090 db 11 75 3f 37 3b 82 3f c5 c6 8b 3f 70 fc 76 3f
       0.9573037 1.0174321 1.0920035 0.9647894
0000a0 e0 7a ab 3f 00 00 80 3f 11 01 7a 3f 2a a5 7e 3f
       1.3396873 1.0 0.9765788 0.9947077
0000b0 00 00 80 3f 4e fa 96 3f a4 6d 3f 3f 7b ac 6b 3f
       1.0 1.1795137 0.74776673 0.9206006
0000c0 49 c4 81 3f 98 6b 72 3f 00 00 80 3f 36 e0 77 3f
       1.0138026 0.94695425 1.0 0.96826494
0000d0 e0 73 71 3f 8a 27 7b 3f 98 97 8e 3f 37 60 7f 3f
       0.94317436 0.98107207 1.1140013 0.9975619
0000e0 59 5e 6e 3f 7a bf 92 3f 89 df 7c 3f 65 9c 7f 3f
       0.93112713 1.1464684 0.9877859 0.99848014
0000f0 00 00 80 3f 84 dc 7e 3f 00 00 80 3f e7 23 8b 3f
       1.0 0.9955523 1.0 1.0870332
000100 00 00 80 3f 00 00 80 3f 5e b0 6d 3f 00 00 80 3f
       1.0 1.0 0.9284724 1.0
000110 ee 2e 6a 3f 00 00 80 3f 38 7b 80 3f 00 00 80 3f
       0.9147786 1.0 1.0037603 1.0
000120 25 cd 90 3f 2f 08 71 3f 00 00 80 3f 46 05 65 3f
       1.1312605 0.9415311 1.0 0.8946117
000130 00 00 80 3f a9 68 6c 3f 81 1c 73 3f 08 a3 7b 3f
       1.0 0.923472 0.9496537 0.9829564
000140 1b 2a 6e 3f 30 b0 a1 3f 00 00 80 3f 00 00 80 3f
       0.93033 1.2631893 1.0 1.0
000150 6b e1 6b 3f bb 45 81 3f 00 00 80 3f 00 00 80 3f
       0.92140836 1.0099405 1.0 1.0
000160 21 14 76 3f 15 a4 68 3f 74 3f 79 3f 00 00 80 3f
       0.96124464 0.9087537 0.97362447 1.0
000170 87 f6 6f 3f 00 00 80 3f 95 40 80 3f 7e 22 69 3f
       0.93735546 1.0 1.0019709 0.91068256
000180 9d f8 78 3f 0a 7e 6f 3f 4f 6b 80 3f 55 36 6b 3f
       0.97254354 0.93551695 1.0032748 0.9187978
000190 0b a7 7b 3f 5b 96 6d 3f 3a 7f 84 3f b9 79 7e 3f
       0.9830176 0.9280755 1.0351326 0.99404484
0001a0 d0 80 71 3f 00 00 80 3f ee a3 6c 3f 00 00 80 3f
       0.9433718 1.0 0.92437637 1.0
0001b0 ab c1 8a 3f 00 00 80 3f 34 dc 7c 3f 99 3f 6f 3f
       1.0840353 1.0 0.98773503 0.9345642
0001c0 a5 2f 6e 3f 00 00 80 3f 54 0a 82 3f 02 ee 79 3f
       0.9304145 1.0 1.0159402 0.97628796
0001d0 00 00 80 3f 00 00 80 3f 93 5c 69 3f 70 ee 80 3f
       1.0 1.0 0.9115688 1.0072765
0001e0 00 00 80 3f 00 00 80 3f ef 45 6c 3f 01 77 77 3f
       1.0 1.0 0.9229421 0.9666596
0001f0 00 00 80 3f 00 00 80 3f d4 6b 6d 3f 25 85 97 3f
       1.0 1.0 0.9274266 1.1837507

net.2.bias f4 [128]
000000 db 1f 8c 3d 9d d2 90 3d 90 35 8f bd a7 e2 3e 3d
       0.068420134 0.07071421 -0.06992638 0.04660287
000010 e7 81 90 3d d3 8a 92 bd f4 2c 91 bd d9 d2 83 bd
       0.07056027 -0.07155385 -0.07088652 -0.064367004
000020 a7 72 21 bc ba 91 90 3d db f2 91 3d 40 94 95 bd
       -0.009853995 0.07059045 0.07126399 -0.07303667
000030 12 67 96 3d fa 2f 89 bd bd ae a6 bd e5 81 f9 bc
       0.07343878 -0.06698604 -0.081387974 -0.030457446
000040 30 f6 92 bd 48 b0 94 bd 6c 54 94 bd 23 fd b2 3c
       -0.07175863 -0.072601855 -0.07242665 0.02184922
000050 cf 28 91 bd 43 f0 ad 3d 67 6e 89 bd d6 58 98 bd
       -0.07087862 0.08493092 -0.06710511 -0.07438819
000060 55 88 87 bd e6 d8 92 3d 1c 9a 92 3d e4 da 93 bd
       -0.066178 0.07170276 0.071583 -0.072194844
000070 b2 5d 91 bd 10 1a 8e 3d 82 ab 9f 3d 58 26 7d bd
       -0.07097949 0.06938565 0.077963844 -0.061804146
000080 c4 cb a3 3d 6f 29 9c 3d 21 75 28 3d c1 79 5a 3d
       0.079978496 0.0762509 0.041127328 0.05333877
000090 be 78 6f bd e4 72 c3 3c 4c 45 98 bd 57 c1 88 3d
       -0.058464758 0.023858495 -0.07435092 0.06677502
0000a0 d6 2f c8 bb 44 2d 96 bd 8c 67 91 3d a6 5f 94 3d
       -0.006109218 -0.073328525 0.07099828 0.07244806
0000b0 e8 43 95 3d fa 1b 97 bd 32 78 04 3d 87 32 41 3d
       0.07288343 -0.07378383 0.03234119 0.047167327
0000c0 fb ca 9d 3d 45 34 97 3d f8 bb 93 3d cc d9 82 3d
       0.07704731 0.073830165 0.072135866 0.06389198
0000d0 66 ac 7d bd fb 77 90 3d 1b 94 95 bd 41 93 83 bd
       -0.06193199 0.070541345 -0.073036395 -0.06424571
0000e0 42 13 4c 3d a1 0b 92 bd b1 54 84 3d af 0b 89 bd
       0.049823053 -0.07131124 0.06461466 -0.066916816
0000f0 40 e8 98 bd 8a e7 83 bd d4 36 98 3d c8 28 94 bd
       -0.07466173 -0.06440647 0.07432333 -0.07234341
000100 4e 9f 96 3d 65 50 91 3d 51 47 4a bd a2 38 93 bd
       0.07354604 0.07095412 -0.04938442 -0.07188536
000110 05 60 4d 3d 26 28 9e bd 70 6d 89 bd d4 6e 91 3d
       0.0501404 -0.077225015 -0.06710327 0.07101217
000120 42 ff 92 bd 7a 79 83 bd 50 33 92 bd 9f b4 90 bd
       -0.07177593 -0.06419654 -0.07138693 -0.07065701
000130 a9 7e 93 3d ef 6c 1a 3d 4d e9 83 3d c5 4a 8b 3d
       0.07201893 0.037701543 0.06440983 0.068013705
000140 19 9c 73 bd 4e be 96 bd 84 97 94 bd ed 3c 9b bd
       -0.05947504 -0.073605165 -0.07255462 -0.0757998
000150 22 a0 4f 3d c7 51 89 bd cd b5 90 3d 40 54 90 3d
       0.050689824 -0.06705051 0.07065926 0.070473194
000160 58 4c 96 3d ab 56 5a 3d 2a 23 8a bd a0 fa 97 bd
       0.0733878 0.05330531 -0.06744988 -0.0742085
000170 e8 3a 8a bd e3 83 91 3d cd a1 7e bd 23 61 35 3d
       -0.06749517 0.071052335 -0.062166024 0.04428209
000180 a4 58 8e bd 5c 43 79 bd 10 d4 72 bd 8f bc 1c 3d
       -0.069505006 -0.060855255 -0.05928427 0.03826576
000190 38 86 94 3d 42 bd 51 3d df 8e 91 bd b6 2a 53 bd
       0.07252163 0.05120588 -0.071073286 -0.051554404
0001a0 89 eb 66 bd a5 a2 95 bd 1f 32 a1 3d d2 0d 99 3d
       -0.056376968 -0.073064126 0.07870888 0.07473339
0001b0 77 6b 93 bd 6c e7 90 3d 37 a9 8e 3d 24 21 11 3d
       -0.07198232 0.0707539 0.06965869 0.035431996
0001c0 5b b2 8e bd 3f 2a 91 bd f8 de 90 bd d8 c5 a9 3d
       -0.06967612 -0.07088136 -0.07073778 0.08289689
0001d0 98 bb 91 3d c5 03 91 3d 88 bc 69 3d c0 a8 99 bd
       0.07115859 0.07080797 0.057064563 -0.0750289
0001e0 86 d8 94 bd 21 7d 91 bd bc fe 08 3d 70 ff a4 3d
       -0.07267861 -0.071039446 0.03344606 0.08056533
0001f0 e6 90 90 bd af 95 91 3d 78 73 81 3c 82 b4 b5 bd
       -0.07058887 0.07108628 0.01580213 -0.0887232

net.2.running_mean f4 [128]
000000 d7 c0 1b 3b 00 00 00 00 70 78 d6 41 47 c9 e2 41
       0.0023766065 0.0 26.808807 28.34828
000010 00 00 00 00 00 00 00 00 20 e3 20 42 b8 2b a9 37
       0.0 0.0 40.2218 2.0166728e-05
000020 e1 62 df 39 00 00 00 00 00 00 00 00 00 00 00 00
       0.00042607545 0.0 0.0 0.0
000030 00 00 00 00 31 f2 98 3a ed 9b 5e 42 d8 56 06 42
       0.0 0.0011668858 55.65227 33.58481
000040 3d cf 5a 42 11 78 49 42 5f 47 06 42 49 02 8a 41
       54.70238 50.367252 33.5697 17.251116
000050 00 00 00 00 a2 26 88 3e f3 49 8e 3b 3f ea 35 42
       0.0 0.26591974 0.0043423115 45.478756
000060 f5 df 12 3a af a3 26 3e 00 00 00 00 00 00 00 00
       0.000560283 0.16273378 0.0 0.0
000070 71 98 b6 42 64 8b 96 38 87 30 2e 3e 2d 42 8c 3c
       91.29774 7.178521e-05 0.17010699 0.017121399
000080 49 5d 3e 3d 55 8d a6 3f 99 bf 4e 41 73 71 d8 40
       0.046475682 1.3011881 12.921777 6.763849
000090 89 b3 f9 41 61 3e ac 42 47 a5 e7 41 13 d7 87 41
       31.212664 86.12183 28.955702 16.980017
0000a0 59 2a d4 42 00 00 00 00 62 11 d0 3e b8 8e e8 3b
       106.08271 0.0 0.40638262 0.0070970915
0000b0 00 00 00 00 64 29 44 42 38 d4 83 41 c6 8d 4a 41
       0.0 49.04042 16.478622 12.659613
0000c0 df 38 90 37 e9 1f b3 3f 00 00 00 00 02 49 a3 41
       1.719262e-05 1.3994113 0.0 20.410648
0000d0 19 b6 35 41 7e 48 4c 3c fa a5 81 42 53 93 e3 39
       11.356957 0.012468455 64.82417 0.0004340658
0000e0 38 02 02 41 30 75 07 42 5f b0 07 3a 01 9d bc 37
       8.125542 33.86444 0.00051761226 2.2484457e-05
0000f0 00 00 00 00 9d 29 b1 3c 00 00 00 00 68 76 49 42
       0.0 0.021626288 0.0 50.36563
000100 00 00 00 00 00 00 00 00 4e 60 39 42 00 00 00 00
       0.0 0.0 46.344048 0.0
000110 56 fa 84 41 00 00 00 00 60 de b5 38 00 00 00 00
       16.622234 0.0 8.672173e-05 0.0
000120 78 6c 48 42 39 6f f7 41 00 00 00 00 33 c4 5c 42
       50.105927 30.929308 0.0 55.1916
000130 00 00 00 00 64 6a 0f 42 b9 17 ca 41 2c a9 19 3c
       0.0 35.853897 25.261583 0.009378713
000140 bf 10 fc 41 43 b2 a8 42 00 00 00 00 00 00 00 00
       31.508177 84.34817 0.0 0.0
000150 93 d3 6b 41 99 06 28 3b 00 00 00 00 00 00 00 00
       14.739154 0.0025638698 0.0 0.0
000160 db 38 9a 3e 92 d8 33 41 cb 82 e0 41 00 00 00 00
       0.30121502 11.240374 28.063864 0.0
000170 33 8e 82 42 00 00 00 00 b1 eb 19 3e 3d 9d 34 42
       65.27773 0.0 0.15031315 45.153553
000180 e8 19 cd 41 38 ad 86 41 db 8a f0 3c 45 c6 3b 41
       25.63765 16.83458 0.029363086 11.735906
000190 ec 53 84 3e fd 56 24 42 b3 ad 40 42 b5 d8 8b 39
       0.25845277 41.08495 48.16963 0.00026673605
0001a0 70 15 d6 41 00 00 00 00 da 17 16 41 00 00 00 00
       26.760468 0.0 9.380823 0.0
0001b0 bf ff 2c 42 00 00 00 00 4d ec 00 3e d8 4c 90 41
       43.249752 0.0 0.12590142 18.037521
0001c0 9a 51 0d 42 00 00 00 00 de dc 01 42 dc 58 58 3d
       35.32969 0.0 32.46569 0.052819118
0001d0 00 00 00 00 00 00 00 00 1f a7 81 41 03 b2 48 39
       0.0 0.0 16.206602 0.00019139801
0001e0 00 00 00 00 00 00 00 00 fd b8 0d 42 e5 91 ce 3c
       0.0 0.0 35.430653 0.025216052
0001f0 00 00 00 00 00 00 00 00 fb 2b 94 41 04 10 b4 42
       0.0 0.0 18.521475 90.03128

net.2.running_var f4 [128]
000000 c3 77 a3 3c 05 c9 be 3a c0 ff e7 41 77 13 8e 41
       0.019954568 0.0014555758 28.999878 17.759504
000010 05 c9 be 3a 05 c9 be 3a 13 09 a0 41 3e 16 bf 3a
       0.0014555758 0.0014555758 20.00443 0.0014578772
000020 fe 63 09 3b 05 c9 be 3a 05 c9 be 3a 05 c9 be 3a
       0.002096414 0.0014555758 0.0014555758 0.0014555758
000030 05 c9 be 3a 59 28 05 3c eb d6 95 42 ad 1e db 41
       0.0014555758 0.008127295 74.91976 27.389978
000040 07 55 66 42 60 f6 02 42 56 56 c7 41 9e 24 c6 41
       57.583035 32.7406 24.917156 24.76788
000050 05 c9 be 3a f7 f2 12 40 58 0c 4a 3d 27 ac 58 42
       0.0014555758 2.2960794 0.04932818 54.168118
000060 f6 9b 10 3b 3f b2 00 3f 05 c9 be 3a 05 c9 be 3a
       0.0022065616 0.5027198 0.0014555758 0.0014555758
000070 41 ca a4 42 14 34 bf 3a 99 15 e8 3e ec b2 74 3d
       82.39503 0.0014587664 0.45328978 0.059740946
000080 f7 6f a1 3e 1d 9e 79 40 d2 2b 8d 41 c1 de 5c 41
       0.31530735 3.9002755 17.646397 13.804383
000090 0d c9 c3 41 9b bd 24 42 eb dd a1 41 a6 af 4c 41
       24.47317 41.18516 20.233358 12.792883
0000a0 9b b5 c4 42 05 c9 be 3a 8c 9b 9b 40 11 07 60 3c
       98.3547 0.0014555758 4.8627377 0.01367356
0000b0 05 c9 be 3a b3 92 93 41 76 06 cb 41 d3 ca 96 41
       0.0014555758 18.44663 25.378155 18.849035
0000c0 48 cc be 3a a6 6a 1a 40 05 c9 be 3a ac 92 9a 41
       0.001455673 2.4127593 0.0014555758 19.321617
0000d0 e1 04 62 41 ae b9 fd 3c ca ba 72 42 73 b8 b5 3b
       14.126191 0.030972328 60.68241 0.0055456697
0000e0 cb aa 50 41 fa 5a ef 41 00 30 41 3b e1 fa bf 3a
       13.0416975 29.919422 0.0029478073 0.0014646911
0000f0 05 c9 be 3a df 3b ec 3d 05 c9 be 3a ac 0d 23 42
       0.0014555758 0.11534857 0.0014555758 40.76335
000100 05 c9 be 3a 05 c9 be 3a e4 c4 e5 41 05 c9 be 3a
       0.0014555758 0.0014555758 28.721138 0.0014555758
000110 49 c7 9e 41 05 c9 be 3a ea 8e d0 3a 05 c9 be 3a
       19.847307 0.0014555758 0.0015911732 0.0014555758
000120 21 5b 8c 41 d4 c2 c4 41 05 c9 be 3a a4 af bc 41
       17.544497 24.59513 0.0014555758 23.585762
000130 05 c9 be 3a 32 09 ee 41 38 fd aa 41 25 14 5b 3d
       0.0014555758 29.75449 21.373642 0.05348601
000140 49 f7 93 41 93 ab 3f 42 05 c9 be 3a 05 c9 be 3a
       18.495745 47.917553 0.0014555758 0.0014555758
000150 96 08 8f 41 2d 8b 3c 3c 05 c9 be 3a 05 c9 be 3a
       17.879192 0.0115077915 0.0014555758 0.0014555758
000160 57 2d 5a 3f 10 e7 8d 41 78 38 d9 41 05 c9 be 3a
       0.85225433 17.737823 27.152573 0.0014555758
000170 c5 0a 52 41 05 c9 be 3a 23 e0 2f 3f f5 53 0b 42
       13.127629 0.0014555758 0.6870138 34.83199
000180 9e 40 b1 41 32 ae 88 41 33 46 29 3e fc 7f 7c 41
       22.156551 17.085056 0.16530685 15.781246
000190 0e 62 d2 3f 63 67 37 42 85 21 02 42 28 35 19 3b
       1.6436174 45.850964 32.532734 0.002337763
0001a0 34 c8 fa 41 05 c9 be 3a 53 d5 84 41 05 c9 be 3a
       31.347755 0.0014555758 16.604162 0.0014555758
0001b0 bd b1 a9 41 05 c9 be 3a 53 f2 52 3f b2 cc 56 41
       21.211786 0.0014555758 0.8240101 13.424974
0001c0 87 25 f1 41 05 c9 be 3a a5 3c 0f 41 2b 9d af 3e
       30.143324 0.0014555758 8.952306 0.34299597
0001d0 05 c9 be 3a 05 c9 be 3a 0b 88 64 41 11 00 c5 3a
       0.0014555758 0.0014555758 14.283214 0.0015029927
0001e0 05 c9 be 3a 05 c9 be 3a b1 69 da 41 cf 8b a0 3d
       0.0014555758 0.0014555758 27.301607 0.078391664
0001f0 05 c9 be 3a 05 c9 be 3a c2 85 03 42 c7 15 1c 42
       0.0014555758 0.0014555758 32.880623 39.021267

net.3.weight f4 [1, 128]
000000 b2 5a a1 3d 9f bc 19 3e f0 93 a8 bd 08 98 8d ba
       0.07878627 0.1501336 -0.08231342 -0.0010802755
000010 e7 ef 21 3e 69 b0 fc bd 5f e7 54 be 47 b8 91 bd
       0.15814172 -0.12338335 -0.20791386 -0.07115226
000020 6f ea 05 bc 1e 30 20 3e cd 98 05 3e 2c f8 d0 bd
       -0.008173569 0.15643355 0.1304657 -0.10203585
000030 4f a6 c9 3d 36 36 e9 bd 2d 0b 1f bd f6 97 a5 b9
       0.09846174 -0.11387293 -0.038829017 -0.00031584472
000040 80 2e 50 be 41 15 f7 bd 71 fd 1d be 9b 6c 18 bd
       -0.20330238 -0.12064601 -0.15428711 -0.03721295
000050 4c 85 12 be 5f 43 0e 3d 28 1e f3 bd 01 70 0a be
       -0.14308661 0.03473222 -0.11870986 -0.13519289
000060 dd 56 e1 bd 4d dd 58 3d 2a 66 fb 3d 2e 55 e5 bd
       -0.11002896 0.052945424 0.122753456 -0.11197887
000070 63 90 48 be 14 b3 09 3e c6 43 ee 3c 65 db 8e bd
       -0.19586329 0.13447219 0.029085051 -0.0697544
000080 b6 c2 5f 3a 8a 72 07 3d 2e bb 29 bb 23 99 94 3c
       0.0008535789 0.033068217 -0.0025898921 0.018139428
000090 74 b8 03 bb b7 42 9f bd bb 3f 03 be ff c2 93 3c
       -0.0020098956 -0.07776397 -0.1281728 0.018037317
0000a0 40 a0 86 be 27 8a cb bd ac 2b 16 3d 6f 66 d7 3d
       -0.26294136 -0.0993846 0.036662742 0.105175845
0000b0 a4 19 d4 3d 7a 19 55 be c5 c7 cf 3a ee bb 9e 3a
       0.10356453 -0.208105 0.0015852383 0.0012110451
0000c0 ca 58 aa 3d 44 4c 06 3d 68 1d e7 3d c1 6c 4c 3d
       0.083177164 0.032787576 0.11284906 0.049908403
0000d0 24 66 85 bb 4e 7e 07 3d 91 a1 3c be 61 74 ab bd
       -0.004071014 0.033079438 -0.18421008 -0.08371807
0000e0 ea 28 89 3b 46 ab 5a be b9 a5 9c 3d 7f c7 e3 bd
       0.0041857855 -0.21354398 0.076487966 -0.11122035
0000f0 3d de b8 bd 65 ba 82 bd 9c e2 bc 3d c4 2b 27 be
       -0.090267636 -0.06383208 0.0922291 -0.16325289
000100 10 e3 c7 3d 68 96 0f 3e d0 77 c7 39 bd 6e ef bd
       0.097601056 0.14022219 0.00038045505 -0.116910435
000110 8c 11 ae ba 64 31 9d bd bd 77 f8 bd 82 7e 0d 3e
       -0.0013280376 -0.07675436 -0.12132213 0.1381779
000120 19 6d 3f be ff 69 57 bc 5d 52 02 be c2 df f2 bb
       -0.18693961 -0.01314783 -0.12726732 -0.007411928
000130 7f d7 ea 3d da b5 1a bb 9e 23 12 3c 34 ed 7b 3d
       0.11466884 -0.0023606927 0.008919625 0.06150551
000140 11 e4 48 3b 4a 80 9e be bd 98 db bd e6 98 ad bd
       0.0030653516 -0.30957252 -0.10722492 -0.08476429
000150 28 54 97 ba 80 4b ad bd aa 7b 1c 3e c3 4e 27 3e
       -0.0011545466 -0.08461666 0.15281549 0.16338639
000160 41 e7 4b 3d c4 ae fc 39 6d d0 2e bd e7 55 be bd
       0.049781088 0.00048195396 -0.04267924 -0.09293728
000170 c7 02 7d bc aa 1c 0c 3e b8 8c 38 bd d0 45 4e b6
       -0.015442557 0.1368281 -0.045056075 -3.0737028e-06
000180 98 9b 81 bc 48 e5 54 bc 5b de 32 bd 6e bb 6e bb
       -0.015821263 -0.012994118 -0.043669086 -0.0036427635
000190 26 aa 04 3c 4b 70 bc 39 55 b8 df bd 98 28 ea bc
       0.008097207 0.0003594182 -0.109238304 -0.02858381
0001a0 2c 4e ec 3a 23 6e d0 bd 43 7c 0b 3c 94 12 b8 3d
       0.0018028668 -0.10177257 0.008513513 0.089879185
0001b0 45 47 26 be 6e e1 17 3e 34 56 b5 3c e2 ca 40 bc
       -0.16238125 0.14832088 0.022135831 -0.011767121
0001c0 54 eb 21 bc 39 6a 12 be f0 b3 89 bd e9 74 79 3a
       -0.009882767 -0.14298333 -0.067237735 0.0009516017
0001d0 41 b0 08 3e 9e 77 15 3e b9 2b 9e 3a 8d 4a 91 bd
       0.13348486 0.14596412 0.0012067474 -0.070942976
0001e0 f0 a1 d8 bd ea 8d 0c be fe 86 93 bb 16 5b 90 3c
       -0.10577762 -0.13726011 -0.0045021763 0.017621558
0001f0 78 4c 20 be 96 f9 0a 3e 5d 6a 44 bc 60 2b 1c be
       -0.1565417 0.13571772 -0.01198825 -0.15250921
