saved_models/mlp/MLP_sonar.pth (torch, 37270 bytes, 7 tensors)

net.0.weight f4 [128, 60]
0	0x3d0119c6	0.03151872
1	0x3db942ec	0.090459675
2	0x3d0d5042	0.034500368
3	0x3d091d8e	0.03347545
4	0x3de8803c	0.11352584
5	0x3e20520c	0.15656298
6	0x3d3b3e63	0.045713793
7	0x3e73cf7f	0.23809622
8	0x3e20ec19	0.15715064
9	0x3e5dc597	0.21657406
10	0x3e1f0437	0.15528952
11	0x3d49abbe	0.04923605
12	0x3e6d9fae	0.23205444
13	0x3d8b49e9	0.068012066
14	0x3d6672eb	0.056261938
15	0x3dbf8109	0.093507834
16	0x3e802678	0.2502935
17	0x3d510888	0.051033527
18	0xbe099f79	-0.1343974
19	0xbd93d87b	-0.07219025
20	0x3ca22d67	0.01979704
21	0x3dab66f2	0.08369245
22	0xbdc39865	-0.09550551
23	0xbe2ef1ee	-0.17084476
24	0xbe547f6d	-0.20751734
25	0x3d0842d9	0.033266876
26	0xbd38a505	-0.04507925
27	0x3e0674ef	0.13130544
28	0xbd019084	-0.03163196
29	0xbd1a52d7	-0.03767666
30	0x3e6b396f	0.22971128
31	0x3d912282	0.0708666
32	0x3cb73193	0.022362506
33	0xbdd1f2e0	-0.10251403
34	0xbdad5fbc	-0.084655255
35	0x3d2cd023	0.042190682
36	0x3dc0a5ad	0.094066
37	0xbda3ae69	-0.079922505
38	0x3cf908ed	0.030399764
39	0x3e7806bb	0.24221317
40	0x3daffc7f	0.08593082
41	0xbea03419	-0.31289747
42	0xbebdb3e4	-0.37051308
43	0xbd016f9e	-0.031600587
44	0xbe110806	-0.14163217
45	0xbdc2c25e	-0.09509729
46	0xbdf3bcb5	-0.119012274
47	0xbd53307d	-0.051559914
48	0xbe928508	-0.2861712
49	0xbbe2fab2	-0.006926858
50	0xbe4c24b3	-0.19935875
51	0xbec390e5	-0.38196483
52	0xbec1003e	-0.37695497
53	0xbe7249d4	-0.23660976
54	0xbe1c4748	-0.15261567
55	0xbe5ef9fb	-0.21775047
56	0x3cdb8ffd	0.026802057
57	0xbef2d5c1	-0.47428706
58	0xbe530d59	-0.2061056
59	0x3e339f38	0.17541206
60	0xbcf07d13	-0.029356515
61	0xbe33af32	-0.175473
62	0xbd1fffd1	-0.039062325
63	0xbe70b8b7	-0.23507963
64	0xbdcf5e84	-0.10125449
65	0xbe2e7378	-0.17036235
66	0x3c0fa831	0.008768127
67	0xbd3687d9	-0.04456315
68	0xbe5eb49d	-0.21748586
69	0xbe9d1dd5	-0.30686823
70	0xbe10c91c	-0.14139217
71	0xbcbdf0ed	-0.023186171
72	0x3d1294b9	0.035786364
73	0x3d30159a	0.04298935
74	0xbcdf6acc	-0.027272604
75	0xbda0ba14	-0.078479916
76	0xbe1be6d9	-0.1522478
77	0xbd48dcf1	-0.04903883
78	0x3df22e7a	0.11825271
79	0x3ddc80e2	0.1076677
80	0x3dc3e66e	0.09565435
81	0xbe098718	-0.1343044
82	0xbd8c0b2a	-0.06838067
83	0x3daafe05	0.08349232
84	0x3d2ffd86	0.04296639
85	0x3d2f3faa	0.042785324
86	0x3c5aeed7	0.013362608
87	0xbd843ec8	-0.06457287
88	0x3dc14f99	0.0943901
89	0xbc16f205	-0.009212975
90	0x3c85b312	0.016320739
91	0xbd3fd2ce	-0.0468319
92	0xbdb8eea6	-0.090298936
93	0x3d2e5c05	0.042568225
94	0x3c65cfc7	0.014026589
95	0x3abb6e9a	0.001429993
96	0x3d8e6a5e	0.06953882
97	0x3c98f220	0.018670142
98	0x3e17122b	0.14753024
99	0xbe027401	-0.12739564
100	0xbc3959e4	-0.0113129355
101	0x3de706ef	0.11280619
102	0xbc0ba5ec	-0.008523446
103	0x3dace8de	0.084428534
104	0xbd8d6f3b	-0.06905981
105	0x3c0363e0	0.0080194175
106	0x3d18b42e	0.037281208
107	0xbdc1bc44	-0.09459737
108	0xbd7b28b2	-0.061318107
109	0x3e8f7fce	0.28027195
110	0xbe3bc181	-0.18335535
111	0xbe6e014d	-0.23242684
112	0xbceeecfd	-0.02916574
113	0xbe01be5b	-0.12670271
114	0x3e364a64	0.17801815
115	0x3d8efab7	0.06981414
116	0xbe053d3c	-0.1301164
117	0x3c5afb70	0.013365611
118	0xbe31e1a1	-0.17371227
119	0xbe858629	-0.2607892
120	0x3e0129cb	0.12613599
121	0x3e08239a	0.13294831
122	0xbdbffdf0	-0.093746066
123	0xbd691b61	-0.056910876
124	0xbca17759	-0.01971023
125	0xbdde65f2	-0.10859288
126	0xbe08f6cf	-0.133754
127	0xbdb0f781	-0.086409576
128	0xbc78cd7d	-0.015185711
129	0xbdab9a86	-0.083790824
130	0xbdc4897c	-0.095965356
131	0xbe00df9f	-0.12585305
132	0xbdc63c23	-0.09679439
133	0x3e2a4235	0.16626818
134	0x3d6db159	0.05803046
135	0x3e0d3e3c	0.13793272
136	0x3e37f638	0.17965019
137	0x3b9c26e7	0.0047653797
138	0x3e2978ac	0.16549939
139	0x3da042b6	0.07825224
140	0x3cd90887	0.026493324
141	0xbd8da03d	-0.06915329
142	0x3ce31d01	0.027723791
143	0x3e1555a4	0.1458345
144	0x3d80f6d7	0.06297081
145	0xbdf781c0	-0.12085295
146	0xbdcc1b64	-0.09966162
147	0xbd31bc2c	-0.043392345
148	0xbdd63bb2	-0.10460605
149	0x3cd5f562	0.026117984
150	0xb8146678	-3.538138e-05
151	0x3e26420e	0.16236135
152	0x3e163d2b	0.14671771
153	0xbdf7f032	-0.121063605
154	0xbdcb01ec	-0.09912476
155	0xbe79de68	-0.24401248
156	0xbe309b9a	-0.17246857
157	0x3b1b185a	0.0023665638
158	0x3dacf2f0	0.08444774
159	0xbd7eb5be	-0.06218504
160	0x3dfacbf2	0.12245931
161	0x3deff42f	0.11716496
162	0x3d81f8f7	0.063463144
163	0x3d9aa777	0.07551473
164	0x3e052ce0	0.130054
165	0xbe3da168	-0.18518603
166	0xbe356d96	-0.17717585
167	0x3e394399	0.18092193
168	0x3c8f3d91	0.017485412
169	0xbd2f9a4a	-0.04287175
170	0x3e7ae60a	0.24501815
171	0x3e5a586e	0.21322796
172	0x3e728c5a	0.23686352
173	0x3eb85626	0.36003226
174	0x3e38f979	0.18063916
175	0x3e6e4eea	0.23272291
176	0x3e5942ca	0.21216884
177	0x3eb5081b	0.35357746
178	0x3ed08607	0.40727255
179	0xbcdd0cf1	-0.02698371
180	0x3d9942e5	0.07483462
181	0xbd99f42e	-0.07517277
182	0xbdb68c48	-0.08913475
183	0xbe051da3	-0.12999587
184	0xbe31e9ea	-0.17374387
185	0xbe201015	-0.15631135
186	0x3d9e8b43	0.07741406
187	0xbd9a6a97	-0.07539862
188	0xbe191f40	-0.14953327
189	0xbd959c9c	-0.073052615
190	0xbe02240f	-0.12709068
191	0xbd20ed28	-0.03928867
192	0x3e0b744e	0.13618585
193	0xbd828b62	-0.063742414
194	0xbd813226	-0.06308393
195	0xbdbce75b	-0.09223815
196	0x3c51dee7	0.012809492
197	0xbda57a51	-0.08079971
198	0xbd60c014	-0.05487068
199	0x3e1a5b17	0.1507381
200	0xbd55a180	-0.05215597
201	0x3d036b48	0.032084733
202	0x3d067da0	0.03283465
203	0xbe2d3627	-0.16915189
204	0xbe0c8c27	-0.13725339
205	0x3dae3653	0.08506455
206	0x3e1dd0b5	0.15411647
207	0xbdf92d72	-0.12166871
208	0x3c81725f	0.015801607
209	0xbdf66c9a	-0.12032433
210	0xbd50d3b5	-0.05098315
211	0xbd8390e3	-0.06424119
212	0x3e48e438	0.19618309
213	0x3ddb41a0	0.10705876
214	0x3df6ba8b	0.12047299
215	0xbcbfae7e	-0.023398634
216	0x3dad24b4	0.08454266
217	0xbe351513	-0.1768382
218	0xbe81b065	-0.2532989
219	0x3e14474a	0.1448032
220	0x3e24a858	0.16079843
221	0xbcd726ca	-0.026263613
222	0x3e3e4c04	0.18583685
223	0xbd83a687	-0.06428247
224	0xbc708368	-0.014679767
225	0x3c4bf533	0.012448597
226	0x3d65a7d8	0.05606827
227	0xbe4e5180	-0.20148277
228	0x3c2823ba	0.010262424
229	0x3e3c6e00	0.18401337
230	0x3b709132	0.0036707637
231	0x3d8ab794	0.06773296
232	0xbdaed496	-0.08536641
233	0x3dabdd21	0.08391786
234	0x3d49101f	0.04908764
235	0x3d3a714d	0.04551821
236	0x3d6d9162	0.057999976
237	0x3e38738a	0.18012825
238	0xbd617385	-0.05504181
239	0xbe1a68aa	-0.15078989
240	0x3e27074d	0.16311379
241	0x3de30721	0.11085344
242	0x3d6adf95	0.05734213
243	0x3e658b03	0.2241631
244	0x3d8d9a6a	0.06914218
245	0x3d358e4d	0.04432516
246	0xbe1c33fe	-0.15254208
247	0xbddf3c68	-0.109001935
248	0x3e3054d7	0.17219864
249	0x3c11f4e4	0.008908484
250	0x3e68f4b8	0.22749603
251	0xbd2ae38c	-0.04172091
252	0xbb8eb4ca	-0.004355048
253	0xbc17b5dd	-0.009259668
254	0x3c439b2a	0.011938849
255	0xbd023c99	-0.03179607

net.0.bias f4 [128]
0	0xbdc1c9b7	-0.09462302
1	0x3ddd4a82	0.10805227
2	0xbdae30d5	-0.08505408
3	0x3e13ff81	0.14452936
4	0xbddbf595	-0.107402004
5	0xbd690d06	-0.056897186
6	0x3dc4060f	0.09571468
7	0xbe1b632f	-0.15174554
8	0x3d341ba7	0.043971684
9	0xbd214ccf	-0.03937989
10	0xbe1ea550	-0.15492749
11	0x3d288d7c	0.041150555
12	0x3df9e1a3	0.1220124
13	0x3de54833	0.111954115
14	0x3cf5e531	0.030016514
15	0xbd9b3d3e	-0.075800404
16	0xbe0d9d44	-0.13829523
17	0x3c91723a	0.017754663
18	0x3d335af9	0.04378793
19	0xbda1be27	-0.07897597
20	0xbe0629d6	-0.13101897
21	0xba9ef6d7	-0.0012128007
22	0x3e11319f	0.14179085
23	0xbcdf69ab	-0.027272066
24	0x3de58517	0.112070255
25	0x3c37c0d9	0.011215412
26	0x3d9dfba7	0.077140145
27	0xbda960e6	-0.08270435
28	0x3c001502	0.007817509
29	0xbe1378cb	-0.14401548
30	0x3e6d127a	0.2315158
31	0xbc481a8f	-0.012213363
32	0x3d996602	0.074901596
33	0xbe0fbd67	-0.14037095
34	0xbd5ebdb6	-0.05438014
35	0x3d8b7d05	0.06810955
36	0xbdce9f6c	-0.10089001
37	0x3d82f0ad	0.063935615
38	0x3d0b3765	0.033988375
39	0xbccb839d	-0.024843032
40	0x3dbc6d64	0.09200552
41	0xbca711ff	-0.020394323
42	0x3d355315	0.044268686
43	0xbd983f5a	-0.07433958
44	0x3cb36018	0.021896407
45	0x3de68d28	0.11257392
46	0xbdf1d70d	-0.11808596
47	0xbd409ef8	-0.047026604
48	0x3d8bb389	0.06821353
49	0xbd470517	-0.04858884
50	0xbd872afc	-0.065999955
51	0xbc9e4b7b	-0.019323101
52	0x3d5744d8	0.05255589
53	0xbddbd988	-0.1073485
54	0x3c9209d8	0.01782696
55	0xbd18a85e	-0.037269942
56	0x3d887471	0.066628344
57	0x3d8e7058	0.069550216
58	0xbd5bf6ba	-0.053702094
59	0xbe0b75f2	-0.13619211
60	0x3db7ef86	0.08981232
61	0xbdb72860	-0.08943248
62	0xbca9b0fe	-0.02071428
63	0x3d913793	0.07090678
64	0xbd609559	-0.05482993
65	0xbd85440e	-0.06507121
66	0x3c15b5cd	0.009137583
67	0x3da12152	0.078676835
68	0xbca906bb	-0.020633092
69	0x3d79c63e	0.060980074
70	0x3d51e322	0.051242
71	0x3ddd583f	0.10807847
72	0xbd83738a	-0.06418522
73	0x3d8d3903	0.0689564
74	0x3d9c0365	0.07617835
75	0x3daf21d6	0.085513756
76	0xbdcbdce2	-0.099542394
77	0x3ccf8e70	0.025336474
78	0xbdab2ec0	-0.08358526
79	0xbb7d0cc0	-0.0038612336
80	0x3dc1eed6	0.094693825
81	0xbb9b7d59	-0.004745167
82	0xbd78abed	-0.060710836
83	0x3da05f7d	0.07830713
84	0xbd60cf87	-0.054885413
85	0xbce3663d	-0.027758712
86	0x3da810cf	0.08206331
87	0xbce088a1	-0.0274089
88	0xbcc899fc	-0.024487488
89	0x3db16e9e	0.08663677
90	0xbd5ec859	-0.054390285
91	0xbd5cc4e2	-0.0538987
92	0xbdaac0eb	-0.083375774
93	0xbce0580d	-0.027385736
94	0x3e206883	0.15664868
95	0x3d585e7b	0.05282448
96	0x3db59d3d	0.088678814
97	0xbd36adf0	-0.044599473
98	0x3d40cca0	0.047070146
99	0xbc1f0c1e	-0.009707479
100	0xbd406a1b	-0.04697619
101	0xbd80801b	-0.06274434
102	0x3e0004e5	0.12501867
103	0x3d07fbfd	0.0331993
104	0x3d78b90d	0.060723353
105	0xbd8bfdd0	-0.0683552
106	0xbcce3fa6	-0.025176834
107	0x3bcbd940	0.0062209666
108	0xbdcb3414	-0.099220425
109	0xbe16afb2	-0.1471546
110	0x3c79e2a2	0.015251787
111	0xbddb3d0c	-0.10705003
112	0x3d46f6da	0.04857526
113	0xbd4be1dc	-0.049775943
114	0x3ddc15d8	0.10746354
115	0xbd171171	-0.036881868
116	0x3d971bae	0.07378326
117	0x3d13a4ff	0.036046024
118	0xbdc62674	-0.09675303
119	0x3d8b40a4	0.067994386
120	0x3d97a79e	0.07405017
121	0x3e240526	0.16017589
122	0xbcf9c8a7	-0.030491186
123	0x3d6d51a0	0.05793917
124	0xbd82dbeb	-0.06389602
125	0xbc47eb58	-0.012202106
126	0x3e0df6b3	0.1386364
127	0x3e30b006	0.17254648

net.2.weight f4 [128]
0	0x3fb9173c	1.4460216
1	0x3f9b8e68	1.2152834
2	0x3fa63ca9	1.2987262
3	0x3fcf9812	1.6218283
4	0x3f92cf69	1.1469547
5	0x3fcbf9a5	1.593556
6	0x3fb1cd7a	1.3890831
7	0x3fa36fac	1.2768455
8	0x3f8a3ed7	1.0800427
9	0x3f9a11e9	1.2036716
10	0x3fbf71fc	1.495666
11	0x3f7de558	0.99178076
12	0x3fe032b0	1.7515469
13	0x3faf6062	1.3701289
14	0x3fba3d17	1.4549893
15	0x3f791eef	0.97312826
16	0x3fa8b129	1.3179065
17	0x3fa94a68	1.3225832
18	0x3f7eacb9	0.99482304
19	0x3f800000	1.0
20	0x3f887996	1.0662105
21	0x3fa89245	1.3169638
22	0x3f8efb30	1.1170406
23	0x3f779df0	0.9672537
24	0x3faca8ea	1.3489048
25	0x3f878736	1.0588138
26	0x3f7c4c49	0.985539
27	0x3faf805d	1.3711048
28	0x3f8ac527	1.0841416
29	0x3f8eb9cf	1.1150454
30	0x3fe4ef7e	1.7885587
31	0x3fc1e839	1.5148994
32	0x3f7ea305	0.994675
33	0x3f920ccf	1.1410159
34	0x3f807c47	1.0037926
35	0x3fdbbe54	1.7167459
36	0x3f8cb553	1.0992836
37	0x3f8e880c	1.1135268
38	0x3f923ab4	1.1424165
39	0x3f9889e2	1.1917078
40	0x3f7b1e7c	0.9809339
41	0x3f92dc67	1.1473511
42	0x3fb7c71b	1.4357637
43	0x3f9832b8	1.1890478
44	0x3f800000	1.0
45	0x3f811c83	1.0086826
46	0x3f800000	1.0
47	0x3f8510ce	1.0395753
48	0x3fbadd51	1.459879
49	0x3f85c5f7	1.0451039
50	0x3f800000	1.0
51	0x3f8d3646	1.1032188
52	0x3f911168	1.1333437
53	0x3f800000	1.0
54	0x3fdf4cd7	1.7445325
55	0x3f800000	1.0
56	0x3f8833a9	1.0640765
57	0x3f7d9a12	0.9906322
58	0x3f800000	1.0
59	0x3fad017d	1.3516079
60	0x3f7ea65a	0.9947258
61	0x3fc30e9f	1.5238837
62	0x3f7cd467	0.987616
63	0x3f85e20e	1.0459611
64	0x3fa691ba	1.3013222
65	0x3f800000	1.0
66	0x3f94d656	1.162791
67	0x3f8eaf81	1.114731
68	0x3f92e4b6	1.1476047
69	0x3f7cbea9	0.98728424
70	0x3fa5c27c	1.2949977
71	0x3f7ed20e	0.9953927
72	0x3fc8f558	1.5699873
73	0x3f82de05	1.0224005
74	0x3f7f6ea2	0.9977819
75	0x3f96a4b7	1.1769017
76	0x3fc374aa	1.5269978
77	0x3f800000	1.0
78	0x3f9afd0e	1.2108476
79	0x3f800000	1.0
80	0x3f800000	1.0
81	0x3f9638e5	1.1736113
82	0x3fb6545c	1.4244494
83	0x3f8c5931	1.0964719
84	0x3f7e1cac	0.992625
85	0x3f84712d	1.0347039
86	0x3f882725	1.0636946
87	0x3fa3ec79	1.2806541
88	0x3f7eac1d	0.99481374
89	0x3fb29585	1.395188
90	0x3f79c243	0.97562045
91	0x3f9adeb4	1.2099214
92	0x3f8fbb3b	1.1229013
93	0x3fcf8858	1.6213484
94	0x3f9347b7	1.1506261
95	0x3f91b4ec	1.1383338
96	0x3f9b5dd4	1.2138009
97	0x3f7ea609	0.994721
98	0x3f7eafb7	0.9948687
99	0x3fe72a8a	1.8059857
100	0x3f8be4a8	1.0929155
101	0x3f9246f4	1.1427903
102	0x3f822ada	1.0169327
103	0x3f93ac6d	1.1536995
104	0x3f7f2447	0.9966473
105	0x3fa6fbd0	1.3045597
106	0x3f7d3945	0.9891551
107	0x3f9545cb	1.1661924
108	0x3f890129	1.0703479
109	0x3f92f21e	1.1480138
110	0x3f80b0f3	1.0054001
111	0x3f800000	1.0
112	0x3fa01e0d	1.2509171
113	0x3f7e9e75	0.99460536
114	0x3fbd8696	1.4806697
115	0x3f9ffa0e	1.2498186
116	0x3f9e7ff2	1.2382796
117	0x3f837eb3	1.027304
118	0x3f800000	1.0
119	0x3f7e79fa	0.9940487
120	0x3f800000	1.0
121	0x3fb29bd9	1.3953811
122	0x3f93dc92	1.1551688
123	0x3fb4166a	1.406934
124	0x3fc627f3	1.5480942
125	0x3f7c428a	0.9853903
126	0x3fcff7a4	1.6247449
127	0x3fd248b7	1.6428441

net.2.bias f4 [128]
0	0x3d13db3c	0.03609775
1	0x3ce2386c	0.027614795
2	0xbd0f0229	-0.03491417
3	0x3d23c711	0.039984766
4	0xbd0d383e	-0.034477465
5	0xbd2d5936	-0.042321406
6	0x3d283912	0.04107005
7	0xbd05672a	-0.032569088
8	0xbcf04bf2	-0.029333089
9	0xbd058182	-0.03259421
10	0xbd40d8be	-0.0470817
11	0xbc93c474	-0.018038012
12	0xbd2d9daa	-0.04238669
13	0x3d1223c9	0.03567866
14	0x3d222a30	0.039591014
15	0xbbb1978f	-0.0054196785
16	0xbd1afb41	-0.03783727
17	0xbcf9a1e8	-0.03047271
18	0x3c8e8a41	0.017399909
19	0x9491d938	-1.4726936e-26
20	0xbce56f9d	-0.028007323
21	0xbd16a697	-0.036779966
22	0x3cebeb82	0.028798822
23	0x3ba1ddea	0.0049397843
24	0x3d076f20	0.03306496
25	0xbd070ca9	-0.032971058
26	0xbcaa6c8b	-0.02080371
27	0x3d0ac91d	0.033883203
28	0xbcd76540	-0.026293397
29	0xbd2fcdcc	-0.042920873
30	0x3d7557da	0.059898235
31	0xbd19b1e2	-0.037523158
32	0xbc409804	-0.011754993
33	0xbd1266af	-0.035742458
34	0xbd011fb6	-0.031524383
35	0x3d1b6083	0.037933838
36	0xbd0cfe48	-0.03442219
37	0xbcf12824	-0.029438086
38	0x3cf13778	0.029445395
39	0xbcefbc7a	-0.029264677
40	0xbc6baaad	-0.014383954
41	0x3d0c26ad	0.03421657
42	0xbd14d9ff	-0.03634071
43	0xbd04473b	-0.032294493
44	0x35af2958	1.3050549e-06
45	0x3cba9ca0	0.022779763
46	0x2ba132d8	1.145385e-12
47	0xbcca5916	-0.024700683
48	0x3d0a1d6c	0.033719465
49	0x3cb6eaee	0.02232882
50	0xb3fd43d8	-1.1793571e-07
51	0xbd21c5e9	-0.039495382
52	0x3d1610ad	0.036636997
53	0x3bd729aa	0.006566246
54	0x3d1da602	0.038488396
55	0x9241474a	-6.0987932e-28
56	0xbcdd0500	-0.026979923
57	0x3bd825e1	0.0065963124
58	0x3bee05bb	0.0072638667
59	0xbd1d7628	-0.03844276
60	0x3cad63fc	0.02116584
61	0x3d1a0892	0.03760583
62	0xbc9f6f28	-0.019462183
63	0x3cfe5138	0.031044587
64	0xbd3ceaf4	-0.046122506
65	0x12b20da3	1.1236741e-27
66	0xbce3e8ae	-0.027820911
67	0x3d6c17bb	0.05763982
68	0x3ce208e7	0.027592136
69	0x3d184203	0.03717233
70	0xbd0f895b	-0.0350431
71	0xbcb0342b	-0.02150925
72	0xbd41dc7b	-0.047329407
73	0x3cbce4c1	0.023058297
74	0xbcbc0efb	-0.022956362
75	0x3cffe86f	0.031238763
76	0xbd1fac83	-0.03898288
77	0x2693273b	1.0210807e-15
78	0xbce21cdb	-0.02760165
79	0xb17554c5	-3.5700378e-09
80	0x3c040853	0.008058625
81	0x3d03b385	0.032153625
82	0xbd09d54c	-0.03365068
83	0xbce3c4ee	-0.027803864
84	0xbcb207b7	-0.021732194
85	0xbcd6ffb7	-0.026244981
86	0xbce96a5c	-0.028493099
87	0x3cfdc2fa	0.030976761
88	0x3c7772ab	0.015103023
89	0xbd12dc10	-0.0358544
90	0xbc67f35f	-0.014157145
91	0xbcf5b9a9	-0.029995756
92	0xbcf9445a	-0.0304281
93	0x3d25d2ef	0.040484365
94	0x3d04f19d	0.032456983
95	0x3ce72448	0.028215542
96	0xbd07d5fe	-0.033163063
97	0xbc8d4573	-0.01724503
98	0xbb6c8ca6	-0.0036094575
99	0x3d2262d7	0.039645042
100	0xbce73eab	-0.028228125
101	0xbd1e887a	-0.038704373
102	0x3cac33da	0.021020819
103	0xbcede63c	-0.029040448
104	0x396723d5	0.00022043225
105	0xbcf9a2be	-0.03047311
106	0x3c73c2d0	0.01487799
107	0x3ce2bf9d	0.027679259
108	0xbcbd08f5	-0.02307556
109	0xbd206447	-0.039158132
110	0x3cc6fcc9	0.02429046
111	0x3989902e	0.00026238099
112	0xbd76f082	-0.06028796
113	0x3ca8f62f	0.020625202
114	0xbd20f925	-0.039300103
115	0xbd093a15	-0.033502657
116	0xbd00d357	-0.03145155
117	0xbd0d9e16	-0.03457459
118	0xbc12751b	-0.008939053
119	0xbcb2e8f8	-0.021839604
120	0x9311f015	-1.8419943e-27
121	0x3d0874f6	0.033314668
122	0xbd023836	-0.03179189
123	0x3d0faa5f	0.035074588
124	0x3d26423d	0.040590513
125	0x3cb539f6	0.022122364
126	0x3d1277a3	0.035758626
127	0x3d2a072a	0.04151074

net.2.running_mean f4 [128]
0	0x39218b70	0.00015406101
1	0x3d41db8f	0.047328528
2	0x3d319c8c	0.043362185
3	0x3bc627bf	0.0060472186
4	0x3e6b41c0	0.229743
5	0x3a92ec8e	0.0011209415
6	0x3ceb2fe3	0.028709358
7	0x3e451fe4	0.19250447
8	0x3f1e5682	0.6185075
9	0x3e27e85b	0.1639723
10	0x3de5944a	0.112099245
11	0x39a9d28e	0.00032391067
12	0x3af32373	0.0018549993
13	0x3e0d856c	0.13820428
14	0x3d3b975a	0.045798637
15	0x3e2e260e	0.17006704
16	0x3ba5cc1f	0.0050597335
17	0x3d9aa96a	0.075518444
18	0x36c1adae	5.772067e-06
19	0x00000000	0.0
20	0x3dcff1d3	0.10153546
21	0x3d28eb6a	0.041240133
22	0x3e847e34	0.25877535
23	0x3dc519b7	0.09624045
24	0x3d14126e	0.03615039
25	0x3d18f756	0.037345253
26	0x3a777356	0.00094394886
27	0x3b7ef517	0.003890341
28	0x3e99d0fc	0.30042255
29	0x3bc1ed28	0.005918164
30	0x3d271717	0.040793505
31	0x3d6a9170	0.057267606
32	0x36d37520	6.301925e-06
33	0x3df82373	0.121161364
34	0x3c6bbd9c	0.014388468
35	0x3c602d26	0.013682639
36	0x3c9f4e58	0.019446537
37	0x3e89552c	0.26822793
38	0x3e0529bc	0.13004202
39	0x3d333de6	0.043760203
40	0x3e90385d	0.28168002
41	0x3e224a83	0.15848736
42	0x3bfb81f7	0.007675405
43	0x3cba59bd	0.022747869
44	0x00000000	0.0
45	0x3e663da3	0.2248445
46	0x00000000	0.0
47	0x3ea7b1af	0.3275275
48	0x3cb77224	0.022393294
49	0x3d9559fc	0.07292554
50	0x00000000	0.0
51	0x3e1bc7e1	0.15212967
52	0x3e1a9da0	0.15099192
53	0x00000000	0.0
54	0x3c847046	0.016166817
55	0x00000000	0.0
56	0x3c672c25	0.014109646
57	0x3982ed41	0.000249723
58	0x00000000	0.0
59	0x3e843b20	0.2582636
60	0x37487c82	1.1949918e-05
61	0x3bd5b7a4	0.006522136
62	0x39a85596	0.00032107224
63	0x3e526da8	0.20549643
64	0x3e97385f	0.29535195
65	0x00000000	0.0
66	0x3e9ab091	0.30212834
67	0x3e942b67	0.28939363
68	0x3c71f7cc	0.014768552
69	0x3e474dc8	0.19463265
70	0x3ef37cda	0.47556192
71	0x3a5a38f3	0.0008324526
72	0x3c321ee7	0.0108716255
73	0x3def065a	0.11671133
74	0x3e6f21c0	0.23352718
75	0x3e09eba8	0.13468802
76	0x3d868b83	0.065695785
77	0x00000000	0.0
78	0x3e90b9a3	0.2826663
79	0x00000000	0.0
80	0x00000000	0.0
81	0x3e0ceec5	0.13762958
82	0x3dfe1196	0.12405698
83	0x3e8a623b	0.2702807
84	0x37b9fa27	2.2170205e-05
85	0x3e33ef64	0.17571789
86	0x3e4765de	0.19472453
87	0x3db72d82	0.08944227
88	0x37d09924	2.4866844e-05
89	0x3f246d3d	0.64229184
90	0x3e0be2c7	0.13660727
91	0x3e5ef44c	0.2177288
92	0x3daf11db	0.085483275
93	0x3d346b20	0.044047475
94	0x3e401076	0.1875628
95	0x3dde6cd0	0.10860598
96	0x3e3a87ee	0.18215916
97	0x376ea5c2	1.4224499e-05
98	0x3822ec5b	3.8843933e-05
99	0x3d072783	0.032996666
100	0x3dc51fcb	0.09625205
101	0x3de89b16	0.11357705
102	0x3df0c238	0.11755794
103	0x3e0249cc	0.12723464
104	0x38c18e11	9.229419e-05
105	0x3e37fb6a	0.17967
106	0x398ee9b0	0.0002725846
107	0x3e214d04	0.15752035
108	0x3da02da4	0.07821205
109	0x3ea6d880	0.3258705
110	0x3e1630dc	0.14667076
111	0x00000000	0.0
112	0x3ee17921	0.44037727
113	0x386599ef	5.4741216e-05
114	0x3dc12849	0.09431512
115	0x3ed810b2	0.42200238
116	0x3ec11664	0.37712395
117	0x3da2f807	0.07957464
118	0x00000000	0.0
119	0x389f62a1	7.600082e-05
120	0x00000000	0.0
121	0x3a291122	0.00064493914
122	0x3e6b4805	0.22976692
123	0x3e014c61	0.12626792
124	0x3a9a7311	0.001178356
125	0x3e9ac5fe	0.3022918
126	0x3c64f091	0.013973371
127	0x3cafa70d	0.02144196

net.2.running_var f4 [128]
0	0x3ca6232c	0.020280443
1	0x3cbff212	0.023430858
2	0x3cc4f379	0.024041878
3	0x3ca9fbc0	0.020749927
4	0x3d38795b	0.04503761
5	0x3ca69c3e	0.020338174
6	0x3cb46103	0.022018915
7	0x3ce69214	0.028145827
8	0x3d15e0ca	0.03659133
9	0x3cda9bc8	0.02668561
10	0x3cd7ea8e	0.026356962
11	0x3ca6271a	0.020282317
12	0x3ca710f5	0.020393828
13	0x3cd4ed41	0.025992038
14	0x3cc6828b	0.02423217
15	0x3cc7e7bf	0.024402497
16	0x3ca9b515	0.02071623
17	0x3cffe0a3	0.031235045
18	0x3ca618f3	0.020275569
19	0x3ca618e4	0.02027554
20	0x3cd6d55b	0.026224783
21	0x3cbaf636	0.02282248
22	0x3cd04110	0.02542165
23	0x3cf6601e	0.03007513
24	0x3cbbada0	0.02290994
25	0x3cbf5717	0.023356957
26	0x3ca65949	0.020306246
27	0x3ca86b5b	0.020559004
28	0x3cc9d344	0.024636872
29	0x3ca7c315	0.020478765
30	0x3cbcb754	0.023036636
31	0x3cec7f5e	0.028869327
32	0x3ca61901	0.020275595
33	0x3cea6c1f	0.02861601
34	0x3cac22f9	0.02101277
35	0x3cac1974	0.02100823
36	0x3cb3a656	0.021929901
37	0x3cd8c22b	0.026459774
38	0x3cebd7e6	0.028789472
39	0x3cea6d37	0.02861653
40	0x3cd53753	0.026027357
41	0x3ce5340b	0.027978918
42	0x3caf6672	0.021411154
43	0x3cb2f281	0.02184415
44	0x3ca618e4	0.02027554
45	0x3d14bba3	0.036311757
46	0x3ca618e4	0.02027554
47	0x3d0c764a	0.034292497
48	0x3caf02dc	0.021363668
49	0x3ccb1ef9	0.024795042
50	0x3ca618e4	0.02027554
51	0x3d015809	0.031578097
52	0x3cce6abc	0.02519738
53	0x3ca618e4	0.02027554
54	0x3cae4508	0.021273151
55	0x3ca618e4	0.02027554
56	0x3cadea0b	0.021229764
57	0x3ca6256c	0.020281516
58	0x3ca618e4	0.02027554
59	0x3cfa26d3	0.030536091
60	0x3ca61946	0.020275723
61	0x3ca91180	0.020638227
62	0x3ca63a70	0.020291537
63	0x3ccfc3f9	0.025362002
64	0x3cd3907d	0.025825733
65	0x3ca618e4	0.02027554
66	0x3cd6eccc	0.02623596
67	0x3ce91432	0.028452013
68	0x3cabea9a	0.02098589
69	0x3ccab7ea	0.0247459
70	0x3d23ddc2	0.040006407
71	0x3ca6bc25	0.020353386
72	0x3caaa73d	0.020831699
73	0x3ce11a43	0.027478343
74	0x3cfb4381	0.030671837
75	0x3cbda644	0.02315057
76	0x3d002580	0.031285763
77	0x3ca618e4	0.02027554
78	0x3ce51bb8	0.027967319
79	0x3ca618e4	0.02027554
80	0x3ca618e4	0.02027554
81	0x3d0cb2e9	0.03435031
82	0x3cbf1dc0	0.023329616
83	0x3cc882f1	0.0244765
84	0x3ca619ae	0.020275917
85	0x3d08cf0d	0.033400584
86	0x3d0e0e86	0.03468182
87	0x3ce93584	0.028467901
88	0x3ca619c6	0.020275962
89	0x3d033db0	0.03204125
90	0x3cc143ea	0.023591954
91	0x3ccbaa44	0.024861462
92	0x3cd8f324	0.026483126
93	0x3ccc2fea	0.024925191
94	0x3cf810ed	0.030281508
95	0x3cd2f5d1	0.02575198
96	0x3ce1ef36	0.027579885
97	0x3ca6197f	0.02027583
98	0x3ca61b12	0.02027658
99	0x3cb2a176	0.021805506
100	0x3cd1da32	0.025616739
101	0x3cccda8b	0.025006553
102	0x3ce2ac29	0.027669983
103	0x3cebc510	0.02878049
104	0x3ca628b5	0.020283083
105	0x3cd3b7c8	0.02584447
106	0x3ca626ff	0.020282267
107	0x3d2e65cd	0.042577554
108	0x3d196274	0.037447408
109	0x3d043d19	0.03228483
110	0x3d1576b3	0.036490154
111	0x3ca618e4	0.02027554
112	0x3d03cbe5	0.03217687
113	0x3ca61daf	0.020277826
114	0x3d02c93c	0.031930193
115	0x3cd6a37d	0.026201004
116	0x3cf10a24	0.02942378
117	0x3cd6c4bf	0.026216863
118	0x3ca618e4	0.02027554
119	0x3ca61ecd	0.020278359
120	0x3ca618e4	0.02027554
121	0x3ca63e06	0.020293247
122	0x3cea75dd	0.028620655
123	0x3cd0c0b1	0.025482507
124	0x3ca65d3a	0.020308126
125	0x3d06f70c	0.032950446
126	0x3cae5b4e	0.021283772
127	0x3cb2f5f9	0.021845805

net.3.weight f4 [1, 128]
0	0x3eac1168	0.3360703
1	0x3e6ba72d	0.23012991
2	0xbe5ea31d	-0.2174191
3	0x3ebaa35e	0.36452764
4	0xbe13cbb7	-0.1443318
5	0xbedab579	-0.42716578
6	0x3e821b8d	0.25411645
7	0xbe983e85	-0.297352
8	0xbd841984	-0.06450179
9	0xbe2b53c3	-0.16731171
10	0xbeaeb6b2	-0.3412376
11	0xbc8796b1	-0.016551347
12	0xbf13185b	-0.5745904
13	0x3e9fc266	0.31203002
14	0x3e9c852d	0.30570355
15	0xbccdb9a7	-0.02511294
16	0xbe842d7b	-0.2581595
17	0xbea16468	-0.31521916
18	0x3d639bf8	0.055568665
19	0x950543e5	-2.6912695e-26
20	0xbe0896a7	-0.1333872
21	0xbe964311	-0.29348043
22	0x3e0e680d	0.1390688
23	0x3bc411c9	0.0059835655
24	0x3e968470	0.29397917
25	0xbdc5b09d	-0.09652827
26	0xbd6a802f	-0.05725115
27	0x3e9e0bb0	0.30868292
28	0xbe03725d	-0.12836595
29	0xbdebaa69	-0.115071125
30	0x3ef193d6	0.47183102
31	0xbeaacca2	-0.33359247
32	0xbc5fa29b	-0.013649608
33	0xbde9ea66	-0.11421661
34	0xbd2025c5	-0.03909852
35	0x3eea2f85	0.4573938
36	0xbdffd9f1	-0.12492741
37	0xbe020269	-0.12696232
38	0x3e487578	0.19576061
39	0xbe1d38a2	-0.15353635
40	0xbc9ffc59	-0.019529508
41	0x3e2b2e50	0.16716886
42	0xbeb66322	-0.35622507
43	0xbe5aa4dc	-0.21351951
44	0x3653c82d	3.1557968e-06
45	0x3da8ac42	0.082359806
46	0x2c38fd89	2.6288713e-12
47	0xbdd27c46	-0.102776095
48	0x3ebc22e3	0.36745366
49	0x3dcc1dcb	0.0996662
50	0xb4974f17	-2.8183487e-07
51	0xbda71cf1	-0.08159817
52	0x3e0b542a	0.13606325
53	0x3c998bce	0.018743422
54	0x3f0261e3	0.50930613
55	0x92ac8aaf	-1.0888914e-27
56	0xbde32634	-0.11091271
57	0x3a8be2f4	0.0010672496
58	0x3cae13fb	0.021249762
59	0xbe6e48f3	-0.23270015
60	0x3d8ddec3	0.06927254
61	0x3eb4c4ab	0.35306296
62	0xbcc70168	-0.024292663
63	0x3dcdcbb3	0.10048618
64	0xbe47f580	-0.19527245
65	0x1329a6b7	2.1412996e-27
66	0xbe601b63	-0.21885447
67	0x3dca6815	0.09883133
68	0x3e0e7184	0.1391049
69	0x3c89f9c0	0.016842723
70	0xbe571237	-0.21003042
71	0xbd8193fa	-0.063270524
72	0xbece8f2e	-0.40343612
73	0x3db145b5	0.08655874
74	0xbd854bfc	-0.065086335
75	0x3e6fc134	0.23413545
76	0xbeabffbe	-0.33593553
77	0xa6a35944	-1.1334593e-15
78	0xbe86e45a	-0.26346093
79	0xb2100929	-8.383986e-09
80	0x3cc71ad1	0.02430478
81	0x3e40bbf3	0.18821697
82	0xbea7fce9	-0.32810143
83	0xbe185a4a	-0.14878193
84	0xbd9e3d2e	-0.07726513
85	0xbdbc82a2	-0.09204604
86	0xbde7b6c6	-0.11314158
87	0x3e97a4ca	0.29617912
88	0x3c0cd939	0.008596712
89	0xbe895d2c	-0.26828897
90	0xbc64dc0e	-0.013968481
91	0xbe6c708c	-0.23089808
92	0xbe1f2d72	-0.1554468
93	0x3ed8c4e8	0.42337728
94	0x3e4e1d33	0.20128326
95	0x3e3446a0	0.17605066
96	0xbe3b8b74	-0.18314916
97	0xbcff3085	-0.031151066
98	0xbaf69f33	-0.0018815756
99	0x3efa340e	0.4886784
100	0xbe0174ec	-0.12642258
101	0xbde9c714	-0.11414924
102	0x3dcdfdee	0.10058199
103	0xbe151c71	-0.14561631
104	0xb87d7943	-6.0432834e-05
105	0xbeaaa877	-0.33331653
106	0x3c4c12e7	0.012455679
107	0x3e60f1d1	0.21967246
108	0xbdda7575	-0.106669344
109	0xbdc6fdbd	-0.097163655
110	0x3d6401cd	0.05566578
111	0x3a29e4e5	0.00064809463
112	0xbe15761f	-0.14595841
113	0x3d8a7753	0.067610405
114	0xbe8b78be	-0.27240556
115	0xbe534877	-0.20633112
116	0xbe4eeb96	-0.20207056
117	0xbd0a6e0f	-0.033796366
118	0xbce53d03	-0.027983194
119	0xbd8fc5b1	-0.070201285
120	0x918bd512	-2.2061648e-28
121	0x3e9e74a9	0.3094838
122	0xbe1a9cb5	-0.15098841
123	0x3e9d1cb1	0.30685952
124	0x3ec80d8c	0.39072835
125	0x3d9195e6	0.07108669
126	0x3ed99a8f	0.4250073
127	0x3edac0f3	0.42725334
