saved_models/mlp/MLP_analcatdata_boxing2.pth (torch, 8332 bytes, 7 tensors)

net.0.weight f4 [128, 3]
000000 be 07 31 be 49 d3 8c be 46 db d1 be 49 5b f3 3e
       -0.1728811 -0.27504948 -0.40987605 0.47530583
000010 6f 3a 87 be 19 75 41 3d 34 b8 e3 be 7c 70 8c be
       -0.2641177 0.047230814 -0.44476473 -0.2742957
000020 d4 f6 10 be f8 cc 33 3e 85 d0 82 3e 4c 55 86 be
       -0.14156657 0.17558658 0.25549713 -0.2623695
000030 1d 9a 7f 3e de 81 b3 3e 93 30 bc 3e 7e 58 82 3e
       0.24961133 0.35060018 0.3675581 0.2545814
000040 6d 9c 0a 3c 5c a8 fa 3e a9 53 da 3e d5 d3 f6 3e
       0.008460146 0.48956573 0.42641953 0.4820849
000050 29 d3 ec 3e d5 46 ef 3e 94 a1 81 be ba dc 01 3f
       0.46254852 0.46733728 -0.25318587 0.50727427
000060 8a 81 cf be 7a 28 f9 be f8 7c e3 be aa 93 9c 3e
       -0.40528518 -0.48663694 -0.4443128 0.3058141
000070 96 82 9f be 4e 55 e9 3e 2d 06 c7 3e bc fa 7a 3d
       -0.31154317 0.45572895 0.388719 0.061274275
000080 8e 18 71 be f2 8a d4 3d e0 63 9d bc 4f 2c 0e bd
       -0.23544523 0.10378064 -0.019212663 -0.034710225
000090 17 64 95 3e f2 e4 e6 be 46 9c 0d bf 14 7b 89 3e
       0.29177925 -0.45096546 -0.5531658 0.26851714
0000a0 88 f6 03 be 93 5a 8d be 0e bc e6 be d8 1f 85 bd
       -0.12887013 -0.27608165 -0.4506535 -0.06500214
0000b0 c0 e8 12 bd bb 0e 89 3d 76 5a af 3e cc 80 0b bf
       -0.0358665 0.06692263 0.34248704 -0.54493403
0000c0 ee 9e 72 3e 01 43 a0 3e 52 ba ca bc 6a bb 0f 3f
       0.2369344 0.3130112 -0.024747048 0.56145346
0000d0 ea f7 95 be 97 59 aa 3e 48 5a 59 be 42 37 7b 3e
       -0.29290706 0.33271477 -0.21225846 0.24532798
0000e0 54 c1 0a be ee ed 92 3e 15 68 7d bc 7b df 0c bf
       -0.13550311 0.2869715 -0.01546671 -0.55028504
0000f0 70 28 de 3e b2 98 c9 be 41 1e cd be 27 60 06 3f
       0.43390226 -0.3937431 -0.40062144 0.52490467
000100 59 13 dc 3e 43 96 70 3e 90 7a a6 bd 92 16 14 be
       0.4298351 0.2349482 -0.08128846 -0.14461735
000110 1c 0e f1 3d 6a 6b 79 3e 6e 42 41 3e 95 10 21 3e
       0.11770269 0.24357381 0.18872997 0.15728982
000120 6c 44 0a be 52 62 3f be b8 dc a3 be 1a ee 3c 3e
       -0.13502663 -0.1868985 -0.32004333 0.18450204
000130 d9 e6 6a be d0 ac 42 3e fb c4 ef 3e 91 34 a2 be
       -0.22939624 0.19011235 0.46829972 -0.3168073
000140 76 fc 3d 3d 59 52 87 be c9 b2 b6 bd d9 d9 fd 3d
       0.046383344 -0.26430014 -0.08920819 0.12395067
000150 c2 ea 5a be c0 4e 58 3e 12 d5 0a be 57 ce 81 be
       -0.21378615 0.2112379 -0.13557842 -0.25352737
000160 f2 07 c8 3e 35 b1 f8 be 5a 2c 04 3f d3 22 26 3e
       0.39068562 -0.48572698 0.51630175 0.16224222
000170 9e 78 65 be 81 fb 3e 3d f2 d2 bf 3e 6f 82 de be
       -0.22409293 0.04662657 0.37465626 -0.43458888
000180 d5 79 cd be ce 6d a4 3e d0 1d d7 be 71 8c 94 bd
       -0.40132013 0.32115024 -0.42014933 -0.072533496
000190 14 76 e4 3e 8e 22 a9 3e 49 32 e8 be b5 88 da bd
       0.44621336 0.33034176 -0.45350865 -0.10670606
0001a0 2d 11 be 3e 83 c7 6a be b6 1a 97 be 2e 11 dc 3e
       0.3712248 -0.2292767 -0.29512566 0.42981857
0001b0 f5 c4 b7 be 6e af c4 be 2c 5d 13 3e 76 11 8a 3e
       -0.35892454 -0.38415092 0.14391011 0.26966447
0001c0 b1 32 10 be 4f 2d a2 be f3 9e b1 3d f7 39 a0 be
       -0.14081837 -0.31675193 0.08672895 -0.31294224
0001d0 13 2a 1f bd 1f 8d c3 be a8 7f 12 3f 88 bd e1 be
       -0.038858484 -0.38193604 0.5722604 -0.44089913
0001e0 33 b3 92 be 64 71 f7 bd 8e 10 57 be 42 22 dd be
       -0.28652343 -0.120821744 -0.21002409 -0.431902
0001f0 58 6d 1e 3e be 98 ee be 54 4b bc bd f0 e8 df 3e
       0.15471399 -0.46600908 -0.09194055 0.43732405
000200 f7 da 07 bf 54 84 06 3f c4 da 5d 3e 68 55 c1 be
       -0.5306849 0.52545667 0.21665484 -0.37760472
000210 f3 a5 e1 3e b7 8f 8e 3d 7d a5 bf 3e a4 61 ee be
       0.44071922 0.06961005 0.37430945 -0.4655887
000220 a0 03 ea 3e 7f a4 0e bf 18 d6 36 be 61 d7 7c 3e
       0.4570589 -0.5571975 -0.17855108 0.24691536
000230 5a 74 86 3d 60 a5 f0 3e 93 15 95 3d a9 7f c3 3e
       0.06565161 0.4700117 0.072795056 0.38183334
000240 64 60 dd 3d f3 69 d1 bc ce f2 8a 3e 07 6b d2 3e
       0.10809401 -0.025563216 0.2713837 0.4109728
000250 81 ac 13 3e 8a 0e 9d be 05 1b 56 3e d3 fd 10 bf
       0.14421274 -0.30675155 0.20908745 -0.56637305
000260 f7 81 08 3f bb 40 77 be 17 2a 76 3e 7e 28 fc 3e
       0.5332331 -0.24145786 0.24039494 0.49249643
000270 92 42 b2 3e 9a 7a 97 bd 8b d2 94 3e 76 c0 ab be
       0.34816414 -0.07396431 0.29066882 -0.33545274
000280 e0 e1 d5 bd f7 a2 95 be a9 30 0c be df ec f8 be
       -0.10443473 -0.29225895 -0.13690437 -0.48618218
000290 01 b2 91 3e 7b 5d 7e be d7 33 f4 be 56 fb 97 3e
       0.2845612 -0.24840347 -0.476958 0.29683942
0002a0 7e 39 df 3e e4 a9 02 be cf af 0e bf 59 e7 da 3e
       0.4359855 -0.1276012 -0.5573701 0.4275463
0002b0 31 3c eb bc e2 3e f6 be c5 2d 04 3d 2d 1a 95 be
       -0.028715225 -0.4809485 0.03227021 -0.29121533
0002c0 ab 9c b6 3e d2 f7 9f bd fa fa be bd 24 3d 33 3e
       0.35666403 -0.0781094 -0.09325214 0.17503792
0002d0 96 2d 85 bd d2 b3 72 be 08 92 47 bd c4 24 da be
       -0.065028355 -0.23701409 -0.04872325 -0.42606175
0002e0 c0 e9 65 3d 99 8d b4 be c7 49 a9 3e aa 03 02 3f
       0.056131124 -0.3526428 0.330641 0.5078684
0002f0 93 54 0a 3f c8 ff 15 be a8 12 81 bd 08 ec 8a bb
       0.540353 -0.14648354 -0.063023865 -0.004239563
000300 17 d0 86 3e 96 58 93 3e fb 85 95 be 03 01 02 3f
       0.26330635 0.28778523 -0.2920378 0.50782794
000310 88 13 96 3e e8 49 50 be fc 59 09 be 00 f4 dc 3b
       0.29311776 -0.20340693 -0.13413233 0.0067429543
000320 ca a4 a6 be f0 2f c5 3e b6 7e a2 be 4e 5e 73 be
       -0.325476 0.38513136 -0.31737298 -0.23766443
000330 60 93 52 be d0 1f da 3d 1a 68 d5 be 17 cd dd 3c
       -0.20564032 0.10650599 -0.41680986 0.027075334
000340 73 7f d2 be d2 05 1b 3e 48 cd c8 bd c4 39 60 3e
       -0.4111286 0.15138939 -0.09804779 0.21897036
000350 48 c8 94 bd 4a be 0d bf fe 3a 83 be 3b d7 a1 be
       -0.07264763 -0.55368483 -0.25630945 -0.3160952
000360 2f b9 0c bf 26 56 11 bf f2 ac 00 3e d2 ec 2d 3d
       -0.5497007 -0.5677208 0.12565973 0.042462178
000370 df 1c 57 be cf da fa 3e fa 5c 05 bf a6 30 71 be
       -0.21007107 0.48995063 -0.52094996 -0.23553714
000380 9d 21 98 be 17 37 fc 3e 43 b6 15 bd 63 6c c5 3e
       -0.29713145 0.4926078 -0.03655077 0.38559255
000390 23 c7 1c 3e 96 c7 3e 3e 9a 76 5f 3d 40 fa fd 3e
       0.1531034 0.18630823 0.054556467 0.49604988
0003a0 1c 47 a6 3e 34 da eb be 0c 68 d1 bd 42 03 e5 3e
       0.32476127 -0.46064913 -0.102249235 0.44729048
0003b0 a1 09 38 bd ee 09 a3 be 80 7d 71 bd 94 ed d1 be
       -0.044931058 -0.31843513 -0.058957577 -0.4100157
0003c0 e9 94 be 3e c4 c7 17 3e 24 9c fa bd f2 5f 4b be
       0.37222984 0.14822298 -0.12236813 -0.19860819
0003d0 c8 70 bd 3d 76 d0 b0 be 40 32 c9 bc 17 18 dd be
       0.09250027 -0.34534043 -0.024560094 -0.43182442
0003e0 c0 7d 48 bc 1c ec 35 3e 4a c8 00 bf bc d6 93 3c
       -0.012237012 0.1776585 -0.50305617 0.01804673
0003f0 5a cc e0 be 8e ee 47 be 30 8e e0 be c9 d7 a4 3e
       -0.43905908 -0.19524595 -0.4385848 0.3219588

net.0.bias f4 [128]
000000 76 66 d4 be 1d 69 6d 3d a0 55 eb 3c 40 f7 99 3e
       -0.41484421 0.057961572 0.028727353 0.3007145
000010 8d 4c f7 3c b6 df c9 be 2c ea 03 3f 00 05 5c 3e
       0.03018787 -0.3942849 0.5152919 0.21486282
000020 1f fb 8e be b4 e5 c8 be 3b 2b 66 3e e4 ad cc be
       -0.27925965 -0.3923775 0.22477429 -0.39976418
000030 22 8c e0 be 37 6c 12 3f c0 bd 93 bd 2a eb 0e 3e
       -0.43856913 0.5719637 -0.07213926 0.13956895
000040 bc 82 f2 be 30 fb e6 bd 6b b2 04 3f 1e 00 02 3f
       -0.47365367 -0.11278379 0.51834744 0.5078143
000050 72 08 f6 be d8 64 62 3e ba f8 c2 3d 34 7b a1 be
       -0.48053318 0.22108781 0.09520097 -0.3153931
000060 21 24 be be 77 a8 97 3d e2 26 2c be 5e 48 3d bd
       -0.3713694 0.07405179 -0.16811708 -0.046211593
000070 18 3e b6 be dc 47 b6 bd f1 ae 52 be 0a 4a 35 3e
       -0.3559425 -0.08900425 -0.20574547 0.17704025
000080 e8 55 ae be 91 67 ec 3e 2a 8a f7 be 77 82 8d 3e
       -0.34049916 0.46172765 -0.48347598 0.276386
000090 69 59 88 be 0f 69 70 be be 93 ba 3c f0 80 df 3d
       -0.26630715 -0.23477577 0.022775527 0.10913265
0000a0 50 26 a2 3e 6c a8 86 be 1e be e4 be fa 4a 0e bf
       0.31669855 -0.2630037 -0.44676298 -0.55583155
0000b0 60 3e dc be ac 19 d0 3e 76 86 04 3f 20 31 ae be
       -0.43016338 0.40644586 0.5176767 -0.34021854
0000c0 f5 7b e6 be e7 27 cb 3c 08 02 8b 3e a6 c6 a1 3e
       -0.45016447 0.0247993 0.27149987 0.3159687
0000d0 d8 fb de 3e 84 c2 e8 be 62 69 06 be b0 8e 08 bf
       0.43551517 -0.45460904 -0.13126138 -0.53342724
0000e0 4a 90 0e bf c3 fb 46 3e 53 7f ae 3e bd 36 81 3c
       -0.5568892 0.19431977 0.34081516 0.015773172
0000f0 02 a4 0f 3f 88 e6 ae be f6 ce dd bd 1c ec 03 3e
       0.5610963 -0.34160256 -0.1083049 0.12883037
000100 f6 e2 ce 3e 19 46 d0 3d d5 0c 0f bf 3c 01 d9 3e
       0.40407532 0.1016962 -0.55878955 0.42383754
000110 cc db 4b 3e 88 c3 95 3d c6 53 4f be e6 3e b7 be
       0.19908065 0.07312685 -0.20246801 -0.35790175
000120 94 8e 46 3d ba bc df be 74 5c fa bd fe 63 33 be
       0.048475817 -0.43698674 -0.12224665 -0.17518613
000130 d9 74 d7 3e 29 0b ca 3e 1e 40 9d 3e be 58 e3 be
       0.42081335 0.3946164 0.3071298 -0.44403642
000140 9c 01 6b 3d 54 f7 c6 be 40 66 2a bd ae d8 1d bd
       0.05737458 -0.3886057 -0.04160142 -0.03853672
000150 9c cf 87 3e d9 5a 4a be db 9f c7 3d cb bc a1 3e
       0.2652558 -0.19761218 0.09747287 0.3158935
000160 eb d3 a7 bd 7e 0d 69 be 7a 45 ee be 82 44 22 3d
       -0.08194717 -0.22759053 -0.4653738 0.039616115
000170 f0 2b 8e 38 b1 ed f5 3e a7 95 11 3f 29 0b 0d bf
       6.779272e-05 0.48032907 0.56868976 -0.55095154
000180 17 74 0b bf 2a 21 fb be 44 9d 85 be 1b fe 3a be
       -0.54474014 -0.4904874 -0.26096547 -0.18260996
000190 0e 62 69 3e 5e 3c 7c be d0 82 13 3f bf 04 35 3e
       0.22791311 -0.24632403 0.5762148 0.17677592
0001a0 c9 7c 5b 3c ad e6 df 3e 9a 88 6e be a6 0f 69 3e
       0.01339645 0.4373068 -0.23294297 0.22759876
0001b0 76 62 a6 3e 68 2a c0 be 40 67 b5 be de c2 07 3f
       0.32496995 -0.37532353 -0.35430336 0.5303172
0001c0 9a 00 9b 3d 3c 31 f3 3e 80 72 b3 be 04 a9 a3 3e
       0.07568474 0.474985 -0.35048294 0.31964886
0001d0 6e fc 5a 3d 86 91 f3 3e a9 04 04 3f db a4 10 3f
       0.053463392 0.47571963 0.5156961 0.5650155
0001e0 74 54 b9 3e b5 d9 91 bd 08 37 ad 3e 1f 78 c2 bc
       0.36197245 -0.071216024 0.33831048 -0.023738919
0001f0 04 17 80 bd 95 14 e0 be 34 d2 e8 be 15 06 20 3e
       -0.0625439 -0.43765703 -0.45472872 0.1562732

net.2.weight f4 [128]
000000 00 00 80 3f e5 e1 7d 3f 00 00 80 3f 08 4d 80 3f
       1.0 0.9917281 1.0 1.0023508
000010 e5 f0 7f 3f 57 86 80 3f 13 8a 7f 3f c8 01 80 3f
       0.9997695 1.0040997 0.9982006 1.0000544
000020 00 00 80 3f 02 48 7f 3f 5b 88 81 3f 09 04 81 3f
       1.0 0.9971925 1.0119737 1.0079356
000030 b7 95 80 3f 0c 5f 7d 3f 00 00 80 3f eb 9b 80 3f
       1.0045689 0.98973155 1.0 1.0047582
000040 8b 41 81 3f 4e 28 7e 3f a6 43 7f 3f 6b 6f 80 3f
       1.0098127 0.9928025 0.997126 1.0034002
000050 47 11 81 3f 36 b7 7e 3f b4 fb 80 3f 7d 43 80 3f
       1.0083398 0.9949831 1.0076814 1.0020596
000060 00 00 80 3f 1c e6 7f 3f e0 da 7d 3f ed 31 7d 3f
       1.0 0.99960494 0.991621 0.98904306
000070 00 00 80 3f 00 00 80 3f e1 e7 7c 3f ef f6 7f 3f
       1.0 1.0 0.9879132 0.99986166
000080 00 00 80 3f e6 21 81 3f e7 5a 81 3f c5 05 7e 3f
       1.0 1.008847 1.0105866 0.99227554
000090 2e 09 7d 3f 6c f8 80 3f 17 b7 7c 3f 00 00 80 3f
       0.9884213 1.0075812 0.9871687 1.0
0000a0 00 00 80 3f 00 00 80 3f 00 00 80 3f 78 78 81 3f
       1.0 1.0 1.0 1.0114889
0000b0 75 9a 7f 3f 00 00 80 3f 71 2a 7d 3f ee 23 80 3f
       0.9984506 1.0 0.98892885 1.0010965
0000c0 38 9d 7e 3f 27 85 81 3f da cf 7e 3f 4a 40 7d 3f
       0.99458647 1.011876 0.99535906 0.9892622
0000d0 72 20 80 3f 00 00 80 3f 5f fb 80 3f 0b 6d 81 3f
       1.0009902 1.0 1.0076712 1.0111402
0000e0 15 dd 80 3f 2c 30 7e 3f c7 5a 7e 3f 8f 2c 80 3f
       1.0067469 0.99292254 0.99357265 1.0013598
0000f0 bd 1f 7f 3f 00 00 80 3f 58 81 80 3f ee 1c 7f 3f
       0.99657804 1.0 1.0039473 0.9965352
000100 bb 97 80 3f 78 7c 7d 3f 00 00 80 3f 0e d2 7c 3f
       1.0046304 0.9901805 1.0 0.9875802
000110 00 00 80 3f 64 92 80 3f 00 00 80 3f 00 00 80 3f
       1.0 1.0044675 1.0 1.0
000120 f7 47 80 3f 67 6d 7f 3f 00 00 80 3f 85 6e 7f 3f
       1.0021962 0.9977631 1.0 0.99778014
000130 3d 92 80 3f 8d af 7d 3f df cf 80 3f 00 00 80 3f
       1.0044628 0.99095994 1.0063437 1.0
000140 85 21 7d 3f 00 00 80 3f 00 00 80 3f 54 c8 7d 3f
       0.9887927 1.0 1.0 0.991338
000150 00 00 80 3f 7a 23 80 3f 01 df 7e 3f e3 21 80 3f
       1.0 1.0010827 0.99559027 1.0010341
000160 9c 20 81 3f e0 1c 7f 3f 73 ea 80 3f 27 22 7d 3f
       1.0088077 0.99653435 1.0071548 0.9888024
000170 a2 60 80 3f f9 c7 7f 3f 52 e6 7d 3f 54 56 7e 3f
       1.002949 0.9991451 0.99179566 0.99350476
000180 3a bb 80 3f 99 d3 80 3f cc b9 7d 3f e9 3a 7d 3f
       1.0057137 1.0064574 0.9911163 0.98918015
000190 af 03 81 3f 00 00 80 3f 15 8b 7f 3f fc 44 7f 3f
       1.0079249 1.0 0.998216 0.99714637
0001a0 78 fc 7e 3f 94 68 81 3f db 0b 80 3f 5d 44 81 3f
       0.99603987 1.011004 1.0003618 1.0098988
0001b0 00 00 80 3f 23 34 7d 3f 00 00 80 3f c1 e0 80 3f
       1.0 0.9890768 1.0 1.006859
0001c0 f0 e1 80 3f 00 00 80 3f 8e 56 7d 3f 67 98 7f 3f
       1.0068951 1.0 0.98960197 0.9984192
0001d0 7b 1f 80 3f e9 a5 80 3f 4b 05 81 3f 38 41 7e 3f
       1.0009607 1.0050632 1.007974 0.99318266
0001e0 00 00 80 3f 64 8e 7d 3f 00 00 80 3f eb 32 81 3f
       1.0 0.99045396 1.0 1.0093664
0001f0 24 35 7d 3f b9 51 7e 3f 00 00 80 3f 28 99 7e 3f
       0.9890921 0.9934345 1.0 0.9945245

net.2.bias f4 [128]
000000 8c 06 3f ba c7 29 45 ba 27 0f 3f 3a 21 74 44 3a
       -0.00072870473 -0.0007521179 0.00072883297 0.0007494111
000010 3c 9e f2 ba da c0 3b ba b6 32 37 3a d9 a0 3d ba
       -0.0018510292 -0.0007162221 0.00069884525 -0.0007233746
000020 3a 07 3f ba d9 39 3b 3a a9 f0 01 3a 68 86 04 3a
       -0.00072871486 0.0007142104 0.00049568206 0.00050554285
000030 ad 28 46 3a f1 af 40 ba fe fa 3d ba 67 08 4c 3a
       0.0007559162 -0.0007350436 -0.00072471786 0.00077832345
000040 56 3d 30 3a 6f 56 5f ba 80 d1 66 3a a0 6f 4b 3a
       0.0006723007 -0.00085196545 0.00088050216 0.0007760469
000050 42 f3 35 3a a8 f4 46 ba 47 88 2c ba b1 25 39 3a
       0.000694085 -0.0007589557 -0.0006581586 0.00070628064
000060 c5 12 3f 3a b9 26 38 3a cb 0d 4d ba f8 c9 42 3a
       0.00072888687 0.0007024813 -0.00078221847 0.00074306084
000070 1a 83 3e 3a 29 fc 3e 3a e1 63 47 ba c2 83 38 ba
       0.00072674605 0.00072854996 -0.00076061307 -0.00070386764
000080 f7 6a 27 3a d1 f5 2f ba 69 c3 29 ba 0c f1 50 3a
       0.00063864834 -0.000671235 -0.0006475957 0.0007970489
000090 1c cd 4c 3a 86 74 37 3a ec a9 42 ba 3f 09 3f 3a
       0.0007812546 0.00069982593 -0.0007425833 0.00072874496
0000a0 21 f8 3d 3a 64 c9 3d ba 0a d3 3d ba 36 f9 33 3a
       0.0007246752 -0.00072397874 -0.0007241225 0.00068654434
0000b0 fd 11 3f ba 5c 1f 3e ba 32 f2 4c 3a 41 a0 39 3a
       -0.0007288752 -0.0007252598 0.00078180723 0.00070810696
0000c0 af dd 3c 3a ee c4 21 3a ef 89 43 3a 5d 94 42 3a
       0.0007204664 0.00061710074 0.00074592134 0.00074226205
0000d0 fe 64 39 3a 72 1a 3c ba 74 32 28 ba 4c df 35 ba
       0.0007072239 -0.00071755715 -0.00064162095 -0.0006937876
0000e0 68 ef 33 3a 7a 07 3d ba 12 0c 3f 3a 83 d2 b3 b9
       0.00068639824 -0.0007210892 0.00072878704 -0.00034298384
0000f0 81 e2 42 ba c2 15 3b ba c8 ec 3b ba 9e 42 0e bb
       -0.00074342644 -0.0007136726 -0.0007168767 -0.0021707187
000100 4e 5e 3a 3a a4 96 79 ba c0 9f 0f b8 ac 68 45 ba
       0.00071093894 -0.00095210434 -3.4242636e-05 -0.0007530551
000110 a2 4f 3e ba 60 e9 3a ba 96 4d 3e 3a d0 04 3e 3a
       -0.0007259791 -0.00071301125 0.0007259486 0.0007248642
000120 5c 9e 3a ba ca 8c ed 39 90 e4 3d 3a 74 54 3e ba
       -0.00071189343 0.0004530906 0.00072438363 -0.00072605093
000130 ea 36 38 3a 34 5d 41 ba 76 b3 32 ba 3c f1 3e 3a
       0.0007027226 -0.0007376254 -0.0006816903 0.00072838715
000140 3c ce 40 ba 04 24 3e 3a 6a f4 3d ba 9c 9d 4b ba
       -0.000735495 0.00072532916 -0.00072461984 -0.0007767321
000150 02 10 3f 3a 21 00 23 3a b8 38 3e ba fc b9 38 ba
       0.0007288457 0.0006217976 -0.00072563766 -0.0007046757
000160 22 61 3a 3a 39 f2 3e ba 1b f4 36 3a 95 8a 42 ba
       0.0007109811 -0.0007284019 0.00069791236 -0.0007421163
000170 a6 47 39 3a 97 ac 19 3a 68 b7 4d ba bc a1 3e 3a
       0.00070678664 0.00058622047 -0.0007847459 0.0007272025
000180 8d b9 41 3a cc ec 2f ba ec 89 43 ba 00 bd 40 ba
       0.0007390015 -0.00067110057 -0.00074592116 -0.0007352382
000190 8f e6 37 ba 34 e9 3e ba 17 4c 35 ba f3 22 39 3a
       -0.0007015252 -0.0007282675 -0.00069159403 0.0007062398
0001a0 fa f0 41 ba 1a d8 33 3a db e8 3d ba e6 c8 1e ba
       -0.0007398274 0.000686051 -0.0007244476 -0.0006057158
0001b0 44 8c 3e 3a 82 dc 49 3a ad f5 3d 3a d6 b8 37 3a
       0.0007268826 0.00077004 0.00072463864 0.00070084387
0001c0 3a e2 39 ba 94 10 3f ba 01 63 40 3a 68 77 37 ba
       -0.00070909003 -0.0007288542 0.00073389715 -0.0006998689
0001d0 96 1f 38 3a 62 92 30 3a b7 5e 37 ba 36 df 44 3a
       0.00070237496 0.000673568 -0.00069950096 0.00075100677
0001e0 b7 5d 3e ba 41 5a 48 3a 95 1d 3f 3a 85 bf 36 ba
       -0.00072618894 0.00076428434 0.000729048 -0.00069712877
0001f0 32 a8 45 ba bd 17 19 3b 8a 3d 3e ba 22 34 4b 3a
       -0.00075400167 0.0023360096 -0.0007257095 0.0007751604

net.2.running_mean f4 [128]
000000 00 00 00 00 7e 90 2b 40 00 00 00 00 78 1c 86 3e
       0.0 2.680694 0.0 0.26193595
000010 b8 9f 62 40 12 5d 74 40 56 63 af 40 24 f8 af 40
       3.5409985 3.8181806 5.480876 5.4990406
000020 00 00 00 00 29 09 74 40 a1 51 87 3f b0 c8 fa 3d
       0.0 3.813059 1.0571786 0.12245309
000030 00 ca 07 3e d2 37 1e 3f 00 00 00 00 92 a2 34 3c
       0.1326065 0.61803925 0.0 0.011025088
000040 b6 ff 41 3f 61 99 94 40 65 0e 00 3c cd 62 a4 3e
       0.7578081 4.643723 0.007815932 0.3210663
000050 76 21 f9 3e 3d 42 8b 40 b2 79 c2 3e 76 be f6 3f
       0.4865834 4.3518357 0.3798347 1.9276874
000060 00 00 00 00 e8 e0 04 40 8a cc 1a 40 f2 14 c7 3d
       0.0 2.0762272 2.418734 0.09720792
000070 00 00 00 00 00 00 00 00 d2 16 b1 3f f8 4f 34 3c
       0.0 0.0 1.3835089 0.011005394
000080 00 00 00 00 ea 75 06 40 93 d6 e6 3e 8a 8d d4 3f
       0.0 2.100947 0.45085582 1.6605694
000090 be e4 6f 3d 04 fc 83 3e 22 85 6f 3e 00 00 00 00
       0.058567755 0.2577821 0.2339063 0.0
0000a0 00 00 00 00 00 00 00 00 00 00 00 00 6b bb 46 3f
       0.0 0.0 0.0 0.7762973
0000b0 26 28 82 40 00 00 00 00 d4 54 8a 3e a0 40 8b 40
       4.067401 0.0 0.27017844 4.351639
0000c0 1c 1c de 3f 9f 3e 4e 3f 89 46 8a 40 48 48 07 40
       1.7352328 0.805643 4.3211102 2.1137867
0000d0 d4 8e 77 40 00 00 00 00 92 9c 62 3f 7a 0b db 3e
       3.8680925 0.0 0.8852016 0.42782193
0000e0 c0 00 af 3e 2d 33 1a 3f 49 83 20 40 79 51 29 3f
       0.3418026 0.6023434 2.508013 0.6613994
0000f0 d6 d4 ee 3c 00 00 00 00 24 2f 9c 40 27 1d b9 3b
       0.029154222 0.0 4.8807545 0.005649227
000100 23 82 00 3f a9 d8 d6 3f 00 00 00 00 2a 55 8b 3f
       0.5019857 1.678487 0.0 1.0885365
000110 00 00 00 00 05 e6 7f 3f 00 00 00 00 00 00 00 00
       0.0 0.99960357 0.0 0.0
000120 3f 8f 5b 3d ab bf 29 40 00 00 00 00 40 62 93 40
       0.053603407 2.6523235 0.0 4.6057434
000130 c4 3b c4 3f 02 d7 73 3f 3f 30 70 3d 00 00 00 00
       1.5330739 0.9524995 0.05863976 0.0
000140 5a cc a8 3f 00 00 00 00 00 00 00 00 1c 4e 60 3f
       1.3187363 0.0 0.0 0.87619185
000150 00 00 00 00 3a 94 35 40 cc 50 4f 3e 7d 60 5a 3a
       0.0 2.837172 0.20245665 0.0008330418
000160 90 91 fe 3e 31 9c 21 40 7f bf 32 40 d0 e5 9a 3f
       0.4972043 2.5251582 2.792938 1.2101383
000170 cd 9b f4 3e 4a ce 71 3f 4c bc e3 3f fd 34 84 3c
       0.47775117 0.944554 1.7791839 0.016138548
000180 48 eb 19 3d db 60 dd 3f 6c fa bb 3e 35 9e b0 3f
       0.037577897 1.7295183 0.36714494 1.3798281
000190 b4 4d 05 40 00 00 00 00 1e 75 67 3e 4a 83 2b 40
       2.0828676 0.0 0.2260327 2.6798882
0001a0 1e 3b 8a 40 5c f7 6f 3f 88 d5 ba 3f 9f ad f2 3e
       4.3197165 0.93736815 1.4596415 0.47398087
0001b0 00 00 00 00 3e ac 4a 3f 00 00 00 00 32 56 57 40
       0.0 0.7916907 0.0 3.364636
0001c0 86 14 37 40 00 00 00 00 5d e2 4f 3e 44 a5 9b 3d
       2.8606277 0.0 0.20301194 0.07599881
0001d0 b8 a1 9b 40 25 3f 5a 40 c6 35 2d 40 df 3f 27 3e
       4.863491 3.410104 2.706407 0.16332959
0001e0 00 00 00 00 7d 0f 9e 3c 00 00 00 00 51 5a f4 3d
       0.0 0.019294495 0.0 0.11931289
0001f0 ec 5d 9f 3f 88 e2 7c 40 00 00 00 00 f1 e6 c1 39
       1.2450538 3.9513264 0.0 0.00036983893

net.2.running_var f4 [128]
000000 4b 83 b5 3d 24 e4 01 40 4b 83 b5 3d f1 89 a2 3e
       0.08862933 2.0295496 0.08862933 0.31745866
000010 9a 03 fc 3f 29 2f 56 40 e8 f9 64 40 43 a0 99 40
       1.9688599 3.3466284 3.577753 4.800813
000020 4b 83 b5 3d 97 c7 56 40 d3 e0 ab 3f 49 85 f9 3d
       0.08862933 3.355932 1.3427986 0.12183625
000030 3b 3a 78 3e 66 4d 5d 3f 4b 83 b5 3d 96 1b ba 3d
       0.24240963 0.86446226 0.08862933 0.09087293
000040 07 73 d0 3e ed a2 78 40 3e 63 b8 3d 26 d0 10 3f
       0.4071276 3.8849442 0.09003304 0.5656761
000050 5d d1 75 3f 88 57 1d 40 f3 ea 6e 3e 0b 5d 3d 3f
       0.9602259 2.4584675 0.23331814 0.739701
000060 4b 83 b5 3d a4 f0 52 3f 02 7b 00 40 cb c5 1d 3e
       0.08862933 0.8239844 2.0075078 0.15407483
000070 4b 83 b5 3d 4b 83 b5 3d 2d 9e fb 3f 96 6e b9 3d
       0.08862933 0.08862933 1.9657646 0.09054296
000080 4b 83 b5 3d b6 65 c4 3f e8 d9 46 3f 0a aa 0f 40
       0.08862933 1.534354 0.7767625 2.2447534
000090 c8 47 0d 3e 56 a6 c5 3e 68 83 17 3e 4b 83 b5 3d
       0.13796914 0.38603467 0.14796221 0.08862933
0000a0 4b 83 b5 3d 4b 83 b5 3d 4b 83 b5 3d 1e 1c d0 3f
       0.08862933 0.08862933 0.08862933 1.6258581
0000b0 dd 56 42 40 4b 83 b5 3d f0 87 52 3e 91 e9 52 40
       3.0365517 0.08862933 0.20559669 3.2955058
0000c0 3a d2 86 3f a8 17 a9 3f 67 24 82 40 14 53 42 40
       1.0532906 1.3210344 4.0669436 3.0363207
0000d0 27 c0 fb 3f 4b 83 b5 3d 91 05 65 3f e6 78 07 3f
       1.9668015 0.08862933 0.8946162 0.5291885
0000e0 3c d2 2e 3f 7a 20 a3 3f af 1d da 3f 8b 2c de 3e
       0.6828954 1.2744286 1.7040309 0.4339336
0000f0 65 fa be 3d 4b 83 b5 3d ce 40 80 40 61 c9 b6 3d
       0.09325103 0.08862933 4.0079107 0.08925129
000100 27 b1 32 3f ac b1 03 40 4b 83 b5 3d 2d f3 b6 3f
       0.69801563 2.0577192 0.08862933 1.4292961
000110 4b 83 b5 3d 36 56 da 3e 4b 83 b5 3d 4b 83 b5 3d
       0.08862933 0.426439 0.08862933 0.08862933
000120 a9 1a 16 3e b9 89 45 40 4b 83 b5 3d 68 a8 63 40
       0.14658608 3.086531 0.08862933 3.5571537
000130 b3 a5 85 3e f6 f5 05 40 5c 76 d6 3d 4b 83 b5 3d
       0.2610298 2.0931373 0.10471794 0.08862933
000140 8d 0c 91 3f 4b 83 b5 3d 4b 83 b5 3d b0 d0 e8 3e
       1.1331955 0.08862933 0.08862933 0.45471716
000150 4b 83 b5 3d 78 1c 93 3f 6b ba ab 3e cc c5 b5 3d
       0.08862933 1.1493063 0.33540663 0.088756174
000160 1a fc 87 3f ac b3 ae 3f a1 83 24 40 36 3f 17 40
       1.062381 1.3648582 2.570534 2.363233
000170 0c ab 1a 3e 9b 9e fe 3d e1 ca 18 3f 8b f4 c5 3d
       0.15104312 0.12432595 0.5968457 0.096657835
000180 18 fd e7 3d cf 27 da 3f c5 53 2b 3e 05 83 88 3f
       0.11327571 1.7043399 0.16731174 1.0664984
000190 71 da 31 40 4b 83 b5 3d 5b 1f a1 3e 9e 8b 67 3f
       2.7789576 0.08862933 0.31469235 0.90447414
0001a0 38 b6 45 40 40 02 0d 3f 36 10 c1 3e 46 33 26 3f
       3.0892467 0.5508156 0.3770768 0.6492199
0001b0 4b 83 b5 3d 53 39 b9 3f 4b 83 b5 3d c3 91 e3 3f
       0.08862933 1.4470619 0.08862933 1.7778858
0001c0 e8 57 e9 3f 4b 83 b5 3d 05 c6 9f 3e 87 b1 e4 3d
       1.8229952 0.08862933 0.31205764 0.11166673
0001d0 ed 5e 52 40 19 3f b1 3f 42 a1 5f 40 51 85 25 3e
       3.2870438 1.3847381 3.4942174 0.16164137
0001e0 4b 83 b5 3d 59 f3 be 3d 4b 83 b5 3d 1e ff 4a 3e
       0.08862933 0.09323759 0.08862933 0.19823882
0001f0 d3 a2 6b 3f c5 2e 2d 40 4b 83 b5 3d 6c a0 b5 3d
       0.92045325 2.7059796 0.08862933 0.08868489

net.3.weight f4 [1, 128]
000000 7f 62 f3 bc 3b f5 18 bd cb 9a e7 3c 9f 7b 77 3c
       -0.029710053 -0.037343245 0.028272053 0.015105157
000010 6e 2e 96 bb 7a af 95 bd 1f 2c 88 3c f9 c4 98 bd
       -0.0045831716 -0.0730886 0.016622601 -0.074594446
000020 46 72 f2 bc d9 01 47 3d ac 4e 8b 3c 9b 87 5f 3c
       -0.029595505 0.048585746 0.017005287 0.013643171
000030 27 f1 58 3d 01 cc 56 bd 8b ed 8a bd b3 5c f1 3c
       0.052964356 -0.052440647 -0.06783589 0.029463148
000040 a8 41 2b 3d c0 e9 f7 b9 f1 56 d0 3b 4d 69 de 3c
       0.04181066 -0.0004728567 0.0063580205 0.02714982
000050 17 5d 0d 3d 56 39 be bc 6a bf e6 bc 64 87 9e 3d
       0.034512606 -0.0232207 -0.028167445 0.077406675
000060 69 11 e2 3c ed b9 f8 3c 71 3e 90 bc 74 b1 ac 3c
       0.027596192 0.030362094 -0.0176079 0.02108071
000070 c8 0d 3f 3d f7 d8 ff 3c 0e 39 db bc 98 02 83 bd
       0.046644002 0.031231387 -0.026760604 -0.06396979
000080 8d 1c 07 3b 48 25 1b bd e6 d8 04 bd 7d 05 ce 3b
       0.0020616383 -0.03787735 -0.032433413 0.0062872753
000090 49 32 02 3c be 33 d5 3c ba 9f 5b bd b3 05 9f 3c
       0.007946559 0.02602565 -0.053619124 0.019411897
0000a0 32 0d 8c 3d 6e d7 9f bd b0 7c 9b bd 81 d8 58 3d
       0.06838454 -0.07804762 -0.07592142 0.05294085
0000b0 f5 fa 6f bd 2a 67 7b bd a2 fc ac 3c 5b 9d 9e 3d
       -0.05858894 -0.06137768 0.021116558 0.07744857
0000c0 75 50 9f 3d bc 34 ce 3c 53 95 0b 3b 4d a3 26 3d
       0.07779018 0.02517163 0.002129872 0.04068308
0000d0 6d 0c 8b 3d 89 40 12 bc 47 2c b0 bc d2 cb a4 bd
       0.067894794 -0.008926519 -0.021505488 -0.08046688
0000e0 c5 87 91 3c 16 e5 07 bd 25 10 3b 3d e6 f2 f2 bb
       0.017764935 -0.033177458 0.045669693 -0.0074142097
0000f0 95 c3 e1 bc 60 d3 00 bc d8 47 b3 bd e9 20 71 39
       -0.027559081 -0.007862896 -0.087539375 0.00022995811
000100 ef ec a5 3d f7 2b 82 3b 04 82 ed 3a cc 39 06 bd
       0.08101832 0.003972526 0.0018120413 -0.032769963
000110 29 56 5c bd c6 62 49 bd 7c 8f 5d 3d 08 34 87 3d
       -0.053793106 -0.049166463 0.054091915 0.06601721
000120 0c e3 ef bc a1 e6 aa bb 29 f1 93 3d c8 10 af bd
       -0.02928307 -0.0052154814 0.07223732 -0.08548123
000130 35 2a a2 3d 0e 31 1f bd 31 86 27 bd f3 66 92 3c
       0.079182066 -0.03886514 -0.04089946 0.017871356
000140 4b 06 94 bd 14 31 78 3d bb 7d 8d bd 04 4c b2 bc
       -0.07227763 0.06059368 -0.06908747 -0.021764763
000150 7c 63 e6 3c 13 f5 0b 3c 4d 89 6e bd ee 14 b1 bd
       0.02812361 0.008542317 -0.05823641 -0.0864657
000160 dc 85 48 3d ba 60 a4 bd 5c 10 a8 3d 40 d0 4f bd
       0.048955783 -0.08026262 0.08206245 -0.050735712
000170 83 6e b1 3c fb 0a 40 3b 4d af 93 bc 77 69 a1 3d
       0.021659141 0.002930342 -0.018027926 0.07881444
000180 07 31 b8 3d 40 a2 97 bc eb fb 3f bd 09 10 95 bd
       0.08993726 -0.018509984 -0.046871107 -0.07278449
000190 f0 cb a8 bd 13 40 8f bc c4 b5 1e bd 4a 7c 85 3c
       -0.08242023 -0.017486608 -0.038747564 0.016294617
0001a0 8a 1f 29 bd a0 6d 81 3d ef 0c 93 bd 10 69 b3 bc
       -0.041289844 0.063197374 -0.07180201 -0.021900684
0001b0 6d 24 3a 3d 4c 12 b9 3c 61 04 8d 3d a3 ca b8 3d
       0.045444895 0.022591732 0.06885601 0.09023025
0001c0 d4 73 c0 bd b5 bc a4 bc 1a 72 95 3b 12 b3 64 bd
       -0.093970925 -0.020109514 0.004560721 -0.055834837
0001d0 84 77 3f 3d 93 e7 fc 3c 0e e7 97 bd bc f3 bf 3c
       0.04674484 0.030872142 -0.07417117 0.023431651
0001e0 d8 fc 53 bd f5 35 da 3c 7a 34 c9 3c 73 ab 8a bd
       -0.051754802 0.026637057 0.024561156 -0.067709826
0001f0 d3 77 01 bd 55 80 02 bb 35 7e 67 bd 79 61 28 3c
       -0.031608414 -0.0019912918 -0.056516845 0.010277146
