saved_models/mlp/MLP__deprecated_heart_h.pth (torch, 13452 bytes, 7 tensors)

net.0.weight f4 [128, 13]
000000 27 a1 b6 3d 90 f5 5c bd cb 49 61 3e cd 6f c6 bc
       0.08917456 -0.053945124 0.22000806 -0.024223233
000010 5b 04 8e bd ac ca 87 bd b5 11 be 3d b2 6b 9f 3d
       -0.069344245 -0.066304535 0.09280721 0.07784213
000020 dc 47 fe 3c 3f 37 d0 be aa 2f 57 be 91 b3 a7 3b
       0.031040125 -0.4066715 -0.21014276 0.0051178415
000030 f0 64 37 3e cb cc 69 3e 05 bf 15 3e 85 bf ad bd
       0.17909598 0.22832029 0.1462365 -0.08483795
000040 d4 69 4b be 99 96 e5 3d 22 d7 b8 bd 2c 63 98 be
       -0.19864589 0.11210365 -0.09025408 -0.29763162
000050 76 dc 7b be 84 62 2e 3d c2 9f 08 3f a9 00 f6 3e
       -0.24595818 0.04257442 0.5336877 0.4804738
000060 34 1b 60 be 70 b9 86 3d 2e 45 60 be 5c 1d ff 3d
       -0.21885377 0.06578338 -0.2190139 0.12456772
000070 d0 3d ab 3d 73 71 88 3e 57 ed 26 be 81 2c 0a be
       0.08361399 0.26649055 -0.16301475 -0.1349354
000080 5c b2 16 bd 53 17 11 be bd 79 3c be 1c 3a 37 3e
       -0.03679119 -0.14169054 -0.18405814 0.1789326
000090 70 e9 b7 bc de 59 64 3e 20 be 4d bc 3d e8 1d be
       -0.022450179 0.22299907 -0.012557536 -0.15420623
0000a0 98 d1 f3 3d 65 51 c5 3e ce 13 74 be ce ac 58 3e
       0.11905211 0.38538662 -0.2383568 0.2115967
0000b0 f1 ad fd 3d 23 1e fd bc fd 62 e3 bd 63 e7 90 be
       0.12386692 -0.03089816 -0.11102865 -0.28301534
0000c0 69 b3 f5 be e3 a6 66 be fd 68 88 3e 75 fe 9a 3d
       -0.47988442 -0.225246 0.266426 0.07568065
0000d0 49 93 28 be 58 3f 40 3d 76 89 af bd 14 cb 3e be
       -0.16462435 0.04693541 -0.085711405 -0.18632156
0000e0 a4 49 3b be 00 d6 b6 ba f2 84 7a be 1a 04 86 be
       -0.1828981 -0.0013949275 -0.24464777 -0.26175004
0000f0 d3 71 82 be 8e 73 77 3e c0 06 31 bc 64 e9 68 be
       -0.25477466 0.24165174 -0.010804832 -0.22745281
000100 b6 c6 8a bd 78 7b 7c be 86 92 69 be 3c 8f 26 be
       -0.06776182 -0.24656475 -0.228098 -0.16265577
000110 82 6e 8a be ef 3e 05 be de 57 85 bd b4 4d 1c be
       -0.27037436 -0.13012289 -0.065109 -0.15264016
000120 f6 e3 03 3e 54 4f 0e 3e ec 67 02 be c8 ad 4a 3d
       0.12879929 0.13897449 -0.12734956 0.049482137
000130 de 6e 7a 3e 90 f2 5f 3d 73 d3 6b 3e 09 73 47 3e
       0.24456355 0.054674685 0.2302988 0.19477476
000140 0b 54 d2 be 84 25 84 3e 57 09 e9 bd 00 f0 0b 3e
       -0.41079745 0.25809872 -0.113787346 0.13665771
000150 3f a6 8f be 55 39 ef 3d 19 b8 dd 3e 43 89 e8 3d
       -0.28056523 0.11680857 0.43304518 0.113543056
000160 4e 52 22 3d 8e b4 6d be 88 01 45 bd 6b 3f cb bc
       0.039629273 -0.23213407 -0.048097163 -0.024810513
000170 bd 55 50 be 21 cb 3e be 7f da 71 3d 72 e9 71 be
       -0.20345207 -0.18632175 0.059046265 -0.23624209
000180 5c 72 34 3e be b1 0c bc 1d f3 09 3e 1d d3 e3 3d
       0.1762175 -0.008587299 0.13471647 0.11124251
000190 92 63 90 be 71 c8 b0 bd 81 85 f7 bd 1c 60 89 bd
       -0.28200966 -0.08631981 -0.12086011 -0.067077845
0001a0 c8 04 6c 3d 9b c6 16 bd 81 a2 5e be aa 6f 64 3e
       0.057621747 -0.0368105 -0.21741678 0.22308221
0001b0 93 47 10 3e 39 7c 72 3d 96 83 da 3d d1 b5 4b be
       0.14089803 0.0592005 0.10669629 -0.19893576
0001c0 17 75 19 3e 7f 65 df 3e 80 fb 12 3c b9 fa 7a be
       0.14986072 0.43632123 0.008971095 -0.24509706
0001d0 f0 a8 8e 3d 57 e7 32 3e a7 de bf be 9e ff 45 3e
       0.06965816 0.17471062 -0.37474558 0.19335791
0001e0 52 9f 41 be f6 55 f3 3d fa af b5 3d 64 ba 5d 3e
       -0.18908432 0.1188163 0.088714555 0.21653134
0001f0 15 df 18 3e 55 91 fe 3d 0f 6f 05 be 6b 28 0b 3e
       0.14928849 0.12430064 -0.13030647 0.13589637
000200 fd fd 64 be a3 35 74 be 09 34 88 3e 25 85 cb be
       -0.22362514 -0.23848586 0.266022 -0.3975002
000210 68 f0 04 3f 26 a4 ec bd 0e 10 37 bd f0 a5 53 be
       0.5192933 -0.11554746 -0.044693045 -0.20668769
000220 70 fc 93 ba 1f d9 0f bd 32 43 cf bd ff cd 09 bf
       -0.0011290442 -0.035119172 -0.10120238 -0.5382995
000230 99 84 14 be fb a9 bf 3d 4a 2e ae be fd 5e 0f be
       -0.14503707 0.09358593 -0.3401969 -0.14001079
000240 01 89 8f be dd 42 a6 3e f9 7a 09 3e 14 d6 f8 3d
       -0.28034213 0.32472888 0.13425817 0.12150207
000250 41 b7 0e 3e b4 e6 c8 bd 7a 3a 49 3e 21 64 5c be
       0.13937093 -0.09809628 0.19651213 -0.21522571
000260 23 b5 e8 bd cc 97 1a 3e 04 b1 5d 39 6c d0 65 be
       -0.11362674 0.15096968 0.00021142146 -0.22442788
000270 82 1b 01 3e 47 b5 b8 3d 1f b5 05 be 98 0e 1f 3e
       0.1260815 0.09018951 -0.13057373 0.15532911
000280 f4 81 83 3e 08 b3 92 3e 2c de 61 3e f3 b5 2b 3d
       0.25685084 0.28652215 0.22057408 0.041921567
000290 60 34 0a 3d b7 4b 0c 3f cf 24 c8 3e e6 07 78 bd
       0.033741355 0.5480303 0.39090583 -0.060554408
0002a0 d9 e1 1f 3e 98 97 75 be 27 5a df 3d 17 4d 35 be
       0.15613498 -0.2398361 0.10905867 -0.17705189
0002b0 1d f3 58 3d 91 04 3e 3e d2 22 98 3e 08 8c 2b be
       0.052966226 0.1855643 0.29714066 -0.16752636
0002c0 96 e5 d5 3d c1 33 11 3e bd 47 16 3e c5 3b 8b 3b
       0.10444181 0.14179899 0.14675803 0.0042490684
0002d0 01 ae 4b be fa 16 04 3e e8 79 02 be 72 d9 3e 3e
       -0.19890596 0.1289939 -0.12741816 0.18637636
0002e0 7c 52 3d 3e 3c ff 35 3e 77 24 40 be 98 20 0d be
       0.18488497 0.17773145 -0.1876391 -0.13781965
0002f0 46 98 41 3e 58 67 98 bd 24 a7 b7 3d e8 3e 2f 3e
       0.18905744 -0.07441586 0.089674264 0.1711384
000300 a9 bf 34 be 6e 51 6b be 94 75 b4 3d b6 42 87 bd
       -0.17651238 -0.22980282 0.08811489 -0.06604521
000310 44 36 42 3e f7 64 a4 bd 7a af 7d 3e be b5 30 3e
       0.18966013 -0.0802707 0.2477397 0.17256829
000320 0d eb 57 3e 44 21 7d be d7 73 2d bc a4 a3 af 3e
       0.21085759 -0.24719721 -0.0105867 0.34304535
000330 68 85 72 3e c6 ca f2 3e 96 6e 54 bd 26 0b 32 3e
       0.23683703 0.4742033 -0.051863275 0.17387065
000340 bb cf 5d be ae 84 36 be f4 dc 6a be f8 38 eb bd
       -0.21661274 -0.17824051 -0.2293585 -0.11485475
000350 15 96 18 be aa 05 75 3e 88 b8 5e be 79 8e 8a be
       -0.14901002 0.23927942 -0.2175008 -0.27061823
000360 7d 34 74 be ba 30 71 be b8 99 c1 bd 84 fc c6 3d
       -0.23848148 -0.23553744 -0.09453148 0.09716132
000370 80 c8 19 3b ce b9 4f 3e fe d5 36 bc c4 a0 de 3d
       0.0023465455 0.20285723 -0.011159418 0.10870507
000380 fe 99 1d be a1 45 28 be 9d 79 38 be 0b 30 fe bc
       -0.15390775 -0.16432811 -0.18015142 -0.031028768
000390 81 fe 8b be cc cf f5 bd d9 d8 48 be 1c e8 30 3d
       -0.2734261 -0.12002525 -0.19613971 0.043190107
0003a0 6a ed 73 3d e3 99 17 bd 0a 85 09 3e 40 fa 3a 3e
       0.059552588 -0.037011992 0.13429657 0.18259525
0003b0 5e cb c2 3d ca fb e2 bd 32 97 8c be 9e bb ac 3d
       0.095114455 -0.11083181 -0.27459103 0.08434223
0003c0 2e 39 a0 be ab 3b 8c 3e 88 d5 7d be 6d 94 a3 3e
       -0.31293625 0.27389273 -0.24788487 0.31949177
0003d0 ab 0a f7 3d a5 b5 63 3c f1 49 03 be 24 22 a6 3d
       0.12062582 0.013898288 -0.12821175 0.081119806
0003e0 9b a7 9e 3e b2 50 87 be 41 eb 3f 3a a1 6c bb bd
       0.30987248 -0.26428753 0.00073211273 -0.09151579
0003f0 40 cd 1d 3e e1 90 45 3e 93 af 80 3e 77 ec 03 3e
       0.15410328 0.19293548 0.25133952 0.12883173

net.0.bias f4 [128]
000000 dc e8 6a be dc 3c 07 be 38 63 cf bd 70 10 61 bd
       -0.22940391 -0.1320681 -0.10126346 -0.054947317
000010 20 b8 18 bc c8 c7 e8 bc 88 0d 7e bd eb 20 69 3e
       -0.009321243 -0.028415576 -0.062024623 0.22766463
000020 20 57 96 3c 5b 32 51 3d 01 7c cf bd 25 13 b0 bd
       0.018352091 0.051073413 -0.10131074 -0.085974015
000030 fd be 39 be 76 8c 11 3e 52 1e 25 be 79 22 62 bd
       -0.18139262 0.14213738 -0.16124848 -0.055208657
000040 50 58 95 bc d3 a2 18 be 4a 64 a1 3d ea e7 44 bd
       -0.018230587 -0.14905863 0.07880457 -0.048072733
000050 74 70 d3 bd 69 1c 61 be 08 9c 0c be 47 82 88 3e
       -0.10324183 -0.21983494 -0.13731396 0.26661894
000060 46 76 32 3d 7f 8b 05 3e c0 3a 6f 3e 1e 8b 88 3e
       0.043569826 0.13041495 0.23362255 0.26668638
000070 33 dd 89 3e 71 5e e7 3d e6 74 6a 3e 06 6f 48 be
       0.26926574 0.1129731 0.22896156 -0.19573602
000080 fb 90 47 be c2 7d 1a bd fe d4 66 3e 0c db 30 be
       -0.194889 -0.03771759 0.22542188 -0.1727106
000090 c8 54 5c bc 9e 6e 6e 3e 8c d0 6b 3e ad 6e 9c 3a
       -0.013447948 0.23284385 0.23028773 0.001193484
0000a0 c5 64 03 3e 3b a6 d1 bd 34 2c 2b 3e 2b 45 4d 3d
       0.1283141 -0.10236784 0.16716081 0.05011479
0000b0 fd 24 37 3d 80 a3 be bd a6 1e 0f be 4f 84 5f 3e
       0.04471301 -0.09308529 -0.13976535 0.21827815
0000c0 fc e4 20 3e 5f 13 8c be c8 f1 71 bd f1 df 30 bd
       0.1571235 -0.2735853 -0.05906847 -0.043182317
0000d0 4b 2b 52 be 62 9f 1d 3e 66 b5 4e 3e 95 34 4c bd
       -0.20524327 0.15392831 0.20186386 -0.049854834
0000e0 20 f7 72 be 95 ae 55 be e8 8a 99 3d 41 6f 81 3e
       -0.23727083 -0.20867379 0.074971974 0.25280192
0000f0 38 a6 43 be 84 b4 34 3e fa cd 18 3e ff ab 3f be
       -0.19106376 0.17646986 0.14922324 -0.18717955
000100 36 d8 68 3e f0 86 8b bc 86 5b 94 3e 35 25 bc bd
       0.22738728 -0.017032117 0.28976077 -0.09186784
000110 ca 2e 5c 3e 39 9f 92 be 77 53 2c be 98 df 83 3e
       0.21502224 -0.28637102 -0.16828714 0.25756526
000120 96 54 75 3e 43 3d c9 bd 7a 2c cb bc dd 0c 52 3e
       0.23958048 -0.09826138 -0.024801482 0.2051272
000130 e0 5d 64 3d 1c f5 73 bd 4c ae fa bd 25 b3 14 be
       0.05575359 -0.059559926 -0.12240276 -0.14521463
000140 1a 8e bf 3d 3c 6d 1b 3e 89 79 96 3c 23 f2 0a be
       0.093532756 0.15178388 0.0183685 -0.1356893
000150 8c af 84 3e 30 c2 f7 3d 2f 10 45 be 66 ab b2 3b
       0.25915182 0.12097585 -0.19244455 0.005452561
000160 7a c5 2e be 24 14 71 3e 1f 04 99 be f1 9d 84 be
       -0.17067519 0.2354284 -0.29885957 -0.2590175
000170 42 a8 aa bd db 02 92 3d e0 da b5 bc 4f f5 5b 3e
       -0.08332874 0.07129451 -0.022199094 0.21480297
000180 80 e4 d3 bb d4 3b bb 3d a2 e0 48 be d2 2d 7b 3e
       -0.0064664483 0.09142271 -0.1961694 0.24529198
000190 05 a3 b1 3d 6c e4 5d bd 1c 24 5a 3e 04 54 81 bd
       0.08673672 -0.05417292 0.21302837 -0.06314853
0001a0 a2 d3 78 be 8b ee 60 be 05 c8 62 3e 5f 93 5b be
       -0.24299482 -0.21965997 0.22146614 -0.21442936
0001b0 f4 3b 10 be 07 81 87 3e 41 a3 85 be 26 00 7c be
       -0.1408537 0.26465628 -0.26101115 -0.24609432
0001c0 7d fa f1 3d 5a fd 49 3e 16 8a 33 be 08 35 12 bc
       0.11815355 0.19725552 -0.17533144 -0.008923776
0001d0 ca d7 3b 3d c5 c9 29 3e d8 bb c0 3d 91 50 80 bd
       0.04586009 0.16580875 0.09410828 -0.06265367
0001e0 d1 79 2a 3e fb a4 d5 3d ac 5c 94 bd a6 f8 15 3e
       0.16648032 0.10431858 -0.07244238 0.14645633
0001f0 7a 7c 88 3e fc 63 fe 3d a6 7b 1b 3e 2f 0c 08 be
       0.26657468 0.12421414 0.15183887 -0.13285898

net.2.weight f4 [128]
000000 8e 9f 83 3f 1f fa 83 3f 00 00 80 3f 71 6d 80 3f
       1.0283067 1.0310706 1.0 1.0033399
000010 00 00 80 3f 00 00 80 3f 59 9b 84 3f f8 5f 7d 3f
       1.0 1.0 1.0359908 0.9897456
000020 a1 92 80 3f cd c0 76 3f 2a 0a 8c 3f d0 8e 76 3f
       1.0044748 0.9638794 1.0940602 0.96311665
000030 e9 bd 84 3f 34 88 7e 3f 00 00 80 3f ec 8f 83 3f
       1.0370456 0.9942658 1.0 1.0278296
000040 00 00 80 3f a2 46 87 3f 88 1f 82 3f 06 ac 87 3f
       1.0 1.056843 1.0165873 1.0599372
000050 76 89 75 3f 6c 63 81 3f 73 bc 7b 3f 93 ba 83 3f
       0.95912874 1.0108466 0.98334426 1.0291313
000060 33 f3 73 3f 42 29 82 3f 6c 41 85 3f 6b 57 83 3f
       0.9529297 1.0168841 1.041059 1.0261053
000070 dc b1 74 3f a8 fa 84 3f 1a 75 7b 3f 00 00 80 3f
       0.9558389 1.0388994 0.9822556 1.0
000080 8b 07 79 3f 8c 1f 84 3f 00 00 80 3f 00 00 80 3f
       0.97277135 1.0322127 1.0 1.0
000090 38 b2 84 3f 7a d7 85 3f b2 88 80 3f 3f b9 7f 3f
       1.0366888 1.0456383 1.0041716 0.9989204
0000a0 cd 31 85 3f 00 0f 7e 3f 0d 18 7c 3f 27 1c 83 3f
       1.0405823 0.9924164 0.984742 1.0242966
0000b0 67 02 7e 3f 06 26 89 3f 29 42 76 3f 1f 1a 8a 3f
       0.99222416 1.0714729 0.961947 1.0789222
0000c0 b6 2a 88 3f 00 00 80 3f 2b bd 7a 3f 07 71 80 3f
       1.0638034 1.0 0.979449 1.0034493
0000d0 c3 15 7f 3f 00 00 80 3f 00 00 80 3f 19 93 85 3f
       0.9964258 1.0 1.0 1.0435516
0000e0 85 84 80 3f 34 e9 82 3f 00 00 80 3f 8f 68 80 3f
       1.0040442 1.0227418 1.0 1.0031909
0000f0 00 00 80 3f 00 00 80 3f 00 00 80 3f 9c 36 7a 3f
       1.0 1.0 1.0 0.9773958
000100 00 00 80 3f 00 00 80 3f 3a a6 80 3f 72 b8 78 3f
       1.0 1.0 1.0050728 0.9715644
000110 00 00 80 3f 89 5e 85 3f 6a d3 7a 3f c8 12 78 3f
       1.0 1.0419475 0.9797884 0.9690366
000120 00 00 80 3f f9 c4 85 3f fa 22 7d 3f 2a ae 78 3f
       1.0 1.0450736 0.98881495 0.97140753
000130 b4 94 81 3f 00 00 80 3f 62 d8 82 3f 27 d0 78 3f
       1.0123506 1.0 1.0222285 0.97192615
000140 d4 f4 83 3f a1 89 74 3f d6 69 86 3f fd da 7c 3f
       1.0309091 0.95522505 1.0501049 0.9877165
000150 aa 12 81 3f bc b3 8a 3f 26 90 83 3f 2e 31 87 3f
       1.0083821 1.08361 1.0278366 1.0561883
000160 6c 52 86 3f 18 d4 7d 3f ad aa 83 3f 00 00 80 3f
       1.0493903 0.99151754 1.0286461 1.0
000170 ba 24 80 3f af 69 76 3f 00 00 80 3f 8b 8c 80 3f
       1.0011208 0.9625501 1.0 1.004289
000180 00 00 80 3f c5 f8 78 3f 00 00 80 3f 00 00 80 3f
       1.0 0.9725459 1.0 1.0
000190 7f 37 80 3f 2d f7 7e 3f 00 00 80 3f 9f 4a 86 3f
       1.0016936 0.9959591 1.0 1.0491523
0001a0 da eb 7d 3f 00 00 80 3f 2d bf 7e 3f c9 b5 84 3f
       0.99188006 1.0 0.9951046 1.0367976
0001b0 de bb 87 3f 00 00 80 3f 52 dc 81 3f 16 23 7a 3f
       1.0604208 1.0 1.0145361 0.97709787
0001c0 da 4c 85 3f c0 0b 7c 3f 25 25 79 3f 48 a1 80 3f
       1.0414078 0.9845543 0.97322303 1.0049219
0001d0 95 7a 85 3f 33 16 83 3f 00 00 80 3f 00 9f 83 3f
       1.0428034 1.024115 1.0 1.0282898
0001e0 92 12 7d 3f 4d e9 78 3f 9c 78 82 3f 00 00 80 3f
       0.9885646 0.9723099 1.0193057 1.0
0001f0 fa 00 80 3f 00 00 80 3f 3d 33 7f 3f 1d 5b 80 3f
       1.0000298 1.0 0.9968756 1.0027806

net.2.bias f4 [128]
000000 bf 6f 2f 3d fe 58 30 bd b6 dc 2b bd dd 8b 26 3d
       0.04283118 -0.04305362 -0.041958533 0.040660728
000010 5e 31 2c 3d 4f b6 2d bd fc 66 1d bd 31 a0 2a 3d
       0.042039268 -0.04241019 -0.03842829 0.041656677
000020 47 be 32 bd 9c 94 03 3d 18 3c 3c 3d 8f bc fc 3c
       -0.043638494 0.032124147 0.045955747 0.03085163
000030 d4 23 39 bd 68 94 37 bd a4 01 38 3d b5 6f 44 bd
       -0.045200184 -0.044819266 0.04492344 -0.047958095
000040 db 18 2c 3d 31 03 3c 3d 72 4e 26 bd 3f 75 2e bd
       0.04201589 0.04590148 -0.040602155 -0.042592283
000050 cd e3 1c 3d 8f db 24 3d 5e 8a 32 3d f1 d1 37 3d
       0.038303185 0.04024845 0.04358899 0.04487795
000060 e0 e8 ec 3c 1b 13 2f bd 63 fa 34 bd 10 cc ad bc
       0.028919637 -0.04274283 -0.0441841 -0.021215469
000070 d4 83 17 3d 12 56 2d bd 57 d8 27 3d a5 b0 2b 3d
       0.036990955 -0.04231841 0.040977802 0.04191651
000080 9a fe 25 3d 46 60 34 bd c2 3d 2c 3d 9f 29 2c bd
       0.04052601 -0.044037126 0.042051084 -0.04203188
000090 69 f2 30 bd 3d 32 44 bd 22 25 25 3d 58 0c 28 3d
       -0.04319993 -0.047899473 0.040318616 0.041027397
0000a0 88 09 2e 3d aa 24 21 3d 40 87 26 3d c7 16 2f 3d
       0.04248956 0.039341606 0.04065633 0.04274633
0000b0 af d9 2a bd 34 7d 3f bd ca c2 17 3d 70 0a 34 bd
       -0.041711506 -0.046750262 0.037051 -0.043955266
0000c0 65 46 62 bd 2b 17 35 bd 13 e3 31 bc 4e e8 30 bd
       -0.055242915 -0.044211548 -0.010857361 -0.043190293
0000d0 c9 d3 31 3d 06 76 2c bd 98 54 2c 3d 9a ae 2b bd
       0.043414865 -0.042104743 0.042072862 -0.04191456
0000e0 ab e7 3f 3d fa 05 bc 3c d6 30 34 bd 6c e5 23 3d
       0.046851795 0.022952069 -0.043991886 0.040013716
0000f0 07 12 2d 3d 7b b1 2b bd fc 01 35 3d ce 76 16 3d
       0.04225352 -0.041917305 0.044191346 0.036734395
000100 d9 0a 2c bd 5a 2b 2d 3d f3 47 3b 3d 33 5d 18 3d
       -0.042002533 0.04227767 0.045722913 0.037198257
000110 55 a8 2b bd aa bf 2f bd ae 57 fb bc 3b ad 03 3d
       -0.04190858 -0.042907394 -0.030681457 0.032147627
000120 83 61 2d bd 52 f5 3d bd fe 16 1c bd 22 aa 1d 3d
       -0.042329323 -0.046376534 -0.038107865 0.03849233
000130 c1 f6 28 3d 78 05 2c 3d ff 15 33 bd b3 c1 21 3d
       0.041250948 0.041997403 -0.04372215 0.039491367
000140 f6 da 2d bd 4a c0 f2 3c f3 6a 33 bd bc d0 24 3d
       -0.042445146 0.029632706 -0.043803167 0.040238127
000150 e0 d4 24 3d 61 b8 30 3d 60 f5 38 3d 3c b2 1d 3d
       0.040242076 0.043144587 0.045155883 0.038500056
000160 2b 3c 31 bd 32 2e 21 3d 85 36 f4 bc 0a 28 2c 3d
       -0.04327027 0.039350696 -0.029811153 0.04203037
000170 82 bc 2e bd 87 27 20 3d d6 80 2f 3d 44 b3 22 bd
       -0.042660244 0.039100196 0.042847477 -0.039721742
000180 3a d7 2b 3d 4b a3 2b 3d 2a 11 2c 3d 40 66 2c bd
       0.041953303 0.041903775 0.042008556 -0.0420897
000190 23 e2 26 3d 9b 1f 2d 3d f1 d9 2b bd 4b da 05 bd
       0.040743005 0.04226647 -0.041955892 -0.032678884
0001a0 a1 d0 17 3d 52 ac 39 bd ee 14 1b bd 78 d3 49 3d
       0.0370642 -0.045330353 -0.037861757 0.049273938
0001b0 5f 91 2a 3d 49 05 2c 3d b1 70 34 bd f8 46 23 3d
       0.041642543 0.041997228 -0.044052783 0.039862603
0001c0 85 76 40 bd 5f b7 11 3d be 66 1c 3d da 1c 23 bd
       -0.04698803 0.035575267 0.03818392 -0.039822437
0001d0 9d f8 36 bd a5 02 2d bd 4e 51 38 bd 0e 68 32 bd
       -0.04467069 -0.04223885 -0.044999413 -0.043556266
0001e0 7f 34 14 3d 43 60 1b 3d c7 fb 29 3d 59 a2 2b bd
       0.036182877 0.0379336 0.04149988 -0.041902874
0001f0 5d 22 2e 3d 76 85 2e bd f5 f6 19 bd e5 b0 19 3d
       0.04251324 -0.042607747 -0.037589032 0.037522215

net.2.running_mean f4 [128]
000000 1e 5f d6 3f d8 0b 1b 41 00 00 00 00 ca 53 87 40
       1.6747777 9.690392 0.0 4.228978
000010 00 00 00 00 00 00 00 00 d9 40 21 41 f1 4f 5a 3f
       0.0 0.0 10.078332 0.8527823
000020 19 c1 41 41 b5 1f a5 41 74 24 b8 40 e6 e1 29 41
       12.109643 20.640482 5.75445 10.617651
000030 84 b3 f0 41 bc 9b 01 41 00 00 00 00 5d 4c 5d 41
       30.087654 8.100521 0.0 13.831143
000040 00 00 00 00 c7 2b 22 3d a1 14 3b 40 fc 4b f5 40
       0.0 0.03959253 2.923134 7.6655254
000050 07 c8 44 41 b9 12 99 3f c9 1e 6d 3f 8f 85 5b 3f
       12.298835 1.1958839 0.926251 0.8575067
000060 fe 3c 01 41 4d 7d 6e 41 13 8e 60 41 af e9 34 3d
       8.077391 14.905591 14.034686 0.04416817
000070 bd 53 d1 3f 16 d5 55 40 53 53 bd 3f 00 00 00 00
       1.635368 3.3411307 1.4791054 0.0
000080 f6 e9 2c 41 76 26 8b 41 00 00 00 00 00 00 00 00
       10.807119 17.39378 0.0 0.0
000090 c7 6e 2f 41 b1 f2 3c 41 7c 7e 99 40 8c b2 43 41
       10.964545 11.809251 4.79669 12.231091
0000a0 63 25 31 3f 20 e0 92 41 98 ad 21 3b 03 51 90 3e
       0.6919767 18.359436 0.002467012 0.28186807
0000b0 2a 23 fd 3b 00 5a 1f 3f a8 13 83 41 56 c9 20 41
       0.007725139 0.62246704 16.384598 10.049154
0000c0 ea ac 3a 3e 00 00 00 00 87 2d 98 3b 9a 1a dd 3e
       0.18230024 0.0 0.004644099 0.43184358
0000d0 ca 72 93 40 00 00 00 00 00 00 00 00 d3 ed 2b 41
       4.6077623 0.0 0.0 10.745563
0000e0 2e ae 98 3f a8 87 78 3d 00 00 00 00 91 51 2e 41
       1.1928155 0.060676247 0.0 10.894914
0000f0 00 00 00 00 00 00 00 00 00 00 00 00 b2 16 c9 40
       0.0 0.0 0.0 6.2840204
000100 00 00 00 00 00 00 00 00 71 8c 26 40 e4 f1 bc 40
       0.0 0.0 2.6023219 5.9045277
000110 00 00 00 00 52 da 5a 40 0d 9d 74 3b 04 0d 41 41
       0.0 3.4195752 0.0037325055 12.065678
000120 00 00 00 00 21 db 0a 42 ca 68 3f 3f 46 27 f3 41
       0.0 34.713993 0.7476927 30.394176
000130 d5 5c 37 41 00 00 00 00 eb cc 06 40 ea 5e d3 3f
       11.460164 0.0 2.1062572 1.651334
000140 40 67 77 41 74 2a df 3f c1 ab d6 41 c7 cf a0 40
       15.4627075 1.7434831 26.833864 5.0253634
000150 75 fd 7a 41 50 b2 ec 40 54 a3 47 40 aa c5 86 3e
       15.686879 7.3967667 3.1193438 0.2632268
000160 43 b0 21 3f 40 62 a6 41 a8 2b 29 41 00 00 00 00
       0.6315958 20.797974 10.573158 0.0
000170 b8 51 44 41 5f b2 ff 3d 00 00 00 00 cc 58 ec 3e
       12.269951 0.124851935 0.0 0.46161497
000180 00 00 00 00 b0 12 da 3d 00 00 00 00 00 00 00 00
       0.0 0.106480956 0.0 0.0
000190 be 65 ae 41 d8 12 6c 3f 00 00 00 00 22 08 f9 40
       21.799679 0.92216253 0.0 7.782243
0001a0 82 e4 46 41 00 00 00 00 a0 8d bc 39 0b 1d a4 3c
       12.430788 0.0 0.00035963673 0.02003338
0001b0 d2 d3 a0 3f 00 00 00 00 84 8c 43 41 f8 97 82 41
       1.2564642 0.0 12.221806 16.324203
0001c0 96 c9 97 3e 60 2f ab 41 bb 78 e1 41 9e b6 2c 40
       0.29645985 21.398132 28.18395 2.698646
0001d0 a4 f1 a6 41 3c 38 ce 3f 00 00 00 00 6c e3 aa 41
       20.867989 1.6110911 0.0 21.361046
0001e0 8e f8 b5 3d 69 0e 0b 42 a1 12 26 41 00 00 00 00
       0.08885299 34.764072 10.379548 0.0
0001f0 7a df 16 3f 00 00 00 00 4d 2a be 40 4c 5b 70 3f
       0.5893475 0.0 5.9426637 0.9388931

net.2.running_var f4 [128]
000000 ce 48 66 40 45 8b 1e 42 ae ca 88 3b 9b 34 e9 41
       3.5981936 39.636005 0.004174552 29.150686
000010 ae ca 88 3b ae ca 88 3b 74 6d a7 41 e6 14 6f 40
       0.004174552 0.004174552 20.928444 3.7356505
000020 32 bf 4c 42 0c 38 ef 41 c9 02 22 41 64 ad 2a 42
       51.186714 29.902367 10.12568 42.669327
000030 2e 05 f4 42 7b 13 6d 42 ae ca 88 3b 75 be 7c 42
       122.01012 59.269024 0.004174552 63.185993
000040 ae ca 88 3b 92 af 10 3e 2c 2b a2 41 c2 14 a5 41
       0.004174552 0.14129475 20.27108 20.635136
000050 7b 3d be 42 a7 c1 14 41 f9 bd 57 40 ae d9 57 40
       95.12008 9.297278 3.37097 3.372661
000060 5c 70 1a 42 ed 87 95 41 ca e7 46 42 96 64 b4 3d
       38.609726 18.69137 49.726357 0.08808248
000070 1b c4 0c 41 1d ab b0 40 bf 29 fe 40 ae ca 88 3b
       8.797877 5.520888 7.942596 0.004174552
000080 2e 27 06 42 25 d1 ee 42 ae ca 88 3b ae ca 88 3b
       33.53826 119.408485 0.004174552 0.004174552
000090 44 c0 86 41 5e 69 0b 42 ae 1a 87 41 d1 63 95 40
       16.84388 34.852898 16.888027 4.6684346
0000a0 5b 8b 5b 40 30 7a d7 42 c7 20 09 3c ac 9f 57 3f
       3.4303806 107.73865 0.008369631 0.84228015
0000b0 f0 31 7f 3c df 18 ed 3f b5 a7 23 42 09 47 94 41
       0.015575871 1.8523215 40.913776 18.534685
0000c0 b2 d5 c7 3e ae ca 88 3b d5 bf cb 3b 91 9f 0e 40
       0.39030224 0.004174552 0.0062179365 2.2284892
0000d0 b4 f2 c8 41 ae ca 88 3b ae ca 88 3b c1 6f 1a 42
       25.118507 0.004174552 0.004174552 38.609135
0000e0 b2 cc a5 40 b5 97 3d 3e ae ca 88 3b 90 61 a4 42
       5.181237 0.18514903 0.004174552 82.19055
0000f0 ae ca 88 3b ae ca 88 3b ae ca 88 3b 77 47 12 42
       0.004174552 0.004174552 0.004174552 36.56979
000100 ae ca 88 3b ae ca 88 3b 78 76 5f 41 2e dc c5 40
       0.004174552 0.004174552 13.966423 6.1831274
000110 ae ca 88 3b 0d c4 66 41 d2 c8 04 3c b7 75 19 42
       0.004174552 14.422864 0.00810452 38.364956
000120 ae ca 88 3b 6a 17 9e 42 9c 6b 48 40 65 fd ae 42
       0.004174552 79.04573 3.131568 87.49491
000130 d4 8f 1a 41 ae ca 88 3b 9f 8a 7a 41 57 8c 1f 41
       9.660114 0.004174552 15.658843 9.971763
000140 cd 87 c9 41 e2 4d 05 41 26 4b a5 42 30 a7 36 42
       25.191309 8.331514 82.646774 45.66327
000150 06 ca 0d 42 d3 08 82 40 8e 15 5e 41 d4 d4 98 3e
       35.44729 4.063577 13.880262 0.29849875
000160 60 18 3b 40 cc a0 b0 42 ad 01 4e 42 ae ca 88 3b
       2.9233627 88.31406 51.501637 0.004174552
000170 8b 39 32 42 5a d9 18 3f ae ca 88 3b d6 96 60 3f
       44.556194 0.5970665 0.004174552 0.8773016
000180 ae ca 88 3b 29 d9 98 3e ae ca 88 3b ae ca 88 3b
       0.004174552 0.2985318 0.004174552 0.004174552
000190 fc 5d 6a 42 57 60 90 40 ae ca 88 3b 98 1b be 41
       58.59178 4.51176 0.004174552 23.763474
0001a0 1f 07 da 41 ae ca 88 3b 16 51 90 3b 79 91 26 3d
       27.253477 0.004174552 0.0044041974 0.040666077
0001b0 4d 9d 13 40 ae ca 88 3b bc 4e ea 42 d6 c9 92 42
       2.3064759 0.004174552 117.15378 73.39421
0001c0 b4 d5 87 3f ec c7 bc 42 6f 60 4a 42 01 9e 48 41
       1.0612092 94.39047 50.594173 12.538575
0001d0 17 59 85 42 48 96 17 41 ae ca 88 3b 63 ee 8b 42
       66.674 9.47419 0.004174552 69.9656
0001e0 f3 9a 6e 3e ee 37 f8 42 75 93 75 42 ae ca 88 3b
       0.23301296 124.10924 61.394 0.004174552
0001f0 07 7c e6 3f ae ca 88 3b a1 fd b8 41 de 49 70 40
       1.80066 0.004174552 23.123842 3.7545085

net.3.weight f4 [1, 128]
000000 ea 0d e1 3d a7 7e 97 bd 0c 0b e6 bd 98 da 4d 3d
       0.10988982 -0.07397204 -0.11232576 0.050257295
000010 c6 73 ca 3d e7 99 99 bd a9 71 4e bd 7f 9b 4f 3d
       0.09885363 -0.07500058 -0.050401364 0.050685402
000020 22 be af bc 6f 98 7f 3a 62 58 dd 3d 6c b7 d5 3b
       -0.021452967 0.00097501924 0.10807873 0.0065221097
000030 e3 28 91 bd 28 0c a8 bc 98 0c 3d 3d 8c d1 16 bd
       -0.07087877 -0.020513609 0.04615459 -0.036820933
000040 80 dc d0 3d 5b cf ee 3d 5b d4 9d bd a2 70 01 be
       0.10198307 0.11660644 -0.07706519 -0.12640622
000050 74 54 04 3d 5d 08 94 3d 0d cf 7f 3c 0d 30 8b 3d
       0.032307103 0.07228158 0.01561333 0.06796274
000060 4e 4b fe ba 0c 36 ae bd e7 64 e4 bd a4 58 28 3d
       -0.0019401105 -0.085064024 -0.11152058 0.04110016
000070 3a cd 94 3b 75 30 de bd 0b 38 6b 3d 85 52 ff 3d
       0.0045410665 -0.10849086 0.057426494 0.12466911
000080 5f 6b 47 3d 7d 13 d0 bd 96 8c c7 3d 01 65 cc bd
       0.04868638 -0.10159967 0.097436115 -0.099802025
000090 2f b0 f8 bd 11 bb 8b bd 09 46 9f 3d ca 16 97 3d
       -0.12142979 -0.068227895 0.0777703 0.073773935
0000a0 1f 7e ab 3d 48 70 3c 3d 04 6f 3e 3d 2c 7b 95 3d
       0.08373665 0.046005517 0.04649259 0.07298884
0000b0 dd 73 c5 bd 84 63 d5 bd 3a 57 9d 3c db e4 21 be
       -0.0964124 -0.10419372 0.019206632 -0.15809958
0000c0 d5 04 a7 bd e6 45 4e bd 5c 68 f3 bb 1f 5d 98 bd
       -0.081552185 -0.05035963 -0.007428212 -0.074396364
0000d0 04 1b c0 3c 5b 54 bc bd ae a1 c2 3d ed 1a bf bd
       0.023450382 -0.09195777 0.09503494 -0.093313076
0000e0 37 0c ca 3c d2 4a 12 bd af 31 54 bd 34 e9 93 3d
       0.024664028 -0.035715885 -0.051805194 0.07222214
0000f0 17 84 a7 3d 17 ac fe bd ff ca 4e 3d af 35 b7 3c
       0.08179491 -0.12435167 0.05048656 0.022364466
000100 23 03 d5 bd 63 fd a4 3d 63 f0 b5 3c 6a e2 27 3b
       -0.10400989 0.08056142 0.022209352 0.002561713
000110 b8 fa 02 be 01 d3 92 bd 25 ea e9 bb ab 67 15 bc
       -0.12790954 -0.07169152 -0.007138508 -0.009118955
000120 43 1b a0 bd 4a fe 8d bd 24 c6 31 bd a8 51 17 3d
       -0.078177 -0.069332674 -0.043401852 0.036943108
000130 a3 90 88 3d fe af d6 3d c4 66 cb bd d8 13 c4 3c
       0.06668212 0.104827866 -0.0993171 0.023935243
000140 65 7a d7 bd a2 7a 5d 3c 4e dc 05 be f1 fc 2c 3d
       -0.10521392 0.0135180075 -0.13072321 0.04223341
000150 71 80 46 3d dd 2f 20 3e d8 ce 45 3d 3a c3 dd 3d
       0.048462335 0.15643258 0.048292965 0.10828252
000160 ec 33 6b bd 5a d4 37 3d 65 b5 22 bd df ca cc 3d
       -0.057422563 0.04488025 -0.039723773 0.09999632
000170 09 67 92 bd 92 07 0a 3d 17 4c 83 3d 43 50 2f bd
       -0.07148559 0.033698626 0.06410997 -0.042801153
000180 28 93 e8 3d f0 f9 41 3d 17 18 d3 3d eb 2c bf bd
       0.11356193 0.0473575 0.10307329 -0.09334739
000190 9d 74 7d 3d c6 ef 5c 3d 7a 49 e7 bd 6f 1d 63 bd
       0.06187879 0.053939603 -0.112933114 -0.055447992
0001a0 c4 c2 fc 3c 14 50 34 bd 65 3e 58 bd bd 8f 4e 3d
       0.03085459 -0.04402168 -0.05279388 0.05043005
0001b0 51 97 09 3e b1 c3 d6 3d a0 5e 88 bd b1 53 89 3d
       0.13436629 0.10486544 -0.06658673 0.06705416
0001c0 09 67 75 bd 05 33 d2 3c 21 0f 04 3d d8 90 62 bd
       -0.059912715 0.025659094 0.03224099 -0.055313915
0001d0 0d 03 c3 bd 1b c2 98 bd 8d cf 3a bd 34 fa c4 bd
       -0.09522066 -0.07458898 -0.045608092 -0.09618035
0001e0 44 43 18 bc f1 8b 0f 3d 95 21 8f 3d 5d b6 05 be
       -0.009293381 0.035045568 0.06988827 -0.13057847
0001f0 c1 48 76 3d 8e 91 8d bd 49 46 19 bd 89 5a 3b 3d
       0.060127977 -0.06912528 -0.037420545 0.045740638
