saved_models/mlp/MLP_biomed.pth (torch, 10659 bytes, 7 tensors)

net.0.weight f4 [128, 8]
000000 34 cd 02 3e 00 d7 c5 3a 14 07 bc bd 1e fe b3 be
       0.12773591 0.0015093982 -0.091810375 -0.35154814
000010 20 20 64 be 06 c6 89 be c3 12 ab 3e b0 58 78 bd
       -0.2227788 -0.26908892 0.33412752 -0.060631454
000020 82 ce 3a 3e 70 46 22 bd bd 4d 2c be aa a2 71 be
       0.18242839 -0.039617956 -0.1682653 -0.23597208
000030 48 96 5b 3d 9e c1 59 3e 30 4f 17 3d 56 39 37 3e
       0.053610116 0.21265265 0.036940753 0.17892966
000040 34 fd ea 3d de 80 07 be b0 77 b8 3c ce a2 77 be
       0.11474076 -0.13232753 0.022518009 -0.24183199
000050 58 78 54 3d 20 f9 a8 3d db 42 9f 3e d2 59 8f be
       0.05187258 0.08250642 0.31105694 -0.27998215
000060 06 b8 1b 3e 1c 05 1b be e6 90 a6 be 07 7c 9a be
       0.15206918 -0.15138668 -0.32532424 -0.3017275
000070 61 2b 00 be 25 99 96 be cf 50 ab 3e 90 08 f2 3c
       -0.12516548 -0.29413715 0.3346009 0.029545099
000080 bb 94 01 3d d0 eb 80 3d a8 0a b3 3f b1 b0 0b 3d
       0.03163598 0.06294978 1.3987627 0.034104053
000090 d5 94 1f 40 ba 75 cd 3d aa a9 f8 3f 60 a7 8d 3f
       2.493459 0.1003222 1.9426777 1.1066704
0000a0 40 3a 08 3e a6 9d 25 be 02 7f 1c 3e 10 d4 de bc
       0.1330347 -0.1617342 0.15282825 -0.027200729
0000b0 82 02 90 be b0 6d 07 3e c0 50 c4 3c de 82 5c 3e
       -0.28126913 0.13225436 0.023964286 0.21534297
0000c0 52 52 a8 be f2 83 b3 be 38 0a cb 3d ac 85 18 be
       -0.32875305 -0.35061604 0.099140584 -0.14894742
0000d0 2a 93 09 be e1 0c 2b be 2c 5d 3b be 68 f5 c6 3d
       -0.13435045 -0.16704132 -0.18297261 0.09714776
0000e0 e2 e6 28 3d bb 18 29 bd 1d c9 7d bf 00 84 98 3c
       0.041235812 -0.04128335 -0.99135 0.01861763
0000f0 f0 3e f2 bf ec 57 e8 bd 75 d9 b1 bf cb 91 2e bf
       -1.8925457 -0.11344895 -1.3894488 -0.6819121
000100 0c 72 e2 bd 40 b7 94 bb 93 dd 29 be 50 2e 7b bd
       -0.11056909 -0.0045384467 -0.1658843 -0.061323464
000110 d8 11 cb 3d 50 04 af 3d 4e a4 e0 bd 00 cf bc ba
       0.09915513 0.085457444 -0.10968839 -0.0014404953
000120 fb 02 91 3e b6 cc 81 be ea ec 1a 3e 00 ee 55 bd
       0.28322586 -0.25351495 0.15129438 -0.052228928
000130 69 e5 31 be 18 89 e3 bd d2 02 ad be 12 9b 7b 3e
       -0.1737267 -0.11110133 -0.33791214 0.24570873
000140 77 ae 80 3e ba 58 78 3e f9 1b 86 3e d2 2b f3 bd
       0.25133106 0.24252596 0.26193216 -0.118735924
000150 4d 71 a7 3e 25 b8 68 be af e1 8d be 08 d0 ff bd
       0.3270363 -0.22726496 -0.27711245 -0.12490851
000160 be d3 3b 3e f6 c7 04 3e 25 8d 31 be 92 45 75 be
       0.18342492 0.12966904 -0.17338999 -0.2395232
000170 1b 2f 99 3e fa 62 36 3e d8 38 cf bd 18 a7 ad bd
       0.2991875 0.17811194 -0.10118264 -0.08479136
000180 9e 35 39 be 75 16 17 3d 17 b9 31 bf 2d 9d 6a 3e
       -0.1808686 0.03688665 -0.6942305 0.2291152
000190 b5 cc e4 bf 73 e3 99 be f9 82 84 bf 40 c8 27 bf
       -1.7874972 -0.30056342 -1.035247 -0.6553993
0001a0 1b 2c 9a be 1f 92 93 bd c3 c8 98 3f 0a f6 94 3e
       -0.30111775 -0.07205605 1.1936268 0.29093963
0001b0 25 35 a7 3f d8 30 6c bd 69 5f 6f 3f 25 31 c4 3e
       1.3063093 -0.05766377 0.9350496 0.38318744
0001c0 90 a9 b3 3d 4e f3 66 3e 54 b8 23 be b0 ae 3d bd
       0.08772576 0.22553751 -0.15988284 -0.046309173
0001d0 ea 3a 26 3e f5 72 9e 3e 85 06 ac be 36 d3 3c 3e
       0.16233411 0.3094708 -0.33598724 0.18439946
0001e0 90 7a 35 be c8 62 e6 bd 34 e9 b8 3d 3d ab 3c be
       -0.17722535 -0.1124931 0.09028855 -0.18424697
0001f0 48 35 e5 3d 6b 16 2a be b6 c5 5c 3e 0e 7e 23 3e
       0.11191803 -0.16610114 0.21559796 0.15966055
000200 9b ed 0b 3e e2 0a ab be 49 30 a4 bf df 74 cb 3d
       0.13664858 -0.3340674 -1.2827235 0.09934401
000210 e0 ba e2 bf 95 5e c7 be cf 76 8f bf be ff 3e bf
       -1.771328 -0.38939348 -1.1208133 -0.7460898
000220 77 85 ac be 63 76 a0 3e 9d b7 2d be 3d da 84 be
       -0.33695576 0.31340322 -0.16964574 -0.25947753
000230 62 2a a7 be 70 ab d5 3d 1c 6b ee 3d 12 26 e0 bd
       -0.32649523 0.1043309 0.11641523 -0.10944761
000240 0d b9 9a be 43 bb 4c be dd eb a6 3e a3 97 25 be
       -0.30219308 -0.1999331 0.32601824 -0.16171126
000250 87 11 b1 be 8c cf 92 3d dd 9b 63 be c2 6c 12 3e
       -0.34583685 0.07168493 -0.22227426 0.142993
000260 81 da ca be 05 1a d8 3d 85 ff 91 3f 4c 2e 2d 3e
       -0.3961983 0.10551838 1.1406103 0.16912192
000270 43 c2 04 40 00 a6 65 3c 89 e0 d1 3f 47 6f da 3e
       2.0743568 0.014016628 1.6396648 0.42663023
000280 74 ce 93 bd 9d 64 8b be 10 3d 70 be 40 b8 db bc
       -0.07217112 -0.272252 -0.23460793 -0.026821256
000290 ee 59 8c be d4 dd c8 bd 8a 68 2f 3e 25 51 85 3e
       -0.2741236 -0.09807935 0.17129722 0.2603847
0002a0 5c 22 83 bd 06 e0 57 3e 7e e8 55 3e 28 a8 5d bd
       -0.06403038 0.21081552 0.2088947 -0.054115444
0002b0 e7 bb 81 3e 74 89 8a bd c4 5d 42 be 74 af 9f bd
       0.2533867 -0.06764498 -0.18981081 -0.07797137
0002c0 6f cc 07 bf a4 79 9b 3d 10 fe ad 3f 8c bf 85 3d
       -0.53046316 0.075915605 1.3593159 0.06530675
0002d0 25 dd f4 3f 5f 8c d4 3e 57 0f c9 3f 9f bc 11 3f
       1.9129988 0.41513345 1.5707806 0.5692844
0002e0 a4 f8 c7 be 55 b6 af 3e 6e 44 a0 3f 04 bb 00 3c
       -0.39056885 0.34318796 1.2520883 0.007857088
0002f0 4d 38 0b 40 01 9a fe 3c 00 b8 cc 3f a1 1c 92 3f
       2.1753113 0.031079294 1.5993652 1.1414987
000300 fd fb 31 be da 75 ac be 4b b2 71 bf df e6 68 3e
       -0.17381282 -0.33683664 -0.9441268 0.2274432
000310 1a 51 b9 bf 6f ec 8e bd e1 40 9f bf 89 6d ec be
       -1.4477875 -0.0697869 -1.2441674 -0.4617732
000320 35 d0 9a 3e 44 8e 3e bd 43 ff 94 bf 4a 12 a3 3e
       0.30236974 -0.046522394 -1.16404 0.3184989
000330 9e fb b1 bf e7 59 8b 3d b8 46 aa bf c3 58 0b bf
       -1.3904912 0.06804257 -1.3302832 -0.54432315
000340 23 66 fb be 2a 8e c3 3e 86 9d 92 3f c3 da 96 3b
       -0.49101362 0.381944 1.1454322 0.004603715
000350 38 fa f6 3f 7a cf 8c 3e 24 d4 8a 3f 2a 1a 10 3f
       1.9295111 0.27502042 1.084599 0.56289923
000360 10 ec 08 3d 16 f8 3d be 80 d4 1c bc d0 4b 8b bd
       0.03342825 -0.18551669 -0.009572148 -0.068015695
000370 33 4f 83 be d2 77 39 be 38 88 7a 3d 9c 1e e2 3d
       -0.25646362 -0.18112114 0.061165065 0.110409945
000380 77 70 5f be 1e f9 7f be 40 7f c2 3d f2 46 82 be
       -0.21820246 -0.24997374 0.09496927 -0.25444752
000390 48 ae 95 be 6e 47 26 3e 10 0e 42 3d 88 be 95 bd
       -0.2923453 0.16238186 0.047376692 -0.073117316
0003a0 c2 e8 31 3e 5a eb 34 3e 43 b1 a4 3e 57 d8 6c be
       0.17373946 0.17667904 0.3216649 -0.23129402
0003b0 c8 f3 ac be 14 07 9b be ad c5 01 be 68 8e 4e 3d
       -0.3377974 -0.30278838 -0.12673064 0.050428778
0003c0 b1 08 8c 3e 40 b6 b7 3d 00 cf 89 3c 84 01 c3 bd
       0.2735038 0.08970308 0.016822338 -0.095217735
0003d0 54 fe f6 bd e0 68 98 be 7c bc 9b bd 40 7a 94 3b
       -0.12060228 -0.29767513 -0.0760431 0.004531175
0003e0 60 78 85 3d fb 50 38 be 33 d4 8f be 1e c2 0c be
       0.065171 -0.17999642 -0.28091583 -0.13745925
0003f0 85 4b 2e be 88 03 1b bd 7c c1 c6 3d ee bc 79 3e
       -0.17020996 -0.037845165 0.09704873 0.24388477

net.0.bias f4 [128]
000000 c2 e1 62 3e 03 6a b4 3e 7b a4 15 be 26 48 57 3e
       0.22156432 0.3523713 -0.14613526 0.21023616
000010 be 76 80 3e 77 21 44 be 9a a7 3b 3e c1 45 41 3e
       0.25090593 -0.19153391 0.18325654 0.18874265
000020 60 94 c3 bc 63 cb 5e be cc 31 09 3e 4c b6 ac 3d
       -0.023874462 -0.21757273 0.13397902 0.08433208
000030 a5 24 6e be 9c ac bd 3c d0 0a 90 be 70 05 a9 bc
       -0.23256166 0.023153596 -0.2813325 -0.020632476
000040 e0 30 c4 bd 2d 0d 8b be 94 b0 0b be 00 1d a4 3e
       -0.09579635 -0.2715849 -0.13641578 0.32053375
000050 53 fa ab be c0 98 f4 bc a4 96 93 be 52 2d 85 3e
       -0.3358942 -0.029857993 -0.28825867 0.2601114
000060 c0 22 92 3e 9d bf 43 be 88 01 36 3e 23 ca 87 3e
       0.28542137 -0.19116063 0.17774022 0.26521406
000070 58 90 a4 3d de 9a 63 3e 23 1f 8e 3e 60 65 12 3d
       0.08035344 0.22227046 0.2775813 0.03574121
000080 b6 e0 0c 3e 2c d5 d2 3e 47 b3 62 3e fd 50 9f 3e
       0.13757595 0.41178262 0.22138701 0.31116477
000090 24 0c b4 3e b4 4b 9a be 56 dd 7a be 54 90 2a 3e
       0.35165513 -0.30135882 -0.24498495 0.1665662
0000a0 40 d9 76 bd 54 69 58 3d 43 ad 89 3e cb c0 20 3e
       -0.06026578 0.052834824 0.2689 0.15698545
0000b0 01 5e 37 3d 45 b5 8b 3e ce 6c bd be e0 9b bc 3c
       0.044767383 0.27286735 -0.36997074 0.023023546
0000c0 8b 55 a8 bd 55 8e 9b 3e 59 71 9f be 85 9c 86 3e
       -0.08219441 0.30382028 -0.31141165 0.2629129
0000d0 6a 0b 84 be f6 07 e9 3d 0c 53 c6 bd 01 13 b4 be
       -0.25789958 0.113784716 -0.09683809 -0.3517075
0000e0 40 50 b7 bd c5 f8 91 be c6 61 85 bd 78 05 b7 3d
       -0.08950853 -0.2851011 -0.065127894 0.0893659
0000f0 f5 17 af be 30 33 f3 bc f5 22 79 bd fa 7d a0 bd
       -0.34197965 -0.029687494 -0.060824353 -0.07836528
000100 97 27 11 be 19 e4 87 3e cb 4e 2e bd 03 34 80 be
       -0.14175259 0.26541212 -0.04255561 -0.25039682
000110 69 9a f6 3d a8 5f 36 3d c7 0c 75 be 98 e4 96 3e
       0.1204117 0.04452482 -0.23930655 0.29471278
000120 f1 2a 8d be 36 24 4f 3e 4d b6 ad 3e b2 9a 5d be
       -0.27571824 0.20228657 0.33928147 -0.21641043
000130 c9 df 8f 3e 80 a6 23 bb 37 ac 9f 3e 51 e1 8f 3e
       0.28100422 -0.0024971068 0.31186077 0.2810159
000140 f8 fc 34 be cb 7d 7c 3e ec 86 54 3a c6 3a 28 3e
       -0.17674625 0.24657361 0.0008107263 0.1642867
000150 a8 42 58 3d ae b1 5e 3e a9 57 51 be 38 d4 37 bd
       0.052797943 0.21747467 -0.20443596 -0.044880122
000160 97 3a 01 bd ca 79 4e be 79 69 a1 3e ca 61 28 be
       -0.031550016 -0.20163646 0.31525782 -0.16443554
000170 60 57 eb bd 5a 91 97 3e 42 bb 89 3c da 2d 69 3d
       -0.11491275 0.29603082 0.016812924 0.056928493
000180 f7 9d 99 3e 6a 2c 5a 3e 80 f3 e6 3c 7b 1d cf bd
       0.3000333 0.21306005 0.028192282 -0.10113045
000190 4f 86 06 be ad 72 94 be a8 04 ba be dd fd 0f be
       -0.13137172 -0.2899374 -0.36331677 -0.14061685
0001a0 92 f7 a5 be f4 36 b1 3d 56 8d b3 3e 05 17 30 be
       -0.32415444 0.086530596 0.35068768 -0.17196281
0001b0 80 0c 2c bc d5 a7 04 be 2a 6c 1b 3e 89 39 9b 3e
       -0.010501027 -0.12954648 0.1517798 0.30317333
0001c0 c6 b8 7f 3e c6 a2 29 be 98 8b e2 bd 1c 28 9e be
       0.24972829 -0.16566 -0.11061782 -0.30889976
0001d0 41 78 80 3e 17 0c ac 3e b8 0e 7f 3e 2b 88 ad 3e
       0.25091746 0.33602974 0.24907959 0.3389295
0001e0 5c 63 e6 bd 9d 2d 9f be f3 de 16 39 2c 45 97 be
       -0.1124942 -0.31089488 0.0001438817 -0.2954496
0001f0 71 5d 41 bc 53 c7 99 3e d5 66 26 3b b7 fa 93 3c
       -0.011802063 0.30034885 0.0025390883 0.018063886

net.2.weight f4 [128]
000000 00 00 80 3f 00 00 80 3f 00 00 80 3f 00 00 80 3f
       1.0 1.0 1.0 1.0
000010 f7 94 93 3f 00 00 80 3f 00 00 80 3f b6 dc 8b 3f
       1.1529835 1.0 1.0 1.0926731
000020 00 00 80 3f 00 00 80 3f 00 00 80 3f 00 00 80 3f
       1.0 1.0 1.0 1.0
000030 87 14 73 3f 19 bc 77 3f 00 00 80 3f 00 00 80 3f
       0.949532 0.9677139 1.0 1.0
000040 20 c4 6f 3f 00 00 80 3f 00 00 80 3f 12 f4 83 3f
       0.9365864 1.0 1.0 1.0308859
000050 00 00 80 3f 00 00 80 3f d5 59 5d 3f 12 37 a7 3f
       1.0 1.0 0.864652 1.3063681
000060 fb f8 74 3f 87 57 72 3f 93 79 8e 3f 00 00 80 3f
       0.95692414 0.94664806 1.1130852 1.0
000070 00 00 80 3f 00 00 80 3f 00 00 80 3f 00 00 80 3f
       1.0 1.0 1.0 1.0
000080 00 00 80 3f f4 15 dc 3e a4 0b 70 3f 00 00 80 3f
       1.0 0.429855 0.9376776 1.0
000090 51 f7 71 3f 00 00 80 3f 00 00 80 3f 10 82 0f 3f
       0.94518 1.0 1.0 0.56057835
0000a0 00 00 80 3f 63 93 6f 3f 00 00 80 3f f5 05 7c 3f
       1.0 0.9358427 1.0 0.9844659
0000b0 28 2e 71 3f 00 00 80 3f 81 1e 82 3f 00 00 80 3f
       0.94211054 1.0 1.0165559 1.0
0000c0 cd 18 76 3f 00 00 80 3f 36 18 81 3f 00 00 80 3f
       0.96131593 1.0 1.0085514 1.0
0000d0 aa b5 80 3f 60 3f 81 3f 00 00 80 3f ac b3 84 3f
       1.005544 1.0097466 1.0 1.0367332
0000e0 00 00 80 3f 00 00 80 3f e5 ff 84 3f 00 00 80 3f
       1.0 1.0 1.0390593 1.0
0000f0 00 00 80 3f 00 00 80 3f f3 30 9e 3f c9 09 73 3f
       1.0 1.0 1.2358688 0.94936806
000100 c1 cd 86 3f 00 00 80 3f 0e b6 1a 3f 00 00 80 3f
       1.0531541 1.0 0.60434043 1.0
000110 98 0c 71 3f 00 00 80 3f 00 00 80 3f 5a d7 77 3f
       0.9415984 1.0 1.0 0.96812975
000120 40 fb 89 3f ca 40 80 3f 00 00 80 3f d2 b8 80 3f
       1.07798 1.0019772 1.0 1.0056403
000130 00 00 80 3f 00 00 80 3f 00 00 80 3f 42 2a 68 3f
       1.0 1.0 1.0 0.9068948
000140 60 d5 81 3f 45 82 73 3f dc 33 6f 3f 00 00 80 3f
       1.0143242 0.9512065 0.93438506 1.0
000150 00 00 80 3f 00 00 80 3f 1f 00 6e 3f 00 00 80 3f
       1.0 1.0 0.92968935 1.0
000160 15 97 72 3f 00 00 80 3f 00 00 80 3f 9a b3 6b 3f
       0.9476178 1.0 1.0 0.92070925
000170 00 00 80 3f 70 c0 73 3f a0 4d 77 3f cc 0a 7f 3f
       1.0 0.9521551 0.9660282 0.9962585
000180 00 00 80 3f 79 6c df 3f 00 00 80 3f d8 3d 82 3f
       1.0 1.7454978 1.0 1.0175123
000190 00 00 80 3f 81 d6 5a 3f 8b d8 84 3f 00 00 80 3f
       1.0 0.85483557 1.0378584 1.0
0001a0 65 ba 7e 3f 00 00 80 3f 00 cd 74 3f 00 00 80 3f
       0.99503165 1.0 0.95625305 1.0
0001b0 00 00 80 3f 00 00 80 3f 00 00 80 3f 00 00 80 3f
       1.0 1.0 1.0 1.0
0001c0 46 c1 80 3f 00 00 80 3f 00 00 80 3f d8 12 98 3f
       1.0058982 1.0 1.0 1.1880751
0001d0 00 00 80 3f 00 00 80 3f 68 b6 75 3f 00 00 80 3f
       1.0 1.0 0.95981455 1.0
0001e0 00 00 80 3f 00 00 80 3f a9 61 fd 3f 4b 5a 5b 3f
       1.0 1.0 1.9795429 0.8568465
0001f0 41 d9 73 3f 8a 6e 81 3f 39 d0 21 3f c7 18 39 3f
       0.9525338 1.0111859 0.6320835 0.7230343

net.2.bias f4 [128]
000000 82 22 cb ad 16 8b 2f 3c 2c 1a df 09 f2 58 f7 3a
       -2.3093753e-11 0.010714313 5.370991e-33 0.0018871112
000010 f2 f4 dc bc 22 fa 84 3c 8b dd 90 bc 5c 06 d7 3c
       -0.026972268 0.016232554 -0.017683765 0.02624815
000020 ec ae 02 92 e1 61 5f 12 9f 95 9a bc a0 08 cd 8e
       -4.1236375e-28 7.048704e-28 -0.018870173 -5.0544707e-30
000030 5e 69 cb 3c 0c 7f 5c bd 84 90 29 a7 97 12 d2 91
       0.024830516 -0.0538321 -2.3531803e-15 -3.3143615e-28
000040 08 3e 1c 3d c0 8f 01 bb 59 92 c1 9c fe 9f 34 bd
       0.038145095 -0.001976952 -1.2809499e-21 -0.044097893
000050 30 94 b2 22 80 7f 35 b7 32 3a 46 3d 78 ef 08 bd
       4.8403896e-18 -1.0818127e-05 0.048395343 -0.0334315
000060 80 16 ef 3c 53 86 c6 3c 94 1c 49 3c ab e0 6d b3
       0.029185534 0.024233973 0.01227488 -5.5385197e-08
000070 e6 0e 91 bc cf 84 13 a2 03 2f 91 bc f8 cc 9f bc
       -0.0177073 -1.9992523e-18 -0.017722612 -0.019506916
000080 74 25 f4 0c 7e 34 2b 3e c2 af b5 3c c3 4d 21 3c
       3.7616694e-31 0.16719243 0.022178534 0.0098452
000090 3c 1d c4 3c 9e f5 8a bc c1 a0 2d 32 0c e5 85 3d
       0.023939721 -0.016962823 1.01064765e-08 0.06537828
0000a0 9b b2 9c 3c 2b 45 aa 3c af 36 80 3c bd 46 08 3d
       0.019128134 0.020784935 0.015651075 0.033270586
0000b0 7d e4 bc 3c 0d ae 8d 3b a6 06 37 bd 86 87 9c 91
       0.02305817 0.004323727 -0.044684075 -2.4695983e-28
0000c0 44 9f f0 3c d9 56 8d bc 14 f1 3d bd 0d d4 2a 3a
       0.029372819 -0.017253326 -0.04637249 0.00065165834
0000d0 d1 97 3f bd 87 db 38 bd 36 bc b7 92 ed 4c 30 bd
       -0.046775643 -0.045131233 -1.1595321e-27 -0.043042112
0000e0 7d 0a 86 3c 61 69 8b bc fb 48 28 bd 3e 20 46 3b
       0.016362423 -0.017018022 -0.041085225 0.003023162
0000f0 c6 0c ec 07 a9 3d 95 24 d9 8a 2d bd 1f a9 dc 3c
       3.551684e-34 6.4722906e-17 -0.042368744 0.026936112
000100 7e f1 86 3b f1 a7 9c bc 20 41 a6 3d 58 e4 9c 96
       0.0041181436 -0.01912305 0.0811789 -2.5347264e-25
000110 d2 a9 bc 3c f9 3f 6b 3c bc 83 ce 8b 11 45 1d 3d
       0.023030195 0.014358514 -7.9546526e-32 0.038395945
000120 a1 e3 1e bd 55 ec 45 bd 20 8d 92 bc 4e e0 2b bd
       -0.038791303 -0.048321087 -0.01788956 -0.04196196
000130 87 8c cc b4 a4 f6 2c ac d3 81 f5 bb 75 30 e9 bb
       -3.8100208e-07 -2.4579583e-12 -0.007492283 -0.007116372
000140 ca 6e 38 bd 87 32 ca 3c 4d bf a9 3c ed a0 6b 8b
       -0.04502753 0.024682296 0.020721102 -4.538042e-32
000150 f3 67 99 bc fd 57 9b bc 91 36 a1 3c a9 a1 dc 12
       -0.018726325 -0.018962855 0.01967934 1.3923804e-27
000160 d6 77 d7 3c ec 58 44 3c ee 29 ec 24 5f 3e 25 3d
       0.02630226 0.011984091 1.0241972e-16 0.040342685
000170 37 07 f1 0e 23 a7 db 3c 44 02 05 3d 4f 51 40 bd
       5.9418035e-30 0.026813095 0.032472864 -0.046952542
000180 3e 93 7b 8f 85 eb 19 bd fb c3 f0 b3 bf c5 39 bd
       -1.2403613e-29 -0.037578125 -1.12115195e-07 -0.0453546
000190 0c 5a b3 3b bd 18 a3 3c aa 32 31 bd 48 05 15 a4
       0.005473381 0.019909257 -0.043261208 -3.2313698e-17
0001a0 06 41 35 bd 61 02 66 3c 67 73 d7 3c 6e f0 c3 ad
       -0.044251464 0.014038653 0.026300145 -2.2275706e-11
0001b0 16 e8 38 3b 82 bb a2 3c 3b 41 dd 0a 5b 6c 80 bc
       0.0028214506 0.019864801 2.1306063e-32 -0.015676668
0001c0 7d 28 34 bd fc 71 9b 3c 65 9d 10 3c d5 b1 59 bc
       -0.043983925 0.01897525 0.008826588 -0.013287027
0001d0 34 5b 8d 27 6d 9e 5d 3c cd 13 2e bd 99 97 9b bc
       3.9234244e-15 0.013526541 -0.042499352 -0.018993186
0001e0 8d eb 89 bc 79 fb c2 22 a4 34 31 bd af 32 88 3d
       -0.016835952 5.2850062e-18 -0.043263093 0.06650292
0001f0 fe e1 e5 3c e6 2a 3e bd 25 76 84 3d c0 88 aa 3d
       0.028061863 -0.04642763 0.06467847 0.08326864

net.2.running_mean f4 [128]
000000 00 00 00 00 00 00 00 00 00 00 00 00 00 00 00 00
       0.0 0.0 0.0 0.0
000010 62 79 3f 45 00 00 00 00 00 00 00 00 9a e5 05 44
       3063.5864 0.0 0.0 535.5875
000020 00 00 00 00 00 00 00 00 00 00 00 00 00 00 00 00
       0.0 0.0 0.0 0.0
000030 5b 48 76 46 21 90 a0 46 00 00 00 00 00 00 00 00
       15762.089 20552.064 0.0 0.0
000040 f3 3b e3 45 00 00 00 00 00 00 00 00 80 56 43 46
       7271.4937 0.0 0.0 12501.625
000050 00 00 00 00 00 00 00 00 6a 8f b1 45 88 ca b5 44
       0.0 0.0 5681.927 1454.3291
000060 3a e9 67 46 72 f1 a3 46 56 73 81 44 00 00 00 00
       14842.307 20984.723 1035.6042 0.0
000070 00 00 00 00 00 00 00 00 00 00 00 00 00 00 00 00
       0.0 0.0 0.0 0.0
000080 00 00 00 00 ce 39 e7 45 9c b7 54 46 00 00 00 00
       0.0 7399.2256 13613.902 0.0
000090 56 99 9f 46 00 00 00 00 00 00 00 00 c7 0a a6 46
       20428.668 0.0 0.0 21253.389
0000a0 00 00 00 00 84 b1 5b 46 00 00 00 00 f8 e0 86 3d
       0.0 14060.379 0.0 0.06585878
0000b0 53 cd 82 46 00 00 00 00 81 fd 65 46 00 00 00 00
       16742.662 0.0 14719.376 0.0
0000c0 24 cf 56 46 00 00 00 00 7b c0 75 46 00 00 00 00
       13747.785 0.0 15728.12 0.0
0000d0 22 4a 94 46 01 14 96 46 00 00 00 00 c1 86 70 46
       18981.066 19210.002 0.0 15393.688
0000e0 00 00 00 00 00 00 00 00 68 f2 b8 45 00 00 00 00
       0.0 0.0 5918.301 0.0
0000f0 00 00 00 00 00 00 00 00 08 6a 13 3e a9 02 2e 46
       0.0 0.0 0.14395916 11136.665
000100 a7 0d 18 45 00 00 00 00 b9 21 a2 46 00 00 00 00
       2432.8533 0.0 20752.861 0.0
000110 a7 66 a9 46 00 00 00 00 00 00 00 00 35 6d 81 45
       21683.326 0.0 0.0 4141.651
000120 67 d9 ce 44 d2 a0 97 46 00 00 00 00 40 ef 98 45
       1654.7938 19408.41 0.0 4893.9062
000130 00 00 00 00 00 00 00 00 00 00 00 00 88 3f 39 46
       0.0 0.0 0.0 11855.883
000140 af f4 91 46 4a b8 8d 46 69 1b a1 46 00 00 00 00
       18682.342 18140.145 20621.705 0.0
000150 00 00 00 00 00 00 00 00 30 54 53 46 00 00 00 00
       0.0 0.0 13525.047 0.0
000160 c1 e9 73 46 00 00 00 00 00 00 00 00 08 6c d4 45
       15610.438 0.0 0.0 6797.504
000170 00 00 00 00 28 53 9f 46 b7 86 aa 45 f2 5a 9d 46
       0.0 20393.578 5456.8394 20141.473
000180 00 00 00 00 fe 82 1a 44 00 00 00 00 59 7e 9a 46
       0.0 618.04675 0.0 19775.174
000190 00 00 00 00 d2 9f 74 46 80 12 80 46 00 00 00 00
       0.0 15655.955 16393.25 0.0
0001a0 59 72 ed 45 00 00 00 00 b9 1b 5c 3d 00 00 00 00
       7598.2935 0.0 0.053737376 0.0
0001b0 00 00 00 00 00 00 00 00 00 00 00 00 00 00 00 00
       0.0 0.0 0.0 0.0
0001c0 9b 35 17 46 00 00 00 00 00 00 00 00 e7 11 2a 45
       9677.401 0.0 0.0 2721.119
0001d0 00 00 00 00 00 00 00 00 b1 e3 2a 46 00 00 00 00
       0.0 0.0 10936.923 0.0
0001e0 00 00 00 00 00 00 00 00 27 cb 0c 44 d0 d0 f3 43
       0.0 0.0 563.17426 487.63135
0001f0 58 38 a8 46 c0 53 a5 46 9e 8b 8f 46 b2 c9 8a 44
       21532.172 21161.875 18373.809 1110.303

net.2.running_var f4 [128]
000000 e4 18 a6 3c e4 18 a6 3c e4 18 a6 3c e4 18 a6 3c
       0.02027554 0.02027554 0.02027554 0.02027554
000010 17 fa e1 49 e4 18 a6 3c e4 18 a6 3c ca 07 21 47
       1.8512029e+06 0.02027554 0.02027554 41223.79
000020 e4 18 a6 3c e4 18 a6 3c e4 18 a6 3c e4 18 a6 3c
       0.02027554 0.02027554 0.02027554 0.02027554
000030 7e ba 26 4c 89 a5 91 4c e4 18 a6 3c e4 18 a6 3c
       4.370687e+07 7.6360776e+07 0.02027554 0.02027554
000040 a9 a0 1a 4b e4 18 a6 3c e4 18 a6 3c 01 5c d7 4b
       1.0133673e+07 0.02027554 0.02027554 2.8227586e+07
000050 e4 18 a6 3c e4 18 a6 3c 70 62 ac 4a ac e4 b9 48
       0.02027554 0.02027554 5.648696e+06 380709.38
000060 88 2a 1a 4c d2 f0 93 4c 88 52 c6 47 e4 18 a6 3c
       4.041373e+07 7.756354e+07 101541.06 0.02027554
000070 e4 18 a6 3c e4 18 a6 3c e4 18 a6 3c e4 18 a6 3c
       0.02027554 0.02027554 0.02027554 0.02027554
000080 e4 18 a6 3c 7e d4 1a 4b 1b 6d f7 4b e4 18 a6 3c
       0.02027554 1.0146942e+07 3.2430646e+07 0.02027554
000090 c8 1f 8a 4c e4 18 a6 3c e4 18 a6 3c 41 97 9f 4c
       7.241683e+07 0.02027554 0.02027554 8.367156e+07
0000a0 e4 18 a6 3c 99 36 02 4c e4 18 a6 3c 86 0b 73 40
       0.02027554 3.4134628e+07 0.02027554 3.7975783
0000b0 84 30 3a 4c e4 18 a6 3c c5 29 0f 4c e4 18 a6 3c
       4.8808464e+07 0.02027554 3.7529364e+07 0.02027554
0000c0 b3 61 01 4c e4 18 a6 3c 01 71 23 4c e4 18 a6 3c
       3.391662e+07 0.02027554 4.2845188e+07 0.02027554
0000d0 fa bc 74 4c d3 ab 7a 4c e4 18 a6 3c e4 fd 1d 4c
       6.415665e+07 6.5711948e+07 0.02027554 4.141659e+07
0000e0 e4 18 a6 3c e4 18 a6 3c 68 36 b2 4a e4 18 a6 3c
       0.02027554 0.02027554 5.839668e+06 0.02027554
0000f0 e4 18 a6 3c e4 18 a6 3c 96 15 f3 40 71 49 b0 4b
       0.02027554 0.02027554 7.596385 2.3106274e+07
000100 89 0a 96 49 e4 18 a6 3c 20 b5 8f 4c e4 18 a6 3c
       1.2291371e+06 0.02027554 7.534413e+07 0.02027554
000110 04 73 a4 4c e4 18 a6 3c e4 18 a6 3c c4 a1 53 4a
       8.621878e+07 0.02027554 0.02027554 3.467377e+06
000120 04 71 e0 48 d7 e7 82 4c e4 18 a6 3c 7f e9 7b 4a
       459656.12 6.863225e+07 0.02027554 4.1273278e+06
000130 e4 18 a6 3c e4 18 a6 3c e4 18 a6 3c 2b 7d ba 4b
       0.02027554 0.02027554 0.02027554 2.4443478e+07
000140 61 d2 70 4c 1a 1c 6b 4c 2e 87 92 4c e4 18 a6 3c
       6.3129988e+07 6.1632616e+07 7.68229e+07 0.02027554
000150 e4 18 a6 3c e4 18 a6 3c b9 c7 f8 4b e4 18 a6 3c
       0.02027554 0.02027554 3.2608114e+07 0.02027554
000160 31 04 20 4c e4 18 a6 3c e4 18 a6 3c 56 60 f5 4a
       4.1947332e+07 0.02027554 0.02027554 8.040491e+06
000170 e4 18 a6 3c 2e 4a 8d 4c 96 0c b5 4a 15 f5 8a 4c
       0.02027554 7.407653e+07 5.932619e+06 7.285367e+07
000180 e4 18 a6 3c 58 e3 e4 46 e4 18 a6 3c 3f 19 86 4c
       0.02027554 29297.672 0.02027554 7.0306296e+07
000190 e4 18 a6 3c 91 f7 1f 4c 14 63 35 4c e4 18 a6 3c
       0.02027554 4.1934404e+07 4.754952e+07 0.02027554
0001a0 5e f5 20 4b e4 18 a6 3c 82 83 70 40 e4 18 a6 3c
       1.0548574e+07 0.02027554 3.7580266 0.02027554
0001b0 e4 18 a6 3c e4 18 a6 3c e4 18 a6 3c e4 18 a6 3c
       0.02027554 0.02027554 0.02027554 0.02027554
0001c0 e3 8d 85 4b e4 18 a6 3c e4 18 a6 3c fd 14 8b 49
       1.7505222e+07 0.02027554 0.02027554 1.1393596e+06
0001d0 e4 18 a6 3c e4 18 a6 3c a4 06 a9 4b e4 18 a6 3c
       0.02027554 0.02027554 2.2154568e+07 0.02027554
0001e0 e4 18 a6 3c e4 18 a6 3c 4a 19 81 47 00 aa 85 47
       0.02027554 0.02027554 66098.58 68436.0
0001f0 89 42 a0 4c e7 df 95 4c c9 86 60 4c d9 b5 91 48
       8.4022344e+07 7.8577464e+07 5.8858276e+07 298414.78

net.3.weight f4 [1, 128]
000000 76 34 d3 ad d7 f8 c6 3c 4f 13 0c 8a f1 d6 68 3b
       -2.401122e-11 0.024288578 -6.744386e-33 0.0035528506
000010 3b 3c 1b be bd bc 30 3d 25 a0 4a bd 9e c2 1a 3e
       -0.15159695 0.043148745 -0.049469132 0.15113303
000020 56 54 22 12 5f aa 84 12 c5 3a 62 bd d6 59 e7 8e
       5.122214e-28 8.372371e-28 -0.05523183 -5.7032405e-30
000030 ba d8 1a 3d 5a 5b f1 bc 8c c6 3f 27 a0 8f fa 11
       0.037804343 -0.029462505 2.6614207e-15 3.953156e-28
000040 6b 09 ba 3c f1 6f 74 bb 2a 72 46 1d fe f3 92 bd
       0.022709569 -0.0037298168 2.6264103e-21 -0.07175444
000050 97 2c d0 22 cd 56 33 b7 8c da f2 bc a4 5e a3 be
       5.6425724e-18 -1.0689441e-05 -0.029645227 -0.31908143
000060 5c d4 66 3d 52 fb 2a 3d 20 1a d9 bd 7a 4a 6f b3
       0.056354865 0.041743584 -0.10600686 -5.571426e-08
000070 03 12 4b bd 0f 18 3b 22 86 5c 4b bd 58 f4 6f bd
       -0.049577724 2.5355962e-18 -0.049648784 -0.058582634
000080 15 d6 da 0c 86 9b 5a b9 23 d8 05 3d e7 0c b3 3c
       3.3717064e-31 -0.00020848037 0.032676827 0.021856738
000090 c0 cf 24 3d cb 63 3d bd 58 8a 7b 32 a2 fa 0f bb
       0.04023719 -0.046237748 1.4641579e-08 -0.0021969457
0000a0 55 b1 67 3d 1b cd db 3c c6 27 27 3d 1b 1c fc 30
       0.0565656 0.0268312 0.040809415 1.8343401e-09
0000b0 b7 ce 19 3d 2f 34 0c 3c 70 0a ac bd 34 48 b0 91
       0.037550654 0.008557363 -0.08400428 -2.7812402e-28
0000c0 74 88 74 3d f4 a1 42 bd 4b d6 4e bd 93 0a 9b 3a
       0.059700444 -0.04751773 -0.050497334 0.0011828713
0000d0 0c 4e 42 bd a5 d6 c1 bd e2 08 ee 92 8a f5 e0 bd
       -0.047437713 -0.09464768 -1.5022101e-27 -0.10984333
0000e0 50 ef 32 3d 33 60 3e bd 54 46 e0 bd 27 21 bf 3b
       0.043685257 -0.04647846 -0.10950914 0.0058328095
0000f0 d4 ed 9d 07 dd b4 a0 24 c7 48 6c be bf b3 04 3d
       2.3762517e-34 6.9695333e-17 -0.23074637 0.03239798
000100 35 30 a4 3d 85 95 67 bd 07 e0 36 3b 5a 5a c5 96
       0.08017007 -0.056539077 0.0027904527 -3.1884086e-25
000110 c4 ff f5 3c 39 43 13 3d f3 82 cd 8b 80 21 02 3d
       0.030029185 0.03595278 -7.916016e-32 0.03177023
000120 ef bc 26 be 03 b6 62 bd d0 8c 4e bd 1c 59 bc bd
       -0.1628301 -0.05534936 -0.050427258 -0.09196684
000130 ca 84 cb b4 22 c4 6e ac bb 57 81 bc 69 98 d3 bc
       -3.7908313e-07 -3.393071e-12 -0.015788903 -0.02582951
000140 89 68 c9 bd fc d9 f5 3c 35 32 d0 3c 36 1d 8b 8b
       -0.098343916 0.03001117 0.025414566 -5.3584804e-32
000150 af 3b 5f bd e9 2d 64 bd be 30 ae 3c 90 22 fd 12
       -0.054500278 -0.055707846 0.021263476 1.5975065e-27
000160 7d 46 5a 3d 11 e0 e5 3c a3 ae fd 24 ed 2b cb 3c
       0.05328988 0.028060945 1.10017106e-16 0.024801219
000170 a6 f4 0b 8f 46 99 50 3d aa 4a 12 3d e3 35 2e bd
       -6.900347e-30 0.050927423 0.035715736 -0.04253186
000180 eb af 8d 8f 1e 3f f7 be 84 cf f1 b3 18 7b b5 bd
       -1.3971435e-29 -0.48290342 -1.1260184e-07 -0.08861369
000190 d8 76 35 3c e5 f6 d0 3b 38 81 d0 bd 29 d5 42 23
       0.011075698 0.0063770884 -0.101808965 1.05618995e-17
0001a0 9a 5c 99 bd 88 9c 0e 3d 6f 65 0d b9 28 ab cb ad
       -0.074883655 0.03481725 -0.00013484595 -2.3154437e-11
0001b0 5e a5 b1 3b ee 07 78 3d 17 9b 08 8b f6 91 27 bd
       0.0054213246 0.060554437 -2.6309324e-32 -0.040910684
0001c0 a4 f7 ca bd 8f 70 64 3d 13 d4 9c 3c 36 4c 28 be
       -0.09910515 0.055771407 0.019144094 -0.16435322
0001d0 63 c3 ab a7 2d 5e 07 3d 6f 34 14 bd e2 d1 64 bd
       -4.7673873e-15 0.033048797 -0.036182817 -0.055864222
0001e0 bf 23 3b bd 85 8b 0d a3 24 55 4d bf be ff 7e bc
       -0.045688387 -7.67317e-18 -0.8020804 -0.015563903
0001f0 93 86 4a 3d e6 38 95 bd 0a 89 a3 b9 a7 dc 37 ba
       0.049444746 -0.07286243 -0.00031191885 -0.0007013776
