saved_models/mlp/MLP_analcatdata_aids.pth (torch, 8741 bytes, 7 tensors)

net.0.weight f4 [128, 4]
00000000: e074 80bd e260 cb3e de20 913e 6269 9dbe
00000010: de71 b23e bca9 0dbe da3a eebe f046 80be
00000020: a0eb c8bc 86dc 8c3e dc24 09be e068 1cbe
00000030: 109d 003d 1006 d0bd 605e a13c 008a debe
00000040: fd5b 9f3d 772e 563e c5bb cc3d af91 b13e
00000050: 9e3e 963e 6605 f53e ea8b c9be e673 89be
00000060: 28bd 133e d07e 30bd 24ce b2be 2835 3fbe
00000070: 50c4 9dbd 2c58 dfbe 58b7 803d d0ed 58bd
00000080: c225 efbe 80d1 ebbc 1676 bebe c41f 89be
00000090: 5895 bc3d 5c86 8dbc 000c 1cbe 6c58 8b3e
000000a0: 483f 3d3e 74cc be3e f62c 97be e01c 4cbe
000000b0: bdfc b2be ce0e 67be 8cad e5bd db91 e13e
000000c0: a6b3 3fbe 7a11 ea3e 246e 77bd 8486 8b3d
000000d0: 9a29 babd 0ce8 653e 0c1d 1fbe 2065 c93e
000000e0: 001c aa3a f4ea 923e 4857 39be 6af5 9abe
000000f0: 615b 18be 45b9 56bd 923a 44bd b623 aa3e
00000100: 00e6 b5be 26d6 92be abe6 4b3e d0cf 913e
00000110: 4251 d7be 086c 84be 8e0d 903e 38e6 cebd
00000120: 091a fc3e 1546 fcbe a95b 2fbe 897c f93e
00000130: 389c 88be e670 233e 9eaf 893e d447 f23e
00000140: 44fb 44be 8d76 e23e f60a 453e b680 5d3e
00000150: c303 733e 7f1a c13e 8954 d7be 106e b13e
00000160: 5053 e13e 305c db3e cc76 7f3e a0b6 f4be
00000170: 80f4 37bc 387c 37be da3a 9abe b8c7 acbd
00000180: e08c ddbc 1039 943e 9043 ed3e 1e1f b6be
00000190: 236d c23e 548c 61be 145b e8be fd50 be3d
000001a0: 2bc2 9c3e 9447 3bbd ff7f ee3e ec36 de3e
000001b0: 2c80 0ebe 2e51 97be 0074 70bc cc87 52be
000001c0: 0a36 abbd f069 26be 298a 7b3d cfb6 993d
000001d0: 1b6a e9bd b156 653d e822 033e 4c06 913d
000001e0: 14f1 c83e 2039 243e 001c a6be 42e3 a5be
000001f0: 546d 0c3e 282a dbbd 20a7 8ebe 047d 90be
00000200: 54f9 55be 38f5 c23e 8aa3 893e 0878 d4bd
00000210: fa10 863e ec4b ae3e dedc eabe b27e fabe
00000220: 5873 67be dc2d f4be ba32 e9be 5042 80bd
00000230: ed5a e33d 3d62 16be 04a1 d7be a5c9 783e
00000240: 733c cebe f316 18bc baa8 09be 1f5d 493e
00000250: 0088 8abe 9ad4 183d 8b1a 89bd e948 a33e
00000260: e448 cfbe 40e3 9abe 9a83 813e c09c ddbe
00000270: f87d 523e 1c26 7e3e ace3 b0be 1097 79be
00000280: 4e3b 99be 1a8f 9ebe a9d0 0bbe 52c3 313d
00000290: 9d66 6fbe cfc5 d2bc 9814 00bf 1b71 473e
000002a0: cc93 a63e 5ca7 a1be 30f9 1dbd b813 d0be
000002b0: ec5d f2be 9641 d73e e661 febe 801b 0bbc
000002c0: f8af 6f3e 0007 a93b 30df 193d 88f5 aebd
000002d0: 4c9c 913e a8ea 703e c8f8 e3be 60d6 bebe
000002e0: a356 1bbe 778e b03e 80b9 d93e ccf5 b83e
000002f0: 5c9a 3b3e 605f f13d 68cb 3dbe 0075 a0bd
00000300: 18f3 bd3d 0ab9 eabe 0066 dfbe 46fc c2be
00000310: 6763 40bd b466 24be 55dd bfbc c47b ee3e
00000320: 300f 993e d074 d53d 28c6 36be e83d 39be
00000330: 1a4a 90be ecc9 243e e089 04be 00d8 76bc
00000340: ef41 383e 7c04 84bc 9f40 a53e 2690 973e
00000350: f538 323e 617d eb3e 96b2 9f3d ef46 f13e
00000360: ee16 e73e e0ae 6fbe c04d 413e 68ee f9bd
00000370: bfed 57be 56a3 b43e 8b79 a13e e7d1 803e
00000380: ba55 f53e b362 15be 9703 dbbe 02d0 e33e
00000390: bb12 b7be 9ac7 c5bc b35d 03bf 5750 713e
000003a0: 403e b53d dcbc a1be c01c fabe b61d cbbe
000003b0: 34af df3e 2060 55be 8c10 3f3e 0059 8bbd
000003c0: 40e9 863e 8070 85bb 8095 d63c b848 7dbe
000003d0: f188 d83e 70e1 a43e 41c7 8c3e 3808 da3e
000003e0: 1a83 cb3e 0f98 753e e13e bebe c37b 2d3e
000003f0: 04c2 a23e 483e 88bd 2273 c7be 620a e1be
-0.06272292 0.39722353 0.28345388 -0.30744463 0.348525 -0.1383428 -0.46529275 -0.2505412
-0.024526417 0.27511996 -0.13392967 -0.15274382 0.031399786 -0.10157406 0.019698322 -0.4346466
0.07781217 0.20916162 0.09996752 0.3468146 0.29344648 0.4785568 -0.39364558 -0.26846236
0.14427626 -0.043089688 -0.34922898 -0.18672621 -0.07703459 -0.43621957 0.0628497 -0.05296117
-0.46708494 -0.02878642 -0.37199467 -0.26782048 0.092081726 -0.017275982 -0.15238953 0.27215898
0.18481171 0.3726536 -0.2952649 -0.1993289 -0.3495845 -0.22564241 -0.11214742 0.4405659
-0.18720874 0.4571646 -0.060407773 0.06812766 -0.09089966 0.224518 -0.15538424 0.39334965
0.0012978315 0.2869488 -0.18099701 -0.3026536 -0.14878608 -0.05242278 -0.04790742 0.3323037
-0.3552704 -0.28679007 0.19912212 0.2847886 -0.42054182 -0.2586367 0.2813534 -0.101025045
0.49238613 -0.49272218 -0.1712481 0.48727825 -0.26681685 0.15961036 0.26891798 0.47320426
-0.19236475 0.44231072 0.19242463 0.2163113 0.23731904 0.37715527 -0.42056683 0.34654284
0.44008875 0.4284377 0.24947661 -0.47795582 -0.011227727 -0.1791848 -0.30123025 -0.08436531
-0.027044713 0.28949785 0.4634061 -0.35570616 0.3797389 -0.22026187 -0.45381987 0.09292791
0.30616888 -0.04572256 0.46582028 0.43401277 -0.13916081 -0.29554123 -0.014676094 -0.20559615
-0.083599165 -0.1625135 0.061411057 0.07505571 -0.11397191 0.05599088 0.12806284 0.07081279
0.39246428 0.16037416 -0.32443237 -0.32399946 0.1371358 -0.107014 -0.2786188 -0.2822038
-0.20895892 0.38077712 0.26882583 -0.10374457 0.26184827 0.340423 -0.45871633 -0.48924786
-0.22602594 -0.47691238 -0.45546514 -0.06262648 0.11101327 -0.14685912 -0.42115033 0.24295671
-0.40280494 -0.009282815 -0.1344327 0.19664429 -0.27056885 0.037312128 -0.06694516 0.31891564
-0.404853 -0.30251503 0.25295717 -0.43283653 0.20555866 0.24819225 -0.345487 -0.24374032
-0.29928058 -0.30968553 -0.13653816 0.043399163 -0.23378988 -0.025729088 -0.50031424 0.1947674
0.32534635 -0.31572998 -0.03856772 -0.40640044 -0.47337282 0.42042226 -0.49684066 -0.008490443
0.2340697 0.005158305 0.037566364 -0.08542925 0.28439558 0.23527014 -0.44525743 -0.3727293
-0.15169768 0.34483692 0.42524338 0.36125028 0.18320602 0.117857695 -0.18534625 -0.07834816
0.09274882 -0.458443 -0.43632507 -0.38083094 -0.046969797 -0.16054803 -0.023420969 0.465788
0.298944 0.10422671 -0.17849028 -0.18090022 -0.28181535 0.16092652 -0.1294322 -0.015066147
0.17993902 -0.01611542 0.32275864 0.29602164 0.1740454 0.45994094 0.077977344 0.4712443
0.4513468 -0.23406553 0.18877316 -0.122036755 -0.21086787 0.35280865 0.31538042 0.25160143
0.47916967 -0.14588432 -0.42776176 0.44494635 -0.35756478 -0.024143029 -0.5131485 0.23565803
0.08849764 -0.315894 -0.4885006 -0.39671105 0.43688357 -0.2083745 0.18658656 -0.06804085
0.2634983 -0.004072249 0.026194334 -0.24734771 0.42291978 0.32203245 0.2749577 0.42584395
0.3974846 0.23983787 -0.37157348 0.16941743 0.31788647 -0.06652504 -0.38955027 -0.43953234

net.0.bias f4 [128]
00000000: c677 efbe 7441 953e d06c af3e c803 ebbd
00000010: f38e e43e 9ace 9d3e 1c69 c4be 4022 ebbd
00000020: 5c33 0a3e 67ae 20bd 5cd5 52be 9bf0 50be
00000030: 1c4d b6be a406 ae3d e465 e7be 3261 a03d
00000040: 2852 49bd 6c53 d23e da10 d43c f5e1 bcbd
00000050: 8a5f b63d f248 39be 6005 c8bc 800c 15bc
00000060: 5064 e53e fff8 d13c c216 d63e 304d bfbe
00000070: 4148 90bd 74d8 a5be 00b1 5b3c 7879 e5bd
00000080: 9881 fabe 78da a3bd 5aef b2be a683 b73e
00000090: 5305 d2be e563 a73e 6010 68be 901d 17bd
000000a0: 4dff 5ebd cb7c cd3d 908c 49be 10d3 563d
000000b0: e8f0 c93e f492 6ebe 0669 993e 5c2f cebe
000000c0: 602c c0bd 9ac0 a63e 90c8 233d 0cb1 4bbe
000000d0: 2b71 40be 309a 7e3d a2b6 b93e 5fac 87be
000000e0: 85e0 9abc 33ba 74bc 48c3 d6bd f8a4 b63d
000000f0: 4886 89bd 613b 74be 481d d23e b8b0 5fbe
00000100: 4b2a 103e e0e8 c33c 00e0 9c3b 7c7c 98be
00000110: ffad c73d 318a 163e 1d28 44be 95fe babe
00000120: bec0 9d3e 4814 5bbe f668 ebbe cd6f bb3e
00000130: 700a 00bd 2f09 cbbe af8e 783e 4056 86bc
00000140: 38be c23e 405f 65bc 0e86 82be f4fe 39be
00000150: 4dea 933d e4a2 523e 8b8f 84be cfc4 d6bd
00000160: e17c d8bc 8edf f3be 6c0d 19bd cc25 493e
00000170: f8ad febd c826 ddbd 5e7b cebe 50b9 f83e
00000180: a4f5 dfbe 5430 20bd e45f af3e a035 c33e
00000190: 32fa 4b3d f0bb ddbd 87f6 ad3e d90a cb3e
000001a0: 26ad f6be d0d3 8e3e 70e5 733d f4c0 16be
000001b0: 6d14 373e 5957 66be c01b ec3d 1097 443e
000001c0: 346d ab3e 6eef dbbe cb10 b23e 9430 d9be
000001d0: 1ba2 d73d e01f 4dbe 56b9 b43e 9096 7fbe
000001e0: 2062 46bd 5b75 e9be d4b1 08bd a0ff 983c
000001f0: 6a24 603e 845d a7be 3a21 c43e bb30 c83e
-0.46771067 0.291515 0.34262705 -0.114753306 0.44640312 0.30821687 -0.38361442 -0.11481142
0.13496155 -0.039228823 -0.20589203 -0.20404284 -0.35605705 0.0849736 -0.45194924 0.078310385
-0.049150616 0.4107927 0.025886942 -0.092227854 0.089049414 -0.18094233 -0.024416625 -0.0090972185
0.44803095 0.025631426 0.41814238 -0.37363577 -0.07045031 -0.32391703 0.013408899 -0.11204809
-0.48926997 -0.08000654 -0.34948236 0.35842627 -0.41019687 0.326934 -0.22662497 -0.036893427
-0.054442693 0.10033568 -0.19682527 0.05244738 0.3944161 -0.23298246 0.2996294 -0.40270507
-0.09383464 0.32568818 0.039986193 -0.19891757 -0.1879317 0.062158763 0.3627215 -0.26498696
-0.018905887 -0.0149369715 -0.10486466 0.08918184 -0.06715065 -0.23850776 0.41037965 -0.21844757
0.14078633 0.023914754 0.004787445 -0.29782474 0.09749984 0.14701153 -0.19155927 -0.36522356
0.30811113 -0.21394455 -0.45978516 0.36608735 -0.031259954 -0.39655444 0.2427318 -0.01639855
0.3803575 -0.01399976 -0.254929 -0.18163663 0.07222424 0.2056995 -0.25890765 -0.10486757
-0.026426734 -0.47631496 -0.037366316 0.19643325 -0.12435526 -0.107984126 -0.40328497 0.48578882
-0.43742096 -0.03910859 0.34252846 0.3812685 0.04979915 -0.10826862 0.33977148 0.39656714
-0.48178977 0.27895975 0.05954498 -0.14722043 0.17878886 -0.22494258 0.115287304 0.19198251
0.33481753 -0.42956108 0.34778437 -0.42419875 0.10528966 -0.2003169 0.3529765 -0.24959779
-0.048433423 -0.45597348 -0.033372715 0.018676579 0.21888891 -0.32688534 0.383066 0.39099678

net.2.weight f4 [128]
00000000: 0000 803f 0000 803f 0000 803f 0000 803f
00000010: ec22 803f 0000 803f 0000 803f 0000 803f
00000020: 0000 803f bd8a 7f3f 0000 803f cf23 803f
00000030: 920f 803f 557e 7f3f 0000 803f 689f 7c3f
00000040: 9c26 803f 0000 803f 6d13 803f cf25 803f
00000050: 5d27 803f 8762 7f3f 0000 803f 0000 803f
00000060: 0000 803f 9fb2 7f3f 171a 803f 0000 803f
00000070: 5158 7f3f 2720 803f 0000 803f 0000 803f
00000080: 0000 803f 0000 803f 0000 803f e306 803f
00000090: 326c 7f3f e797 7c3f 0000 803f 0000 803f
000000a0: a5ed 7f3f ada1 7f3f 0000 803f 0000 803f
000000b0: 0000 803f 0000 803f 8986 7f3f 0000 803f
000000c0: 0000 803f c284 7f3f 0000 803f 0000 803f
000000d0: 666d 7f3f 4160 7f3f 0000 803f a664 7f3f
000000e0: db7c 7f3f c4fb 7c3f 0000 803f 0000 803f
000000f0: 0000 803f 391d 803f e8aa 7f3f 0000 803f
00000100: 2bce 7c3f 0000 803f 0000 803f 0000 803f
00000110: 8a65 7f3f daea 7f3f 5b42 803f 8785 7e3f
00000120: 0000 803f 0000 803f ac29 803f db96 7f3f
00000130: 0000 803f 6710 803f b120 803f 0000 803f
00000140: b946 7f3f 0000 803f 0000 803f 0000 803f
00000150: fa20 803f 0000 803f d890 7f3f dacc 7b3f
00000160: 761f 803f 0000 803f 1890 7f3f 3660 7f3f
00000170: 0000 803f 0000 803f 0000 803f 0000 803f
00000180: 0000 803f 4c28 803f 0000 803f 0000 803f
00000190: b958 7e3f bc33 7f3f c38f 7f3f 1712 803f
000001a0: 0000 803f 0000 803f 9cdb 7e3f 0000 803f
000001b0: ed34 7d3f b670 7f3f 661c 803f 0000 803f
000001c0: cf68 7f3f 0000 803f 8679 7f3f 9219 803f
000001d0: 985d 7f3f 0000 803f 1954 7f3f 0000 803f
000001e0: 0000 803f cf49 7f3f 0483 7f3f 0000 803f
000001f0: 5621 803f 9f74 7f3f 9b2b 803f 644d 7f3f
1.0 1.0 1.0 1.0 1.0010657 1.0 1.0 1.0
1.0 0.9982107 1.0 1.0010928 1.0004752 0.9980214 1.0 0.98680735
1.0011783 1.0 1.0005928 1.0011538 1.0012013 0.99759716 1.0 1.0
1.0 0.9988193 1.0007962 1.0 0.99744135 1.0009812 1.0 1.0
1.0 1.0 1.0 1.0002102 0.9977447 0.98669285 1.0 1.0
0.9997199 0.9985607 1.0 1.0 1.0 1.0 0.9981466 1.0
1.0 0.9981195 1.0 1.0 0.99776304 0.99756247 1.0 0.9976295
0.9979989 0.98821664 1.0 1.0 1.0 1.0008918 0.9987016 1.0
0.9875209 1.0 1.0 1.0 0.9976431 0.9996773 1.002025 0.99422497
1.0 1.0 1.0012717 0.9983956 1.0 1.0005006 1.0009977 1.0
0.9971729 1.0 1.0 1.0 1.0010064 1.0 0.9983039 0.98359454
1.0009601 1.0 0.99829245 0.9975618 1.0 1.0 1.0 1.0
1.0 1.0012298 1.0 1.0 0.9935413 0.99688315 0.9982874 1.000552
1.0 1.0 0.9955385 1.0 0.98908883 0.9978136 1.0008667 1.0
0.997693 1.0 0.99794805 1.0007803 0.9975219 1.0 0.997377 1.0
1.0 0.99722 0.9980929 1.0 1.0010173 0.99787325 1.0013307 0.99727464

net.2.bias f4 [128]
00000000: 22a9 1eb9 dd53 3b39 cc07 a939 fe9f 01ba
00000010: 3bf4 603a dfa3 0dba da31 cb39 8754 17ba
00000020: 12d3 8ab9 4295 37ba 9653 26ba b086 593a
00000030: b0ba 5a3a 818e 2dba f660 15ba e2c5 b73b
00000040: 3488 5d3a 3c17 0dba 208a 763a daee 5f3a
00000050: eca3 5d3a ca22 0fba d478 c539 f627 abb8
00000060: 8e20 f2b9 b1c2 31ba 1836 7c3a 5b17 1cba
00000070: 05f7 2fba 8560 633a e83f 96b9 a694 04ba
00000080: c468 b0b9 0aad edb9 2480 e639 1962 783a
00000090: e152 1eba 0b42 e33a 5385 013a 50ad 70b8
000000a0: 63b6 5b3a 4ae1 34ba c0de fb38 6054 033a
000000b0: 4ba7 5ab9 a94b 3bba a13d de3a 1327 103a
000000c0: 9c76 453a 1641 37ba 4625 cb39 dd71 fb39
000000d0: f148 33ba 596f 1dba 0923 86b9 22ea 2eba
000000e0: e1e4 25ba 44ff 843b 62af 0b3a 1665 dab9
000000f0: 156a 08ba db67 703a 9537 a73a c682 5d39
00000100: 9ac2 3e3b 4693 043a 902c 0ab9 3b19 0dba
00000110: bdca 1bba 658f 923a 4c3d 5a3a 668d d0b9
00000120: af6f 2cb9 3f3c ad39 3ae7 583a da18 37ba
00000130: 60ab a938 a52c 853a 69d3 613a 1c71 ffb9
00000140: 4b24 f3b9 a2cb 7cb9 09af 10ba e931 3c3a
00000150: ce97 583a 105c 3c3a 61d8 36ba 7b15 9b3b
00000160: f359 5c3a 88f4 98b9 143e 38ba 98b4 0bba
00000170: c44f 32b9 6bb1 ceb9 3904 af39 9cc6 afb9
00000180: e033 9bb6 df9d 5b3a 057c 07ba 7cc2 c539
00000190: efba 41ba 6020 783a 2154 36ba 3471 663a
000001a0: b68d 89b9 d7da ea39 1677 77b9 72a5 0e38
000001b0: f418 073b 00bb 31ba a72c 6e3a b24d e4b9
000001c0: 53da 2aba d4fa c1b9 e92d 21ba b6fa 7c3a
000001d0: 7a97 26ba 8a45 27b9 58ca 30ba 7732 163a
000001e0: d480 10ba b768 12ba aa4e 23ba 17cb 01b9
000001f0: 3b1f 623a 517b 37ba 823c 5a3a 37eb 13ba
-0.00015131061 0.00017864951 0.0003224 -0.00049448 0.0008581315 -0.0005403142 0.0003875632 -0.00057727884
-0.0002647867 -0.0007003137 -0.0006344853 0.0008297963 0.00083438586 -0.0006620661 -0.0005698347 0.0056083063
0.0008450777 -0.00053821853 0.00094047375 0.00085423666 0.0008454907 -0.0005460201 0.00037664792 -8.161359e-05
-0.00046182092 -0.00067810254 0.00096210977 -0.0005954408 -0.0006712529 0.00086737453 -0.00028657843 -0.0005057551
-0.00033647392 -0.00045333087 0.0004396449 0.0009475067 -0.00060395716 0.0017338408 0.00049408263 -5.738187e-05
0.0008381365 -0.0006900026 0.00012010103 0.0005009826 -0.00020852422 -0.0007144758 0.0016955623 0.00054989866
0.0007532628 -0.00069905946 0.00038746948 0.00047959285 -0.0006839177 -0.0006005667 -0.00025584575 -0.0006672462
-0.0006328356 0.0040587503 0.0005328563 -0.00041655515 -0.0005203796 0.0009170749 0.0012757654 0.0002112492
0.002910769 0.0005057346 -0.00013177306 -0.0005382483 -0.0005942991 0.0011181651 0.0008325174 -0.00039778202
-0.00016444804 0.00033042018 0.00082742015 -0.0006984599 8.090469e-05 0.00101604 0.00086145714 -0.00048721663
-0.00046375612 -0.00024108452 -0.00055192463 0.0007179068 0.0008262367 0.0007185349 -0.0006974992 0.0047327853
0.00084057375 -0.0002917389 -0.00070282933 -0.000532934 -0.00017005118 -0.00039423569 0.00033381747 -0.00033526577
-4.625399e-06 0.00083777116 -0.00051683217 0.0003771967 -0.0007390221 0.00094652735 -0.0006955285 0.00087906723
-0.0002623626 0.00044795006 -0.00023600119 3.400952e-05 0.0020614238 -0.00067798793 0.0009085633 -0.00043545436
-0.0006517518 -0.0003699871 -0.0006148504 0.0009650396 -0.0006354969 -0.00015952266 -0.0006744019 0.0005729566
-0.0005512361 -0.0005585062 -0.00062296784 -0.00012378056 0.00086258695 -0.00069992716 0.00083250564 -0.0005642655

net.2.running_mean f4 [128]
00000000: 0000 0000 0000 0000 0000 0000 0000 0000
00000010: c86e b249 0000 0000 0000 0000 0000 0000
00000020: 0000 0000 5466 8f49 0000 0000 0e00 de49
00000030: 6569 7548 8078 cd49 0000 0000 d41f a849
00000040: 1063 9249 0000 0000 4623 f649 cc19 f349
00000050: d45b 5f49 7b5b b549 0000 0000 0000 0000
00000060: 0000 0000 3059 cd48 4994 df49 0000 0000
00000070: 2678 9948 fd3b 9248 0000 0000 0000 0000
00000080: 0000 0000 0000 0000 0000 0000 ad08 7149
00000090: 9b8c 5149 3cba ab49 0000 0000 0000 0000
000000a0: eebd 1148 e2cd 4d49 0000 0000 0000 0000
000000b0: 0000 0000 0000 0000 a65d ba49 0000 0000
000000c0: 0000 0000 5791 ee49 0000 0000 0000 0000
000000d0: 0e13 9849 f7d5 f149 0000 0000 f40f 8149
000000e0: 66fe e749 dba4 7d49 0000 0000 0000 0000
000000f0: 0000 0000 adf8 da49 af91 2549 0000 0000
00000100: c0f3 9b49 0000 0000 0000 0000 0000 0000
00000110: f6b2 f949 bba8 fc48 035a 8048 984e 2848
00000120: 0000 0000 0000 0000 ea3b da49 50fe 9649
00000130: 0000 0000 6840 c949 d730 a949 0000 0000
00000140: d3df c249 0000 0000 0000 0000 0000 0000
00000150: cc23 b049 0000 0000 d463 d649 bc58 bc48
00000160: 64b7 3149 0000 0000 5ebe b749 c0a3 b949
00000170: 0000 0000 0000 0000 0000 0000 0000 0000
00000180: 0000 0000 aa8f d949 0000 0000 0000 0000
00000190: eda2 ca47 c822 8547 7d70 e549 be5c 2e49
000001a0: 0000 0000 0000 0000 26e2 ad49 0000 0000
000001b0: 9a3e 2047 3e13 8d49 b55d e449 0000 0000
000001c0: 8478 ec49 0000 0000 3a6a c249 470b a849
000001d0: 84ce 4249 0000 0000 3fd9 0249 0000 0000
000001e0: 0000 0000 9d65 cb49 11d1 0e49 0000 0000
000001f0: 12a2 5749 df81 4b49 9040 9249 c4c9 3b49
0.0 0.0 0.0 0.0 1.461721e+06 0.0 0.0 0.0
0.0 1.1747305e+06 0.0 1.8186258e+06 251301.58 1.683216e+06 0.0 1.3772745e+06
1.199202e+06 0.0 2.0163608e+06 1.9914815e+06 914877.25 1.4856794e+06 0.0 0.0
0.0 420553.5 1.8315611e+06 0.0 314305.2 299487.9 0.0 0.0
0.0 0.0 0.0 987274.8 858313.7 1.4067915e+06 0.0 0.0
149239.72 842974.1 0.0 0.0 0.0 0.0 1.5267088e+06 0.0
0.0 1.9543469e+06 0.0 0.0 1.2457938e+06 1.9811189e+06 0.0 1.0572785e+06
1.9004928e+06 1.0389257e+06 0.0 0.0 0.0 1.7938136e+06 678170.94 0.0
1.27756e+06 0.0 0.0 0.0 2.0455348e+06 517445.84 262864.1 172346.38
0.0 0.0 1.7877732e+06 1.236938e+06 0.0 1.648653e+06 1.3860109e+06 0.0
1.5964104e+06 0.0 0.0 0.0 1.4429375e+06 0.0 1.7562825e+06 385733.88
727926.25 0.0 1.5052278e+06 1.52076e+06 0.0 0.0 0.0 0.0
0.0 1.7822612e+06 0.0 0.0 103749.85 68165.56 1.8795676e+06 714187.9
0.0 0.0 1.4244528e+06 0.0 41022.6 1.1556878e+06 1.8707746e+06 0.0
1.9371685e+06 0.0 1.5926472e+06 1.3766169e+06 797928.25 0.0 535955.94 0.0
0.0 1.6662276e+06 584977.06 0.0 883233.1 833565.94 1.198098e+06 769180.25

net.2.running_var f4 [128]
00000000: 5f2e 6e3d 5f2e 6e3d 5f2e 6e3d 5f2e 6e3d
00000010: 8e01 8954 5f2e 6e3d 5f2e 6e3d 5f2e 6e3d
00000020: 5f2e 6e3d ccc2 3054 5f2e 6e3d bfad d354
00000030: a7ba 0052 a554 b554 5f2e 6e3d e418 7354
00000040: b30a 3854 5f2e 6e3d 392a 0255 ecab fd54
00000050: 58e6 d653 a28a 8d54 5f2e 6e3d 5f2e 6e3d
00000060: 5f2e 6e3d 1632 b752 8d96 d654 5f2e 6e3d
00000070: f958 4852 43be 3852 5f2e 6e3d 5f2e 6e3d
00000080: 5f2e 6e3d 5f2e 6e3d 5f2e 6e3d ad8a fa53
00000090: 14f5 bc53 1085 7d54 5f2e 6e3d 5f2e 6e3d
000000a0: 3eab 3851 8c31 b653 5f2e 6e3d 5f2e 6e3d
000000b0: 5f2e 6e3d 5f2e 6e3d 6519 9554 5f2e 6e3d
000000c0: 5f2e 6e3d 7ed7 f354 5f2e 6e3d 5f2e 6e3d
000000d0: ccb5 4554 5eaa fa54 5f2e 6e3d 3020 0e54
000000e0: a7aa e754 ddd6 0a54 5f2e 6e3d 5f2e 6e3d
000000f0: 5f2e 6e3d ccea cd54 374a 6c53 5f2e 6e3d
00000100: a720 5154 5f2e 6e3d 5f2e 6e3d 5f2e 6e3d
00000110: c5ed 0555 a369 0953 234a 0e52 e7f0 6f51
00000120: 5f2e 6e3d 5f2e 6e3d 93b3 cc54 186f 4454
00000130: 5f2e 6e3d 9113 ae54 86c1 7554 5f2e 6e3d
00000140: 7b9b a354 5f2e 6e3d 5f2e 6e3d 5f2e 6e3d
00000150: 4769 8554 5f2e 6e3d c898 c554 01d8 9752
00000160: 7690 8753 5f2e 6e3d af22 9154 b86f 9454
00000170: 5f2e 6e3d 5f2e 6e3d 5f2e 6e3d 5f2e 6e3d
00000180: 5f2e 6e3d 4e2d cb54 5f2e 6e3d 5f2e 6e3d
00000190: caff a650 bf51 1b50 2f47 e254 7bd1 8253
000001a0: 5f2e 6e3d 5f2e 6e3d 5a31 8254 5f2e 6e3d
000001b0: ccfd 714f 6388 2a54 e835 e054 5f2e 6e3d
000001c0: 8262 ef54 5f2e 6e3d 81a6 a254 cc5c 7254
000001d0: 81dc a153 5f2e 6e3d 5832 1153 5f2e 6e3d
000001e0: 5f2e 6e3d 9a0d b154 c1a6 2f53 5f2e 6e3d
000001f0: a681 c853 bb69 b053 125e 3754 43f9 9653
0.05814969 0.05814969 0.05814969 0.05814969 4.707493e+12 0.05814969 0.05814969 0.05814969
0.05814969 3.0367296e+12 0.05814969 7.2732246e+12 1.3822183e+11 6.2304734e+12 0.05814969 4.1763786e+12
3.161814e+12 0.05814969 8.944866e+12 8.716089e+12 1.845975e+12 4.86333e+12 0.05814969 0.05814969
0.05814969 3.9340966e+11 7.3731906e+12 0.05814969 2.1512154e+11 1.9836651e+11 0.05814969 0.05814969
0.05814969 0.05814969 0.05814969 2.1521368e+12 1.6231312e+12 4.3554366e+12 0.05814969 0.05814969
4.9571684e+10 1.5650306e+12 0.05814969 0.05814969 0.05814969 0.05814969 5.1230094e+12 0.05814969
0.05814969 8.3783393e+12 0.05814969 0.05814969 3.3966344e+12 8.612801e+12 0.05814969 2.4417015e+12
7.960004e+12 2.3852412e+12 0.05814969 0.05814969 0.05814969 7.0752603e+12 1.0148574e+12 0.05814969
3.592784e+12 0.05814969 0.05814969 0.05814969 9.203516e+12 5.901828e+11 1.5278229e+11 6.440868e+10
0.05814969 0.05814969 7.0334887e+12 3.3747097e+12 0.05814969 5.9812206e+12 4.222055e+12 0.05814969
5.6215056e+12 0.05814969 0.05814969 0.05814969 4.5839753e+12 0.05814969 6.7893744e+12 3.26082e+11
1.1644885e+12 0.05814969 4.986817e+12 5.100236e+12 0.05814969 0.05814969 0.05814969 0.05814969
0.05814969 6.9811076e+12 0.05814969 0.05814969 2.241425e+10 1.0423303e+10 7.774855e+12 1.1237205e+12
0.05814969 0.05814969 4.47339e+12 0.05814969 4.059942e+09 2.9297305e+12 7.7038166e+12 0.05814969
8.225199e+12 0.05814969 5.5886254e+12 4.1637558e+12 1.3903784e+12 0.05814969 6.236149e+11 0.05814969
0.05814969 6.083499e+12 7.5441694e+11 0.05814969 1.7223372e+12 1.5153762e+12 3.150229e+12 1.296854e+12

net.3.weight f4 [1, 128]
00000000: 29a7 113c ad8d 08bc cbbc ec3c 7ea7 5abd
00000010: bf5b 743d d5c6 87bd ce8a 113d 2df5 273b
00000020: 0379 c8bc a531 a6bd ff83 fd3a 03c9 a33d
00000030: fb50 8b3d 5e23 3fbd a97e 9fbd e249 bc3b
00000040: 2530 8a3d 8754 86bd e694 0d3d 34fe 7a3d
00000050: aa11 8b3d db5c 97bc 735a 0c3d 3759 2b3c
00000060: e7ce 3ebd a4a6 88bd 1f66 023d 5bc2 1a3b
00000070: 24f6 37bd 3760 643d 85de d13b 73e9 65bd
00000080: 1a72 b83b da88 38bd f51c 2f3d 2bcf 083d
00000090: 06da e3bc 1a1d 103b b745 5a3d 8440 353c
000000a0: 2015 853d 3af9 91bd 28c0 0d39 aa06 613d
000000b0: 7545 acbc 69bb 883a b805 3f3c c9c0 8e3d
000000c0: ba87 5c39 8a43 9abd d47e 113d 797e 72bb
000000d0: a9bc 6abd 1de1 cabc 729d 9f39 7ff8 38bd
000000e0: a7f7 0fbd 6fb8 ab3a 82c0 823d 1ee8 20bd
000000f0: 1114 76bd 9d93 203d 93ed 7c3c 05a7 fcbb
00000100: 2124 fa3a 05e4 653d 5579 183c 2c5a 86bd
00000110: 3600 cbbc 4548 a33c f9e8 a03d cf8a 8dba
00000120: b1d6 99bc d48b f23c ad04 ac3d c10e a4bd
00000130: 6fab 7a3c 453f d93c e8df 663d 57e3 53bd
00000140: 992e 3ebc 7d02 eb3b 304f 90bd 3664 bb39
00000150: be8c ac3d e08c ba39 c0cd 9dbd bf77 b73b
00000160: df57 8c3d 0ac4 afb9 5b7a adbd 2aad 8cbc
00000170: 6408 9cbc 3f43 d2b9 a912 f53c 6a09 b93b
00000180: b259 51bc dcb5 953d e8fa 71bd 3923 a5bb
00000190: ef8b ebbb ec85 bc3c 5354 98bd db5b 473d
000001a0: a420 c7bc d0d7 ac39 2ca6 58bb 8859 3fbc
000001b0: 1987 693b 2ec9 5bbd a704 293d f96f 8b3b
000001c0: 71e0 1fbd 0d54 09bd e985 f7bc 82c1 003d
000001d0: cea6 02bd a8f1 97bc 57b7 3fbd 0d70 a23d
000001e0: fcc6 8fbd 539e 90bc 7eed 0bbd a216 0db9
000001f0: c3ca 6c3d 8f65 95bd 27d9 9e3d 21f5 96bc
0.008889952 -0.008334559 0.028898617 -0.05338239 0.05965781 -0.06629721 0.035532765 0.0025628314
-0.024471765 -0.08114938 0.0019341706 0.07997324 0.06802555 -0.04666459 -0.077878304 0.005746112
0.06747464 -0.06559091 0.03456583 0.061277583 0.067904785 -0.018476894 0.034265947 0.010458282
-0.046584036 -0.06672409 0.03183567 0.002361438 -0.044912472 0.05575582 0.0064047 -0.056130838
0.0056288363 -0.045052387 0.042752225 0.033400696 -0.027813923 0.0021990002 0.05328914 0.011062745
0.0649817 -0.07127614 0.00013518392 0.054937996 -0.021029213 0.0010431829 0.011659078 0.069703646
0.00021031397 -0.07532413 0.035521343 -0.0037001653 -0.057308827 -0.024765546 0.0003044415 -0.04515886
-0.03514829 0.001310123 0.06384374 -0.039283864 -0.06007773 0.039203275 0.0154375015 -0.00771034
0.0019084254 0.05612566 0.009306272 -0.06560168 -0.024780374 0.019931922 0.07856936 -0.0010798814
-0.01877913 0.02960769 0.08399329 -0.080106266 0.015299662 0.026519427 0.056365877 -0.05173048
-0.011607789 0.0071719275 -0.07046354 0.00035742082 0.08425282 0.00035581645 -0.07705259 0.0055989916
0.068526976 -0.00033524662 -0.08470603 -0.017172415 -0.01904697 -0.00040104424 0.029916124 0.005646874
-0.012777733 0.073100775 -0.059077173 -0.0050395993 -0.0071883122 0.023013078 -0.074379586 0.048671585
-0.024307556 0.0003296719 -0.003305803 -0.011679061 0.0035633503 -0.053658657 0.041264202 0.0042552915
-0.039032403 -0.033527423 -0.03021522 0.031434543 -0.03189736 -0.018547848 -0.046805706 0.07931528
-0.07020375 -0.01765362 -0.034162037 -0.00013455239 0.057810556 -0.072947614 0.07756262 -0.018427433
